{"format": "graph-model", "generatedBy": "2.14.0", "convertedBy": "TensorFlow.js Converter v4.2.0", "signature": {"inputs": {"input": {"name": "input:0", "dtype": "DT_FLOAT", "tensorShape": {"dim": [{"size": "-1"}, {"size": "256"}, {"size": "384"}, {"size": "1"}]}}}, "outputs": {"predictions": {"name": "Identity:0", "dtype": "DT_FLOAT", "tensorShape": {"dim": [{"size": "-1"}, {"size": "392"}]}}}}, "modelTopology": {"node": [{"name": "StatefulPartitionedCall/model/block6h_se_squeeze/Mean/reduction_indices", "op": "Const", "attr": {"dtype": {"type": "DT_INT32"}, "value": {"tensor": {"dtype": "DT_INT32", "tensorShape": {"dim": [{"size": "2"}]}}}}}, {"name": "StatefulPartitionedCall/model/block6h_se_reshape/strided_slice/stack", "op": "Const", "attr": {"dtype": {"type": "DT_INT32"}, "value": {"tensor": {"dtype": "DT_INT32", "tensorShape": {"dim": [{"size": "1"}]}}}}}, {"name": "StatefulPartitionedCall/model/block6h_se_reshape/strided_slice/stack_1", "op": "Const", "attr": {"value": {"tensor": {"dtype": "DT_INT32", "tensorShape": {"dim": [{"size": "1"}]}}}, "dtype": {"type": "DT_INT32"}}}, {"name": "StatefulPartitionedCall/model/block6h_se_reshape/strided_slice/stack_2", "op": "Const", "attr": {"dtype": {"type": "DT_INT32"}, "value": {"tensor": {"dtype": "DT_INT32", "tensorShape": {"dim": [{"size": "1"}]}}}}}, {"name": "StatefulPartitionedCall/model/block6h_se_reshape/Reshape/shape/1", "op": "Const", "attr": {"value": {"tensor": {"dtype": "DT_INT32", "tensorShape": {}}}, "dtype": {"type": "DT_INT32"}}}, {"name": "StatefulPartitionedCall/model/block6h_se_reshape/Reshape/shape/2", "op": "Const", "attr": {"value": {"tensor": {"dtype": "DT_INT32", "tensorShape": {}}}, "dtype": {"type": "DT_INT32"}}}, {"name": "StatefulPartitionedCall/model/block6h_se_reshape/Reshape/shape/3", "op": "Const", "attr": {"value": {"tensor": {"dtype": "DT_INT32", "tensorShape": {}}}, "dtype": {"type": "DT_INT32"}}}, {"name": "StatefulPartitionedCall/model/block6h_se_reduce/Conv2D/Cast", "op": "Const", "attr": {"dtype": {"type": "DT_HALF"}, "value": {"tensor": {"dtype": "DT_HALF", "tensorShape": {"dim": [{"size": "1"}, {"size": "1"}, {"size": "1152"}, {"size": "48"}]}}}}}, {"name": "StatefulPartitionedCall/model/block6h_se_reduce/BiasAdd/Cast", "op": "Const", "attr": {"value": {"tensor": {"dtype": "DT_HALF", "tensorShape": {"dim": [{"size": "48"}]}}}, "dtype": {"type": "DT_HALF"}}}, {"name": "StatefulPartitionedCall/model/block6h_se_expand/Conv2D/Cast", "op": "Const", "attr": {"value": {"tensor": {"dtype": "DT_HALF", "tensorShape": {"dim": [{"size": "1"}, {"size": "1"}, {"size": "48"}, {"size": "1152"}]}}}, "dtype": {"type": "DT_HALF"}}}, {"name": "StatefulPartitionedCall/model/block6h_se_expand/BiasAdd/Cast", "op": "Const", "attr": {"value": {"tensor": {"dtype": "DT_HALF", "tensorShape": {"dim": [{"size": "1152"}]}}}, "dtype": {"type": "DT_HALF"}}}, {"name": "StatefulPartitionedCall/model/block6g_se_squeeze/Mean/reduction_indices", "op": "Const", "attr": {"dtype": {"type": "DT_INT32"}, "value": {"tensor": {"dtype": "DT_INT32", "tensorShape": {"dim": [{"size": "2"}]}}}}}, {"name": "StatefulPartitionedCall/model/block6g_se_reshape/strided_slice/stack", "op": "Const", "attr": {"value": {"tensor": {"dtype": "DT_INT32", "tensorShape": {"dim": [{"size": "1"}]}}}, "dtype": {"type": "DT_INT32"}}}, {"name": "StatefulPartitionedCall/model/block6g_se_reshape/strided_slice/stack_1", "op": "Const", "attr": {"value": {"tensor": {"dtype": "DT_INT32", "tensorShape": {"dim": [{"size": "1"}]}}}, "dtype": {"type": "DT_INT32"}}}, {"name": "StatefulPartitionedCall/model/block6g_se_reshape/strided_slice/stack_2", "op": "Const", "attr": {"dtype": {"type": "DT_INT32"}, "value": {"tensor": {"dtype": "DT_INT32", "tensorShape": {"dim": [{"size": "1"}]}}}}}, {"name": "StatefulPartitionedCall/model/block6g_se_reshape/Reshape/shape/1", "op": "Const", "attr": {"dtype": {"type": "DT_INT32"}, "value": {"tensor": {"dtype": "DT_INT32", "tensorShape": {}}}}}, {"name": "StatefulPartitionedCall/model/block6g_se_reshape/Reshape/shape/2", "op": "Const", "attr": {"value": {"tensor": {"dtype": "DT_INT32", "tensorShape": {}}}, "dtype": {"type": "DT_INT32"}}}, {"name": "StatefulPartitionedCall/model/block6g_se_reshape/Reshape/shape/3", "op": "Const", "attr": {"dtype": {"type": "DT_INT32"}, "value": {"tensor": {"dtype": "DT_INT32", "tensorShape": {}}}}}, {"name": "StatefulPartitionedCall/model/block6g_se_reduce/Conv2D/Cast", "op": "Const", "attr": {"value": {"tensor": {"dtype": "DT_HALF", "tensorShape": {"dim": [{"size": "1"}, {"size": "1"}, {"size": "1152"}, {"size": "48"}]}}}, "dtype": {"type": "DT_HALF"}}}, {"name": "StatefulPartitionedCall/model/block6g_se_reduce/BiasAdd/Cast", "op": "Const", "attr": {"dtype": {"type": "DT_HALF"}, "value": {"tensor": {"dtype": "DT_HALF", "tensorShape": {"dim": [{"size": "48"}]}}}}}, {"name": "StatefulPartitionedCall/model/block6g_se_expand/Conv2D/Cast", "op": "Const", "attr": {"value": {"tensor": {"dtype": "DT_HALF", "tensorShape": {"dim": [{"size": "1"}, {"size": "1"}, {"size": "48"}, {"size": "1152"}]}}}, "dtype": {"type": "DT_HALF"}}}, {"name": "StatefulPartitionedCall/model/block6g_se_expand/BiasAdd/Cast", "op": "Const", "attr": {"value": {"tensor": {"dtype": "DT_HALF", "tensorShape": {"dim": [{"size": "1152"}]}}}, "dtype": {"type": "DT_HALF"}}}, {"name": "StatefulPartitionedCall/model/block6f_se_squeeze/Mean/reduction_indices", "op": "Const", "attr": {"dtype": {"type": "DT_INT32"}, "value": {"tensor": {"dtype": "DT_INT32", "tensorShape": {"dim": [{"size": "2"}]}}}}}, {"name": "StatefulPartitionedCall/model/block6f_se_reshape/strided_slice/stack", "op": "Const", "attr": {"value": {"tensor": {"dtype": "DT_INT32", "tensorShape": {"dim": [{"size": "1"}]}}}, "dtype": {"type": "DT_INT32"}}}, {"name": "StatefulPartitionedCall/model/block6f_se_reshape/strided_slice/stack_1", "op": "Const", "attr": {"value": {"tensor": {"dtype": "DT_INT32", "tensorShape": {"dim": [{"size": "1"}]}}}, "dtype": {"type": "DT_INT32"}}}, {"name": "StatefulPartitionedCall/model/block6f_se_reshape/strided_slice/stack_2", "op": "Const", "attr": {"dtype": {"type": "DT_INT32"}, "value": {"tensor": {"dtype": "DT_INT32", "tensorShape": {"dim": [{"size": "1"}]}}}}}, {"name": "StatefulPartitionedCall/model/block6f_se_reshape/Reshape/shape/1", "op": "Const", "attr": {"value": {"tensor": {"dtype": "DT_INT32", "tensorShape": {}}}, "dtype": {"type": "DT_INT32"}}}, {"name": "StatefulPartitionedCall/model/block6f_se_reshape/Reshape/shape/2", "op": "Const", "attr": {"value": {"tensor": {"dtype": "DT_INT32", "tensorShape": {}}}, "dtype": {"type": "DT_INT32"}}}, {"name": "StatefulPartitionedCall/model/block6f_se_reshape/Reshape/shape/3", "op": "Const", "attr": {"dtype": {"type": "DT_INT32"}, "value": {"tensor": {"dtype": "DT_INT32", "tensorShape": {}}}}}, {"name": "StatefulPartitionedCall/model/block6f_se_reduce/Conv2D/Cast", "op": "Const", "attr": {"dtype": {"type": "DT_HALF"}, "value": {"tensor": {"dtype": "DT_HALF", "tensorShape": {"dim": [{"size": "1"}, {"size": "1"}, {"size": "1152"}, {"size": "48"}]}}}}}, {"name": "StatefulPartitionedCall/model/block6f_se_reduce/BiasAdd/Cast", "op": "Const", "attr": {"dtype": {"type": "DT_HALF"}, "value": {"tensor": {"dtype": "DT_HALF", "tensorShape": {"dim": [{"size": "48"}]}}}}}, {"name": "StatefulPartitionedCall/model/block6f_se_expand/Conv2D/Cast", "op": "Const", "attr": {"dtype": {"type": "DT_HALF"}, "value": {"tensor": {"dtype": "DT_HALF", "tensorShape": {"dim": [{"size": "1"}, {"size": "1"}, {"size": "48"}, {"size": "1152"}]}}}}}, {"name": "StatefulPartitionedCall/model/block6f_se_expand/BiasAdd/Cast", "op": "Const", "attr": {"dtype": {"type": "DT_HALF"}, "value": {"tensor": {"dtype": "DT_HALF", "tensorShape": {"dim": [{"size": "1152"}]}}}}}, {"name": "StatefulPartitionedCall/model/block6e_se_squeeze/Mean/reduction_indices", "op": "Const", "attr": {"value": {"tensor": {"dtype": "DT_INT32", "tensorShape": {"dim": [{"size": "2"}]}}}, "dtype": {"type": "DT_INT32"}}}, {"name": "StatefulPartitionedCall/model/block6e_se_reshape/strided_slice/stack", "op": "Const", "attr": {"dtype": {"type": "DT_INT32"}, "value": {"tensor": {"dtype": "DT_INT32", "tensorShape": {"dim": [{"size": "1"}]}}}}}, {"name": "StatefulPartitionedCall/model/block6e_se_reshape/strided_slice/stack_1", "op": "Const", "attr": {"value": {"tensor": {"dtype": "DT_INT32", "tensorShape": {"dim": [{"size": "1"}]}}}, "dtype": {"type": "DT_INT32"}}}, {"name": "StatefulPartitionedCall/model/block6e_se_reshape/strided_slice/stack_2", "op": "Const", "attr": {"dtype": {"type": "DT_INT32"}, "value": {"tensor": {"dtype": "DT_INT32", "tensorShape": {"dim": [{"size": "1"}]}}}}}, {"name": "StatefulPartitionedCall/model/block6e_se_reshape/Reshape/shape/1", "op": "Const", "attr": {"dtype": {"type": "DT_INT32"}, "value": {"tensor": {"dtype": "DT_INT32", "tensorShape": {}}}}}, {"name": "StatefulPartitionedCall/model/block6e_se_reshape/Reshape/shape/2", "op": "Const", "attr": {"value": {"tensor": {"dtype": "DT_INT32", "tensorShape": {}}}, "dtype": {"type": "DT_INT32"}}}, {"name": "StatefulPartitionedCall/model/block6e_se_reshape/Reshape/shape/3", "op": "Const", "attr": {"dtype": {"type": "DT_INT32"}, "value": {"tensor": {"dtype": "DT_INT32", "tensorShape": {}}}}}, {"name": "StatefulPartitionedCall/model/block6e_se_reduce/Conv2D/Cast", "op": "Const", "attr": {"value": {"tensor": {"dtype": "DT_HALF", "tensorShape": {"dim": [{"size": "1"}, {"size": "1"}, {"size": "1152"}, {"size": "48"}]}}}, "dtype": {"type": "DT_HALF"}}}, {"name": "StatefulPartitionedCall/model/block6e_se_reduce/BiasAdd/Cast", "op": "Const", "attr": {"value": {"tensor": {"dtype": "DT_HALF", "tensorShape": {"dim": [{"size": "48"}]}}}, "dtype": {"type": "DT_HALF"}}}, {"name": "StatefulPartitionedCall/model/block6e_se_expand/Conv2D/Cast", "op": "Const", "attr": {"dtype": {"type": "DT_HALF"}, "value": {"tensor": {"dtype": "DT_HALF", "tensorShape": {"dim": [{"size": "1"}, {"size": "1"}, {"size": "48"}, {"size": "1152"}]}}}}}, {"name": "StatefulPartitionedCall/model/block6e_se_expand/BiasAdd/Cast", "op": "Const", "attr": {"value": {"tensor": {"dtype": "DT_HALF", "tensorShape": {"dim": [{"size": "1152"}]}}}, "dtype": {"type": "DT_HALF"}}}, {"name": "StatefulPartitionedCall/model/block6d_se_squeeze/Mean/reduction_indices", "op": "Const", "attr": {"dtype": {"type": "DT_INT32"}, "value": {"tensor": {"dtype": "DT_INT32", "tensorShape": {"dim": [{"size": "2"}]}}}}}, {"name": "StatefulPartitionedCall/model/block6d_se_reshape/strided_slice/stack", "op": "Const", "attr": {"dtype": {"type": "DT_INT32"}, "value": {"tensor": {"dtype": "DT_INT32", "tensorShape": {"dim": [{"size": "1"}]}}}}}, {"name": "StatefulPartitionedCall/model/block6d_se_reshape/strided_slice/stack_1", "op": "Const", "attr": {"dtype": {"type": "DT_INT32"}, "value": {"tensor": {"dtype": "DT_INT32", "tensorShape": {"dim": [{"size": "1"}]}}}}}, {"name": "StatefulPartitionedCall/model/block6d_se_reshape/strided_slice/stack_2", "op": "Const", "attr": {"dtype": {"type": "DT_INT32"}, "value": {"tensor": {"dtype": "DT_INT32", "tensorShape": {"dim": [{"size": "1"}]}}}}}, {"name": "StatefulPartitionedCall/model/block6d_se_reshape/Reshape/shape/1", "op": "Const", "attr": {"dtype": {"type": "DT_INT32"}, "value": {"tensor": {"dtype": "DT_INT32", "tensorShape": {}}}}}, {"name": "StatefulPartitionedCall/model/block6d_se_reshape/Reshape/shape/2", "op": "Const", "attr": {"value": {"tensor": {"dtype": "DT_INT32", "tensorShape": {}}}, "dtype": {"type": "DT_INT32"}}}, {"name": "StatefulPartitionedCall/model/block6d_se_reshape/Reshape/shape/3", "op": "Const", "attr": {"dtype": {"type": "DT_INT32"}, "value": {"tensor": {"dtype": "DT_INT32", "tensorShape": {}}}}}, {"name": "StatefulPartitionedCall/model/block6d_se_reduce/Conv2D/Cast", "op": "Const", "attr": {"value": {"tensor": {"dtype": "DT_HALF", "tensorShape": {"dim": [{"size": "1"}, {"size": "1"}, {"size": "1152"}, {"size": "48"}]}}}, "dtype": {"type": "DT_HALF"}}}, {"name": "StatefulPartitionedCall/model/block6d_se_reduce/BiasAdd/Cast", "op": "Const", "attr": {"dtype": {"type": "DT_HALF"}, "value": {"tensor": {"dtype": "DT_HALF", "tensorShape": {"dim": [{"size": "48"}]}}}}}, {"name": "StatefulPartitionedCall/model/block6d_se_expand/Conv2D/Cast", "op": "Const", "attr": {"value": {"tensor": {"dtype": "DT_HALF", "tensorShape": {"dim": [{"size": "1"}, {"size": "1"}, {"size": "48"}, {"size": "1152"}]}}}, "dtype": {"type": "DT_HALF"}}}, {"name": "StatefulPartitionedCall/model/block6d_se_expand/BiasAdd/Cast", "op": "Const", "attr": {"dtype": {"type": "DT_HALF"}, "value": {"tensor": {"dtype": "DT_HALF", "tensorShape": {"dim": [{"size": "1152"}]}}}}}, {"name": "StatefulPartitionedCall/model/block6c_se_squeeze/Mean/reduction_indices", "op": "Const", "attr": {"value": {"tensor": {"dtype": "DT_INT32", "tensorShape": {"dim": [{"size": "2"}]}}}, "dtype": {"type": "DT_INT32"}}}, {"name": "StatefulPartitionedCall/model/block6c_se_reshape/strided_slice/stack", "op": "Const", "attr": {"dtype": {"type": "DT_INT32"}, "value": {"tensor": {"dtype": "DT_INT32", "tensorShape": {"dim": [{"size": "1"}]}}}}}, {"name": "StatefulPartitionedCall/model/block6c_se_reshape/strided_slice/stack_1", "op": "Const", "attr": {"dtype": {"type": "DT_INT32"}, "value": {"tensor": {"dtype": "DT_INT32", "tensorShape": {"dim": [{"size": "1"}]}}}}}, {"name": "StatefulPartitionedCall/model/block6c_se_reshape/strided_slice/stack_2", "op": "Const", "attr": {"value": {"tensor": {"dtype": "DT_INT32", "tensorShape": {"dim": [{"size": "1"}]}}}, "dtype": {"type": "DT_INT32"}}}, {"name": "StatefulPartitionedCall/model/block6c_se_reshape/Reshape/shape/1", "op": "Const", "attr": {"dtype": {"type": "DT_INT32"}, "value": {"tensor": {"dtype": "DT_INT32", "tensorShape": {}}}}}, {"name": "StatefulPartitionedCall/model/block6c_se_reshape/Reshape/shape/2", "op": "Const", "attr": {"dtype": {"type": "DT_INT32"}, "value": {"tensor": {"dtype": "DT_INT32", "tensorShape": {}}}}}, {"name": "StatefulPartitionedCall/model/block6c_se_reshape/Reshape/shape/3", "op": "Const", "attr": {"dtype": {"type": "DT_INT32"}, "value": {"tensor": {"dtype": "DT_INT32", "tensorShape": {}}}}}, {"name": "StatefulPartitionedCall/model/block6c_se_reduce/Conv2D/Cast", "op": "Const", "attr": {"dtype": {"type": "DT_HALF"}, "value": {"tensor": {"dtype": "DT_HALF", "tensorShape": {"dim": [{"size": "1"}, {"size": "1"}, {"size": "1152"}, {"size": "48"}]}}}}}, {"name": "StatefulPartitionedCall/model/block6c_se_reduce/BiasAdd/Cast", "op": "Const", "attr": {"dtype": {"type": "DT_HALF"}, "value": {"tensor": {"dtype": "DT_HALF", "tensorShape": {"dim": [{"size": "48"}]}}}}}, {"name": "StatefulPartitionedCall/model/block6c_se_expand/Conv2D/Cast", "op": "Const", "attr": {"value": {"tensor": {"dtype": "DT_HALF", "tensorShape": {"dim": [{"size": "1"}, {"size": "1"}, {"size": "48"}, {"size": "1152"}]}}}, "dtype": {"type": "DT_HALF"}}}, {"name": "StatefulPartitionedCall/model/block6c_se_expand/BiasAdd/Cast", "op": "Const", "attr": {"dtype": {"type": "DT_HALF"}, "value": {"tensor": {"dtype": "DT_HALF", "tensorShape": {"dim": [{"size": "1152"}]}}}}}, {"name": "StatefulPartitionedCall/model/block6b_se_squeeze/Mean/reduction_indices", "op": "Const", "attr": {"value": {"tensor": {"dtype": "DT_INT32", "tensorShape": {"dim": [{"size": "2"}]}}}, "dtype": {"type": "DT_INT32"}}}, {"name": "StatefulPartitionedCall/model/block6b_se_reshape/strided_slice/stack", "op": "Const", "attr": {"dtype": {"type": "DT_INT32"}, "value": {"tensor": {"dtype": "DT_INT32", "tensorShape": {"dim": [{"size": "1"}]}}}}}, {"name": "StatefulPartitionedCall/model/block6b_se_reshape/strided_slice/stack_1", "op": "Const", "attr": {"dtype": {"type": "DT_INT32"}, "value": {"tensor": {"dtype": "DT_INT32", "tensorShape": {"dim": [{"size": "1"}]}}}}}, {"name": "StatefulPartitionedCall/model/block6b_se_reshape/strided_slice/stack_2", "op": "Const", "attr": {"dtype": {"type": "DT_INT32"}, "value": {"tensor": {"dtype": "DT_INT32", "tensorShape": {"dim": [{"size": "1"}]}}}}}, {"name": "StatefulPartitionedCall/model/block6b_se_reshape/Reshape/shape/1", "op": "Const", "attr": {"value": {"tensor": {"dtype": "DT_INT32", "tensorShape": {}}}, "dtype": {"type": "DT_INT32"}}}, {"name": "StatefulPartitionedCall/model/block6b_se_reshape/Reshape/shape/2", "op": "Const", "attr": {"dtype": {"type": "DT_INT32"}, "value": {"tensor": {"dtype": "DT_INT32", "tensorShape": {}}}}}, {"name": "StatefulPartitionedCall/model/block6b_se_reshape/Reshape/shape/3", "op": "Const", "attr": {"dtype": {"type": "DT_INT32"}, "value": {"tensor": {"dtype": "DT_INT32", "tensorShape": {}}}}}, {"name": "StatefulPartitionedCall/model/block6b_se_reduce/Conv2D/Cast", "op": "Const", "attr": {"value": {"tensor": {"dtype": "DT_HALF", "tensorShape": {"dim": [{"size": "1"}, {"size": "1"}, {"size": "1152"}, {"size": "48"}]}}}, "dtype": {"type": "DT_HALF"}}}, {"name": "StatefulPartitionedCall/model/block6b_se_reduce/BiasAdd/Cast", "op": "Const", "attr": {"dtype": {"type": "DT_HALF"}, "value": {"tensor": {"dtype": "DT_HALF", "tensorShape": {"dim": [{"size": "48"}]}}}}}, {"name": "StatefulPartitionedCall/model/block6b_se_expand/Conv2D/Cast", "op": "Const", "attr": {"value": {"tensor": {"dtype": "DT_HALF", "tensorShape": {"dim": [{"size": "1"}, {"size": "1"}, {"size": "48"}, {"size": "1152"}]}}}, "dtype": {"type": "DT_HALF"}}}, {"name": "StatefulPartitionedCall/model/block6b_se_expand/BiasAdd/Cast", "op": "Const", "attr": {"dtype": {"type": "DT_HALF"}, "value": {"tensor": {"dtype": "DT_HALF", "tensorShape": {"dim": [{"size": "1152"}]}}}}}, {"name": "StatefulPartitionedCall/model/block5e_se_squeeze/Mean/reduction_indices", "op": "Const", "attr": {"value": {"tensor": {"dtype": "DT_INT32", "tensorShape": {"dim": [{"size": "2"}]}}}, "dtype": {"type": "DT_INT32"}}}, {"name": "StatefulPartitionedCall/model/block5e_se_reshape/strided_slice/stack", "op": "Const", "attr": {"value": {"tensor": {"dtype": "DT_INT32", "tensorShape": {"dim": [{"size": "1"}]}}}, "dtype": {"type": "DT_INT32"}}}, {"name": "StatefulPartitionedCall/model/block5e_se_reshape/strided_slice/stack_1", "op": "Const", "attr": {"value": {"tensor": {"dtype": "DT_INT32", "tensorShape": {"dim": [{"size": "1"}]}}}, "dtype": {"type": "DT_INT32"}}}, {"name": "StatefulPartitionedCall/model/block5e_se_reshape/strided_slice/stack_2", "op": "Const", "attr": {"dtype": {"type": "DT_INT32"}, "value": {"tensor": {"dtype": "DT_INT32", "tensorShape": {"dim": [{"size": "1"}]}}}}}, {"name": "StatefulPartitionedCall/model/block5e_se_reshape/Reshape/shape/1", "op": "Const", "attr": {"dtype": {"type": "DT_INT32"}, "value": {"tensor": {"dtype": "DT_INT32", "tensorShape": {}}}}}, {"name": "StatefulPartitionedCall/model/block5e_se_reshape/Reshape/shape/2", "op": "Const", "attr": {"dtype": {"type": "DT_INT32"}, "value": {"tensor": {"dtype": "DT_INT32", "tensorShape": {}}}}}, {"name": "StatefulPartitionedCall/model/block5e_se_reshape/Reshape/shape/3", "op": "Const", "attr": {"value": {"tensor": {"dtype": "DT_INT32", "tensorShape": {}}}, "dtype": {"type": "DT_INT32"}}}, {"name": "StatefulPartitionedCall/model/block5e_se_reduce/Conv2D/Cast", "op": "Const", "attr": {"value": {"tensor": {"dtype": "DT_HALF", "tensorShape": {"dim": [{"size": "1"}, {"size": "1"}, {"size": "672"}, {"size": "28"}]}}}, "dtype": {"type": "DT_HALF"}}}, {"name": "StatefulPartitionedCall/model/block5e_se_reduce/BiasAdd/Cast", "op": "Const", "attr": {"dtype": {"type": "DT_HALF"}, "value": {"tensor": {"dtype": "DT_HALF", "tensorShape": {"dim": [{"size": "28"}]}}}}}, {"name": "StatefulPartitionedCall/model/block5e_se_expand/Conv2D/Cast", "op": "Const", "attr": {"value": {"tensor": {"dtype": "DT_HALF", "tensorShape": {"dim": [{"size": "1"}, {"size": "1"}, {"size": "28"}, {"size": "672"}]}}}, "dtype": {"type": "DT_HALF"}}}, {"name": "StatefulPartitionedCall/model/block5e_se_expand/BiasAdd/Cast", "op": "Const", "attr": {"dtype": {"type": "DT_HALF"}, "value": {"tensor": {"dtype": "DT_HALF", "tensorShape": {"dim": [{"size": "672"}]}}}}}, {"name": "StatefulPartitionedCall/model/block5d_se_squeeze/Mean/reduction_indices", "op": "Const", "attr": {"value": {"tensor": {"dtype": "DT_INT32", "tensorShape": {"dim": [{"size": "2"}]}}}, "dtype": {"type": "DT_INT32"}}}, {"name": "StatefulPartitionedCall/model/block5d_se_reshape/strided_slice/stack", "op": "Const", "attr": {"dtype": {"type": "DT_INT32"}, "value": {"tensor": {"dtype": "DT_INT32", "tensorShape": {"dim": [{"size": "1"}]}}}}}, {"name": "StatefulPartitionedCall/model/block5d_se_reshape/strided_slice/stack_1", "op": "Const", "attr": {"value": {"tensor": {"dtype": "DT_INT32", "tensorShape": {"dim": [{"size": "1"}]}}}, "dtype": {"type": "DT_INT32"}}}, {"name": "StatefulPartitionedCall/model/block5d_se_reshape/strided_slice/stack_2", "op": "Const", "attr": {"dtype": {"type": "DT_INT32"}, "value": {"tensor": {"dtype": "DT_INT32", "tensorShape": {"dim": [{"size": "1"}]}}}}}, {"name": "StatefulPartitionedCall/model/block5d_se_reshape/Reshape/shape/1", "op": "Const", "attr": {"value": {"tensor": {"dtype": "DT_INT32", "tensorShape": {}}}, "dtype": {"type": "DT_INT32"}}}, {"name": "StatefulPartitionedCall/model/block5d_se_reshape/Reshape/shape/2", "op": "Const", "attr": {"dtype": {"type": "DT_INT32"}, "value": {"tensor": {"dtype": "DT_INT32", "tensorShape": {}}}}}, {"name": "StatefulPartitionedCall/model/block5d_se_reshape/Reshape/shape/3", "op": "Const", "attr": {"dtype": {"type": "DT_INT32"}, "value": {"tensor": {"dtype": "DT_INT32", "tensorShape": {}}}}}, {"name": "StatefulPartitionedCall/model/block5d_se_reduce/Conv2D/Cast", "op": "Const", "attr": {"dtype": {"type": "DT_HALF"}, "value": {"tensor": {"dtype": "DT_HALF", "tensorShape": {"dim": [{"size": "1"}, {"size": "1"}, {"size": "672"}, {"size": "28"}]}}}}}, {"name": "StatefulPartitionedCall/model/block5d_se_reduce/BiasAdd/Cast", "op": "Const", "attr": {"dtype": {"type": "DT_HALF"}, "value": {"tensor": {"dtype": "DT_HALF", "tensorShape": {"dim": [{"size": "28"}]}}}}}, {"name": "StatefulPartitionedCall/model/block5d_se_expand/Conv2D/Cast", "op": "Const", "attr": {"value": {"tensor": {"dtype": "DT_HALF", "tensorShape": {"dim": [{"size": "1"}, {"size": "1"}, {"size": "28"}, {"size": "672"}]}}}, "dtype": {"type": "DT_HALF"}}}, {"name": "StatefulPartitionedCall/model/block5d_se_expand/BiasAdd/Cast", "op": "Const", "attr": {"dtype": {"type": "DT_HALF"}, "value": {"tensor": {"dtype": "DT_HALF", "tensorShape": {"dim": [{"size": "672"}]}}}}}, {"name": "StatefulPartitionedCall/model/block5c_se_squeeze/Mean/reduction_indices", "op": "Const", "attr": {"value": {"tensor": {"dtype": "DT_INT32", "tensorShape": {"dim": [{"size": "2"}]}}}, "dtype": {"type": "DT_INT32"}}}, {"name": "StatefulPartitionedCall/model/block5c_se_reshape/strided_slice/stack", "op": "Const", "attr": {"dtype": {"type": "DT_INT32"}, "value": {"tensor": {"dtype": "DT_INT32", "tensorShape": {"dim": [{"size": "1"}]}}}}}, {"name": "StatefulPartitionedCall/model/block5c_se_reshape/strided_slice/stack_1", "op": "Const", "attr": {"dtype": {"type": "DT_INT32"}, "value": {"tensor": {"dtype": "DT_INT32", "tensorShape": {"dim": [{"size": "1"}]}}}}}, {"name": "StatefulPartitionedCall/model/block5c_se_reshape/strided_slice/stack_2", "op": "Const", "attr": {"value": {"tensor": {"dtype": "DT_INT32", "tensorShape": {"dim": [{"size": "1"}]}}}, "dtype": {"type": "DT_INT32"}}}, {"name": "StatefulPartitionedCall/model/block5c_se_reshape/Reshape/shape/1", "op": "Const", "attr": {"dtype": {"type": "DT_INT32"}, "value": {"tensor": {"dtype": "DT_INT32", "tensorShape": {}}}}}, {"name": "StatefulPartitionedCall/model/block5c_se_reshape/Reshape/shape/2", "op": "Const", "attr": {"dtype": {"type": "DT_INT32"}, "value": {"tensor": {"dtype": "DT_INT32", "tensorShape": {}}}}}, {"name": "StatefulPartitionedCall/model/block5c_se_reshape/Reshape/shape/3", "op": "Const", "attr": {"dtype": {"type": "DT_INT32"}, "value": {"tensor": {"dtype": "DT_INT32", "tensorShape": {}}}}}, {"name": "StatefulPartitionedCall/model/block5c_se_reduce/Conv2D/Cast", "op": "Const", "attr": {"dtype": {"type": "DT_HALF"}, "value": {"tensor": {"dtype": "DT_HALF", "tensorShape": {"dim": [{"size": "1"}, {"size": "1"}, {"size": "672"}, {"size": "28"}]}}}}}, {"name": "StatefulPartitionedCall/model/block5c_se_reduce/BiasAdd/Cast", "op": "Const", "attr": {"value": {"tensor": {"dtype": "DT_HALF", "tensorShape": {"dim": [{"size": "28"}]}}}, "dtype": {"type": "DT_HALF"}}}, {"name": "StatefulPartitionedCall/model/block5c_se_expand/Conv2D/Cast", "op": "Const", "attr": {"dtype": {"type": "DT_HALF"}, "value": {"tensor": {"dtype": "DT_HALF", "tensorShape": {"dim": [{"size": "1"}, {"size": "1"}, {"size": "28"}, {"size": "672"}]}}}}}, {"name": "StatefulPartitionedCall/model/block5c_se_expand/BiasAdd/Cast", "op": "Const", "attr": {"value": {"tensor": {"dtype": "DT_HALF", "tensorShape": {"dim": [{"size": "672"}]}}}, "dtype": {"type": "DT_HALF"}}}, {"name": "StatefulPartitionedCall/model/block5b_se_squeeze/Mean/reduction_indices", "op": "Const", "attr": {"dtype": {"type": "DT_INT32"}, "value": {"tensor": {"dtype": "DT_INT32", "tensorShape": {"dim": [{"size": "2"}]}}}}}, {"name": "StatefulPartitionedCall/model/block5b_se_reshape/strided_slice/stack", "op": "Const", "attr": {"dtype": {"type": "DT_INT32"}, "value": {"tensor": {"dtype": "DT_INT32", "tensorShape": {"dim": [{"size": "1"}]}}}}}, {"name": "StatefulPartitionedCall/model/block5b_se_reshape/strided_slice/stack_1", "op": "Const", "attr": {"dtype": {"type": "DT_INT32"}, "value": {"tensor": {"dtype": "DT_INT32", "tensorShape": {"dim": [{"size": "1"}]}}}}}, {"name": "StatefulPartitionedCall/model/block5b_se_reshape/strided_slice/stack_2", "op": "Const", "attr": {"dtype": {"type": "DT_INT32"}, "value": {"tensor": {"dtype": "DT_INT32", "tensorShape": {"dim": [{"size": "1"}]}}}}}, {"name": "StatefulPartitionedCall/model/block5b_se_reshape/Reshape/shape/1", "op": "Const", "attr": {"dtype": {"type": "DT_INT32"}, "value": {"tensor": {"dtype": "DT_INT32", "tensorShape": {}}}}}, {"name": "StatefulPartitionedCall/model/block5b_se_reshape/Reshape/shape/2", "op": "Const", "attr": {"value": {"tensor": {"dtype": "DT_INT32", "tensorShape": {}}}, "dtype": {"type": "DT_INT32"}}}, {"name": "StatefulPartitionedCall/model/block5b_se_reshape/Reshape/shape/3", "op": "Const", "attr": {"value": {"tensor": {"dtype": "DT_INT32", "tensorShape": {}}}, "dtype": {"type": "DT_INT32"}}}, {"name": "StatefulPartitionedCall/model/block5b_se_reduce/Conv2D/Cast", "op": "Const", "attr": {"dtype": {"type": "DT_HALF"}, "value": {"tensor": {"dtype": "DT_HALF", "tensorShape": {"dim": [{"size": "1"}, {"size": "1"}, {"size": "672"}, {"size": "28"}]}}}}}, {"name": "StatefulPartitionedCall/model/block5b_se_reduce/BiasAdd/Cast", "op": "Const", "attr": {"dtype": {"type": "DT_HALF"}, "value": {"tensor": {"dtype": "DT_HALF", "tensorShape": {"dim": [{"size": "28"}]}}}}}, {"name": "StatefulPartitionedCall/model/block5b_se_expand/Conv2D/Cast", "op": "Const", "attr": {"value": {"tensor": {"dtype": "DT_HALF", "tensorShape": {"dim": [{"size": "1"}, {"size": "1"}, {"size": "28"}, {"size": "672"}]}}}, "dtype": {"type": "DT_HALF"}}}, {"name": "StatefulPartitionedCall/model/block5b_se_expand/BiasAdd/Cast", "op": "Const", "attr": {"value": {"tensor": {"dtype": "DT_HALF", "tensorShape": {"dim": [{"size": "672"}]}}}, "dtype": {"type": "DT_HALF"}}}, {"name": "StatefulPartitionedCall/model/block4c_se_squeeze/Mean/reduction_indices", "op": "Const", "attr": {"dtype": {"type": "DT_INT32"}, "value": {"tensor": {"dtype": "DT_INT32", "tensorShape": {"dim": [{"size": "2"}]}}}}}, {"name": "StatefulPartitionedCall/model/block4c_se_reshape/strided_slice/stack", "op": "Const", "attr": {"dtype": {"type": "DT_INT32"}, "value": {"tensor": {"dtype": "DT_INT32", "tensorShape": {"dim": [{"size": "1"}]}}}}}, {"name": "StatefulPartitionedCall/model/block4c_se_reshape/strided_slice/stack_1", "op": "Const", "attr": {"value": {"tensor": {"dtype": "DT_INT32", "tensorShape": {"dim": [{"size": "1"}]}}}, "dtype": {"type": "DT_INT32"}}}, {"name": "StatefulPartitionedCall/model/block4c_se_reshape/strided_slice/stack_2", "op": "Const", "attr": {"dtype": {"type": "DT_INT32"}, "value": {"tensor": {"dtype": "DT_INT32", "tensorShape": {"dim": [{"size": "1"}]}}}}}, {"name": "StatefulPartitionedCall/model/block4c_se_reshape/Reshape/shape/1", "op": "Const", "attr": {"dtype": {"type": "DT_INT32"}, "value": {"tensor": {"dtype": "DT_INT32", "tensorShape": {}}}}}, {"name": "StatefulPartitionedCall/model/block4c_se_reshape/Reshape/shape/2", "op": "Const", "attr": {"dtype": {"type": "DT_INT32"}, "value": {"tensor": {"dtype": "DT_INT32", "tensorShape": {}}}}}, {"name": "StatefulPartitionedCall/model/block4c_se_reshape/Reshape/shape/3", "op": "Const", "attr": {"dtype": {"type": "DT_INT32"}, "value": {"tensor": {"dtype": "DT_INT32", "tensorShape": {}}}}}, {"name": "StatefulPartitionedCall/model/block4c_se_reduce/Conv2D/Cast", "op": "Const", "attr": {"dtype": {"type": "DT_HALF"}, "value": {"tensor": {"dtype": "DT_HALF", "tensorShape": {"dim": [{"size": "1"}, {"size": "1"}, {"size": "384"}, {"size": "24"}]}}}}}, {"name": "StatefulPartitionedCall/model/block4c_se_reduce/BiasAdd/Cast", "op": "Const", "attr": {"value": {"tensor": {"dtype": "DT_HALF", "tensorShape": {"dim": [{"size": "24"}]}}}, "dtype": {"type": "DT_HALF"}}}, {"name": "StatefulPartitionedCall/model/block4c_se_expand/Conv2D/Cast", "op": "Const", "attr": {"dtype": {"type": "DT_HALF"}, "value": {"tensor": {"dtype": "DT_HALF", "tensorShape": {"dim": [{"size": "1"}, {"size": "1"}, {"size": "24"}, {"size": "384"}]}}}}}, {"name": "StatefulPartitionedCall/model/block4c_se_expand/BiasAdd/Cast", "op": "Const", "attr": {"dtype": {"type": "DT_HALF"}, "value": {"tensor": {"dtype": "DT_HALF", "tensorShape": {"dim": [{"size": "384"}]}}}}}, {"name": "StatefulPartitionedCall/model/block4b_se_squeeze/Mean/reduction_indices", "op": "Const", "attr": {"value": {"tensor": {"dtype": "DT_INT32", "tensorShape": {"dim": [{"size": "2"}]}}}, "dtype": {"type": "DT_INT32"}}}, {"name": "StatefulPartitionedCall/model/block4b_se_reshape/strided_slice/stack", "op": "Const", "attr": {"value": {"tensor": {"dtype": "DT_INT32", "tensorShape": {"dim": [{"size": "1"}]}}}, "dtype": {"type": "DT_INT32"}}}, {"name": "StatefulPartitionedCall/model/block4b_se_reshape/strided_slice/stack_1", "op": "Const", "attr": {"dtype": {"type": "DT_INT32"}, "value": {"tensor": {"dtype": "DT_INT32", "tensorShape": {"dim": [{"size": "1"}]}}}}}, {"name": "StatefulPartitionedCall/model/block4b_se_reshape/strided_slice/stack_2", "op": "Const", "attr": {"dtype": {"type": "DT_INT32"}, "value": {"tensor": {"dtype": "DT_INT32", "tensorShape": {"dim": [{"size": "1"}]}}}}}, {"name": "StatefulPartitionedCall/model/block4b_se_reshape/Reshape/shape/1", "op": "Const", "attr": {"value": {"tensor": {"dtype": "DT_INT32", "tensorShape": {}}}, "dtype": {"type": "DT_INT32"}}}, {"name": "StatefulPartitionedCall/model/block4b_se_reshape/Reshape/shape/2", "op": "Const", "attr": {"dtype": {"type": "DT_INT32"}, "value": {"tensor": {"dtype": "DT_INT32", "tensorShape": {}}}}}, {"name": "StatefulPartitionedCall/model/block4b_se_reshape/Reshape/shape/3", "op": "Const", "attr": {"value": {"tensor": {"dtype": "DT_INT32", "tensorShape": {}}}, "dtype": {"type": "DT_INT32"}}}, {"name": "StatefulPartitionedCall/model/block4b_se_reduce/Conv2D/Cast", "op": "Const", "attr": {"dtype": {"type": "DT_HALF"}, "value": {"tensor": {"dtype": "DT_HALF", "tensorShape": {"dim": [{"size": "1"}, {"size": "1"}, {"size": "384"}, {"size": "24"}]}}}}}, {"name": "StatefulPartitionedCall/model/block4b_se_reduce/BiasAdd/Cast", "op": "Const", "attr": {"dtype": {"type": "DT_HALF"}, "value": {"tensor": {"dtype": "DT_HALF", "tensorShape": {"dim": [{"size": "24"}]}}}}}, {"name": "StatefulPartitionedCall/model/block4b_se_expand/Conv2D/Cast", "op": "Const", "attr": {"dtype": {"type": "DT_HALF"}, "value": {"tensor": {"dtype": "DT_HALF", "tensorShape": {"dim": [{"size": "1"}, {"size": "1"}, {"size": "24"}, {"size": "384"}]}}}}}, {"name": "StatefulPartitionedCall/model/block4b_se_expand/BiasAdd/Cast", "op": "Const", "attr": {"value": {"tensor": {"dtype": "DT_HALF", "tensorShape": {"dim": [{"size": "384"}]}}}, "dtype": {"type": "DT_HALF"}}}, {"name": "StatefulPartitionedCall/model/block4a_se_squeeze/Mean/reduction_indices", "op": "Const", "attr": {"dtype": {"type": "DT_INT32"}, "value": {"tensor": {"dtype": "DT_INT32", "tensorShape": {"dim": [{"size": "2"}]}}}}}, {"name": "StatefulPartitionedCall/model/block4a_se_reshape/strided_slice/stack", "op": "Const", "attr": {"value": {"tensor": {"dtype": "DT_INT32", "tensorShape": {"dim": [{"size": "1"}]}}}, "dtype": {"type": "DT_INT32"}}}, {"name": "StatefulPartitionedCall/model/block4a_se_reshape/strided_slice/stack_1", "op": "Const", "attr": {"dtype": {"type": "DT_INT32"}, "value": {"tensor": {"dtype": "DT_INT32", "tensorShape": {"dim": [{"size": "1"}]}}}}}, {"name": "StatefulPartitionedCall/model/block4a_se_reshape/strided_slice/stack_2", "op": "Const", "attr": {"dtype": {"type": "DT_INT32"}, "value": {"tensor": {"dtype": "DT_INT32", "tensorShape": {"dim": [{"size": "1"}]}}}}}, {"name": "StatefulPartitionedCall/model/block4a_se_reshape/Reshape/shape/1", "op": "Const", "attr": {"value": {"tensor": {"dtype": "DT_INT32", "tensorShape": {}}}, "dtype": {"type": "DT_INT32"}}}, {"name": "StatefulPartitionedCall/model/block4a_se_reshape/Reshape/shape/2", "op": "Const", "attr": {"dtype": {"type": "DT_INT32"}, "value": {"tensor": {"dtype": "DT_INT32", "tensorShape": {}}}}}, {"name": "StatefulPartitionedCall/model/block4a_se_reshape/Reshape/shape/3", "op": "Const", "attr": {"dtype": {"type": "DT_INT32"}, "value": {"tensor": {"dtype": "DT_INT32", "tensorShape": {}}}}}, {"name": "StatefulPartitionedCall/model/block4a_se_reduce/Conv2D/Cast", "op": "Const", "attr": {"value": {"tensor": {"dtype": "DT_HALF", "tensorShape": {"dim": [{"size": "1"}, {"size": "1"}, {"size": "192"}, {"size": "12"}]}}}, "dtype": {"type": "DT_HALF"}}}, {"name": "StatefulPartitionedCall/model/block4a_se_reduce/BiasAdd/Cast", "op": "Const", "attr": {"value": {"tensor": {"dtype": "DT_HALF", "tensorShape": {"dim": [{"size": "12"}]}}}, "dtype": {"type": "DT_HALF"}}}, {"name": "StatefulPartitionedCall/model/block4a_se_expand/Conv2D/Cast", "op": "Const", "attr": {"dtype": {"type": "DT_HALF"}, "value": {"tensor": {"dtype": "DT_HALF", "tensorShape": {"dim": [{"size": "1"}, {"size": "1"}, {"size": "12"}, {"size": "192"}]}}}}}, {"name": "StatefulPartitionedCall/model/block4a_se_expand/BiasAdd/Cast", "op": "Const", "attr": {"value": {"tensor": {"dtype": "DT_HALF", "tensorShape": {"dim": [{"size": "192"}]}}}, "dtype": {"type": "DT_HALF"}}}, {"name": "StatefulPartitionedCall/model/block5a_se_squeeze/Mean/reduction_indices", "op": "Const", "attr": {"value": {"tensor": {"dtype": "DT_INT32", "tensorShape": {"dim": [{"size": "2"}]}}}, "dtype": {"type": "DT_INT32"}}}, {"name": "StatefulPartitionedCall/model/block5a_se_reshape/strided_slice/stack", "op": "Const", "attr": {"value": {"tensor": {"dtype": "DT_INT32", "tensorShape": {"dim": [{"size": "1"}]}}}, "dtype": {"type": "DT_INT32"}}}, {"name": "StatefulPartitionedCall/model/block5a_se_reshape/strided_slice/stack_1", "op": "Const", "attr": {"dtype": {"type": "DT_INT32"}, "value": {"tensor": {"dtype": "DT_INT32", "tensorShape": {"dim": [{"size": "1"}]}}}}}, {"name": "StatefulPartitionedCall/model/block5a_se_reshape/strided_slice/stack_2", "op": "Const", "attr": {"value": {"tensor": {"dtype": "DT_INT32", "tensorShape": {"dim": [{"size": "1"}]}}}, "dtype": {"type": "DT_INT32"}}}, {"name": "StatefulPartitionedCall/model/block5a_se_reshape/Reshape/shape/1", "op": "Const", "attr": {"value": {"tensor": {"dtype": "DT_INT32", "tensorShape": {}}}, "dtype": {"type": "DT_INT32"}}}, {"name": "StatefulPartitionedCall/model/block5a_se_reshape/Reshape/shape/2", "op": "Const", "attr": {"value": {"tensor": {"dtype": "DT_INT32", "tensorShape": {}}}, "dtype": {"type": "DT_INT32"}}}, {"name": "StatefulPartitionedCall/model/block5a_se_reshape/Reshape/shape/3", "op": "Const", "attr": {"dtype": {"type": "DT_INT32"}, "value": {"tensor": {"dtype": "DT_INT32", "tensorShape": {}}}}}, {"name": "StatefulPartitionedCall/model/block5a_se_reduce/Conv2D/Cast", "op": "Const", "attr": {"dtype": {"type": "DT_HALF"}, "value": {"tensor": {"dtype": "DT_HALF", "tensorShape": {"dim": [{"size": "1"}, {"size": "1"}, {"size": "576"}, {"size": "24"}]}}}}}, {"name": "StatefulPartitionedCall/model/block5a_se_reduce/BiasAdd/Cast", "op": "Const", "attr": {"value": {"tensor": {"dtype": "DT_HALF", "tensorShape": {"dim": [{"size": "24"}]}}}, "dtype": {"type": "DT_HALF"}}}, {"name": "StatefulPartitionedCall/model/block5a_se_expand/Conv2D/Cast", "op": "Const", "attr": {"dtype": {"type": "DT_HALF"}, "value": {"tensor": {"dtype": "DT_HALF", "tensorShape": {"dim": [{"size": "1"}, {"size": "1"}, {"size": "24"}, {"size": "576"}]}}}}}, {"name": "StatefulPartitionedCall/model/block5a_se_expand/BiasAdd/Cast", "op": "Const", "attr": {"dtype": {"type": "DT_HALF"}, "value": {"tensor": {"dtype": "DT_HALF", "tensorShape": {"dim": [{"size": "576"}]}}}}}, {"name": "StatefulPartitionedCall/model/block6a_se_squeeze/Mean/reduction_indices", "op": "Const", "attr": {"dtype": {"type": "DT_INT32"}, "value": {"tensor": {"dtype": "DT_INT32", "tensorShape": {"dim": [{"size": "2"}]}}}}}, {"name": "StatefulPartitionedCall/model/block6a_se_reshape/strided_slice/stack", "op": "Const", "attr": {"value": {"tensor": {"dtype": "DT_INT32", "tensorShape": {"dim": [{"size": "1"}]}}}, "dtype": {"type": "DT_INT32"}}}, {"name": "StatefulPartitionedCall/model/block6a_se_reshape/strided_slice/stack_1", "op": "Const", "attr": {"value": {"tensor": {"dtype": "DT_INT32", "tensorShape": {"dim": [{"size": "1"}]}}}, "dtype": {"type": "DT_INT32"}}}, {"name": "StatefulPartitionedCall/model/block6a_se_reshape/strided_slice/stack_2", "op": "Const", "attr": {"value": {"tensor": {"dtype": "DT_INT32", "tensorShape": {"dim": [{"size": "1"}]}}}, "dtype": {"type": "DT_INT32"}}}, {"name": "StatefulPartitionedCall/model/block6a_se_reshape/Reshape/shape/1", "op": "Const", "attr": {"value": {"tensor": {"dtype": "DT_INT32", "tensorShape": {}}}, "dtype": {"type": "DT_INT32"}}}, {"name": "StatefulPartitionedCall/model/block6a_se_reshape/Reshape/shape/2", "op": "Const", "attr": {"dtype": {"type": "DT_INT32"}, "value": {"tensor": {"dtype": "DT_INT32", "tensorShape": {}}}}}, {"name": "StatefulPartitionedCall/model/block6a_se_reshape/Reshape/shape/3", "op": "Const", "attr": {"value": {"tensor": {"dtype": "DT_INT32", "tensorShape": {}}}, "dtype": {"type": "DT_INT32"}}}, {"name": "StatefulPartitionedCall/model/block6a_se_reduce/Conv2D/Cast", "op": "Const", "attr": {"dtype": {"type": "DT_HALF"}, "value": {"tensor": {"dtype": "DT_HALF", "tensorShape": {"dim": [{"size": "1"}, {"size": "1"}, {"size": "672"}, {"size": "28"}]}}}}}, {"name": "StatefulPartitionedCall/model/block6a_se_reduce/BiasAdd/Cast", "op": "Const", "attr": {"dtype": {"type": "DT_HALF"}, "value": {"tensor": {"dtype": "DT_HALF", "tensorShape": {"dim": [{"size": "28"}]}}}}}, {"name": "StatefulPartitionedCall/model/block6a_se_expand/Conv2D/Cast", "op": "Const", "attr": {"dtype": {"type": "DT_HALF"}, "value": {"tensor": {"dtype": "DT_HALF", "tensorShape": {"dim": [{"size": "1"}, {"size": "1"}, {"size": "28"}, {"size": "672"}]}}}}}, {"name": "StatefulPartitionedCall/model/block6a_se_expand/BiasAdd/Cast", "op": "Const", "attr": {"dtype": {"type": "DT_HALF"}, "value": {"tensor": {"dtype": "DT_HALF", "tensorShape": {"dim": [{"size": "672"}]}}}}}, {"name": "StatefulPartitionedCall/model/avg_pool/Mean/reduction_indices", "op": "Const", "attr": {"dtype": {"type": "DT_INT32"}, "value": {"tensor": {"dtype": "DT_INT32", "tensorShape": {"dim": [{"size": "2"}]}}}}}, {"name": "StatefulPartitionedCall/model/logits/MatMul/Cast", "op": "Const", "attr": {"dtype": {"type": "DT_HALF"}, "value": {"tensor": {"dtype": "DT_HALF", "tensorShape": {"dim": [{"size": "1280"}, {"size": "392"}]}}}}}, {"name": "StatefulPartitionedCall/model/logits/BiasAdd/Cast", "op": "Const", "attr": {"dtype": {"type": "DT_HALF"}, "value": {"tensor": {"dtype": "DT_HALF", "tensorShape": {"dim": [{"size": "392"}]}}}}}, {"name": "input", "op": "Placeholder", "attr": {"dtype": {"type": "DT_FLOAT"}, "shape": {"shape": {"dim": [{"size": "-1"}, {"size": "256"}, {"size": "384"}, {"size": "1"}]}}}}, {"name": "StatefulPartitionedCall/model/stem_conv/Conv2D_weights", "op": "Const", "attr": {"value": {"tensor": {"dtype": "DT_HALF", "tensorShape": {"dim": [{"size": "3"}, {"size": "3"}, {"size": "1"}, {"size": "32"}]}}}, "dtype": {"type": "DT_HALF"}}}, {"name": "StatefulPartitionedCall/model/stem_conv/Conv2D_bn_offset", "op": "Const", "attr": {"value": {"tensor": {"dtype": "DT_FLOAT", "tensorShape": {"dim": [{"size": "32"}]}}}, "dtype": {"type": "DT_FLOAT"}}}, {"name": "StatefulPartitionedCall/model/block1a_project_conv/Conv2D_weights", "op": "Const", "attr": {"value": {"tensor": {"dtype": "DT_HALF", "tensorShape": {"dim": [{"size": "3"}, {"size": "3"}, {"size": "32"}, {"size": "16"}]}}}, "dtype": {"type": "DT_HALF"}}}, {"name": "StatefulPartitionedCall/model/block1a_project_conv/Conv2D_bn_offset", "op": "Const", "attr": {"dtype": {"type": "DT_FLOAT"}, "value": {"tensor": {"dtype": "DT_FLOAT", "tensorShape": {"dim": [{"size": "16"}]}}}}}, {"name": "StatefulPartitionedCall/model/block2a_expand_conv/Conv2D_weights", "op": "Const", "attr": {"dtype": {"type": "DT_HALF"}, "value": {"tensor": {"dtype": "DT_HALF", "tensorShape": {"dim": [{"size": "3"}, {"size": "3"}, {"size": "16"}, {"size": "64"}]}}}}}, {"name": "StatefulPartitionedCall/model/block2a_expand_conv/Conv2D_bn_offset", "op": "Const", "attr": {"dtype": {"type": "DT_FLOAT"}, "value": {"tensor": {"dtype": "DT_FLOAT", "tensorShape": {"dim": [{"size": "64"}]}}}}}, {"name": "StatefulPartitionedCall/model/block2a_project_conv/Conv2D_weights", "op": "Const", "attr": {"dtype": {"type": "DT_HALF"}, "value": {"tensor": {"dtype": "DT_HALF", "tensorShape": {"dim": [{"size": "1"}, {"size": "1"}, {"size": "64"}, {"size": "32"}]}}}}}, {"name": "StatefulPartitionedCall/model/block2a_project_conv/Conv2D_bn_offset", "op": "Const", "attr": {"value": {"tensor": {"dtype": "DT_FLOAT", "tensorShape": {"dim": [{"size": "32"}]}}}, "dtype": {"type": "DT_FLOAT"}}}, {"name": "StatefulPartitionedCall/model/block2b_expand_conv/Conv2D_weights", "op": "Const", "attr": {"value": {"tensor": {"dtype": "DT_HALF", "tensorShape": {"dim": [{"size": "3"}, {"size": "3"}, {"size": "32"}, {"size": "128"}]}}}, "dtype": {"type": "DT_HALF"}}}, {"name": "StatefulPartitionedCall/model/block2b_expand_conv/Conv2D_bn_offset", "op": "Const", "attr": {"value": {"tensor": {"dtype": "DT_FLOAT", "tensorShape": {"dim": [{"size": "128"}]}}}, "dtype": {"type": "DT_FLOAT"}}}, {"name": "StatefulPartitionedCall/model/block2b_project_conv/Conv2D_weights", "op": "Const", "attr": {"value": {"tensor": {"dtype": "DT_HALF", "tensorShape": {"dim": [{"size": "1"}, {"size": "1"}, {"size": "128"}, {"size": "32"}]}}}, "dtype": {"type": "DT_HALF"}}}, {"name": "StatefulPartitionedCall/model/block2b_project_conv/Conv2D_bn_offset", "op": "Const", "attr": {"value": {"tensor": {"dtype": "DT_FLOAT", "tensorShape": {"dim": [{"size": "32"}]}}}, "dtype": {"type": "DT_FLOAT"}}}, {"name": "StatefulPartitionedCall/model/block3a_expand_conv/Conv2D_weights", "op": "Const", "attr": {"value": {"tensor": {"dtype": "DT_HALF", "tensorShape": {"dim": [{"size": "3"}, {"size": "3"}, {"size": "32"}, {"size": "128"}]}}}, "dtype": {"type": "DT_HALF"}}}, {"name": "StatefulPartitionedCall/model/block3a_expand_conv/Conv2D_bn_offset", "op": "Const", "attr": {"value": {"tensor": {"dtype": "DT_FLOAT", "tensorShape": {"dim": [{"size": "128"}]}}}, "dtype": {"type": "DT_FLOAT"}}}, {"name": "StatefulPartitionedCall/model/block3a_project_conv/Conv2D_weights", "op": "Const", "attr": {"dtype": {"type": "DT_HALF"}, "value": {"tensor": {"dtype": "DT_HALF", "tensorShape": {"dim": [{"size": "1"}, {"size": "1"}, {"size": "128"}, {"size": "48"}]}}}}}, {"name": "StatefulPartitionedCall/model/block3a_project_conv/Conv2D_bn_offset", "op": "Const", "attr": {"dtype": {"type": "DT_FLOAT"}, "value": {"tensor": {"dtype": "DT_FLOAT", "tensorShape": {"dim": [{"size": "48"}]}}}}}, {"name": "StatefulPartitionedCall/model/block3b_expand_conv/Conv2D_weights", "op": "Const", "attr": {"dtype": {"type": "DT_HALF"}, "value": {"tensor": {"dtype": "DT_HALF", "tensorShape": {"dim": [{"size": "3"}, {"size": "3"}, {"size": "48"}, {"size": "192"}]}}}}}, {"name": "StatefulPartitionedCall/model/block3b_expand_conv/Conv2D_bn_offset", "op": "Const", "attr": {"dtype": {"type": "DT_FLOAT"}, "value": {"tensor": {"dtype": "DT_FLOAT", "tensorShape": {"dim": [{"size": "192"}]}}}}}, {"name": "StatefulPartitionedCall/model/block3b_project_conv/Conv2D_weights", "op": "Const", "attr": {"value": {"tensor": {"dtype": "DT_HALF", "tensorShape": {"dim": [{"size": "1"}, {"size": "1"}, {"size": "192"}, {"size": "48"}]}}}, "dtype": {"type": "DT_HALF"}}}, {"name": "StatefulPartitionedCall/model/block3b_project_conv/Conv2D_bn_offset", "op": "Const", "attr": {"value": {"tensor": {"dtype": "DT_FLOAT", "tensorShape": {"dim": [{"size": "48"}]}}}, "dtype": {"type": "DT_FLOAT"}}}, {"name": "StatefulPartitionedCall/model/block4a_expand_conv/Conv2D_weights", "op": "Const", "attr": {"dtype": {"type": "DT_HALF"}, "value": {"tensor": {"dtype": "DT_HALF", "tensorShape": {"dim": [{"size": "1"}, {"size": "1"}, {"size": "48"}, {"size": "192"}]}}}}}, {"name": "StatefulPartitionedCall/model/block4a_expand_conv/Conv2D_bn_offset", "op": "Const", "attr": {"value": {"tensor": {"dtype": "DT_FLOAT", "tensorShape": {"dim": [{"size": "192"}]}}}, "dtype": {"type": "DT_FLOAT"}}}, {"name": "StatefulPartitionedCall/model/block4a_dwconv2/depthwise_weights", "op": "Const", "attr": {"value": {"tensor": {"dtype": "DT_HALF", "tensorShape": {"dim": [{"size": "3"}, {"size": "3"}, {"size": "192"}, {"size": "1"}]}}}, "dtype": {"type": "DT_HALF"}}}, {"name": "StatefulPartitionedCall/model/block4a_dwconv2/depthwise_bn_offset", "op": "Const", "attr": {"dtype": {"type": "DT_FLOAT"}, "value": {"tensor": {"dtype": "DT_FLOAT", "tensorShape": {"dim": [{"size": "192"}]}}}}}, {"name": "StatefulPartitionedCall/model/block4a_project_conv/Conv2D_weights", "op": "Const", "attr": {"dtype": {"type": "DT_HALF"}, "value": {"tensor": {"dtype": "DT_HALF", "tensorShape": {"dim": [{"size": "1"}, {"size": "1"}, {"size": "192"}, {"size": "96"}]}}}}}, {"name": "StatefulPartitionedCall/model/block4a_project_conv/Conv2D_bn_offset", "op": "Const", "attr": {"value": {"tensor": {"dtype": "DT_FLOAT", "tensorShape": {"dim": [{"size": "96"}]}}}, "dtype": {"type": "DT_FLOAT"}}}, {"name": "StatefulPartitionedCall/model/block4b_expand_conv/Conv2D_weights", "op": "Const", "attr": {"dtype": {"type": "DT_HALF"}, "value": {"tensor": {"dtype": "DT_HALF", "tensorShape": {"dim": [{"size": "1"}, {"size": "1"}, {"size": "96"}, {"size": "384"}]}}}}}, {"name": "StatefulPartitionedCall/model/block4b_expand_conv/Conv2D_bn_offset", "op": "Const", "attr": {"value": {"tensor": {"dtype": "DT_FLOAT", "tensorShape": {"dim": [{"size": "384"}]}}}, "dtype": {"type": "DT_FLOAT"}}}, {"name": "StatefulPartitionedCall/model/block4b_dwconv2/depthwise_weights", "op": "Const", "attr": {"dtype": {"type": "DT_HALF"}, "value": {"tensor": {"dtype": "DT_HALF", "tensorShape": {"dim": [{"size": "3"}, {"size": "3"}, {"size": "384"}, {"size": "1"}]}}}}}, {"name": "StatefulPartitionedCall/model/block4b_dwconv2/depthwise_bn_offset", "op": "Const", "attr": {"value": {"tensor": {"dtype": "DT_FLOAT", "tensorShape": {"dim": [{"size": "384"}]}}}, "dtype": {"type": "DT_FLOAT"}}}, {"name": "StatefulPartitionedCall/model/block4b_project_conv/Conv2D_weights", "op": "Const", "attr": {"dtype": {"type": "DT_HALF"}, "value": {"tensor": {"dtype": "DT_HALF", "tensorShape": {"dim": [{"size": "1"}, {"size": "1"}, {"size": "384"}, {"size": "96"}]}}}}}, {"name": "StatefulPartitionedCall/model/block4b_project_conv/Conv2D_bn_offset", "op": "Const", "attr": {"value": {"tensor": {"dtype": "DT_FLOAT", "tensorShape": {"dim": [{"size": "96"}]}}}, "dtype": {"type": "DT_FLOAT"}}}, {"name": "StatefulPartitionedCall/model/block4c_expand_conv/Conv2D_weights", "op": "Const", "attr": {"dtype": {"type": "DT_HALF"}, "value": {"tensor": {"dtype": "DT_HALF", "tensorShape": {"dim": [{"size": "1"}, {"size": "1"}, {"size": "96"}, {"size": "384"}]}}}}}, {"name": "StatefulPartitionedCall/model/block4c_expand_conv/Conv2D_bn_offset", "op": "Const", "attr": {"value": {"tensor": {"dtype": "DT_FLOAT", "tensorShape": {"dim": [{"size": "384"}]}}}, "dtype": {"type": "DT_FLOAT"}}}, {"name": "StatefulPartitionedCall/model/block4c_dwconv2/depthwise_weights", "op": "Const", "attr": {"dtype": {"type": "DT_HALF"}, "value": {"tensor": {"dtype": "DT_HALF", "tensorShape": {"dim": [{"size": "3"}, {"size": "3"}, {"size": "384"}, {"size": "1"}]}}}}}, {"name": "StatefulPartitionedCall/model/block4c_dwconv2/depthwise_bn_offset", "op": "Const", "attr": {"dtype": {"type": "DT_FLOAT"}, "value": {"tensor": {"dtype": "DT_FLOAT", "tensorShape": {"dim": [{"size": "384"}]}}}}}, {"name": "StatefulPartitionedCall/model/block4c_project_conv/Conv2D_weights", "op": "Const", "attr": {"dtype": {"type": "DT_HALF"}, "value": {"tensor": {"dtype": "DT_HALF", "tensorShape": {"dim": [{"size": "1"}, {"size": "1"}, {"size": "384"}, {"size": "96"}]}}}}}, {"name": "StatefulPartitionedCall/model/block4c_project_conv/Conv2D_bn_offset", "op": "Const", "attr": {"dtype": {"type": "DT_FLOAT"}, "value": {"tensor": {"dtype": "DT_FLOAT", "tensorShape": {"dim": [{"size": "96"}]}}}}}, {"name": "StatefulPartitionedCall/model/block5a_expand_conv/Conv2D_weights", "op": "Const", "attr": {"value": {"tensor": {"dtype": "DT_HALF", "tensorShape": {"dim": [{"size": "1"}, {"size": "1"}, {"size": "96"}, {"size": "576"}]}}}, "dtype": {"type": "DT_HALF"}}}, {"name": "StatefulPartitionedCall/model/block5a_expand_conv/Conv2D_bn_offset", "op": "Const", "attr": {"dtype": {"type": "DT_FLOAT"}, "value": {"tensor": {"dtype": "DT_FLOAT", "tensorShape": {"dim": [{"size": "576"}]}}}}}, {"name": "StatefulPartitionedCall/model/block5a_dwconv2/depthwise_weights", "op": "Const", "attr": {"value": {"tensor": {"dtype": "DT_HALF", "tensorShape": {"dim": [{"size": "3"}, {"size": "3"}, {"size": "576"}, {"size": "1"}]}}}, "dtype": {"type": "DT_HALF"}}}, {"name": "StatefulPartitionedCall/model/block5a_dwconv2/depthwise_bn_offset", "op": "Const", "attr": {"value": {"tensor": {"dtype": "DT_FLOAT", "tensorShape": {"dim": [{"size": "576"}]}}}, "dtype": {"type": "DT_FLOAT"}}}, {"name": "StatefulPartitionedCall/model/block5a_project_conv/Conv2D_weights", "op": "Const", "attr": {"dtype": {"type": "DT_HALF"}, "value": {"tensor": {"dtype": "DT_HALF", "tensorShape": {"dim": [{"size": "1"}, {"size": "1"}, {"size": "576"}, {"size": "112"}]}}}}}, {"name": "StatefulPartitionedCall/model/block5a_project_conv/Conv2D_bn_offset", "op": "Const", "attr": {"dtype": {"type": "DT_FLOAT"}, "value": {"tensor": {"dtype": "DT_FLOAT", "tensorShape": {"dim": [{"size": "112"}]}}}}}, {"name": "StatefulPartitionedCall/model/block5b_expand_conv/Conv2D_weights", "op": "Const", "attr": {"dtype": {"type": "DT_HALF"}, "value": {"tensor": {"dtype": "DT_HALF", "tensorShape": {"dim": [{"size": "1"}, {"size": "1"}, {"size": "112"}, {"size": "672"}]}}}}}, {"name": "StatefulPartitionedCall/model/block5b_expand_conv/Conv2D_bn_offset", "op": "Const", "attr": {"dtype": {"type": "DT_FLOAT"}, "value": {"tensor": {"dtype": "DT_FLOAT", "tensorShape": {"dim": [{"size": "672"}]}}}}}, {"name": "StatefulPartitionedCall/model/block5b_dwconv2/depthwise_weights", "op": "Const", "attr": {"value": {"tensor": {"dtype": "DT_HALF", "tensorShape": {"dim": [{"size": "3"}, {"size": "3"}, {"size": "672"}, {"size": "1"}]}}}, "dtype": {"type": "DT_HALF"}}}, {"name": "StatefulPartitionedCall/model/block5b_dwconv2/depthwise_bn_offset", "op": "Const", "attr": {"dtype": {"type": "DT_FLOAT"}, "value": {"tensor": {"dtype": "DT_FLOAT", "tensorShape": {"dim": [{"size": "672"}]}}}}}, {"name": "StatefulPartitionedCall/model/block5b_project_conv/Conv2D_weights", "op": "Const", "attr": {"value": {"tensor": {"dtype": "DT_HALF", "tensorShape": {"dim": [{"size": "1"}, {"size": "1"}, {"size": "672"}, {"size": "112"}]}}}, "dtype": {"type": "DT_HALF"}}}, {"name": "StatefulPartitionedCall/model/block5b_project_conv/Conv2D_bn_offset", "op": "Const", "attr": {"value": {"tensor": {"dtype": "DT_FLOAT", "tensorShape": {"dim": [{"size": "112"}]}}}, "dtype": {"type": "DT_FLOAT"}}}, {"name": "StatefulPartitionedCall/model/block5c_expand_conv/Conv2D_weights", "op": "Const", "attr": {"dtype": {"type": "DT_HALF"}, "value": {"tensor": {"dtype": "DT_HALF", "tensorShape": {"dim": [{"size": "1"}, {"size": "1"}, {"size": "112"}, {"size": "672"}]}}}}}, {"name": "StatefulPartitionedCall/model/block5c_expand_conv/Conv2D_bn_offset", "op": "Const", "attr": {"dtype": {"type": "DT_FLOAT"}, "value": {"tensor": {"dtype": "DT_FLOAT", "tensorShape": {"dim": [{"size": "672"}]}}}}}, {"name": "StatefulPartitionedCall/model/block5c_dwconv2/depthwise_weights", "op": "Const", "attr": {"dtype": {"type": "DT_HALF"}, "value": {"tensor": {"dtype": "DT_HALF", "tensorShape": {"dim": [{"size": "3"}, {"size": "3"}, {"size": "672"}, {"size": "1"}]}}}}}, {"name": "StatefulPartitionedCall/model/block5c_dwconv2/depthwise_bn_offset", "op": "Const", "attr": {"dtype": {"type": "DT_FLOAT"}, "value": {"tensor": {"dtype": "DT_FLOAT", "tensorShape": {"dim": [{"size": "672"}]}}}}}, {"name": "StatefulPartitionedCall/model/block5c_project_conv/Conv2D_weights", "op": "Const", "attr": {"value": {"tensor": {"dtype": "DT_HALF", "tensorShape": {"dim": [{"size": "1"}, {"size": "1"}, {"size": "672"}, {"size": "112"}]}}}, "dtype": {"type": "DT_HALF"}}}, {"name": "StatefulPartitionedCall/model/block5c_project_conv/Conv2D_bn_offset", "op": "Const", "attr": {"dtype": {"type": "DT_FLOAT"}, "value": {"tensor": {"dtype": "DT_FLOAT", "tensorShape": {"dim": [{"size": "112"}]}}}}}, {"name": "StatefulPartitionedCall/model/block5d_expand_conv/Conv2D_weights", "op": "Const", "attr": {"dtype": {"type": "DT_HALF"}, "value": {"tensor": {"dtype": "DT_HALF", "tensorShape": {"dim": [{"size": "1"}, {"size": "1"}, {"size": "112"}, {"size": "672"}]}}}}}, {"name": "StatefulPartitionedCall/model/block5d_expand_conv/Conv2D_bn_offset", "op": "Const", "attr": {"value": {"tensor": {"dtype": "DT_FLOAT", "tensorShape": {"dim": [{"size": "672"}]}}}, "dtype": {"type": "DT_FLOAT"}}}, {"name": "StatefulPartitionedCall/model/block5d_dwconv2/depthwise_weights", "op": "Const", "attr": {"value": {"tensor": {"dtype": "DT_HALF", "tensorShape": {"dim": [{"size": "3"}, {"size": "3"}, {"size": "672"}, {"size": "1"}]}}}, "dtype": {"type": "DT_HALF"}}}, {"name": "StatefulPartitionedCall/model/block5d_dwconv2/depthwise_bn_offset", "op": "Const", "attr": {"value": {"tensor": {"dtype": "DT_FLOAT", "tensorShape": {"dim": [{"size": "672"}]}}}, "dtype": {"type": "DT_FLOAT"}}}, {"name": "StatefulPartitionedCall/model/block5d_project_conv/Conv2D_weights", "op": "Const", "attr": {"value": {"tensor": {"dtype": "DT_HALF", "tensorShape": {"dim": [{"size": "1"}, {"size": "1"}, {"size": "672"}, {"size": "112"}]}}}, "dtype": {"type": "DT_HALF"}}}, {"name": "StatefulPartitionedCall/model/block5d_project_conv/Conv2D_bn_offset", "op": "Const", "attr": {"value": {"tensor": {"dtype": "DT_FLOAT", "tensorShape": {"dim": [{"size": "112"}]}}}, "dtype": {"type": "DT_FLOAT"}}}, {"name": "StatefulPartitionedCall/model/block5e_expand_conv/Conv2D_weights", "op": "Const", "attr": {"dtype": {"type": "DT_HALF"}, "value": {"tensor": {"dtype": "DT_HALF", "tensorShape": {"dim": [{"size": "1"}, {"size": "1"}, {"size": "112"}, {"size": "672"}]}}}}}, {"name": "StatefulPartitionedCall/model/block5e_expand_conv/Conv2D_bn_offset", "op": "Const", "attr": {"value": {"tensor": {"dtype": "DT_FLOAT", "tensorShape": {"dim": [{"size": "672"}]}}}, "dtype": {"type": "DT_FLOAT"}}}, {"name": "StatefulPartitionedCall/model/block5e_dwconv2/depthwise_weights", "op": "Const", "attr": {"dtype": {"type": "DT_HALF"}, "value": {"tensor": {"dtype": "DT_HALF", "tensorShape": {"dim": [{"size": "3"}, {"size": "3"}, {"size": "672"}, {"size": "1"}]}}}}}, {"name": "StatefulPartitionedCall/model/block5e_dwconv2/depthwise_bn_offset", "op": "Const", "attr": {"dtype": {"type": "DT_FLOAT"}, "value": {"tensor": {"dtype": "DT_FLOAT", "tensorShape": {"dim": [{"size": "672"}]}}}}}, {"name": "StatefulPartitionedCall/model/block5e_project_conv/Conv2D_weights", "op": "Const", "attr": {"dtype": {"type": "DT_HALF"}, "value": {"tensor": {"dtype": "DT_HALF", "tensorShape": {"dim": [{"size": "1"}, {"size": "1"}, {"size": "672"}, {"size": "112"}]}}}}}, {"name": "StatefulPartitionedCall/model/block5e_project_conv/Conv2D_bn_offset", "op": "Const", "attr": {"value": {"tensor": {"dtype": "DT_FLOAT", "tensorShape": {"dim": [{"size": "112"}]}}}, "dtype": {"type": "DT_FLOAT"}}}, {"name": "StatefulPartitionedCall/model/block6a_expand_conv/Conv2D_weights", "op": "Const", "attr": {"value": {"tensor": {"dtype": "DT_HALF", "tensorShape": {"dim": [{"size": "1"}, {"size": "1"}, {"size": "112"}, {"size": "672"}]}}}, "dtype": {"type": "DT_HALF"}}}, {"name": "StatefulPartitionedCall/model/block6a_expand_conv/Conv2D_bn_offset", "op": "Const", "attr": {"dtype": {"type": "DT_FLOAT"}, "value": {"tensor": {"dtype": "DT_FLOAT", "tensorShape": {"dim": [{"size": "672"}]}}}}}, {"name": "StatefulPartitionedCall/model/block6a_dwconv2/depthwise_weights", "op": "Const", "attr": {"dtype": {"type": "DT_HALF"}, "value": {"tensor": {"dtype": "DT_HALF", "tensorShape": {"dim": [{"size": "3"}, {"size": "3"}, {"size": "672"}, {"size": "1"}]}}}}}, {"name": "StatefulPartitionedCall/model/block6a_dwconv2/depthwise_bn_offset", "op": "Const", "attr": {"dtype": {"type": "DT_FLOAT"}, "value": {"tensor": {"dtype": "DT_FLOAT", "tensorShape": {"dim": [{"size": "672"}]}}}}}, {"name": "StatefulPartitionedCall/model/block6a_project_conv/Conv2D_weights", "op": "Const", "attr": {"dtype": {"type": "DT_HALF"}, "value": {"tensor": {"dtype": "DT_HALF", "tensorShape": {"dim": [{"size": "1"}, {"size": "1"}, {"size": "672"}, {"size": "192"}]}}}}}, {"name": "StatefulPartitionedCall/model/block6a_project_conv/Conv2D_bn_offset", "op": "Const", "attr": {"dtype": {"type": "DT_FLOAT"}, "value": {"tensor": {"dtype": "DT_FLOAT", "tensorShape": {"dim": [{"size": "192"}]}}}}}, {"name": "StatefulPartitionedCall/model/block6b_expand_conv/Conv2D_weights", "op": "Const", "attr": {"dtype": {"type": "DT_HALF"}, "value": {"tensor": {"dtype": "DT_HALF", "tensorShape": {"dim": [{"size": "1"}, {"size": "1"}, {"size": "192"}, {"size": "1152"}]}}}}}, {"name": "StatefulPartitionedCall/model/block6b_expand_conv/Conv2D_bn_offset", "op": "Const", "attr": {"value": {"tensor": {"dtype": "DT_FLOAT", "tensorShape": {"dim": [{"size": "1152"}]}}}, "dtype": {"type": "DT_FLOAT"}}}, {"name": "StatefulPartitionedCall/model/block6b_dwconv2/depthwise_weights", "op": "Const", "attr": {"dtype": {"type": "DT_HALF"}, "value": {"tensor": {"dtype": "DT_HALF", "tensorShape": {"dim": [{"size": "3"}, {"size": "3"}, {"size": "1152"}, {"size": "1"}]}}}}}, {"name": "StatefulPartitionedCall/model/block6b_dwconv2/depthwise_bn_offset", "op": "Const", "attr": {"value": {"tensor": {"dtype": "DT_FLOAT", "tensorShape": {"dim": [{"size": "1152"}]}}}, "dtype": {"type": "DT_FLOAT"}}}, {"name": "StatefulPartitionedCall/model/block6b_project_conv/Conv2D_weights", "op": "Const", "attr": {"value": {"tensor": {"dtype": "DT_HALF", "tensorShape": {"dim": [{"size": "1"}, {"size": "1"}, {"size": "1152"}, {"size": "192"}]}}}, "dtype": {"type": "DT_HALF"}}}, {"name": "StatefulPartitionedCall/model/block6b_project_conv/Conv2D_bn_offset", "op": "Const", "attr": {"value": {"tensor": {"dtype": "DT_FLOAT", "tensorShape": {"dim": [{"size": "192"}]}}}, "dtype": {"type": "DT_FLOAT"}}}, {"name": "StatefulPartitionedCall/model/block6c_expand_conv/Conv2D_weights", "op": "Const", "attr": {"dtype": {"type": "DT_HALF"}, "value": {"tensor": {"dtype": "DT_HALF", "tensorShape": {"dim": [{"size": "1"}, {"size": "1"}, {"size": "192"}, {"size": "1152"}]}}}}}, {"name": "StatefulPartitionedCall/model/block6c_expand_conv/Conv2D_bn_offset", "op": "Const", "attr": {"dtype": {"type": "DT_FLOAT"}, "value": {"tensor": {"dtype": "DT_FLOAT", "tensorShape": {"dim": [{"size": "1152"}]}}}}}, {"name": "StatefulPartitionedCall/model/block6c_dwconv2/depthwise_weights", "op": "Const", "attr": {"dtype": {"type": "DT_HALF"}, "value": {"tensor": {"dtype": "DT_HALF", "tensorShape": {"dim": [{"size": "3"}, {"size": "3"}, {"size": "1152"}, {"size": "1"}]}}}}}, {"name": "StatefulPartitionedCall/model/block6c_dwconv2/depthwise_bn_offset", "op": "Const", "attr": {"dtype": {"type": "DT_FLOAT"}, "value": {"tensor": {"dtype": "DT_FLOAT", "tensorShape": {"dim": [{"size": "1152"}]}}}}}, {"name": "StatefulPartitionedCall/model/block6c_project_conv/Conv2D_weights", "op": "Const", "attr": {"value": {"tensor": {"dtype": "DT_HALF", "tensorShape": {"dim": [{"size": "1"}, {"size": "1"}, {"size": "1152"}, {"size": "192"}]}}}, "dtype": {"type": "DT_HALF"}}}, {"name": "StatefulPartitionedCall/model/block6c_project_conv/Conv2D_bn_offset", "op": "Const", "attr": {"dtype": {"type": "DT_FLOAT"}, "value": {"tensor": {"dtype": "DT_FLOAT", "tensorShape": {"dim": [{"size": "192"}]}}}}}, {"name": "StatefulPartitionedCall/model/block6d_expand_conv/Conv2D_weights", "op": "Const", "attr": {"value": {"tensor": {"dtype": "DT_HALF", "tensorShape": {"dim": [{"size": "1"}, {"size": "1"}, {"size": "192"}, {"size": "1152"}]}}}, "dtype": {"type": "DT_HALF"}}}, {"name": "StatefulPartitionedCall/model/block6d_expand_conv/Conv2D_bn_offset", "op": "Const", "attr": {"dtype": {"type": "DT_FLOAT"}, "value": {"tensor": {"dtype": "DT_FLOAT", "tensorShape": {"dim": [{"size": "1152"}]}}}}}, {"name": "StatefulPartitionedCall/model/block6d_dwconv2/depthwise_weights", "op": "Const", "attr": {"dtype": {"type": "DT_HALF"}, "value": {"tensor": {"dtype": "DT_HALF", "tensorShape": {"dim": [{"size": "3"}, {"size": "3"}, {"size": "1152"}, {"size": "1"}]}}}}}, {"name": "StatefulPartitionedCall/model/block6d_dwconv2/depthwise_bn_offset", "op": "Const", "attr": {"dtype": {"type": "DT_FLOAT"}, "value": {"tensor": {"dtype": "DT_FLOAT", "tensorShape": {"dim": [{"size": "1152"}]}}}}}, {"name": "StatefulPartitionedCall/model/block6d_project_conv/Conv2D_weights", "op": "Const", "attr": {"dtype": {"type": "DT_HALF"}, "value": {"tensor": {"dtype": "DT_HALF", "tensorShape": {"dim": [{"size": "1"}, {"size": "1"}, {"size": "1152"}, {"size": "192"}]}}}}}, {"name": "StatefulPartitionedCall/model/block6d_project_conv/Conv2D_bn_offset", "op": "Const", "attr": {"value": {"tensor": {"dtype": "DT_FLOAT", "tensorShape": {"dim": [{"size": "192"}]}}}, "dtype": {"type": "DT_FLOAT"}}}, {"name": "StatefulPartitionedCall/model/block6e_expand_conv/Conv2D_weights", "op": "Const", "attr": {"dtype": {"type": "DT_HALF"}, "value": {"tensor": {"dtype": "DT_HALF", "tensorShape": {"dim": [{"size": "1"}, {"size": "1"}, {"size": "192"}, {"size": "1152"}]}}}}}, {"name": "StatefulPartitionedCall/model/block6e_expand_conv/Conv2D_bn_offset", "op": "Const", "attr": {"value": {"tensor": {"dtype": "DT_FLOAT", "tensorShape": {"dim": [{"size": "1152"}]}}}, "dtype": {"type": "DT_FLOAT"}}}, {"name": "StatefulPartitionedCall/model/block6e_dwconv2/depthwise_weights", "op": "Const", "attr": {"dtype": {"type": "DT_HALF"}, "value": {"tensor": {"dtype": "DT_HALF", "tensorShape": {"dim": [{"size": "3"}, {"size": "3"}, {"size": "1152"}, {"size": "1"}]}}}}}, {"name": "StatefulPartitionedCall/model/block6e_dwconv2/depthwise_bn_offset", "op": "Const", "attr": {"dtype": {"type": "DT_FLOAT"}, "value": {"tensor": {"dtype": "DT_FLOAT", "tensorShape": {"dim": [{"size": "1152"}]}}}}}, {"name": "StatefulPartitionedCall/model/block6e_project_conv/Conv2D_weights", "op": "Const", "attr": {"dtype": {"type": "DT_HALF"}, "value": {"tensor": {"dtype": "DT_HALF", "tensorShape": {"dim": [{"size": "1"}, {"size": "1"}, {"size": "1152"}, {"size": "192"}]}}}}}, {"name": "StatefulPartitionedCall/model/block6e_project_conv/Conv2D_bn_offset", "op": "Const", "attr": {"value": {"tensor": {"dtype": "DT_FLOAT", "tensorShape": {"dim": [{"size": "192"}]}}}, "dtype": {"type": "DT_FLOAT"}}}, {"name": "StatefulPartitionedCall/model/block6f_expand_conv/Conv2D_weights", "op": "Const", "attr": {"value": {"tensor": {"dtype": "DT_HALF", "tensorShape": {"dim": [{"size": "1"}, {"size": "1"}, {"size": "192"}, {"size": "1152"}]}}}, "dtype": {"type": "DT_HALF"}}}, {"name": "StatefulPartitionedCall/model/block6f_expand_conv/Conv2D_bn_offset", "op": "Const", "attr": {"value": {"tensor": {"dtype": "DT_FLOAT", "tensorShape": {"dim": [{"size": "1152"}]}}}, "dtype": {"type": "DT_FLOAT"}}}, {"name": "StatefulPartitionedCall/model/block6f_dwconv2/depthwise_weights", "op": "Const", "attr": {"value": {"tensor": {"dtype": "DT_HALF", "tensorShape": {"dim": [{"size": "3"}, {"size": "3"}, {"size": "1152"}, {"size": "1"}]}}}, "dtype": {"type": "DT_HALF"}}}, {"name": "StatefulPartitionedCall/model/block6f_dwconv2/depthwise_bn_offset", "op": "Const", "attr": {"value": {"tensor": {"dtype": "DT_FLOAT", "tensorShape": {"dim": [{"size": "1152"}]}}}, "dtype": {"type": "DT_FLOAT"}}}, {"name": "StatefulPartitionedCall/model/block6f_project_conv/Conv2D_weights", "op": "Const", "attr": {"dtype": {"type": "DT_HALF"}, "value": {"tensor": {"dtype": "DT_HALF", "tensorShape": {"dim": [{"size": "1"}, {"size": "1"}, {"size": "1152"}, {"size": "192"}]}}}}}, {"name": "StatefulPartitionedCall/model/block6f_project_conv/Conv2D_bn_offset", "op": "Const", "attr": {"value": {"tensor": {"dtype": "DT_FLOAT", "tensorShape": {"dim": [{"size": "192"}]}}}, "dtype": {"type": "DT_FLOAT"}}}, {"name": "StatefulPartitionedCall/model/block6g_expand_conv/Conv2D_weights", "op": "Const", "attr": {"value": {"tensor": {"dtype": "DT_HALF", "tensorShape": {"dim": [{"size": "1"}, {"size": "1"}, {"size": "192"}, {"size": "1152"}]}}}, "dtype": {"type": "DT_HALF"}}}, {"name": "StatefulPartitionedCall/model/block6g_expand_conv/Conv2D_bn_offset", "op": "Const", "attr": {"dtype": {"type": "DT_FLOAT"}, "value": {"tensor": {"dtype": "DT_FLOAT", "tensorShape": {"dim": [{"size": "1152"}]}}}}}, {"name": "StatefulPartitionedCall/model/block6g_dwconv2/depthwise_weights", "op": "Const", "attr": {"dtype": {"type": "DT_HALF"}, "value": {"tensor": {"dtype": "DT_HALF", "tensorShape": {"dim": [{"size": "3"}, {"size": "3"}, {"size": "1152"}, {"size": "1"}]}}}}}, {"name": "StatefulPartitionedCall/model/block6g_dwconv2/depthwise_bn_offset", "op": "Const", "attr": {"value": {"tensor": {"dtype": "DT_FLOAT", "tensorShape": {"dim": [{"size": "1152"}]}}}, "dtype": {"type": "DT_FLOAT"}}}, {"name": "StatefulPartitionedCall/model/block6g_project_conv/Conv2D_weights", "op": "Const", "attr": {"dtype": {"type": "DT_HALF"}, "value": {"tensor": {"dtype": "DT_HALF", "tensorShape": {"dim": [{"size": "1"}, {"size": "1"}, {"size": "1152"}, {"size": "192"}]}}}}}, {"name": "StatefulPartitionedCall/model/block6g_project_conv/Conv2D_bn_offset", "op": "Const", "attr": {"dtype": {"type": "DT_FLOAT"}, "value": {"tensor": {"dtype": "DT_FLOAT", "tensorShape": {"dim": [{"size": "192"}]}}}}}, {"name": "StatefulPartitionedCall/model/block6h_expand_conv/Conv2D_weights", "op": "Const", "attr": {"dtype": {"type": "DT_HALF"}, "value": {"tensor": {"dtype": "DT_HALF", "tensorShape": {"dim": [{"size": "1"}, {"size": "1"}, {"size": "192"}, {"size": "1152"}]}}}}}, {"name": "StatefulPartitionedCall/model/block6h_expand_conv/Conv2D_bn_offset", "op": "Const", "attr": {"value": {"tensor": {"dtype": "DT_FLOAT", "tensorShape": {"dim": [{"size": "1152"}]}}}, "dtype": {"type": "DT_FLOAT"}}}, {"name": "StatefulPartitionedCall/model/block6h_dwconv2/depthwise_weights", "op": "Const", "attr": {"value": {"tensor": {"dtype": "DT_HALF", "tensorShape": {"dim": [{"size": "3"}, {"size": "3"}, {"size": "1152"}, {"size": "1"}]}}}, "dtype": {"type": "DT_HALF"}}}, {"name": "StatefulPartitionedCall/model/block6h_dwconv2/depthwise_bn_offset", "op": "Const", "attr": {"value": {"tensor": {"dtype": "DT_FLOAT", "tensorShape": {"dim": [{"size": "1152"}]}}}, "dtype": {"type": "DT_FLOAT"}}}, {"name": "StatefulPartitionedCall/model/block6h_project_conv/Conv2D_weights", "op": "Const", "attr": {"value": {"tensor": {"dtype": "DT_HALF", "tensorShape": {"dim": [{"size": "1"}, {"size": "1"}, {"size": "1152"}, {"size": "192"}]}}}, "dtype": {"type": "DT_HALF"}}}, {"name": "StatefulPartitionedCall/model/block6h_project_conv/Conv2D_bn_offset", "op": "Const", "attr": {"dtype": {"type": "DT_FLOAT"}, "value": {"tensor": {"dtype": "DT_FLOAT", "tensorShape": {"dim": [{"size": "192"}]}}}}}, {"name": "StatefulPartitionedCall/model/top_conv/Conv2D_weights", "op": "Const", "attr": {"value": {"tensor": {"dtype": "DT_HALF", "tensorShape": {"dim": [{"size": "1"}, {"size": "1"}, {"size": "192"}, {"size": "1280"}]}}}, "dtype": {"type": "DT_HALF"}}}, {"name": "StatefulPartitionedCall/model/top_conv/Conv2D_bn_offset", "op": "Const", "attr": {"dtype": {"type": "DT_FLOAT"}, "value": {"tensor": {"dtype": "DT_FLOAT", "tensorShape": {"dim": [{"size": "1280"}]}}}}}, {"name": "StatefulPartitionedCall/model/stem_conv/Cast", "op": "Cast", "input": ["input"], "attr": {"DstT": {"type": "DT_HALF"}, "SrcT": {"type": "DT_FLOAT"}, "Truncate": {"b": false}}}, {"name": "StatefulPartitionedCall/model/stem_conv/Conv2D", "op": "Conv2D", "input": ["StatefulPartitionedCall/model/stem_conv/Cast", "StatefulPartitionedCall/model/stem_conv/Conv2D_weights"], "device": "/device:CPU:0", "attr": {"use_cudnn_on_gpu": {"b": true}, "data_format": {"s": "TkhXQw=="}, "strides": {"list": {"i": ["1", "2", "2", "1"]}}, "dilations": {"list": {"i": ["1", "1", "1", "1"]}}, "explicit_paddings": {"list": {}}, "T": {"type": "DT_HALF"}, "padding": {"s": "U0FNRQ=="}}}, {"name": "StatefulPartitionedCall/model/stem_bn/FusedBatchNormV3", "op": "BiasAdd", "input": ["StatefulPartitionedCall/model/stem_conv/Conv2D", "StatefulPartitionedCall/model/stem_conv/Conv2D_bn_offset"], "attr": {"data_format": {"s": "TkhXQw=="}, "T": {"type": "DT_HALF"}}}, {"name": "StatefulPartitionedCall/model/stem_activation/Sigmoid", "op": "Sigmoid", "input": ["StatefulPartitionedCall/model/stem_bn/FusedBatchNormV3"], "attr": {"T": {"type": "DT_HALF"}}}, {"name": "StatefulPartitionedCall/model/stem_activation/mul_1", "op": "Mul", "input": ["StatefulPartitionedCall/model/stem_bn/FusedBatchNormV3", "StatefulPartitionedCall/model/stem_activation/Sigmoid"], "attr": {"T": {"type": "DT_HALF"}}}, {"name": "StatefulPartitionedCall/model/block1a_project_conv/Conv2D", "op": "Conv2D", "input": ["StatefulPartitionedCall/model/stem_activation/mul_1", "StatefulPartitionedCall/model/block1a_project_conv/Conv2D_weights"], "device": "/device:CPU:0", "attr": {"use_cudnn_on_gpu": {"b": true}, "strides": {"list": {"i": ["1", "1", "1", "1"]}}, "T": {"type": "DT_HALF"}, "explicit_paddings": {"list": {}}, "data_format": {"s": "TkhXQw=="}, "dilations": {"list": {"i": ["1", "1", "1", "1"]}}, "padding": {"s": "U0FNRQ=="}}}, {"name": "StatefulPartitionedCall/model/block1a_project_bn/FusedBatchNormV3", "op": "BiasAdd", "input": ["StatefulPartitionedCall/model/block1a_project_conv/Conv2D", "StatefulPartitionedCall/model/block1a_project_conv/Conv2D_bn_offset"], "attr": {"T": {"type": "DT_HALF"}, "data_format": {"s": "TkhXQw=="}}}, {"name": "StatefulPartitionedCall/model/block1a_project_activation/Sigmoid", "op": "Sigmoid", "input": ["StatefulPartitionedCall/model/block1a_project_bn/FusedBatchNormV3"], "attr": {"T": {"type": "DT_HALF"}}}, {"name": "StatefulPartitionedCall/model/block1a_project_activation/mul_1", "op": "Mul", "input": ["StatefulPartitionedCall/model/block1a_project_bn/FusedBatchNormV3", "StatefulPartitionedCall/model/block1a_project_activation/Sigmoid"], "attr": {"T": {"type": "DT_HALF"}}}, {"name": "StatefulPartitionedCall/model/block2a_expand_conv/Conv2D", "op": "Conv2D", "input": ["StatefulPartitionedCall/model/block1a_project_activation/mul_1", "StatefulPartitionedCall/model/block2a_expand_conv/Conv2D_weights"], "device": "/device:CPU:0", "attr": {"dilations": {"list": {"i": ["1", "1", "1", "1"]}}, "padding": {"s": "U0FNRQ=="}, "T": {"type": "DT_HALF"}, "data_format": {"s": "TkhXQw=="}, "explicit_paddings": {"list": {}}, "strides": {"list": {"i": ["1", "2", "2", "1"]}}, "use_cudnn_on_gpu": {"b": true}}}, {"name": "StatefulPartitionedCall/model/block2a_expand_bn/FusedBatchNormV3", "op": "BiasAdd", "input": ["StatefulPartitionedCall/model/block2a_expand_conv/Conv2D", "StatefulPartitionedCall/model/block2a_expand_conv/Conv2D_bn_offset"], "attr": {"data_format": {"s": "TkhXQw=="}, "T": {"type": "DT_HALF"}}}, {"name": "StatefulPartitionedCall/model/block2a_expand_activation/Sigmoid", "op": "Sigmoid", "input": ["StatefulPartitionedCall/model/block2a_expand_bn/FusedBatchNormV3"], "attr": {"T": {"type": "DT_HALF"}}}, {"name": "StatefulPartitionedCall/model/block2a_expand_activation/mul_1", "op": "Mul", "input": ["StatefulPartitionedCall/model/block2a_expand_bn/FusedBatchNormV3", "StatefulPartitionedCall/model/block2a_expand_activation/Sigmoid"], "attr": {"T": {"type": "DT_HALF"}}}, {"name": "StatefulPartitionedCall/model/block2a_project_conv/Conv2D", "op": "Conv2D", "input": ["StatefulPartitionedCall/model/block2a_expand_activation/mul_1", "StatefulPartitionedCall/model/block2a_project_conv/Conv2D_weights"], "device": "/device:CPU:0", "attr": {"dilations": {"list": {"i": ["1", "1", "1", "1"]}}, "explicit_paddings": {"list": {}}, "data_format": {"s": "TkhXQw=="}, "padding": {"s": "U0FNRQ=="}, "T": {"type": "DT_HALF"}, "use_cudnn_on_gpu": {"b": true}, "strides": {"list": {"i": ["1", "1", "1", "1"]}}}}, {"name": "StatefulPartitionedCall/model/block2a_project_bn/FusedBatchNormV3", "op": "BiasAdd", "input": ["StatefulPartitionedCall/model/block2a_project_conv/Conv2D", "StatefulPartitionedCall/model/block2a_project_conv/Conv2D_bn_offset"], "attr": {"T": {"type": "DT_HALF"}, "data_format": {"s": "TkhXQw=="}}}, {"name": "StatefulPartitionedCall/model/block2b_expand_conv/Conv2D", "op": "Conv2D", "input": ["StatefulPartitionedCall/model/block2a_project_bn/FusedBatchNormV3", "StatefulPartitionedCall/model/block2b_expand_conv/Conv2D_weights"], "device": "/device:CPU:0", "attr": {"padding": {"s": "U0FNRQ=="}, "data_format": {"s": "TkhXQw=="}, "explicit_paddings": {"list": {}}, "dilations": {"list": {"i": ["1", "1", "1", "1"]}}, "strides": {"list": {"i": ["1", "1", "1", "1"]}}, "T": {"type": "DT_HALF"}, "use_cudnn_on_gpu": {"b": true}}}, {"name": "StatefulPartitionedCall/model/block2b_expand_bn/FusedBatchNormV3", "op": "BiasAdd", "input": ["StatefulPartitionedCall/model/block2b_expand_conv/Conv2D", "StatefulPartitionedCall/model/block2b_expand_conv/Conv2D_bn_offset"], "attr": {"data_format": {"s": "TkhXQw=="}, "T": {"type": "DT_HALF"}}}, {"name": "StatefulPartitionedCall/model/block2b_expand_activation/Sigmoid", "op": "Sigmoid", "input": ["StatefulPartitionedCall/model/block2b_expand_bn/FusedBatchNormV3"], "attr": {"T": {"type": "DT_HALF"}}}, {"name": "StatefulPartitionedCall/model/block2b_expand_activation/mul_1", "op": "Mul", "input": ["StatefulPartitionedCall/model/block2b_expand_bn/FusedBatchNormV3", "StatefulPartitionedCall/model/block2b_expand_activation/Sigmoid"], "attr": {"T": {"type": "DT_HALF"}}}, {"name": "StatefulPartitionedCall/model/block2b_project_conv/Conv2D", "op": "Conv2D", "input": ["StatefulPartitionedCall/model/block2b_expand_activation/mul_1", "StatefulPartitionedCall/model/block2b_project_conv/Conv2D_weights"], "device": "/device:CPU:0", "attr": {"padding": {"s": "U0FNRQ=="}, "dilations": {"list": {"i": ["1", "1", "1", "1"]}}, "T": {"type": "DT_HALF"}, "strides": {"list": {"i": ["1", "1", "1", "1"]}}, "use_cudnn_on_gpu": {"b": true}, "explicit_paddings": {"list": {}}, "data_format": {"s": "TkhXQw=="}}}, {"name": "StatefulPartitionedCall/model/block2b_project_bn/FusedBatchNormV3", "op": "BiasAdd", "input": ["StatefulPartitionedCall/model/block2b_project_conv/Conv2D", "StatefulPartitionedCall/model/block2b_project_conv/Conv2D_bn_offset"], "attr": {"T": {"type": "DT_HALF"}, "data_format": {"s": "TkhXQw=="}}}, {"name": "StatefulPartitionedCall/model/block2b_add/add", "op": "AddV2", "input": ["StatefulPartitionedCall/model/block2b_project_bn/FusedBatchNormV3", "StatefulPartitionedCall/model/block2a_project_bn/FusedBatchNormV3"], "attr": {"T": {"type": "DT_HALF"}}}, {"name": "StatefulPartitionedCall/model/block3a_expand_conv/Conv2D", "op": "Conv2D", "input": ["StatefulPartitionedCall/model/block2b_add/add", "StatefulPartitionedCall/model/block3a_expand_conv/Conv2D_weights"], "device": "/device:CPU:0", "attr": {"dilations": {"list": {"i": ["1", "1", "1", "1"]}}, "padding": {"s": "U0FNRQ=="}, "T": {"type": "DT_HALF"}, "explicit_paddings": {"list": {}}, "strides": {"list": {"i": ["1", "2", "2", "1"]}}, "use_cudnn_on_gpu": {"b": true}, "data_format": {"s": "TkhXQw=="}}}, {"name": "StatefulPartitionedCall/model/block3a_expand_bn/FusedBatchNormV3", "op": "BiasAdd", "input": ["StatefulPartitionedCall/model/block3a_expand_conv/Conv2D", "StatefulPartitionedCall/model/block3a_expand_conv/Conv2D_bn_offset"], "attr": {"data_format": {"s": "TkhXQw=="}, "T": {"type": "DT_HALF"}}}, {"name": "StatefulPartitionedCall/model/block3a_expand_activation/Sigmoid", "op": "Sigmoid", "input": ["StatefulPartitionedCall/model/block3a_expand_bn/FusedBatchNormV3"], "attr": {"T": {"type": "DT_HALF"}}}, {"name": "StatefulPartitionedCall/model/block3a_expand_activation/mul_1", "op": "Mul", "input": ["StatefulPartitionedCall/model/block3a_expand_bn/FusedBatchNormV3", "StatefulPartitionedCall/model/block3a_expand_activation/Sigmoid"], "attr": {"T": {"type": "DT_HALF"}}}, {"name": "StatefulPartitionedCall/model/block3a_project_conv/Conv2D", "op": "Conv2D", "input": ["StatefulPartitionedCall/model/block3a_expand_activation/mul_1", "StatefulPartitionedCall/model/block3a_project_conv/Conv2D_weights"], "device": "/device:CPU:0", "attr": {"data_format": {"s": "TkhXQw=="}, "dilations": {"list": {"i": ["1", "1", "1", "1"]}}, "padding": {"s": "U0FNRQ=="}, "explicit_paddings": {"list": {}}, "T": {"type": "DT_HALF"}, "strides": {"list": {"i": ["1", "1", "1", "1"]}}, "use_cudnn_on_gpu": {"b": true}}}, {"name": "StatefulPartitionedCall/model/block3a_project_bn/FusedBatchNormV3", "op": "BiasAdd", "input": ["StatefulPartitionedCall/model/block3a_project_conv/Conv2D", "StatefulPartitionedCall/model/block3a_project_conv/Conv2D_bn_offset"], "attr": {"T": {"type": "DT_HALF"}, "data_format": {"s": "TkhXQw=="}}}, {"name": "StatefulPartitionedCall/model/block3b_expand_conv/Conv2D", "op": "Conv2D", "input": ["StatefulPartitionedCall/model/block3a_project_bn/FusedBatchNormV3", "StatefulPartitionedCall/model/block3b_expand_conv/Conv2D_weights"], "device": "/device:CPU:0", "attr": {"padding": {"s": "U0FNRQ=="}, "strides": {"list": {"i": ["1", "1", "1", "1"]}}, "use_cudnn_on_gpu": {"b": true}, "data_format": {"s": "TkhXQw=="}, "T": {"type": "DT_HALF"}, "explicit_paddings": {"list": {}}, "dilations": {"list": {"i": ["1", "1", "1", "1"]}}}}, {"name": "StatefulPartitionedCall/model/block3b_expand_bn/FusedBatchNormV3", "op": "BiasAdd", "input": ["StatefulPartitionedCall/model/block3b_expand_conv/Conv2D", "StatefulPartitionedCall/model/block3b_expand_conv/Conv2D_bn_offset"], "attr": {"T": {"type": "DT_HALF"}, "data_format": {"s": "TkhXQw=="}}}, {"name": "StatefulPartitionedCall/model/block3b_expand_activation/Sigmoid", "op": "Sigmoid", "input": ["StatefulPartitionedCall/model/block3b_expand_bn/FusedBatchNormV3"], "attr": {"T": {"type": "DT_HALF"}}}, {"name": "StatefulPartitionedCall/model/block3b_expand_activation/mul_1", "op": "Mul", "input": ["StatefulPartitionedCall/model/block3b_expand_bn/FusedBatchNormV3", "StatefulPartitionedCall/model/block3b_expand_activation/Sigmoid"], "attr": {"T": {"type": "DT_HALF"}}}, {"name": "StatefulPartitionedCall/model/block3b_project_conv/Conv2D", "op": "Conv2D", "input": ["StatefulPartitionedCall/model/block3b_expand_activation/mul_1", "StatefulPartitionedCall/model/block3b_project_conv/Conv2D_weights"], "device": "/device:CPU:0", "attr": {"padding": {"s": "U0FNRQ=="}, "explicit_paddings": {"list": {}}, "strides": {"list": {"i": ["1", "1", "1", "1"]}}, "dilations": {"list": {"i": ["1", "1", "1", "1"]}}, "T": {"type": "DT_HALF"}, "use_cudnn_on_gpu": {"b": true}, "data_format": {"s": "TkhXQw=="}}}, {"name": "StatefulPartitionedCall/model/block3b_project_bn/FusedBatchNormV3", "op": "BiasAdd", "input": ["StatefulPartitionedCall/model/block3b_project_conv/Conv2D", "StatefulPartitionedCall/model/block3b_project_conv/Conv2D_bn_offset"], "attr": {"data_format": {"s": "TkhXQw=="}, "T": {"type": "DT_HALF"}}}, {"name": "StatefulPartitionedCall/model/block3b_add/add", "op": "AddV2", "input": ["StatefulPartitionedCall/model/block3b_project_bn/FusedBatchNormV3", "StatefulPartitionedCall/model/block3a_project_bn/FusedBatchNormV3"], "attr": {"T": {"type": "DT_HALF"}}}, {"name": "StatefulPartitionedCall/model/block4a_expand_conv/Conv2D", "op": "Conv2D", "input": ["StatefulPartitionedCall/model/block3b_add/add", "StatefulPartitionedCall/model/block4a_expand_conv/Conv2D_weights"], "device": "/device:CPU:0", "attr": {"padding": {"s": "U0FNRQ=="}, "T": {"type": "DT_HALF"}, "use_cudnn_on_gpu": {"b": true}, "explicit_paddings": {"list": {}}, "strides": {"list": {"i": ["1", "1", "1", "1"]}}, "data_format": {"s": "TkhXQw=="}, "dilations": {"list": {"i": ["1", "1", "1", "1"]}}}}, {"name": "StatefulPartitionedCall/model/block4a_expand_bn/FusedBatchNormV3", "op": "BiasAdd", "input": ["StatefulPartitionedCall/model/block4a_expand_conv/Conv2D", "StatefulPartitionedCall/model/block4a_expand_conv/Conv2D_bn_offset"], "attr": {"data_format": {"s": "TkhXQw=="}, "T": {"type": "DT_HALF"}}}, {"name": "StatefulPartitionedCall/model/block4a_expand_activation/Sigmoid", "op": "Sigmoid", "input": ["StatefulPartitionedCall/model/block4a_expand_bn/FusedBatchNormV3"], "attr": {"T": {"type": "DT_HALF"}}}, {"name": "StatefulPartitionedCall/model/block4a_expand_activation/mul_1", "op": "Mul", "input": ["StatefulPartitionedCall/model/block4a_expand_bn/FusedBatchNormV3", "StatefulPartitionedCall/model/block4a_expand_activation/Sigmoid"], "attr": {"T": {"type": "DT_HALF"}}}, {"name": "StatefulPartitionedCall/model/block4a_dwconv2/depthwise", "op": "FusedDepthwiseConv2dNative", "input": ["StatefulPartitionedCall/model/block4a_expand_activation/mul_1", "StatefulPartitionedCall/model/block4a_dwconv2/depthwise_weights", "StatefulPartitionedCall/model/block4a_dwconv2/depthwise_bn_offset"], "attr": {"strides": {"list": {"i": ["1", "2", "2", "1"]}}, "fused_ops": {"list": {"s": ["Qmlhc0FkZA=="]}}, "dilations": {"list": {"i": ["1", "1", "1", "1"]}}, "padding": {"s": "U0FNRQ=="}, "explicit_paddings": {"list": {}}, "data_format": {"s": "TkhXQw=="}, "T": {"type": "DT_HALF"}, "num_args": {"i": "1"}}}, {"name": "StatefulPartitionedCall/model/block4a_activation/Sigmoid", "op": "Sigmoid", "input": ["StatefulPartitionedCall/model/block4a_dwconv2/depthwise"], "attr": {"T": {"type": "DT_HALF"}}}, {"name": "StatefulPartitionedCall/model/block4a_activation/mul_1", "op": "Mul", "input": ["StatefulPartitionedCall/model/block4a_dwconv2/depthwise", "StatefulPartitionedCall/model/block4a_activation/Sigmoid"], "attr": {"T": {"type": "DT_HALF"}}}, {"name": "StatefulPartitionedCall/model/block4a_se_squeeze/Mean", "op": "Mean", "input": ["StatefulPartitionedCall/model/block4a_activation/mul_1", "StatefulPartitionedCall/model/block4a_se_squeeze/Mean/reduction_indices"], "attr": {"Tidx": {"type": "DT_INT32"}, "keep_dims": {"b": false}, "T": {"type": "DT_HALF"}}}, {"name": "StatefulPartitionedCall/model/block4a_se_reshape/Shape", "op": "Shape", "input": ["StatefulPartitionedCall/model/block4a_se_squeeze/Mean"], "attr": {"out_type": {"type": "DT_INT32"}, "T": {"type": "DT_HALF"}}}, {"name": "StatefulPartitionedCall/model/block4a_se_reshape/strided_slice", "op": "StridedSlice", "input": ["StatefulPartitionedCall/model/block4a_se_reshape/Shape", "StatefulPartitionedCall/model/block4a_se_reshape/strided_slice/stack", "StatefulPartitionedCall/model/block4a_se_reshape/strided_slice/stack_1", "StatefulPartitionedCall/model/block4a_se_reshape/strided_slice/stack_2"], "attr": {"shrink_axis_mask": {"i": "1"}, "end_mask": {"i": "0"}, "ellipsis_mask": {"i": "0"}, "begin_mask": {"i": "0"}, "Index": {"type": "DT_INT32"}, "T": {"type": "DT_INT32"}, "new_axis_mask": {"i": "0"}}}, {"name": "StatefulPartitionedCall/model/block4a_se_reshape/Reshape/shape", "op": "Pack", "input": ["StatefulPartitionedCall/model/block4a_se_reshape/strided_slice", "StatefulPartitionedCall/model/block4a_se_reshape/Reshape/shape/1", "StatefulPartitionedCall/model/block4a_se_reshape/Reshape/shape/2", "StatefulPartitionedCall/model/block4a_se_reshape/Reshape/shape/3"], "attr": {"N": {"i": "4"}, "axis": {"i": "0"}, "T": {"type": "DT_INT32"}}}, {"name": "StatefulPartitionedCall/model/block4a_se_reshape/Reshape", "op": "Reshape", "input": ["StatefulPartitionedCall/model/block4a_se_squeeze/Mean", "StatefulPartitionedCall/model/block4a_se_reshape/Reshape/shape"], "attr": {"Tshape": {"type": "DT_INT32"}, "T": {"type": "DT_HALF"}}}, {"name": "StatefulPartitionedCall/model/block4a_se_reduce/Conv2D", "op": "Conv2D", "input": ["StatefulPartitionedCall/model/block4a_se_reshape/Reshape", "StatefulPartitionedCall/model/block4a_se_reduce/Conv2D/Cast"], "device": "/device:CPU:0", "attr": {"use_cudnn_on_gpu": {"b": true}, "padding": {"s": "U0FNRQ=="}, "dilations": {"list": {"i": ["1", "1", "1", "1"]}}, "T": {"type": "DT_HALF"}, "strides": {"list": {"i": ["1", "1", "1", "1"]}}, "explicit_paddings": {"list": {}}, "data_format": {"s": "TkhXQw=="}}}, {"name": "StatefulPartitionedCall/model/block4a_se_reduce/BiasAdd", "op": "BiasAdd", "input": ["StatefulPartitionedCall/model/block4a_se_reduce/Conv2D", "StatefulPartitionedCall/model/block4a_se_reduce/BiasAdd/Cast"], "attr": {"T": {"type": "DT_HALF"}, "data_format": {"s": "TkhXQw=="}}}, {"name": "StatefulPartitionedCall/model/block4a_se_reduce/Sigmoid", "op": "Sigmoid", "input": ["StatefulPartitionedCall/model/block4a_se_reduce/BiasAdd"], "attr": {"T": {"type": "DT_HALF"}}}, {"name": "StatefulPartitionedCall/model/block4a_se_reduce/mul_1", "op": "Mul", "input": ["StatefulPartitionedCall/model/block4a_se_reduce/BiasAdd", "StatefulPartitionedCall/model/block4a_se_reduce/Sigmoid"], "attr": {"T": {"type": "DT_HALF"}}}, {"name": "StatefulPartitionedCall/model/block4a_se_expand/Conv2D", "op": "Conv2D", "input": ["StatefulPartitionedCall/model/block4a_se_reduce/mul_1", "StatefulPartitionedCall/model/block4a_se_expand/Conv2D/Cast"], "device": "/device:CPU:0", "attr": {"strides": {"list": {"i": ["1", "1", "1", "1"]}}, "data_format": {"s": "TkhXQw=="}, "use_cudnn_on_gpu": {"b": true}, "explicit_paddings": {"list": {}}, "padding": {"s": "U0FNRQ=="}, "dilations": {"list": {"i": ["1", "1", "1", "1"]}}, "T": {"type": "DT_HALF"}}}, {"name": "StatefulPartitionedCall/model/block4a_se_expand/BiasAdd", "op": "BiasAdd", "input": ["StatefulPartitionedCall/model/block4a_se_expand/Conv2D", "StatefulPartitionedCall/model/block4a_se_expand/BiasAdd/Cast"], "attr": {"T": {"type": "DT_HALF"}, "data_format": {"s": "TkhXQw=="}}}, {"name": "StatefulPartitionedCall/model/block4a_se_expand/Sigmoid", "op": "Sigmoid", "input": ["StatefulPartitionedCall/model/block4a_se_expand/BiasAdd"], "attr": {"T": {"type": "DT_HALF"}}}, {"name": "StatefulPartitionedCall/model/block4a_se_excite/mul", "op": "Mul", "input": ["StatefulPartitionedCall/model/block4a_activation/mul_1", "StatefulPartitionedCall/model/block4a_se_expand/Sigmoid"], "attr": {"T": {"type": "DT_HALF"}}}, {"name": "StatefulPartitionedCall/model/block4a_project_conv/Conv2D", "op": "Conv2D", "input": ["StatefulPartitionedCall/model/block4a_se_excite/mul", "StatefulPartitionedCall/model/block4a_project_conv/Conv2D_weights"], "device": "/device:CPU:0", "attr": {"dilations": {"list": {"i": ["1", "1", "1", "1"]}}, "padding": {"s": "U0FNRQ=="}, "strides": {"list": {"i": ["1", "1", "1", "1"]}}, "T": {"type": "DT_HALF"}, "use_cudnn_on_gpu": {"b": true}, "data_format": {"s": "TkhXQw=="}, "explicit_paddings": {"list": {}}}}, {"name": "StatefulPartitionedCall/model/block4a_project_bn/FusedBatchNormV3", "op": "BiasAdd", "input": ["StatefulPartitionedCall/model/block4a_project_conv/Conv2D", "StatefulPartitionedCall/model/block4a_project_conv/Conv2D_bn_offset"], "attr": {"data_format": {"s": "TkhXQw=="}, "T": {"type": "DT_HALF"}}}, {"name": "StatefulPartitionedCall/model/block4b_expand_conv/Conv2D", "op": "Conv2D", "input": ["StatefulPartitionedCall/model/block4a_project_bn/FusedBatchNormV3", "StatefulPartitionedCall/model/block4b_expand_conv/Conv2D_weights"], "device": "/device:CPU:0", "attr": {"strides": {"list": {"i": ["1", "1", "1", "1"]}}, "explicit_paddings": {"list": {}}, "T": {"type": "DT_HALF"}, "dilations": {"list": {"i": ["1", "1", "1", "1"]}}, "use_cudnn_on_gpu": {"b": true}, "padding": {"s": "U0FNRQ=="}, "data_format": {"s": "TkhXQw=="}}}, {"name": "StatefulPartitionedCall/model/block4b_expand_bn/FusedBatchNormV3", "op": "BiasAdd", "input": ["StatefulPartitionedCall/model/block4b_expand_conv/Conv2D", "StatefulPartitionedCall/model/block4b_expand_conv/Conv2D_bn_offset"], "attr": {"T": {"type": "DT_HALF"}, "data_format": {"s": "TkhXQw=="}}}, {"name": "StatefulPartitionedCall/model/block4b_expand_activation/Sigmoid", "op": "Sigmoid", "input": ["StatefulPartitionedCall/model/block4b_expand_bn/FusedBatchNormV3"], "attr": {"T": {"type": "DT_HALF"}}}, {"name": "StatefulPartitionedCall/model/block4b_expand_activation/mul_1", "op": "Mul", "input": ["StatefulPartitionedCall/model/block4b_expand_bn/FusedBatchNormV3", "StatefulPartitionedCall/model/block4b_expand_activation/Sigmoid"], "attr": {"T": {"type": "DT_HALF"}}}, {"name": "StatefulPartitionedCall/model/block4b_dwconv2/depthwise", "op": "FusedDepthwiseConv2dNative", "input": ["StatefulPartitionedCall/model/block4b_expand_activation/mul_1", "StatefulPartitionedCall/model/block4b_dwconv2/depthwise_weights", "StatefulPartitionedCall/model/block4b_dwconv2/depthwise_bn_offset"], "attr": {"num_args": {"i": "1"}, "data_format": {"s": "TkhXQw=="}, "fused_ops": {"list": {"s": ["Qmlhc0FkZA=="]}}, "dilations": {"list": {"i": ["1", "1", "1", "1"]}}, "padding": {"s": "U0FNRQ=="}, "T": {"type": "DT_HALF"}, "strides": {"list": {"i": ["1", "1", "1", "1"]}}, "explicit_paddings": {"list": {}}}}, {"name": "StatefulPartitionedCall/model/block4b_activation/Sigmoid", "op": "Sigmoid", "input": ["StatefulPartitionedCall/model/block4b_dwconv2/depthwise"], "attr": {"T": {"type": "DT_HALF"}}}, {"name": "StatefulPartitionedCall/model/block4b_activation/mul_1", "op": "Mul", "input": ["StatefulPartitionedCall/model/block4b_dwconv2/depthwise", "StatefulPartitionedCall/model/block4b_activation/Sigmoid"], "attr": {"T": {"type": "DT_HALF"}}}, {"name": "StatefulPartitionedCall/model/block4b_se_squeeze/Mean", "op": "Mean", "input": ["StatefulPartitionedCall/model/block4b_activation/mul_1", "StatefulPartitionedCall/model/block4b_se_squeeze/Mean/reduction_indices"], "attr": {"keep_dims": {"b": false}, "Tidx": {"type": "DT_INT32"}, "T": {"type": "DT_HALF"}}}, {"name": "StatefulPartitionedCall/model/block4b_se_reshape/Shape", "op": "Shape", "input": ["StatefulPartitionedCall/model/block4b_se_squeeze/Mean"], "attr": {"T": {"type": "DT_HALF"}, "out_type": {"type": "DT_INT32"}}}, {"name": "StatefulPartitionedCall/model/block4b_se_reshape/strided_slice", "op": "StridedSlice", "input": ["StatefulPartitionedCall/model/block4b_se_reshape/Shape", "StatefulPartitionedCall/model/block4b_se_reshape/strided_slice/stack", "StatefulPartitionedCall/model/block4b_se_reshape/strided_slice/stack_1", "StatefulPartitionedCall/model/block4b_se_reshape/strided_slice/stack_2"], "attr": {"end_mask": {"i": "0"}, "shrink_axis_mask": {"i": "1"}, "ellipsis_mask": {"i": "0"}, "begin_mask": {"i": "0"}, "Index": {"type": "DT_INT32"}, "T": {"type": "DT_INT32"}, "new_axis_mask": {"i": "0"}}}, {"name": "StatefulPartitionedCall/model/block4b_se_reshape/Reshape/shape", "op": "Pack", "input": ["StatefulPartitionedCall/model/block4b_se_reshape/strided_slice", "StatefulPartitionedCall/model/block4b_se_reshape/Reshape/shape/1", "StatefulPartitionedCall/model/block4b_se_reshape/Reshape/shape/2", "StatefulPartitionedCall/model/block4b_se_reshape/Reshape/shape/3"], "attr": {"axis": {"i": "0"}, "T": {"type": "DT_INT32"}, "N": {"i": "4"}}}, {"name": "StatefulPartitionedCall/model/block4b_se_reshape/Reshape", "op": "Reshape", "input": ["StatefulPartitionedCall/model/block4b_se_squeeze/Mean", "StatefulPartitionedCall/model/block4b_se_reshape/Reshape/shape"], "attr": {"T": {"type": "DT_HALF"}, "Tshape": {"type": "DT_INT32"}}}, {"name": "StatefulPartitionedCall/model/block4b_se_reduce/Conv2D", "op": "Conv2D", "input": ["StatefulPartitionedCall/model/block4b_se_reshape/Reshape", "StatefulPartitionedCall/model/block4b_se_reduce/Conv2D/Cast"], "device": "/device:CPU:0", "attr": {"explicit_paddings": {"list": {}}, "use_cudnn_on_gpu": {"b": true}, "dilations": {"list": {"i": ["1", "1", "1", "1"]}}, "padding": {"s": "U0FNRQ=="}, "data_format": {"s": "TkhXQw=="}, "T": {"type": "DT_HALF"}, "strides": {"list": {"i": ["1", "1", "1", "1"]}}}}, {"name": "StatefulPartitionedCall/model/block4b_se_reduce/BiasAdd", "op": "BiasAdd", "input": ["StatefulPartitionedCall/model/block4b_se_reduce/Conv2D", "StatefulPartitionedCall/model/block4b_se_reduce/BiasAdd/Cast"], "attr": {"T": {"type": "DT_HALF"}, "data_format": {"s": "TkhXQw=="}}}, {"name": "StatefulPartitionedCall/model/block4b_se_reduce/Sigmoid", "op": "Sigmoid", "input": ["StatefulPartitionedCall/model/block4b_se_reduce/BiasAdd"], "attr": {"T": {"type": "DT_HALF"}}}, {"name": "StatefulPartitionedCall/model/block4b_se_reduce/mul_1", "op": "Mul", "input": ["StatefulPartitionedCall/model/block4b_se_reduce/BiasAdd", "StatefulPartitionedCall/model/block4b_se_reduce/Sigmoid"], "attr": {"T": {"type": "DT_HALF"}}}, {"name": "StatefulPartitionedCall/model/block4b_se_expand/Conv2D", "op": "Conv2D", "input": ["StatefulPartitionedCall/model/block4b_se_reduce/mul_1", "StatefulPartitionedCall/model/block4b_se_expand/Conv2D/Cast"], "device": "/device:CPU:0", "attr": {"dilations": {"list": {"i": ["1", "1", "1", "1"]}}, "use_cudnn_on_gpu": {"b": true}, "padding": {"s": "U0FNRQ=="}, "strides": {"list": {"i": ["1", "1", "1", "1"]}}, "data_format": {"s": "TkhXQw=="}, "T": {"type": "DT_HALF"}, "explicit_paddings": {"list": {}}}}, {"name": "StatefulPartitionedCall/model/block4b_se_expand/BiasAdd", "op": "BiasAdd", "input": ["StatefulPartitionedCall/model/block4b_se_expand/Conv2D", "StatefulPartitionedCall/model/block4b_se_expand/BiasAdd/Cast"], "attr": {"T": {"type": "DT_HALF"}, "data_format": {"s": "TkhXQw=="}}}, {"name": "StatefulPartitionedCall/model/block4b_se_expand/Sigmoid", "op": "Sigmoid", "input": ["StatefulPartitionedCall/model/block4b_se_expand/BiasAdd"], "attr": {"T": {"type": "DT_HALF"}}}, {"name": "StatefulPartitionedCall/model/block4b_se_excite/mul", "op": "Mul", "input": ["StatefulPartitionedCall/model/block4b_activation/mul_1", "StatefulPartitionedCall/model/block4b_se_expand/Sigmoid"], "attr": {"T": {"type": "DT_HALF"}}}, {"name": "StatefulPartitionedCall/model/block4b_project_conv/Conv2D", "op": "Conv2D", "input": ["StatefulPartitionedCall/model/block4b_se_excite/mul", "StatefulPartitionedCall/model/block4b_project_conv/Conv2D_weights"], "device": "/device:CPU:0", "attr": {"T": {"type": "DT_HALF"}, "strides": {"list": {"i": ["1", "1", "1", "1"]}}, "dilations": {"list": {"i": ["1", "1", "1", "1"]}}, "data_format": {"s": "TkhXQw=="}, "use_cudnn_on_gpu": {"b": true}, "padding": {"s": "U0FNRQ=="}, "explicit_paddings": {"list": {}}}}, {"name": "StatefulPartitionedCall/model/block4b_project_bn/FusedBatchNormV3", "op": "BiasAdd", "input": ["StatefulPartitionedCall/model/block4b_project_conv/Conv2D", "StatefulPartitionedCall/model/block4b_project_conv/Conv2D_bn_offset"], "attr": {"data_format": {"s": "TkhXQw=="}, "T": {"type": "DT_HALF"}}}, {"name": "StatefulPartitionedCall/model/block4b_add/add", "op": "AddV2", "input": ["StatefulPartitionedCall/model/block4b_project_bn/FusedBatchNormV3", "StatefulPartitionedCall/model/block4a_project_bn/FusedBatchNormV3"], "attr": {"T": {"type": "DT_HALF"}}}, {"name": "StatefulPartitionedCall/model/block4c_expand_conv/Conv2D", "op": "Conv2D", "input": ["StatefulPartitionedCall/model/block4b_add/add", "StatefulPartitionedCall/model/block4c_expand_conv/Conv2D_weights"], "device": "/device:CPU:0", "attr": {"strides": {"list": {"i": ["1", "1", "1", "1"]}}, "use_cudnn_on_gpu": {"b": true}, "padding": {"s": "U0FNRQ=="}, "dilations": {"list": {"i": ["1", "1", "1", "1"]}}, "data_format": {"s": "TkhXQw=="}, "explicit_paddings": {"list": {}}, "T": {"type": "DT_HALF"}}}, {"name": "StatefulPartitionedCall/model/block4c_expand_bn/FusedBatchNormV3", "op": "BiasAdd", "input": ["StatefulPartitionedCall/model/block4c_expand_conv/Conv2D", "StatefulPartitionedCall/model/block4c_expand_conv/Conv2D_bn_offset"], "attr": {"data_format": {"s": "TkhXQw=="}, "T": {"type": "DT_HALF"}}}, {"name": "StatefulPartitionedCall/model/block4c_expand_activation/Sigmoid", "op": "Sigmoid", "input": ["StatefulPartitionedCall/model/block4c_expand_bn/FusedBatchNormV3"], "attr": {"T": {"type": "DT_HALF"}}}, {"name": "StatefulPartitionedCall/model/block4c_expand_activation/mul_1", "op": "Mul", "input": ["StatefulPartitionedCall/model/block4c_expand_bn/FusedBatchNormV3", "StatefulPartitionedCall/model/block4c_expand_activation/Sigmoid"], "attr": {"T": {"type": "DT_HALF"}}}, {"name": "StatefulPartitionedCall/model/block4c_dwconv2/depthwise", "op": "FusedDepthwiseConv2dNative", "input": ["StatefulPartitionedCall/model/block4c_expand_activation/mul_1", "StatefulPartitionedCall/model/block4c_dwconv2/depthwise_weights", "StatefulPartitionedCall/model/block4c_dwconv2/depthwise_bn_offset"], "attr": {"fused_ops": {"list": {"s": ["Qmlhc0FkZA=="]}}, "strides": {"list": {"i": ["1", "1", "1", "1"]}}, "explicit_paddings": {"list": {}}, "data_format": {"s": "TkhXQw=="}, "padding": {"s": "U0FNRQ=="}, "dilations": {"list": {"i": ["1", "1", "1", "1"]}}, "num_args": {"i": "1"}, "T": {"type": "DT_HALF"}}}, {"name": "StatefulPartitionedCall/model/block4c_activation/Sigmoid", "op": "Sigmoid", "input": ["StatefulPartitionedCall/model/block4c_dwconv2/depthwise"], "attr": {"T": {"type": "DT_HALF"}}}, {"name": "StatefulPartitionedCall/model/block4c_activation/mul_1", "op": "Mul", "input": ["StatefulPartitionedCall/model/block4c_dwconv2/depthwise", "StatefulPartitionedCall/model/block4c_activation/Sigmoid"], "attr": {"T": {"type": "DT_HALF"}}}, {"name": "StatefulPartitionedCall/model/block4c_se_squeeze/Mean", "op": "Mean", "input": ["StatefulPartitionedCall/model/block4c_activation/mul_1", "StatefulPartitionedCall/model/block4c_se_squeeze/Mean/reduction_indices"], "attr": {"keep_dims": {"b": false}, "T": {"type": "DT_HALF"}, "Tidx": {"type": "DT_INT32"}}}, {"name": "StatefulPartitionedCall/model/block4c_se_reshape/Shape", "op": "Shape", "input": ["StatefulPartitionedCall/model/block4c_se_squeeze/Mean"], "attr": {"T": {"type": "DT_HALF"}, "out_type": {"type": "DT_INT32"}}}, {"name": "StatefulPartitionedCall/model/block4c_se_reshape/strided_slice", "op": "StridedSlice", "input": ["StatefulPartitionedCall/model/block4c_se_reshape/Shape", "StatefulPartitionedCall/model/block4c_se_reshape/strided_slice/stack", "StatefulPartitionedCall/model/block4c_se_reshape/strided_slice/stack_1", "StatefulPartitionedCall/model/block4c_se_reshape/strided_slice/stack_2"], "attr": {"end_mask": {"i": "0"}, "new_axis_mask": {"i": "0"}, "ellipsis_mask": {"i": "0"}, "begin_mask": {"i": "0"}, "Index": {"type": "DT_INT32"}, "T": {"type": "DT_INT32"}, "shrink_axis_mask": {"i": "1"}}}, {"name": "StatefulPartitionedCall/model/block4c_se_reshape/Reshape/shape", "op": "Pack", "input": ["StatefulPartitionedCall/model/block4c_se_reshape/strided_slice", "StatefulPartitionedCall/model/block4c_se_reshape/Reshape/shape/1", "StatefulPartitionedCall/model/block4c_se_reshape/Reshape/shape/2", "StatefulPartitionedCall/model/block4c_se_reshape/Reshape/shape/3"], "attr": {"N": {"i": "4"}, "axis": {"i": "0"}, "T": {"type": "DT_INT32"}}}, {"name": "StatefulPartitionedCall/model/block4c_se_reshape/Reshape", "op": "Reshape", "input": ["StatefulPartitionedCall/model/block4c_se_squeeze/Mean", "StatefulPartitionedCall/model/block4c_se_reshape/Reshape/shape"], "attr": {"Tshape": {"type": "DT_INT32"}, "T": {"type": "DT_HALF"}}}, {"name": "StatefulPartitionedCall/model/block4c_se_reduce/Conv2D", "op": "Conv2D", "input": ["StatefulPartitionedCall/model/block4c_se_reshape/Reshape", "StatefulPartitionedCall/model/block4c_se_reduce/Conv2D/Cast"], "device": "/device:CPU:0", "attr": {"use_cudnn_on_gpu": {"b": true}, "padding": {"s": "U0FNRQ=="}, "data_format": {"s": "TkhXQw=="}, "explicit_paddings": {"list": {}}, "T": {"type": "DT_HALF"}, "dilations": {"list": {"i": ["1", "1", "1", "1"]}}, "strides": {"list": {"i": ["1", "1", "1", "1"]}}}}, {"name": "StatefulPartitionedCall/model/block4c_se_reduce/BiasAdd", "op": "BiasAdd", "input": ["StatefulPartitionedCall/model/block4c_se_reduce/Conv2D", "StatefulPartitionedCall/model/block4c_se_reduce/BiasAdd/Cast"], "attr": {"T": {"type": "DT_HALF"}, "data_format": {"s": "TkhXQw=="}}}, {"name": "StatefulPartitionedCall/model/block4c_se_reduce/Sigmoid", "op": "Sigmoid", "input": ["StatefulPartitionedCall/model/block4c_se_reduce/BiasAdd"], "attr": {"T": {"type": "DT_HALF"}}}, {"name": "StatefulPartitionedCall/model/block4c_se_reduce/mul_1", "op": "Mul", "input": ["StatefulPartitionedCall/model/block4c_se_reduce/BiasAdd", "StatefulPartitionedCall/model/block4c_se_reduce/Sigmoid"], "attr": {"T": {"type": "DT_HALF"}}}, {"name": "StatefulPartitionedCall/model/block4c_se_expand/Conv2D", "op": "Conv2D", "input": ["StatefulPartitionedCall/model/block4c_se_reduce/mul_1", "StatefulPartitionedCall/model/block4c_se_expand/Conv2D/Cast"], "device": "/device:CPU:0", "attr": {"padding": {"s": "U0FNRQ=="}, "data_format": {"s": "TkhXQw=="}, "dilations": {"list": {"i": ["1", "1", "1", "1"]}}, "strides": {"list": {"i": ["1", "1", "1", "1"]}}, "T": {"type": "DT_HALF"}, "use_cudnn_on_gpu": {"b": true}, "explicit_paddings": {"list": {}}}}, {"name": "StatefulPartitionedCall/model/block4c_se_expand/BiasAdd", "op": "BiasAdd", "input": ["StatefulPartitionedCall/model/block4c_se_expand/Conv2D", "StatefulPartitionedCall/model/block4c_se_expand/BiasAdd/Cast"], "attr": {"T": {"type": "DT_HALF"}, "data_format": {"s": "TkhXQw=="}}}, {"name": "StatefulPartitionedCall/model/block4c_se_expand/Sigmoid", "op": "Sigmoid", "input": ["StatefulPartitionedCall/model/block4c_se_expand/BiasAdd"], "attr": {"T": {"type": "DT_HALF"}}}, {"name": "StatefulPartitionedCall/model/block4c_se_excite/mul", "op": "Mul", "input": ["StatefulPartitionedCall/model/block4c_activation/mul_1", "StatefulPartitionedCall/model/block4c_se_expand/Sigmoid"], "attr": {"T": {"type": "DT_HALF"}}}, {"name": "StatefulPartitionedCall/model/block4c_project_conv/Conv2D", "op": "Conv2D", "input": ["StatefulPartitionedCall/model/block4c_se_excite/mul", "StatefulPartitionedCall/model/block4c_project_conv/Conv2D_weights"], "device": "/device:CPU:0", "attr": {"T": {"type": "DT_HALF"}, "strides": {"list": {"i": ["1", "1", "1", "1"]}}, "data_format": {"s": "TkhXQw=="}, "padding": {"s": "U0FNRQ=="}, "dilations": {"list": {"i": ["1", "1", "1", "1"]}}, "explicit_paddings": {"list": {}}, "use_cudnn_on_gpu": {"b": true}}}, {"name": "StatefulPartitionedCall/model/block4c_project_bn/FusedBatchNormV3", "op": "BiasAdd", "input": ["StatefulPartitionedCall/model/block4c_project_conv/Conv2D", "StatefulPartitionedCall/model/block4c_project_conv/Conv2D_bn_offset"], "attr": {"T": {"type": "DT_HALF"}, "data_format": {"s": "TkhXQw=="}}}, {"name": "StatefulPartitionedCall/model/block4c_add/add", "op": "AddV2", "input": ["StatefulPartitionedCall/model/block4c_project_bn/FusedBatchNormV3", "StatefulPartitionedCall/model/block4b_add/add"], "attr": {"T": {"type": "DT_HALF"}}}, {"name": "StatefulPartitionedCall/model/block5a_expand_conv/Conv2D", "op": "Conv2D", "input": ["StatefulPartitionedCall/model/block4c_add/add", "StatefulPartitionedCall/model/block5a_expand_conv/Conv2D_weights"], "device": "/device:CPU:0", "attr": {"padding": {"s": "U0FNRQ=="}, "T": {"type": "DT_HALF"}, "use_cudnn_on_gpu": {"b": true}, "data_format": {"s": "TkhXQw=="}, "explicit_paddings": {"list": {}}, "strides": {"list": {"i": ["1", "1", "1", "1"]}}, "dilations": {"list": {"i": ["1", "1", "1", "1"]}}}}, {"name": "StatefulPartitionedCall/model/block5a_expand_bn/FusedBatchNormV3", "op": "BiasAdd", "input": ["StatefulPartitionedCall/model/block5a_expand_conv/Conv2D", "StatefulPartitionedCall/model/block5a_expand_conv/Conv2D_bn_offset"], "attr": {"T": {"type": "DT_HALF"}, "data_format": {"s": "TkhXQw=="}}}, {"name": "StatefulPartitionedCall/model/block5a_expand_activation/Sigmoid", "op": "Sigmoid", "input": ["StatefulPartitionedCall/model/block5a_expand_bn/FusedBatchNormV3"], "attr": {"T": {"type": "DT_HALF"}}}, {"name": "StatefulPartitionedCall/model/block5a_expand_activation/mul_1", "op": "Mul", "input": ["StatefulPartitionedCall/model/block5a_expand_bn/FusedBatchNormV3", "StatefulPartitionedCall/model/block5a_expand_activation/Sigmoid"], "attr": {"T": {"type": "DT_HALF"}}}, {"name": "StatefulPartitionedCall/model/block5a_dwconv2/depthwise", "op": "FusedDepthwiseConv2dNative", "input": ["StatefulPartitionedCall/model/block5a_expand_activation/mul_1", "StatefulPartitionedCall/model/block5a_dwconv2/depthwise_weights", "StatefulPartitionedCall/model/block5a_dwconv2/depthwise_bn_offset"], "attr": {"num_args": {"i": "1"}, "T": {"type": "DT_HALF"}, "fused_ops": {"list": {"s": ["Qmlhc0FkZA=="]}}, "data_format": {"s": "TkhXQw=="}, "padding": {"s": "U0FNRQ=="}, "explicit_paddings": {"list": {}}, "dilations": {"list": {"i": ["1", "1", "1", "1"]}}, "strides": {"list": {"i": ["1", "1", "1", "1"]}}}}, {"name": "StatefulPartitionedCall/model/block5a_activation/Sigmoid", "op": "Sigmoid", "input": ["StatefulPartitionedCall/model/block5a_dwconv2/depthwise"], "attr": {"T": {"type": "DT_HALF"}}}, {"name": "StatefulPartitionedCall/model/block5a_activation/mul_1", "op": "Mul", "input": ["StatefulPartitionedCall/model/block5a_dwconv2/depthwise", "StatefulPartitionedCall/model/block5a_activation/Sigmoid"], "attr": {"T": {"type": "DT_HALF"}}}, {"name": "StatefulPartitionedCall/model/block5a_se_squeeze/Mean", "op": "Mean", "input": ["StatefulPartitionedCall/model/block5a_activation/mul_1", "StatefulPartitionedCall/model/block5a_se_squeeze/Mean/reduction_indices"], "attr": {"Tidx": {"type": "DT_INT32"}, "T": {"type": "DT_HALF"}, "keep_dims": {"b": false}}}, {"name": "StatefulPartitionedCall/model/block5a_se_reshape/Shape", "op": "Shape", "input": ["StatefulPartitionedCall/model/block5a_se_squeeze/Mean"], "attr": {"T": {"type": "DT_HALF"}, "out_type": {"type": "DT_INT32"}}}, {"name": "StatefulPartitionedCall/model/block5a_se_reshape/strided_slice", "op": "StridedSlice", "input": ["StatefulPartitionedCall/model/block5a_se_reshape/Shape", "StatefulPartitionedCall/model/block5a_se_reshape/strided_slice/stack", "StatefulPartitionedCall/model/block5a_se_reshape/strided_slice/stack_1", "StatefulPartitionedCall/model/block5a_se_reshape/strided_slice/stack_2"], "attr": {"T": {"type": "DT_INT32"}, "new_axis_mask": {"i": "0"}, "begin_mask": {"i": "0"}, "ellipsis_mask": {"i": "0"}, "shrink_axis_mask": {"i": "1"}, "end_mask": {"i": "0"}, "Index": {"type": "DT_INT32"}}}, {"name": "StatefulPartitionedCall/model/block5a_se_reshape/Reshape/shape", "op": "Pack", "input": ["StatefulPartitionedCall/model/block5a_se_reshape/strided_slice", "StatefulPartitionedCall/model/block5a_se_reshape/Reshape/shape/1", "StatefulPartitionedCall/model/block5a_se_reshape/Reshape/shape/2", "StatefulPartitionedCall/model/block5a_se_reshape/Reshape/shape/3"], "attr": {"axis": {"i": "0"}, "N": {"i": "4"}, "T": {"type": "DT_INT32"}}}, {"name": "StatefulPartitionedCall/model/block5a_se_reshape/Reshape", "op": "Reshape", "input": ["StatefulPartitionedCall/model/block5a_se_squeeze/Mean", "StatefulPartitionedCall/model/block5a_se_reshape/Reshape/shape"], "attr": {"T": {"type": "DT_HALF"}, "Tshape": {"type": "DT_INT32"}}}, {"name": "StatefulPartitionedCall/model/block5a_se_reduce/Conv2D", "op": "Conv2D", "input": ["StatefulPartitionedCall/model/block5a_se_reshape/Reshape", "StatefulPartitionedCall/model/block5a_se_reduce/Conv2D/Cast"], "device": "/device:CPU:0", "attr": {"T": {"type": "DT_HALF"}, "dilations": {"list": {"i": ["1", "1", "1", "1"]}}, "strides": {"list": {"i": ["1", "1", "1", "1"]}}, "data_format": {"s": "TkhXQw=="}, "explicit_paddings": {"list": {}}, "padding": {"s": "U0FNRQ=="}, "use_cudnn_on_gpu": {"b": true}}}, {"name": "StatefulPartitionedCall/model/block5a_se_reduce/BiasAdd", "op": "BiasAdd", "input": ["StatefulPartitionedCall/model/block5a_se_reduce/Conv2D", "StatefulPartitionedCall/model/block5a_se_reduce/BiasAdd/Cast"], "attr": {"T": {"type": "DT_HALF"}, "data_format": {"s": "TkhXQw=="}}}, {"name": "StatefulPartitionedCall/model/block5a_se_reduce/Sigmoid", "op": "Sigmoid", "input": ["StatefulPartitionedCall/model/block5a_se_reduce/BiasAdd"], "attr": {"T": {"type": "DT_HALF"}}}, {"name": "StatefulPartitionedCall/model/block5a_se_reduce/mul_1", "op": "Mul", "input": ["StatefulPartitionedCall/model/block5a_se_reduce/BiasAdd", "StatefulPartitionedCall/model/block5a_se_reduce/Sigmoid"], "attr": {"T": {"type": "DT_HALF"}}}, {"name": "StatefulPartitionedCall/model/block5a_se_expand/Conv2D", "op": "Conv2D", "input": ["StatefulPartitionedCall/model/block5a_se_reduce/mul_1", "StatefulPartitionedCall/model/block5a_se_expand/Conv2D/Cast"], "device": "/device:CPU:0", "attr": {"explicit_paddings": {"list": {}}, "strides": {"list": {"i": ["1", "1", "1", "1"]}}, "data_format": {"s": "TkhXQw=="}, "use_cudnn_on_gpu": {"b": true}, "dilations": {"list": {"i": ["1", "1", "1", "1"]}}, "T": {"type": "DT_HALF"}, "padding": {"s": "U0FNRQ=="}}}, {"name": "StatefulPartitionedCall/model/block5a_se_expand/BiasAdd", "op": "BiasAdd", "input": ["StatefulPartitionedCall/model/block5a_se_expand/Conv2D", "StatefulPartitionedCall/model/block5a_se_expand/BiasAdd/Cast"], "attr": {"T": {"type": "DT_HALF"}, "data_format": {"s": "TkhXQw=="}}}, {"name": "StatefulPartitionedCall/model/block5a_se_expand/Sigmoid", "op": "Sigmoid", "input": ["StatefulPartitionedCall/model/block5a_se_expand/BiasAdd"], "attr": {"T": {"type": "DT_HALF"}}}, {"name": "StatefulPartitionedCall/model/block5a_se_excite/mul", "op": "Mul", "input": ["StatefulPartitionedCall/model/block5a_activation/mul_1", "StatefulPartitionedCall/model/block5a_se_expand/Sigmoid"], "attr": {"T": {"type": "DT_HALF"}}}, {"name": "StatefulPartitionedCall/model/block5a_project_conv/Conv2D", "op": "Conv2D", "input": ["StatefulPartitionedCall/model/block5a_se_excite/mul", "StatefulPartitionedCall/model/block5a_project_conv/Conv2D_weights"], "device": "/device:CPU:0", "attr": {"use_cudnn_on_gpu": {"b": true}, "data_format": {"s": "TkhXQw=="}, "padding": {"s": "U0FNRQ=="}, "explicit_paddings": {"list": {}}, "T": {"type": "DT_HALF"}, "dilations": {"list": {"i": ["1", "1", "1", "1"]}}, "strides": {"list": {"i": ["1", "1", "1", "1"]}}}}, {"name": "StatefulPartitionedCall/model/block5a_project_bn/FusedBatchNormV3", "op": "BiasAdd", "input": ["StatefulPartitionedCall/model/block5a_project_conv/Conv2D", "StatefulPartitionedCall/model/block5a_project_conv/Conv2D_bn_offset"], "attr": {"data_format": {"s": "TkhXQw=="}, "T": {"type": "DT_HALF"}}}, {"name": "StatefulPartitionedCall/model/block5b_expand_conv/Conv2D", "op": "Conv2D", "input": ["StatefulPartitionedCall/model/block5a_project_bn/FusedBatchNormV3", "StatefulPartitionedCall/model/block5b_expand_conv/Conv2D_weights"], "device": "/device:CPU:0", "attr": {"dilations": {"list": {"i": ["1", "1", "1", "1"]}}, "use_cudnn_on_gpu": {"b": true}, "T": {"type": "DT_HALF"}, "strides": {"list": {"i": ["1", "1", "1", "1"]}}, "data_format": {"s": "TkhXQw=="}, "explicit_paddings": {"list": {}}, "padding": {"s": "U0FNRQ=="}}}, {"name": "StatefulPartitionedCall/model/block5b_expand_bn/FusedBatchNormV3", "op": "BiasAdd", "input": ["StatefulPartitionedCall/model/block5b_expand_conv/Conv2D", "StatefulPartitionedCall/model/block5b_expand_conv/Conv2D_bn_offset"], "attr": {"T": {"type": "DT_HALF"}, "data_format": {"s": "TkhXQw=="}}}, {"name": "StatefulPartitionedCall/model/block5b_expand_activation/Sigmoid", "op": "Sigmoid", "input": ["StatefulPartitionedCall/model/block5b_expand_bn/FusedBatchNormV3"], "attr": {"T": {"type": "DT_HALF"}}}, {"name": "StatefulPartitionedCall/model/block5b_expand_activation/mul_1", "op": "Mul", "input": ["StatefulPartitionedCall/model/block5b_expand_bn/FusedBatchNormV3", "StatefulPartitionedCall/model/block5b_expand_activation/Sigmoid"], "attr": {"T": {"type": "DT_HALF"}}}, {"name": "StatefulPartitionedCall/model/block5b_dwconv2/depthwise", "op": "FusedDepthwiseConv2dNative", "input": ["StatefulPartitionedCall/model/block5b_expand_activation/mul_1", "StatefulPartitionedCall/model/block5b_dwconv2/depthwise_weights", "StatefulPartitionedCall/model/block5b_dwconv2/depthwise_bn_offset"], "attr": {"dilations": {"list": {"i": ["1", "1", "1", "1"]}}, "num_args": {"i": "1"}, "explicit_paddings": {"list": {}}, "strides": {"list": {"i": ["1", "1", "1", "1"]}}, "padding": {"s": "U0FNRQ=="}, "T": {"type": "DT_HALF"}, "data_format": {"s": "TkhXQw=="}, "fused_ops": {"list": {"s": ["Qmlhc0FkZA=="]}}}}, {"name": "StatefulPartitionedCall/model/block5b_activation/Sigmoid", "op": "Sigmoid", "input": ["StatefulPartitionedCall/model/block5b_dwconv2/depthwise"], "attr": {"T": {"type": "DT_HALF"}}}, {"name": "StatefulPartitionedCall/model/block5b_activation/mul_1", "op": "Mul", "input": ["StatefulPartitionedCall/model/block5b_dwconv2/depthwise", "StatefulPartitionedCall/model/block5b_activation/Sigmoid"], "attr": {"T": {"type": "DT_HALF"}}}, {"name": "StatefulPartitionedCall/model/block5b_se_squeeze/Mean", "op": "Mean", "input": ["StatefulPartitionedCall/model/block5b_activation/mul_1", "StatefulPartitionedCall/model/block5b_se_squeeze/Mean/reduction_indices"], "attr": {"Tidx": {"type": "DT_INT32"}, "keep_dims": {"b": false}, "T": {"type": "DT_HALF"}}}, {"name": "StatefulPartitionedCall/model/block5b_se_reshape/Shape", "op": "Shape", "input": ["StatefulPartitionedCall/model/block5b_se_squeeze/Mean"], "attr": {"T": {"type": "DT_HALF"}, "out_type": {"type": "DT_INT32"}}}, {"name": "StatefulPartitionedCall/model/block5b_se_reshape/strided_slice", "op": "StridedSlice", "input": ["StatefulPartitionedCall/model/block5b_se_reshape/Shape", "StatefulPartitionedCall/model/block5b_se_reshape/strided_slice/stack", "StatefulPartitionedCall/model/block5b_se_reshape/strided_slice/stack_1", "StatefulPartitionedCall/model/block5b_se_reshape/strided_slice/stack_2"], "attr": {"end_mask": {"i": "0"}, "begin_mask": {"i": "0"}, "T": {"type": "DT_INT32"}, "new_axis_mask": {"i": "0"}, "shrink_axis_mask": {"i": "1"}, "Index": {"type": "DT_INT32"}, "ellipsis_mask": {"i": "0"}}}, {"name": "StatefulPartitionedCall/model/block5b_se_reshape/Reshape/shape", "op": "Pack", "input": ["StatefulPartitionedCall/model/block5b_se_reshape/strided_slice", "StatefulPartitionedCall/model/block5b_se_reshape/Reshape/shape/1", "StatefulPartitionedCall/model/block5b_se_reshape/Reshape/shape/2", "StatefulPartitionedCall/model/block5b_se_reshape/Reshape/shape/3"], "attr": {"axis": {"i": "0"}, "T": {"type": "DT_INT32"}, "N": {"i": "4"}}}, {"name": "StatefulPartitionedCall/model/block5b_se_reshape/Reshape", "op": "Reshape", "input": ["StatefulPartitionedCall/model/block5b_se_squeeze/Mean", "StatefulPartitionedCall/model/block5b_se_reshape/Reshape/shape"], "attr": {"Tshape": {"type": "DT_INT32"}, "T": {"type": "DT_HALF"}}}, {"name": "StatefulPartitionedCall/model/block5b_se_reduce/Conv2D", "op": "Conv2D", "input": ["StatefulPartitionedCall/model/block5b_se_reshape/Reshape", "StatefulPartitionedCall/model/block5b_se_reduce/Conv2D/Cast"], "device": "/device:CPU:0", "attr": {"padding": {"s": "U0FNRQ=="}, "explicit_paddings": {"list": {}}, "use_cudnn_on_gpu": {"b": true}, "T": {"type": "DT_HALF"}, "strides": {"list": {"i": ["1", "1", "1", "1"]}}, "dilations": {"list": {"i": ["1", "1", "1", "1"]}}, "data_format": {"s": "TkhXQw=="}}}, {"name": "StatefulPartitionedCall/model/block5b_se_reduce/BiasAdd", "op": "BiasAdd", "input": ["StatefulPartitionedCall/model/block5b_se_reduce/Conv2D", "StatefulPartitionedCall/model/block5b_se_reduce/BiasAdd/Cast"], "attr": {"T": {"type": "DT_HALF"}, "data_format": {"s": "TkhXQw=="}}}, {"name": "StatefulPartitionedCall/model/block5b_se_reduce/Sigmoid", "op": "Sigmoid", "input": ["StatefulPartitionedCall/model/block5b_se_reduce/BiasAdd"], "attr": {"T": {"type": "DT_HALF"}}}, {"name": "StatefulPartitionedCall/model/block5b_se_reduce/mul_1", "op": "Mul", "input": ["StatefulPartitionedCall/model/block5b_se_reduce/BiasAdd", "StatefulPartitionedCall/model/block5b_se_reduce/Sigmoid"], "attr": {"T": {"type": "DT_HALF"}}}, {"name": "StatefulPartitionedCall/model/block5b_se_expand/Conv2D", "op": "Conv2D", "input": ["StatefulPartitionedCall/model/block5b_se_reduce/mul_1", "StatefulPartitionedCall/model/block5b_se_expand/Conv2D/Cast"], "device": "/device:CPU:0", "attr": {"padding": {"s": "U0FNRQ=="}, "dilations": {"list": {"i": ["1", "1", "1", "1"]}}, "strides": {"list": {"i": ["1", "1", "1", "1"]}}, "explicit_paddings": {"list": {}}, "use_cudnn_on_gpu": {"b": true}, "T": {"type": "DT_HALF"}, "data_format": {"s": "TkhXQw=="}}}, {"name": "StatefulPartitionedCall/model/block5b_se_expand/BiasAdd", "op": "BiasAdd", "input": ["StatefulPartitionedCall/model/block5b_se_expand/Conv2D", "StatefulPartitionedCall/model/block5b_se_expand/BiasAdd/Cast"], "attr": {"data_format": {"s": "TkhXQw=="}, "T": {"type": "DT_HALF"}}}, {"name": "StatefulPartitionedCall/model/block5b_se_expand/Sigmoid", "op": "Sigmoid", "input": ["StatefulPartitionedCall/model/block5b_se_expand/BiasAdd"], "attr": {"T": {"type": "DT_HALF"}}}, {"name": "StatefulPartitionedCall/model/block5b_se_excite/mul", "op": "Mul", "input": ["StatefulPartitionedCall/model/block5b_activation/mul_1", "StatefulPartitionedCall/model/block5b_se_expand/Sigmoid"], "attr": {"T": {"type": "DT_HALF"}}}, {"name": "StatefulPartitionedCall/model/block5b_project_conv/Conv2D", "op": "Conv2D", "input": ["StatefulPartitionedCall/model/block5b_se_excite/mul", "StatefulPartitionedCall/model/block5b_project_conv/Conv2D_weights"], "device": "/device:CPU:0", "attr": {"data_format": {"s": "TkhXQw=="}, "T": {"type": "DT_HALF"}, "explicit_paddings": {"list": {}}, "strides": {"list": {"i": ["1", "1", "1", "1"]}}, "use_cudnn_on_gpu": {"b": true}, "padding": {"s": "U0FNRQ=="}, "dilations": {"list": {"i": ["1", "1", "1", "1"]}}}}, {"name": "StatefulPartitionedCall/model/block5b_project_bn/FusedBatchNormV3", "op": "BiasAdd", "input": ["StatefulPartitionedCall/model/block5b_project_conv/Conv2D", "StatefulPartitionedCall/model/block5b_project_conv/Conv2D_bn_offset"], "attr": {"T": {"type": "DT_HALF"}, "data_format": {"s": "TkhXQw=="}}}, {"name": "StatefulPartitionedCall/model/block5b_add/add", "op": "AddV2", "input": ["StatefulPartitionedCall/model/block5b_project_bn/FusedBatchNormV3", "StatefulPartitionedCall/model/block5a_project_bn/FusedBatchNormV3"], "attr": {"T": {"type": "DT_HALF"}}}, {"name": "StatefulPartitionedCall/model/block5c_expand_conv/Conv2D", "op": "Conv2D", "input": ["StatefulPartitionedCall/model/block5b_add/add", "StatefulPartitionedCall/model/block5c_expand_conv/Conv2D_weights"], "device": "/device:CPU:0", "attr": {"dilations": {"list": {"i": ["1", "1", "1", "1"]}}, "use_cudnn_on_gpu": {"b": true}, "T": {"type": "DT_HALF"}, "padding": {"s": "U0FNRQ=="}, "data_format": {"s": "TkhXQw=="}, "strides": {"list": {"i": ["1", "1", "1", "1"]}}, "explicit_paddings": {"list": {}}}}, {"name": "StatefulPartitionedCall/model/block5c_expand_bn/FusedBatchNormV3", "op": "BiasAdd", "input": ["StatefulPartitionedCall/model/block5c_expand_conv/Conv2D", "StatefulPartitionedCall/model/block5c_expand_conv/Conv2D_bn_offset"], "attr": {"data_format": {"s": "TkhXQw=="}, "T": {"type": "DT_HALF"}}}, {"name": "StatefulPartitionedCall/model/block5c_expand_activation/Sigmoid", "op": "Sigmoid", "input": ["StatefulPartitionedCall/model/block5c_expand_bn/FusedBatchNormV3"], "attr": {"T": {"type": "DT_HALF"}}}, {"name": "StatefulPartitionedCall/model/block5c_expand_activation/mul_1", "op": "Mul", "input": ["StatefulPartitionedCall/model/block5c_expand_bn/FusedBatchNormV3", "StatefulPartitionedCall/model/block5c_expand_activation/Sigmoid"], "attr": {"T": {"type": "DT_HALF"}}}, {"name": "StatefulPartitionedCall/model/block5c_dwconv2/depthwise", "op": "FusedDepthwiseConv2dNative", "input": ["StatefulPartitionedCall/model/block5c_expand_activation/mul_1", "StatefulPartitionedCall/model/block5c_dwconv2/depthwise_weights", "StatefulPartitionedCall/model/block5c_dwconv2/depthwise_bn_offset"], "attr": {"strides": {"list": {"i": ["1", "1", "1", "1"]}}, "T": {"type": "DT_HALF"}, "explicit_paddings": {"list": {}}, "data_format": {"s": "TkhXQw=="}, "dilations": {"list": {"i": ["1", "1", "1", "1"]}}, "padding": {"s": "U0FNRQ=="}, "num_args": {"i": "1"}, "fused_ops": {"list": {"s": ["Qmlhc0FkZA=="]}}}}, {"name": "StatefulPartitionedCall/model/block5c_activation/Sigmoid", "op": "Sigmoid", "input": ["StatefulPartitionedCall/model/block5c_dwconv2/depthwise"], "attr": {"T": {"type": "DT_HALF"}}}, {"name": "StatefulPartitionedCall/model/block5c_activation/mul_1", "op": "Mul", "input": ["StatefulPartitionedCall/model/block5c_dwconv2/depthwise", "StatefulPartitionedCall/model/block5c_activation/Sigmoid"], "attr": {"T": {"type": "DT_HALF"}}}, {"name": "StatefulPartitionedCall/model/block5c_se_squeeze/Mean", "op": "Mean", "input": ["StatefulPartitionedCall/model/block5c_activation/mul_1", "StatefulPartitionedCall/model/block5c_se_squeeze/Mean/reduction_indices"], "attr": {"keep_dims": {"b": false}, "T": {"type": "DT_HALF"}, "Tidx": {"type": "DT_INT32"}}}, {"name": "StatefulPartitionedCall/model/block5c_se_reshape/Shape", "op": "Shape", "input": ["StatefulPartitionedCall/model/block5c_se_squeeze/Mean"], "attr": {"out_type": {"type": "DT_INT32"}, "T": {"type": "DT_HALF"}}}, {"name": "StatefulPartitionedCall/model/block5c_se_reshape/strided_slice", "op": "StridedSlice", "input": ["StatefulPartitionedCall/model/block5c_se_reshape/Shape", "StatefulPartitionedCall/model/block5c_se_reshape/strided_slice/stack", "StatefulPartitionedCall/model/block5c_se_reshape/strided_slice/stack_1", "StatefulPartitionedCall/model/block5c_se_reshape/strided_slice/stack_2"], "attr": {"Index": {"type": "DT_INT32"}, "shrink_axis_mask": {"i": "1"}, "begin_mask": {"i": "0"}, "T": {"type": "DT_INT32"}, "new_axis_mask": {"i": "0"}, "end_mask": {"i": "0"}, "ellipsis_mask": {"i": "0"}}}, {"name": "StatefulPartitionedCall/model/block5c_se_reshape/Reshape/shape", "op": "Pack", "input": ["StatefulPartitionedCall/model/block5c_se_reshape/strided_slice", "StatefulPartitionedCall/model/block5c_se_reshape/Reshape/shape/1", "StatefulPartitionedCall/model/block5c_se_reshape/Reshape/shape/2", "StatefulPartitionedCall/model/block5c_se_reshape/Reshape/shape/3"], "attr": {"T": {"type": "DT_INT32"}, "axis": {"i": "0"}, "N": {"i": "4"}}}, {"name": "StatefulPartitionedCall/model/block5c_se_reshape/Reshape", "op": "Reshape", "input": ["StatefulPartitionedCall/model/block5c_se_squeeze/Mean", "StatefulPartitionedCall/model/block5c_se_reshape/Reshape/shape"], "attr": {"T": {"type": "DT_HALF"}, "Tshape": {"type": "DT_INT32"}}}, {"name": "StatefulPartitionedCall/model/block5c_se_reduce/Conv2D", "op": "Conv2D", "input": ["StatefulPartitionedCall/model/block5c_se_reshape/Reshape", "StatefulPartitionedCall/model/block5c_se_reduce/Conv2D/Cast"], "device": "/device:CPU:0", "attr": {"use_cudnn_on_gpu": {"b": true}, "strides": {"list": {"i": ["1", "1", "1", "1"]}}, "explicit_paddings": {"list": {}}, "data_format": {"s": "TkhXQw=="}, "dilations": {"list": {"i": ["1", "1", "1", "1"]}}, "padding": {"s": "U0FNRQ=="}, "T": {"type": "DT_HALF"}}}, {"name": "StatefulPartitionedCall/model/block5c_se_reduce/BiasAdd", "op": "BiasAdd", "input": ["StatefulPartitionedCall/model/block5c_se_reduce/Conv2D", "StatefulPartitionedCall/model/block5c_se_reduce/BiasAdd/Cast"], "attr": {"data_format": {"s": "TkhXQw=="}, "T": {"type": "DT_HALF"}}}, {"name": "StatefulPartitionedCall/model/block5c_se_reduce/Sigmoid", "op": "Sigmoid", "input": ["StatefulPartitionedCall/model/block5c_se_reduce/BiasAdd"], "attr": {"T": {"type": "DT_HALF"}}}, {"name": "StatefulPartitionedCall/model/block5c_se_reduce/mul_1", "op": "Mul", "input": ["StatefulPartitionedCall/model/block5c_se_reduce/BiasAdd", "StatefulPartitionedCall/model/block5c_se_reduce/Sigmoid"], "attr": {"T": {"type": "DT_HALF"}}}, {"name": "StatefulPartitionedCall/model/block5c_se_expand/Conv2D", "op": "Conv2D", "input": ["StatefulPartitionedCall/model/block5c_se_reduce/mul_1", "StatefulPartitionedCall/model/block5c_se_expand/Conv2D/Cast"], "device": "/device:CPU:0", "attr": {"T": {"type": "DT_HALF"}, "strides": {"list": {"i": ["1", "1", "1", "1"]}}, "use_cudnn_on_gpu": {"b": true}, "data_format": {"s": "TkhXQw=="}, "padding": {"s": "U0FNRQ=="}, "explicit_paddings": {"list": {}}, "dilations": {"list": {"i": ["1", "1", "1", "1"]}}}}, {"name": "StatefulPartitionedCall/model/block5c_se_expand/BiasAdd", "op": "BiasAdd", "input": ["StatefulPartitionedCall/model/block5c_se_expand/Conv2D", "StatefulPartitionedCall/model/block5c_se_expand/BiasAdd/Cast"], "attr": {"data_format": {"s": "TkhXQw=="}, "T": {"type": "DT_HALF"}}}, {"name": "StatefulPartitionedCall/model/block5c_se_expand/Sigmoid", "op": "Sigmoid", "input": ["StatefulPartitionedCall/model/block5c_se_expand/BiasAdd"], "attr": {"T": {"type": "DT_HALF"}}}, {"name": "StatefulPartitionedCall/model/block5c_se_excite/mul", "op": "Mul", "input": ["StatefulPartitionedCall/model/block5c_activation/mul_1", "StatefulPartitionedCall/model/block5c_se_expand/Sigmoid"], "attr": {"T": {"type": "DT_HALF"}}}, {"name": "StatefulPartitionedCall/model/block5c_project_conv/Conv2D", "op": "Conv2D", "input": ["StatefulPartitionedCall/model/block5c_se_excite/mul", "StatefulPartitionedCall/model/block5c_project_conv/Conv2D_weights"], "device": "/device:CPU:0", "attr": {"T": {"type": "DT_HALF"}, "data_format": {"s": "TkhXQw=="}, "dilations": {"list": {"i": ["1", "1", "1", "1"]}}, "strides": {"list": {"i": ["1", "1", "1", "1"]}}, "explicit_paddings": {"list": {}}, "padding": {"s": "U0FNRQ=="}, "use_cudnn_on_gpu": {"b": true}}}, {"name": "StatefulPartitionedCall/model/block5c_project_bn/FusedBatchNormV3", "op": "BiasAdd", "input": ["StatefulPartitionedCall/model/block5c_project_conv/Conv2D", "StatefulPartitionedCall/model/block5c_project_conv/Conv2D_bn_offset"], "attr": {"T": {"type": "DT_HALF"}, "data_format": {"s": "TkhXQw=="}}}, {"name": "StatefulPartitionedCall/model/block5c_add/add", "op": "AddV2", "input": ["StatefulPartitionedCall/model/block5c_project_bn/FusedBatchNormV3", "StatefulPartitionedCall/model/block5b_add/add"], "attr": {"T": {"type": "DT_HALF"}}}, {"name": "StatefulPartitionedCall/model/block5d_expand_conv/Conv2D", "op": "Conv2D", "input": ["StatefulPartitionedCall/model/block5c_add/add", "StatefulPartitionedCall/model/block5d_expand_conv/Conv2D_weights"], "device": "/device:CPU:0", "attr": {"dilations": {"list": {"i": ["1", "1", "1", "1"]}}, "data_format": {"s": "TkhXQw=="}, "explicit_paddings": {"list": {}}, "use_cudnn_on_gpu": {"b": true}, "padding": {"s": "U0FNRQ=="}, "T": {"type": "DT_HALF"}, "strides": {"list": {"i": ["1", "1", "1", "1"]}}}}, {"name": "StatefulPartitionedCall/model/block5d_expand_bn/FusedBatchNormV3", "op": "BiasAdd", "input": ["StatefulPartitionedCall/model/block5d_expand_conv/Conv2D", "StatefulPartitionedCall/model/block5d_expand_conv/Conv2D_bn_offset"], "attr": {"T": {"type": "DT_HALF"}, "data_format": {"s": "TkhXQw=="}}}, {"name": "StatefulPartitionedCall/model/block5d_expand_activation/Sigmoid", "op": "Sigmoid", "input": ["StatefulPartitionedCall/model/block5d_expand_bn/FusedBatchNormV3"], "attr": {"T": {"type": "DT_HALF"}}}, {"name": "StatefulPartitionedCall/model/block5d_expand_activation/mul_1", "op": "Mul", "input": ["StatefulPartitionedCall/model/block5d_expand_bn/FusedBatchNormV3", "StatefulPartitionedCall/model/block5d_expand_activation/Sigmoid"], "attr": {"T": {"type": "DT_HALF"}}}, {"name": "StatefulPartitionedCall/model/block5d_dwconv2/depthwise", "op": "FusedDepthwiseConv2dNative", "input": ["StatefulPartitionedCall/model/block5d_expand_activation/mul_1", "StatefulPartitionedCall/model/block5d_dwconv2/depthwise_weights", "StatefulPartitionedCall/model/block5d_dwconv2/depthwise_bn_offset"], "attr": {"strides": {"list": {"i": ["1", "1", "1", "1"]}}, "dilations": {"list": {"i": ["1", "1", "1", "1"]}}, "explicit_paddings": {"list": {}}, "num_args": {"i": "1"}, "padding": {"s": "U0FNRQ=="}, "T": {"type": "DT_HALF"}, "data_format": {"s": "TkhXQw=="}, "fused_ops": {"list": {"s": ["Qmlhc0FkZA=="]}}}}, {"name": "StatefulPartitionedCall/model/block5d_activation/Sigmoid", "op": "Sigmoid", "input": ["StatefulPartitionedCall/model/block5d_dwconv2/depthwise"], "attr": {"T": {"type": "DT_HALF"}}}, {"name": "StatefulPartitionedCall/model/block5d_activation/mul_1", "op": "Mul", "input": ["StatefulPartitionedCall/model/block5d_dwconv2/depthwise", "StatefulPartitionedCall/model/block5d_activation/Sigmoid"], "attr": {"T": {"type": "DT_HALF"}}}, {"name": "StatefulPartitionedCall/model/block5d_se_squeeze/Mean", "op": "Mean", "input": ["StatefulPartitionedCall/model/block5d_activation/mul_1", "StatefulPartitionedCall/model/block5d_se_squeeze/Mean/reduction_indices"], "attr": {"Tidx": {"type": "DT_INT32"}, "T": {"type": "DT_HALF"}, "keep_dims": {"b": false}}}, {"name": "StatefulPartitionedCall/model/block5d_se_reshape/Shape", "op": "Shape", "input": ["StatefulPartitionedCall/model/block5d_se_squeeze/Mean"], "attr": {"out_type": {"type": "DT_INT32"}, "T": {"type": "DT_HALF"}}}, {"name": "StatefulPartitionedCall/model/block5d_se_reshape/strided_slice", "op": "StridedSlice", "input": ["StatefulPartitionedCall/model/block5d_se_reshape/Shape", "StatefulPartitionedCall/model/block5d_se_reshape/strided_slice/stack", "StatefulPartitionedCall/model/block5d_se_reshape/strided_slice/stack_1", "StatefulPartitionedCall/model/block5d_se_reshape/strided_slice/stack_2"], "attr": {"T": {"type": "DT_INT32"}, "end_mask": {"i": "0"}, "ellipsis_mask": {"i": "0"}, "shrink_axis_mask": {"i": "1"}, "begin_mask": {"i": "0"}, "new_axis_mask": {"i": "0"}, "Index": {"type": "DT_INT32"}}}, {"name": "StatefulPartitionedCall/model/block5d_se_reshape/Reshape/shape", "op": "Pack", "input": ["StatefulPartitionedCall/model/block5d_se_reshape/strided_slice", "StatefulPartitionedCall/model/block5d_se_reshape/Reshape/shape/1", "StatefulPartitionedCall/model/block5d_se_reshape/Reshape/shape/2", "StatefulPartitionedCall/model/block5d_se_reshape/Reshape/shape/3"], "attr": {"axis": {"i": "0"}, "N": {"i": "4"}, "T": {"type": "DT_INT32"}}}, {"name": "StatefulPartitionedCall/model/block5d_se_reshape/Reshape", "op": "Reshape", "input": ["StatefulPartitionedCall/model/block5d_se_squeeze/Mean", "StatefulPartitionedCall/model/block5d_se_reshape/Reshape/shape"], "attr": {"Tshape": {"type": "DT_INT32"}, "T": {"type": "DT_HALF"}}}, {"name": "StatefulPartitionedCall/model/block5d_se_reduce/Conv2D", "op": "Conv2D", "input": ["StatefulPartitionedCall/model/block5d_se_reshape/Reshape", "StatefulPartitionedCall/model/block5d_se_reduce/Conv2D/Cast"], "device": "/device:CPU:0", "attr": {"dilations": {"list": {"i": ["1", "1", "1", "1"]}}, "T": {"type": "DT_HALF"}, "use_cudnn_on_gpu": {"b": true}, "strides": {"list": {"i": ["1", "1", "1", "1"]}}, "data_format": {"s": "TkhXQw=="}, "padding": {"s": "U0FNRQ=="}, "explicit_paddings": {"list": {}}}}, {"name": "StatefulPartitionedCall/model/block5d_se_reduce/BiasAdd", "op": "BiasAdd", "input": ["StatefulPartitionedCall/model/block5d_se_reduce/Conv2D", "StatefulPartitionedCall/model/block5d_se_reduce/BiasAdd/Cast"], "attr": {"data_format": {"s": "TkhXQw=="}, "T": {"type": "DT_HALF"}}}, {"name": "StatefulPartitionedCall/model/block5d_se_reduce/Sigmoid", "op": "Sigmoid", "input": ["StatefulPartitionedCall/model/block5d_se_reduce/BiasAdd"], "attr": {"T": {"type": "DT_HALF"}}}, {"name": "StatefulPartitionedCall/model/block5d_se_reduce/mul_1", "op": "Mul", "input": ["StatefulPartitionedCall/model/block5d_se_reduce/BiasAdd", "StatefulPartitionedCall/model/block5d_se_reduce/Sigmoid"], "attr": {"T": {"type": "DT_HALF"}}}, {"name": "StatefulPartitionedCall/model/block5d_se_expand/Conv2D", "op": "Conv2D", "input": ["StatefulPartitionedCall/model/block5d_se_reduce/mul_1", "StatefulPartitionedCall/model/block5d_se_expand/Conv2D/Cast"], "device": "/device:CPU:0", "attr": {"data_format": {"s": "TkhXQw=="}, "padding": {"s": "U0FNRQ=="}, "use_cudnn_on_gpu": {"b": true}, "strides": {"list": {"i": ["1", "1", "1", "1"]}}, "T": {"type": "DT_HALF"}, "explicit_paddings": {"list": {}}, "dilations": {"list": {"i": ["1", "1", "1", "1"]}}}}, {"name": "StatefulPartitionedCall/model/block5d_se_expand/BiasAdd", "op": "BiasAdd", "input": ["StatefulPartitionedCall/model/block5d_se_expand/Conv2D", "StatefulPartitionedCall/model/block5d_se_expand/BiasAdd/Cast"], "attr": {"data_format": {"s": "TkhXQw=="}, "T": {"type": "DT_HALF"}}}, {"name": "StatefulPartitionedCall/model/block5d_se_expand/Sigmoid", "op": "Sigmoid", "input": ["StatefulPartitionedCall/model/block5d_se_expand/BiasAdd"], "attr": {"T": {"type": "DT_HALF"}}}, {"name": "StatefulPartitionedCall/model/block5d_se_excite/mul", "op": "Mul", "input": ["StatefulPartitionedCall/model/block5d_activation/mul_1", "StatefulPartitionedCall/model/block5d_se_expand/Sigmoid"], "attr": {"T": {"type": "DT_HALF"}}}, {"name": "StatefulPartitionedCall/model/block5d_project_conv/Conv2D", "op": "Conv2D", "input": ["StatefulPartitionedCall/model/block5d_se_excite/mul", "StatefulPartitionedCall/model/block5d_project_conv/Conv2D_weights"], "device": "/device:CPU:0", "attr": {"use_cudnn_on_gpu": {"b": true}, "T": {"type": "DT_HALF"}, "dilations": {"list": {"i": ["1", "1", "1", "1"]}}, "strides": {"list": {"i": ["1", "1", "1", "1"]}}, "explicit_paddings": {"list": {}}, "data_format": {"s": "TkhXQw=="}, "padding": {"s": "U0FNRQ=="}}}, {"name": "StatefulPartitionedCall/model/block5d_project_bn/FusedBatchNormV3", "op": "BiasAdd", "input": ["StatefulPartitionedCall/model/block5d_project_conv/Conv2D", "StatefulPartitionedCall/model/block5d_project_conv/Conv2D_bn_offset"], "attr": {"T": {"type": "DT_HALF"}, "data_format": {"s": "TkhXQw=="}}}, {"name": "StatefulPartitionedCall/model/block5d_add/add", "op": "AddV2", "input": ["StatefulPartitionedCall/model/block5d_project_bn/FusedBatchNormV3", "StatefulPartitionedCall/model/block5c_add/add"], "attr": {"T": {"type": "DT_HALF"}}}, {"name": "StatefulPartitionedCall/model/block5e_expand_conv/Conv2D", "op": "Conv2D", "input": ["StatefulPartitionedCall/model/block5d_add/add", "StatefulPartitionedCall/model/block5e_expand_conv/Conv2D_weights"], "device": "/device:CPU:0", "attr": {"use_cudnn_on_gpu": {"b": true}, "data_format": {"s": "TkhXQw=="}, "T": {"type": "DT_HALF"}, "padding": {"s": "U0FNRQ=="}, "strides": {"list": {"i": ["1", "1", "1", "1"]}}, "explicit_paddings": {"list": {}}, "dilations": {"list": {"i": ["1", "1", "1", "1"]}}}}, {"name": "StatefulPartitionedCall/model/block5e_expand_bn/FusedBatchNormV3", "op": "BiasAdd", "input": ["StatefulPartitionedCall/model/block5e_expand_conv/Conv2D", "StatefulPartitionedCall/model/block5e_expand_conv/Conv2D_bn_offset"], "attr": {"T": {"type": "DT_HALF"}, "data_format": {"s": "TkhXQw=="}}}, {"name": "StatefulPartitionedCall/model/block5e_expand_activation/Sigmoid", "op": "Sigmoid", "input": ["StatefulPartitionedCall/model/block5e_expand_bn/FusedBatchNormV3"], "attr": {"T": {"type": "DT_HALF"}}}, {"name": "StatefulPartitionedCall/model/block5e_expand_activation/mul_1", "op": "Mul", "input": ["StatefulPartitionedCall/model/block5e_expand_bn/FusedBatchNormV3", "StatefulPartitionedCall/model/block5e_expand_activation/Sigmoid"], "attr": {"T": {"type": "DT_HALF"}}}, {"name": "StatefulPartitionedCall/model/block5e_dwconv2/depthwise", "op": "FusedDepthwiseConv2dNative", "input": ["StatefulPartitionedCall/model/block5e_expand_activation/mul_1", "StatefulPartitionedCall/model/block5e_dwconv2/depthwise_weights", "StatefulPartitionedCall/model/block5e_dwconv2/depthwise_bn_offset"], "attr": {"data_format": {"s": "TkhXQw=="}, "padding": {"s": "U0FNRQ=="}, "T": {"type": "DT_HALF"}, "fused_ops": {"list": {"s": ["Qmlhc0FkZA=="]}}, "dilations": {"list": {"i": ["1", "1", "1", "1"]}}, "num_args": {"i": "1"}, "strides": {"list": {"i": ["1", "1", "1", "1"]}}, "explicit_paddings": {"list": {}}}}, {"name": "StatefulPartitionedCall/model/block5e_activation/Sigmoid", "op": "Sigmoid", "input": ["StatefulPartitionedCall/model/block5e_dwconv2/depthwise"], "attr": {"T": {"type": "DT_HALF"}}}, {"name": "StatefulPartitionedCall/model/block5e_activation/mul_1", "op": "Mul", "input": ["StatefulPartitionedCall/model/block5e_dwconv2/depthwise", "StatefulPartitionedCall/model/block5e_activation/Sigmoid"], "attr": {"T": {"type": "DT_HALF"}}}, {"name": "StatefulPartitionedCall/model/block5e_se_squeeze/Mean", "op": "Mean", "input": ["StatefulPartitionedCall/model/block5e_activation/mul_1", "StatefulPartitionedCall/model/block5e_se_squeeze/Mean/reduction_indices"], "attr": {"T": {"type": "DT_HALF"}, "keep_dims": {"b": false}, "Tidx": {"type": "DT_INT32"}}}, {"name": "StatefulPartitionedCall/model/block5e_se_reshape/Shape", "op": "Shape", "input": ["StatefulPartitionedCall/model/block5e_se_squeeze/Mean"], "attr": {"out_type": {"type": "DT_INT32"}, "T": {"type": "DT_HALF"}}}, {"name": "StatefulPartitionedCall/model/block5e_se_reshape/strided_slice", "op": "StridedSlice", "input": ["StatefulPartitionedCall/model/block5e_se_reshape/Shape", "StatefulPartitionedCall/model/block5e_se_reshape/strided_slice/stack", "StatefulPartitionedCall/model/block5e_se_reshape/strided_slice/stack_1", "StatefulPartitionedCall/model/block5e_se_reshape/strided_slice/stack_2"], "attr": {"new_axis_mask": {"i": "0"}, "Index": {"type": "DT_INT32"}, "T": {"type": "DT_INT32"}, "end_mask": {"i": "0"}, "ellipsis_mask": {"i": "0"}, "shrink_axis_mask": {"i": "1"}, "begin_mask": {"i": "0"}}}, {"name": "StatefulPartitionedCall/model/block5e_se_reshape/Reshape/shape", "op": "Pack", "input": ["StatefulPartitionedCall/model/block5e_se_reshape/strided_slice", "StatefulPartitionedCall/model/block5e_se_reshape/Reshape/shape/1", "StatefulPartitionedCall/model/block5e_se_reshape/Reshape/shape/2", "StatefulPartitionedCall/model/block5e_se_reshape/Reshape/shape/3"], "attr": {"axis": {"i": "0"}, "N": {"i": "4"}, "T": {"type": "DT_INT32"}}}, {"name": "StatefulPartitionedCall/model/block5e_se_reshape/Reshape", "op": "Reshape", "input": ["StatefulPartitionedCall/model/block5e_se_squeeze/Mean", "StatefulPartitionedCall/model/block5e_se_reshape/Reshape/shape"], "attr": {"Tshape": {"type": "DT_INT32"}, "T": {"type": "DT_HALF"}}}, {"name": "StatefulPartitionedCall/model/block5e_se_reduce/Conv2D", "op": "Conv2D", "input": ["StatefulPartitionedCall/model/block5e_se_reshape/Reshape", "StatefulPartitionedCall/model/block5e_se_reduce/Conv2D/Cast"], "device": "/device:CPU:0", "attr": {"dilations": {"list": {"i": ["1", "1", "1", "1"]}}, "strides": {"list": {"i": ["1", "1", "1", "1"]}}, "T": {"type": "DT_HALF"}, "explicit_paddings": {"list": {}}, "data_format": {"s": "TkhXQw=="}, "padding": {"s": "U0FNRQ=="}, "use_cudnn_on_gpu": {"b": true}}}, {"name": "StatefulPartitionedCall/model/block5e_se_reduce/BiasAdd", "op": "BiasAdd", "input": ["StatefulPartitionedCall/model/block5e_se_reduce/Conv2D", "StatefulPartitionedCall/model/block5e_se_reduce/BiasAdd/Cast"], "attr": {"data_format": {"s": "TkhXQw=="}, "T": {"type": "DT_HALF"}}}, {"name": "StatefulPartitionedCall/model/block5e_se_reduce/Sigmoid", "op": "Sigmoid", "input": ["StatefulPartitionedCall/model/block5e_se_reduce/BiasAdd"], "attr": {"T": {"type": "DT_HALF"}}}, {"name": "StatefulPartitionedCall/model/block5e_se_reduce/mul_1", "op": "Mul", "input": ["StatefulPartitionedCall/model/block5e_se_reduce/BiasAdd", "StatefulPartitionedCall/model/block5e_se_reduce/Sigmoid"], "attr": {"T": {"type": "DT_HALF"}}}, {"name": "StatefulPartitionedCall/model/block5e_se_expand/Conv2D", "op": "Conv2D", "input": ["StatefulPartitionedCall/model/block5e_se_reduce/mul_1", "StatefulPartitionedCall/model/block5e_se_expand/Conv2D/Cast"], "device": "/device:CPU:0", "attr": {"T": {"type": "DT_HALF"}, "data_format": {"s": "TkhXQw=="}, "strides": {"list": {"i": ["1", "1", "1", "1"]}}, "padding": {"s": "U0FNRQ=="}, "explicit_paddings": {"list": {}}, "dilations": {"list": {"i": ["1", "1", "1", "1"]}}, "use_cudnn_on_gpu": {"b": true}}}, {"name": "StatefulPartitionedCall/model/block5e_se_expand/BiasAdd", "op": "BiasAdd", "input": ["StatefulPartitionedCall/model/block5e_se_expand/Conv2D", "StatefulPartitionedCall/model/block5e_se_expand/BiasAdd/Cast"], "attr": {"data_format": {"s": "TkhXQw=="}, "T": {"type": "DT_HALF"}}}, {"name": "StatefulPartitionedCall/model/block5e_se_expand/Sigmoid", "op": "Sigmoid", "input": ["StatefulPartitionedCall/model/block5e_se_expand/BiasAdd"], "attr": {"T": {"type": "DT_HALF"}}}, {"name": "StatefulPartitionedCall/model/block5e_se_excite/mul", "op": "Mul", "input": ["StatefulPartitionedCall/model/block5e_activation/mul_1", "StatefulPartitionedCall/model/block5e_se_expand/Sigmoid"], "attr": {"T": {"type": "DT_HALF"}}}, {"name": "StatefulPartitionedCall/model/block5e_project_conv/Conv2D", "op": "Conv2D", "input": ["StatefulPartitionedCall/model/block5e_se_excite/mul", "StatefulPartitionedCall/model/block5e_project_conv/Conv2D_weights"], "device": "/device:CPU:0", "attr": {"data_format": {"s": "TkhXQw=="}, "T": {"type": "DT_HALF"}, "dilations": {"list": {"i": ["1", "1", "1", "1"]}}, "explicit_paddings": {"list": {}}, "strides": {"list": {"i": ["1", "1", "1", "1"]}}, "use_cudnn_on_gpu": {"b": true}, "padding": {"s": "U0FNRQ=="}}}, {"name": "StatefulPartitionedCall/model/block5e_project_bn/FusedBatchNormV3", "op": "BiasAdd", "input": ["StatefulPartitionedCall/model/block5e_project_conv/Conv2D", "StatefulPartitionedCall/model/block5e_project_conv/Conv2D_bn_offset"], "attr": {"data_format": {"s": "TkhXQw=="}, "T": {"type": "DT_HALF"}}}, {"name": "StatefulPartitionedCall/model/block5e_add/add", "op": "AddV2", "input": ["StatefulPartitionedCall/model/block5e_project_bn/FusedBatchNormV3", "StatefulPartitionedCall/model/block5d_add/add"], "attr": {"T": {"type": "DT_HALF"}}}, {"name": "StatefulPartitionedCall/model/block6a_expand_conv/Conv2D", "op": "Conv2D", "input": ["StatefulPartitionedCall/model/block5e_add/add", "StatefulPartitionedCall/model/block6a_expand_conv/Conv2D_weights"], "device": "/device:CPU:0", "attr": {"padding": {"s": "U0FNRQ=="}, "dilations": {"list": {"i": ["1", "1", "1", "1"]}}, "strides": {"list": {"i": ["1", "1", "1", "1"]}}, "use_cudnn_on_gpu": {"b": true}, "explicit_paddings": {"list": {}}, "T": {"type": "DT_HALF"}, "data_format": {"s": "TkhXQw=="}}}, {"name": "StatefulPartitionedCall/model/block6a_expand_bn/FusedBatchNormV3", "op": "BiasAdd", "input": ["StatefulPartitionedCall/model/block6a_expand_conv/Conv2D", "StatefulPartitionedCall/model/block6a_expand_conv/Conv2D_bn_offset"], "attr": {"data_format": {"s": "TkhXQw=="}, "T": {"type": "DT_HALF"}}}, {"name": "StatefulPartitionedCall/model/block6a_expand_activation/Sigmoid", "op": "Sigmoid", "input": ["StatefulPartitionedCall/model/block6a_expand_bn/FusedBatchNormV3"], "attr": {"T": {"type": "DT_HALF"}}}, {"name": "StatefulPartitionedCall/model/block6a_expand_activation/mul_1", "op": "Mul", "input": ["StatefulPartitionedCall/model/block6a_expand_bn/FusedBatchNormV3", "StatefulPartitionedCall/model/block6a_expand_activation/Sigmoid"], "attr": {"T": {"type": "DT_HALF"}}}, {"name": "StatefulPartitionedCall/model/block6a_dwconv2/depthwise", "op": "FusedDepthwiseConv2dNative", "input": ["StatefulPartitionedCall/model/block6a_expand_activation/mul_1", "StatefulPartitionedCall/model/block6a_dwconv2/depthwise_weights", "StatefulPartitionedCall/model/block6a_dwconv2/depthwise_bn_offset"], "attr": {"dilations": {"list": {"i": ["1", "1", "1", "1"]}}, "data_format": {"s": "TkhXQw=="}, "padding": {"s": "U0FNRQ=="}, "num_args": {"i": "1"}, "T": {"type": "DT_HALF"}, "fused_ops": {"list": {"s": ["Qmlhc0FkZA=="]}}, "explicit_paddings": {"list": {}}, "strides": {"list": {"i": ["1", "2", "2", "1"]}}}}, {"name": "StatefulPartitionedCall/model/block6a_activation/Sigmoid", "op": "Sigmoid", "input": ["StatefulPartitionedCall/model/block6a_dwconv2/depthwise"], "attr": {"T": {"type": "DT_HALF"}}}, {"name": "StatefulPartitionedCall/model/block6a_activation/mul_1", "op": "Mul", "input": ["StatefulPartitionedCall/model/block6a_dwconv2/depthwise", "StatefulPartitionedCall/model/block6a_activation/Sigmoid"], "attr": {"T": {"type": "DT_HALF"}}}, {"name": "StatefulPartitionedCall/model/block6a_se_squeeze/Mean", "op": "Mean", "input": ["StatefulPartitionedCall/model/block6a_activation/mul_1", "StatefulPartitionedCall/model/block6a_se_squeeze/Mean/reduction_indices"], "attr": {"Tidx": {"type": "DT_INT32"}, "keep_dims": {"b": false}, "T": {"type": "DT_HALF"}}}, {"name": "StatefulPartitionedCall/model/block6a_se_reshape/Shape", "op": "Shape", "input": ["StatefulPartitionedCall/model/block6a_se_squeeze/Mean"], "attr": {"T": {"type": "DT_HALF"}, "out_type": {"type": "DT_INT32"}}}, {"name": "StatefulPartitionedCall/model/block6a_se_reshape/strided_slice", "op": "StridedSlice", "input": ["StatefulPartitionedCall/model/block6a_se_reshape/Shape", "StatefulPartitionedCall/model/block6a_se_reshape/strided_slice/stack", "StatefulPartitionedCall/model/block6a_se_reshape/strided_slice/stack_1", "StatefulPartitionedCall/model/block6a_se_reshape/strided_slice/stack_2"], "attr": {"new_axis_mask": {"i": "0"}, "end_mask": {"i": "0"}, "ellipsis_mask": {"i": "0"}, "begin_mask": {"i": "0"}, "shrink_axis_mask": {"i": "1"}, "Index": {"type": "DT_INT32"}, "T": {"type": "DT_INT32"}}}, {"name": "StatefulPartitionedCall/model/block6a_se_reshape/Reshape/shape", "op": "Pack", "input": ["StatefulPartitionedCall/model/block6a_se_reshape/strided_slice", "StatefulPartitionedCall/model/block6a_se_reshape/Reshape/shape/1", "StatefulPartitionedCall/model/block6a_se_reshape/Reshape/shape/2", "StatefulPartitionedCall/model/block6a_se_reshape/Reshape/shape/3"], "attr": {"N": {"i": "4"}, "T": {"type": "DT_INT32"}, "axis": {"i": "0"}}}, {"name": "StatefulPartitionedCall/model/block6a_se_reshape/Reshape", "op": "Reshape", "input": ["StatefulPartitionedCall/model/block6a_se_squeeze/Mean", "StatefulPartitionedCall/model/block6a_se_reshape/Reshape/shape"], "attr": {"T": {"type": "DT_HALF"}, "Tshape": {"type": "DT_INT32"}}}, {"name": "StatefulPartitionedCall/model/block6a_se_reduce/Conv2D", "op": "Conv2D", "input": ["StatefulPartitionedCall/model/block6a_se_reshape/Reshape", "StatefulPartitionedCall/model/block6a_se_reduce/Conv2D/Cast"], "device": "/device:CPU:0", "attr": {"strides": {"list": {"i": ["1", "1", "1", "1"]}}, "data_format": {"s": "TkhXQw=="}, "use_cudnn_on_gpu": {"b": true}, "T": {"type": "DT_HALF"}, "padding": {"s": "U0FNRQ=="}, "dilations": {"list": {"i": ["1", "1", "1", "1"]}}, "explicit_paddings": {"list": {}}}}, {"name": "StatefulPartitionedCall/model/block6a_se_reduce/BiasAdd", "op": "BiasAdd", "input": ["StatefulPartitionedCall/model/block6a_se_reduce/Conv2D", "StatefulPartitionedCall/model/block6a_se_reduce/BiasAdd/Cast"], "attr": {"data_format": {"s": "TkhXQw=="}, "T": {"type": "DT_HALF"}}}, {"name": "StatefulPartitionedCall/model/block6a_se_reduce/Sigmoid", "op": "Sigmoid", "input": ["StatefulPartitionedCall/model/block6a_se_reduce/BiasAdd"], "attr": {"T": {"type": "DT_HALF"}}}, {"name": "StatefulPartitionedCall/model/block6a_se_reduce/mul_1", "op": "Mul", "input": ["StatefulPartitionedCall/model/block6a_se_reduce/BiasAdd", "StatefulPartitionedCall/model/block6a_se_reduce/Sigmoid"], "attr": {"T": {"type": "DT_HALF"}}}, {"name": "StatefulPartitionedCall/model/block6a_se_expand/Conv2D", "op": "Conv2D", "input": ["StatefulPartitionedCall/model/block6a_se_reduce/mul_1", "StatefulPartitionedCall/model/block6a_se_expand/Conv2D/Cast"], "device": "/device:CPU:0", "attr": {"data_format": {"s": "TkhXQw=="}, "padding": {"s": "U0FNRQ=="}, "explicit_paddings": {"list": {}}, "T": {"type": "DT_HALF"}, "dilations": {"list": {"i": ["1", "1", "1", "1"]}}, "use_cudnn_on_gpu": {"b": true}, "strides": {"list": {"i": ["1", "1", "1", "1"]}}}}, {"name": "StatefulPartitionedCall/model/block6a_se_expand/BiasAdd", "op": "BiasAdd", "input": ["StatefulPartitionedCall/model/block6a_se_expand/Conv2D", "StatefulPartitionedCall/model/block6a_se_expand/BiasAdd/Cast"], "attr": {"T": {"type": "DT_HALF"}, "data_format": {"s": "TkhXQw=="}}}, {"name": "StatefulPartitionedCall/model/block6a_se_expand/Sigmoid", "op": "Sigmoid", "input": ["StatefulPartitionedCall/model/block6a_se_expand/BiasAdd"], "attr": {"T": {"type": "DT_HALF"}}}, {"name": "StatefulPartitionedCall/model/block6a_se_excite/mul", "op": "Mul", "input": ["StatefulPartitionedCall/model/block6a_activation/mul_1", "StatefulPartitionedCall/model/block6a_se_expand/Sigmoid"], "attr": {"T": {"type": "DT_HALF"}}}, {"name": "StatefulPartitionedCall/model/block6a_project_conv/Conv2D", "op": "Conv2D", "input": ["StatefulPartitionedCall/model/block6a_se_excite/mul", "StatefulPartitionedCall/model/block6a_project_conv/Conv2D_weights"], "device": "/device:CPU:0", "attr": {"padding": {"s": "U0FNRQ=="}, "explicit_paddings": {"list": {}}, "dilations": {"list": {"i": ["1", "1", "1", "1"]}}, "strides": {"list": {"i": ["1", "1", "1", "1"]}}, "data_format": {"s": "TkhXQw=="}, "use_cudnn_on_gpu": {"b": true}, "T": {"type": "DT_HALF"}}}, {"name": "StatefulPartitionedCall/model/block6a_project_bn/FusedBatchNormV3", "op": "BiasAdd", "input…
"T": {"type": "DT_HALF"}, "out_type": {"type": "DT_INT32"}}}, {"name": "StatefulPartitionedCall/model/block6g_se_reshape/strided_slice", "op": "StridedSlice", "input": ["StatefulPartitionedCall/model/block6g_se_reshape/Shape", "StatefulPartitionedCall/model/block6g_se_reshape/strided_slice/stack", "StatefulPartitionedCall/model/block6g_se_reshape/strided_slice/stack_1", "StatefulPartitionedCall/model/block6g_se_reshape/strided_slice/stack_2"], "attr": {"new_axis_mask": {"i": "0"}, "Index": {"type": "DT_INT32"}, "T": {"type": "DT_INT32"}, "shrink_axis_mask": {"i": "1"}, "ellipsis_mask": {"i": "0"}, "begin_mask": {"i": "0"}, "end_mask": {"i": "0"}}}, {"name": "StatefulPartitionedCall/model/block6g_se_reshape/Reshape/shape", "op": "Pack", "input": ["StatefulPartitionedCall/model/block6g_se_reshape/strided_slice", "StatefulPartitionedCall/model/block6g_se_reshape/Reshape/shape/1", "StatefulPartitionedCall/model/block6g_se_reshape/Reshape/shape/2", "StatefulPartitionedCall/model/block6g_se_reshape/Reshape/shape/3"], "attr": {"axis": {"i": "0"}, "T": {"type": "DT_INT32"}, "N": {"i": "4"}}}, {"name": "StatefulPartitionedCall/model/block6g_se_reshape/Reshape", "op": "Reshape", "input": ["StatefulPartitionedCall/model/block6g_se_squeeze/Mean", "StatefulPartitionedCall/model/block6g_se_reshape/Reshape/shape"], "attr": {"Tshape": {"type": "DT_INT32"}, "T": {"type": "DT_HALF"}}}, {"name": "StatefulPartitionedCall/model/block6g_se_reduce/Conv2D", "op": "Conv2D", "input": ["StatefulPartitionedCall/model/block6g_se_reshape/Reshape", "StatefulPartitionedCall/model/block6g_se_reduce/Conv2D/Cast"], "device": "/device:CPU:0", "attr": {"explicit_paddings": {"list": {}}, "padding": {"s": "U0FNRQ=="}, "T": {"type": "DT_HALF"}, "strides": {"list": {"i": ["1", "1", "1", "1"]}}, "dilations": {"list": {"i": ["1", "1", "1", "1"]}}, "data_format": {"s": "TkhXQw=="}, "use_cudnn_on_gpu": {"b": true}}}, {"name": "StatefulPartitionedCall/model/block6g_se_reduce/BiasAdd", "op": "BiasAdd", "input": ["StatefulPartitionedCall/model/block6g_se_reduce/Conv2D", "StatefulPartitionedCall/model/block6g_se_reduce/BiasAdd/Cast"], "attr": {"T": {"type": "DT_HALF"}, "data_format": {"s": "TkhXQw=="}}}, {"name": "StatefulPartitionedCall/model/block6g_se_reduce/Sigmoid", "op": "Sigmoid", "input": ["StatefulPartitionedCall/model/block6g_se_reduce/BiasAdd"], "attr": {"T": {"type": "DT_HALF"}}}, {"name": "StatefulPartitionedCall/model/block6g_se_reduce/mul_1", "op": "Mul", "input": ["StatefulPartitionedCall/model/block6g_se_reduce/BiasAdd", "StatefulPartitionedCall/model/block6g_se_reduce/Sigmoid"], "attr": {"T": {"type": "DT_HALF"}}}, {"name": "StatefulPartitionedCall/model/block6g_se_expand/Conv2D", "op": "Conv2D", "input": ["StatefulPartitionedCall/model/block6g_se_reduce/mul_1", "StatefulPartitionedCall/model/block6g_se_expand/Conv2D/Cast"], "device": "/device:CPU:0", "attr": {"data_format": {"s": "TkhXQw=="}, "strides": {"list": {"i": ["1", "1", "1", "1"]}}, "padding": {"s": "U0FNRQ=="}, "dilations": {"list": {"i": ["1", "1", "1", "1"]}}, "use_cudnn_on_gpu": {"b": true}, "explicit_paddings": {"list": {}}, "T": {"type": "DT_HALF"}}}, {"name": "StatefulPartitionedCall/model/block6g_se_expand/BiasAdd", "op": "BiasAdd", "input": ["StatefulPartitionedCall/model/block6g_se_expand/Conv2D", "StatefulPartitionedCall/model/block6g_se_expand/BiasAdd/Cast"], "attr": {"data_format": {"s": "TkhXQw=="}, "T": {"type": "DT_HALF"}}}, {"name": "StatefulPartitionedCall/model/block6g_se_expand/Sigmoid", "op": "Sigmoid", "input": ["StatefulPartitionedCall/model/block6g_se_expand/BiasAdd"], "attr": {"T": {"type": "DT_HALF"}}}, {"name": "StatefulPartitionedCall/model/block6g_se_excite/mul", "op": "Mul", "input": ["StatefulPartitionedCall/model/block6g_activation/mul_1", "StatefulPartitionedCall/model/block6g_se_expand/Sigmoid"], "attr": {"T": {"type": "DT_HALF"}}}, {"name": "StatefulPartitionedCall/model/block6g_project_conv/Conv2D", "op": "Conv2D", "input": ["StatefulPartitionedCall/model/block6g_se_excite/mul", "StatefulPartitionedCall/model/block6g_project_conv/Conv2D_weights"], "device": "/device:CPU:0", "attr": {"padding": {"s": "U0FNRQ=="}, "use_cudnn_on_gpu": {"b": true}, "T": {"type": "DT_HALF"}, "explicit_paddings": {"list": {}}, "dilations": {"list": {"i": ["1", "1", "1", "1"]}}, "data_format": {"s": "TkhXQw=="}, "strides": {"list": {"i": ["1", "1", "1", "1"]}}}}, {"name": "StatefulPartitionedCall/model/block6g_project_bn/FusedBatchNormV3", "op": "BiasAdd", "input": ["StatefulPartitionedCall/model/block6g_project_conv/Conv2D", "StatefulPartitionedCall/model/block6g_project_conv/Conv2D_bn_offset"], "attr": {"data_format": {"s": "TkhXQw=="}, "T": {"type": "DT_HALF"}}}, {"name": "StatefulPartitionedCall/model/block6g_add/add", "op": "AddV2", "input": ["StatefulPartitionedCall/model/block6g_project_bn/FusedBatchNormV3", "StatefulPartitionedCall/model/block6f_add/add"], "attr": {"T": {"type": "DT_HALF"}}}, {"name": "StatefulPartitionedCall/model/block6h_expand_conv/Conv2D", "op": "Conv2D", "input": ["StatefulPartitionedCall/model/block6g_add/add", "StatefulPartitionedCall/model/block6h_expand_conv/Conv2D_weights"], "device": "/device:CPU:0", "attr": {"strides": {"list": {"i": ["1", "1", "1", "1"]}}, "dilations": {"list": {"i": ["1", "1", "1", "1"]}}, "T": {"type": "DT_HALF"}, "padding": {"s": "U0FNRQ=="}, "use_cudnn_on_gpu": {"b": true}, "data_format": {"s": "TkhXQw=="}, "explicit_paddings": {"list": {}}}}, {"name": "StatefulPartitionedCall/model/block6h_expand_bn/FusedBatchNormV3", "op": "BiasAdd", "input": ["StatefulPartitionedCall/model/block6h_expand_conv/Conv2D", "StatefulPartitionedCall/model/block6h_expand_conv/Conv2D_bn_offset"], "attr": {"T": {"type": "DT_HALF"}, "data_format": {"s": "TkhXQw=="}}}, {"name": "StatefulPartitionedCall/model/block6h_expand_activation/Sigmoid", "op": "Sigmoid", "input": ["StatefulPartitionedCall/model/block6h_expand_bn/FusedBatchNormV3"], "attr": {"T": {"type": "DT_HALF"}}}, {"name": "StatefulPartitionedCall/model/block6h_expand_activation/mul_1", "op": "Mul", "input": ["StatefulPartitionedCall/model/block6h_expand_bn/FusedBatchNormV3", "StatefulPartitionedCall/model/block6h_expand_activation/Sigmoid"], "attr": {"T": {"type": "DT_HALF"}}}, {"name": "StatefulPartitionedCall/model/block6h_dwconv2/depthwise", "op": "FusedDepthwiseConv2dNative", "input": ["StatefulPartitionedCall/model/block6h_expand_activation/mul_1", "StatefulPartitionedCall/model/block6h_dwconv2/depthwise_weights", "StatefulPartitionedCall/model/block6h_dwconv2/depthwise_bn_offset"], "attr": {"strides": {"list": {"i": ["1", "1", "1", "1"]}}, "T": {"type": "DT_HALF"}, "data_format": {"s": "TkhXQw=="}, "explicit_paddings": {"list": {}}, "fused_ops": {"list": {"s": ["Qmlhc0FkZA=="]}}, "padding": {"s": "U0FNRQ=="}, "dilations": {"list": {"i": ["1", "1", "1", "1"]}}, "num_args": {"i": "1"}}}, {"name": "StatefulPartitionedCall/model/block6h_activation/Sigmoid", "op": "Sigmoid", "input": ["StatefulPartitionedCall/model/block6h_dwconv2/depthwise"], "attr": {"T": {"type": "DT_HALF"}}}, {"name": "StatefulPartitionedCall/model/block6h_activation/mul_1", "op": "Mul", "input": ["StatefulPartitionedCall/model/block6h_dwconv2/depthwise", "StatefulPartitionedCall/model/block6h_activation/Sigmoid"], "attr": {"T": {"type": "DT_HALF"}}}, {"name": "StatefulPartitionedCall/model/block6h_se_squeeze/Mean", "op": "Mean", "input": ["StatefulPartitionedCall/model/block6h_activation/mul_1", "StatefulPartitionedCall/model/block6h_se_squeeze/Mean/reduction_indices"], "attr": {"Tidx": {"type": "DT_INT32"}, "keep_dims": {"b": false}, "T": {"type": "DT_HALF"}}}, {"name": "StatefulPartitionedCall/model/block6h_se_reshape/Shape", "op": "Shape", "input": ["StatefulPartitionedCall/model/block6h_se_squeeze/Mean"], "attr": {"out_type": {"type": "DT_INT32"}, "T": {"type": "DT_HALF"}}}, {"name": "StatefulPartitionedCall/model/block6h_se_reshape/strided_slice", "op": "StridedSlice", "input": ["StatefulPartitionedCall/model/block6h_se_reshape/Shape", "StatefulPartitionedCall/model/block6h_se_reshape/strided_slice/stack", "StatefulPartitionedCall/model/block6h_se_reshape/strided_slice/stack_1", "StatefulPartitionedCall/model/block6h_se_reshape/strided_slice/stack_2"], "attr": {"new_axis_mask": {"i": "0"}, "ellipsis_mask": {"i": "0"}, "shrink_axis_mask": {"i": "1"}, "begin_mask": {"i": "0"}, "end_mask": {"i": "0"}, "Index": {"type": "DT_INT32"}, "T": {"type": "DT_INT32"}}}, {"name": "StatefulPartitionedCall/model/block6h_se_reshape/Reshape/shape", "op": "Pack", "input": ["StatefulPartitionedCall/model/block6h_se_reshape/strided_slice", "StatefulPartitionedCall/model/block6h_se_reshape/Reshape/shape/1", "StatefulPartitionedCall/model/block6h_se_reshape/Reshape/shape/2", "StatefulPartitionedCall/model/block6h_se_reshape/Reshape/shape/3"], "attr": {"N": {"i": "4"}, "T": {"type": "DT_INT32"}, "axis": {"i": "0"}}}, {"name": "StatefulPartitionedCall/model/block6h_se_reshape/Reshape", "op": "Reshape", "input": ["StatefulPartitionedCall/model/block6h_se_squeeze/Mean", "StatefulPartitionedCall/model/block6h_se_reshape/Reshape/shape"], "attr": {"T": {"type": "DT_HALF"}, "Tshape": {"type": "DT_INT32"}}}, {"name": "StatefulPartitionedCall/model/block6h_se_reduce/Conv2D", "op": "Conv2D", "input": ["StatefulPartitionedCall/model/block6h_se_reshape/Reshape", "StatefulPartitionedCall/model/block6h_se_reduce/Conv2D/Cast"], "device": "/device:CPU:0", "attr": {"explicit_paddings": {"list": {}}, "data_format": {"s": "TkhXQw=="}, "use_cudnn_on_gpu": {"b": true}, "dilations": {"list": {"i": ["1", "1", "1", "1"]}}, "T": {"type": "DT_HALF"}, "strides": {"list": {"i": ["1", "1", "1", "1"]}}, "padding": {"s": "U0FNRQ=="}}}, {"name": "StatefulPartitionedCall/model/block6h_se_reduce/BiasAdd", "op": "BiasAdd", "input": ["StatefulPartitionedCall/model/block6h_se_reduce/Conv2D", "StatefulPartitionedCall/model/block6h_se_reduce/BiasAdd/Cast"], "attr": {"T": {"type": "DT_HALF"}, "data_format": {"s": "TkhXQw=="}}}, {"name": "StatefulPartitionedCall/model/block6h_se_reduce/Sigmoid", "op": "Sigmoid", "input": ["StatefulPartitionedCall/model/block6h_se_reduce/BiasAdd"], "attr": {"T": {"type": "DT_HALF"}}}, {"name": "StatefulPartitionedCall/model/block6h_se_reduce/mul_1", "op": "Mul", "input": ["StatefulPartitionedCall/model/block6h_se_reduce/BiasAdd", "StatefulPartitionedCall/model/block6h_se_reduce/Sigmoid"], "attr": {"T": {"type": "DT_HALF"}}}, {"name": "StatefulPartitionedCall/model/block6h_se_expand/Conv2D", "op": "Conv2D", "input": ["StatefulPartitionedCall/model/block6h_se_reduce/mul_1", "StatefulPartitionedCall/model/block6h_se_expand/Conv2D/Cast"], "device": "/device:CPU:0", "attr": {"padding": {"s": "U0FNRQ=="}, "strides": {"list": {"i": ["1", "1", "1", "1"]}}, "explicit_paddings": {"list": {}}, "data_format": {"s": "TkhXQw=="}, "T": {"type": "DT_HALF"}, "use_cudnn_on_gpu": {"b": true}, "dilations": {"list": {"i": ["1", "1", "1", "1"]}}}}, {"name": "StatefulPartitionedCall/model/block6h_se_expand/BiasAdd", "op": "BiasAdd", "input": ["StatefulPartitionedCall/model/block6h_se_expand/Conv2D", "StatefulPartitionedCall/model/block6h_se_expand/BiasAdd/Cast"], "attr": {"data_format": {"s": "TkhXQw=="}, "T": {"type": "DT_HALF"}}}, {"name": "StatefulPartitionedCall/model/block6h_se_expand/Sigmoid", "op": "Sigmoid", "input": ["StatefulPartitionedCall/model/block6h_se_expand/BiasAdd"], "attr": {"T": {"type": "DT_HALF"}}}, {"name": "StatefulPartitionedCall/model/block6h_se_excite/mul", "op": "Mul", "input": ["StatefulPartitionedCall/model/block6h_activation/mul_1", "StatefulPartitionedCall/model/block6h_se_expand/Sigmoid"], "attr": {"T": {"type": "DT_HALF"}}}, {"name": "StatefulPartitionedCall/model/block6h_project_conv/Conv2D", "op": "Conv2D", "input": ["StatefulPartitionedCall/model/block6h_se_excite/mul", "StatefulPartitionedCall/model/block6h_project_conv/Conv2D_weights"], "device": "/device:CPU:0", "attr": {"data_format": {"s": "TkhXQw=="}, "dilations": {"list": {"i": ["1", "1", "1", "1"]}}, "T": {"type": "DT_HALF"}, "padding": {"s": "U0FNRQ=="}, "use_cudnn_on_gpu": {"b": true}, "strides": {"list": {"i": ["1", "1", "1", "1"]}}, "explicit_paddings": {"list": {}}}}, {"name": "StatefulPartitionedCall/model/block6h_project_bn/FusedBatchNormV3", "op": "BiasAdd", "input": ["StatefulPartitionedCall/model/block6h_project_conv/Conv2D", "StatefulPartitionedCall/model/block6h_project_conv/Conv2D_bn_offset"], "attr": {"T": {"type": "DT_HALF"}, "data_format": {"s": "TkhXQw=="}}}, {"name": "StatefulPartitionedCall/model/block6h_add/add", "op": "AddV2", "input": ["StatefulPartitionedCall/model/block6h_project_bn/FusedBatchNormV3", "StatefulPartitionedCall/model/block6g_add/add"], "attr": {"T": {"type": "DT_HALF"}}}, {"name": "StatefulPartitionedCall/model/top_conv/Conv2D", "op": "Conv2D", "input": ["StatefulPartitionedCall/model/block6h_add/add", "StatefulPartitionedCall/model/top_conv/Conv2D_weights"], "device": "/device:CPU:0", "attr": {"strides": {"list": {"i": ["1", "1", "1", "1"]}}, "use_cudnn_on_gpu": {"b": true}, "explicit_paddings": {"list": {}}, "dilations": {"list": {"i": ["1", "1", "1", "1"]}}, "T": {"type": "DT_HALF"}, "padding": {"s": "U0FNRQ=="}, "data_format": {"s": "TkhXQw=="}}}, {"name": "StatefulPartitionedCall/model/top_bn/FusedBatchNormV3", "op": "BiasAdd", "input": ["StatefulPartitionedCall/model/top_conv/Conv2D", "StatefulPartitionedCall/model/top_conv/Conv2D_bn_offset"], "attr": {"T": {"type": "DT_HALF"}, "data_format": {"s": "TkhXQw=="}}}, {"name": "StatefulPartitionedCall/model/top_activation/Sigmoid", "op": "Sigmoid", "input": ["StatefulPartitionedCall/model/top_bn/FusedBatchNormV3"], "attr": {"T": {"type": "DT_HALF"}}}, {"name": "StatefulPartitionedCall/model/top_activation/mul_1", "op": "Mul", "input": ["StatefulPartitionedCall/model/top_bn/FusedBatchNormV3", "StatefulPartitionedCall/model/top_activation/Sigmoid"], "attr": {"T": {"type": "DT_HALF"}}}, {"name": "StatefulPartitionedCall/model/avg_pool/Mean", "op": "Mean", "input": ["StatefulPartitionedCall/model/top_activation/mul_1", "StatefulPartitionedCall/model/avg_pool/Mean/reduction_indices"], "attr": {"T": {"type": "DT_HALF"}, "Tidx": {"type": "DT_INT32"}, "keep_dims": {"b": false}}}, {"name": "StatefulPartitionedCall/model/logits/MatMul", "op": "MatMul", "input": ["StatefulPartitionedCall/model/avg_pool/Mean", "StatefulPartitionedCall/model/logits/MatMul/Cast"], "device": "/device:CPU:0", "attr": {"T": {"type": "DT_HALF"}, "transpose_a": {"b": false}, "transpose_b": {"b": false}}}, {"name": "StatefulPartitionedCall/model/logits/BiasAdd", "op": "BiasAdd", "input": ["StatefulPartitionedCall/model/logits/MatMul", "StatefulPartitionedCall/model/logits/BiasAdd/Cast"], "attr": {"T": {"type": "DT_HALF"}, "data_format": {"s": "TkhXQw=="}}}, {"name": "StatefulPartitionedCall/model/predictions/Cast", "op": "Cast", "input": ["StatefulPartitionedCall/model/logits/BiasAdd"], "attr": {"DstT": {"type": "DT_FLOAT"}, "Truncate": {"b": false}, "SrcT": {"type": "DT_HALF"}}}, {"name": "StatefulPartitionedCall/model/predictions/Softmax", "op": "Softmax", "input": ["StatefulPartitionedCall/model/predictions/Cast"], "attr": {"T": {"type": "DT_FLOAT"}}}, {"name": "Identity", "op": "Identity", "input": ["StatefulPartitionedCall/model/predictions/Softmax"], "attr": {"T": {"type": "DT_FLOAT"}}}], "library": {}, "versions": {"producer": 1286}}, "weightsManifest": [{"paths": ["group1-shard1of7.bin", "group1-shard2of7.bin", "group1-shard3of7.bin", "group1-shard4of7.bin", "group1-shard5of7.bin", "group1-shard6of7.bin", "group1-shard7of7.bin"], "weights": [{"name": "StatefulPartitionedCall/model/block6h_se_squeeze/Mean/reduction_indices", "shape": [2], "dtype": "int32"}, {"name": "StatefulPartitionedCall/model/block6h_se_reshape/strided_slice/stack", "shape": [1], "dtype": "int32"}, {"name": "StatefulPartitionedCall/model/block6h_se_reshape/strided_slice/stack_1", "shape": [1], "dtype": "int32"}, {"name": "StatefulPartitionedCall/model/block6h_se_reshape/strided_slice/stack_2", "shape": [1], "dtype": "int32"}, {"name": "StatefulPartitionedCall/model/block6h_se_reshape/Reshape/shape/1", "shape": [], "dtype": "int32"}, {"name": "StatefulPartitionedCall/model/block6h_se_reshape/Reshape/shape/2", "shape": [], "dtype": "int32"}, {"name": "StatefulPartitionedCall/model/block6h_se_reshape/Reshape/shape/3", "shape": [], "dtype": "int32"}, {"name": "StatefulPartitionedCall/model/block6h_se_reduce/Conv2D/Cast", "shape": [1, 1, 1152, 48], "dtype": "float32"}, {"name": "StatefulPartitionedCall/model/block6h_se_reduce/BiasAdd/Cast", "shape": [48], "dtype": "float32"}, {"name": "StatefulPartitionedCall/model/block6h_se_expand/Conv2D/Cast", "shape": [1, 1, 48, 1152], "dtype": "float32"}, {"name": "StatefulPartitionedCall/model/block6h_se_expand/BiasAdd/Cast", "shape": [1152], "dtype": "float32"}, {"name": "StatefulPartitionedCall/model/block6g_se_squeeze/Mean/reduction_indices", "shape": [2], "dtype": "int32"}, {"name": "StatefulPartitionedCall/model/block6g_se_reshape/strided_slice/stack", "shape": [1], "dtype": "int32"}, {"name": "StatefulPartitionedCall/model/block6g_se_reshape/strided_slice/stack_1", "shape": [1], "dtype": "int32"}, {"name": "StatefulPartitionedCall/model/block6g_se_reshape/strided_slice/stack_2", "shape": [1], "dtype": "int32"}, {"name": "StatefulPartitionedCall/model/block6g_se_reshape/Reshape/shape/1", "shape": [], "dtype": "int32"}, {"name": "StatefulPartitionedCall/model/block6g_se_reshape/Reshape/shape/2", "shape": [], "dtype": "int32"}, {"name": "StatefulPartitionedCall/model/block6g_se_reshape/Reshape/shape/3", "shape": [], "dtype": "int32"}, {"name": "StatefulPartitionedCall/model/block6g_se_reduce/Conv2D/Cast", "shape": [1, 1, 1152, 48], "dtype": "float32"}, {"name": "StatefulPartitionedCall/model/block6g_se_reduce/BiasAdd/Cast", "shape": [48], "dtype": "float32"}, {"name": "StatefulPartitionedCall/model/block6g_se_expand/Conv2D/Cast", "shape": [1, 1, 48, 1152], "dtype": "float32"}, {"name": "StatefulPartitionedCall/model/block6g_se_expand/BiasAdd/Cast", "shape": [1152], "dtype": "float32"}, {"name": "StatefulPartitionedCall/model/block6f_se_squeeze/Mean/reduction_indices", "shape": [2], "dtype": "int32"}, {"name": "StatefulPartitionedCall/model/block6f_se_reshape/strided_slice/stack", "shape": [1], "dtype": "int32"}, {"name": "StatefulPartitionedCall/model/block6f_se_reshape/strided_slice/stack_1", "shape": [1], "dtype": "int32"}, {"name": "StatefulPartitionedCall/model/block6f_se_reshape/strided_slice/stack_2", "shape": [1], "dtype": "int32"}, {"name": "StatefulPartitionedCall/model/block6f_se_reshape/Reshape/shape/1", "shape": [], "dtype": "int32"}, {"name": "StatefulPartitionedCall/model/block6f_se_reshape/Reshape/shape/2", "shape": [], "dtype": "int32"}, {"name": "StatefulPartitionedCall/model/block6f_se_reshape/Reshape/shape/3", "shape": [], "dtype": "int32"}, {"name": "StatefulPartitionedCall/model/block6f_se_reduce/Conv2D/Cast", "shape": [1, 1, 1152, 48], "dtype": "float32"}, {"name": "StatefulPartitionedCall/model/block6f_se_reduce/BiasAdd/Cast", "shape": [48], "dtype": "float32"}, {"name": "StatefulPartitionedCall/model/block6f_se_expand/Conv2D/Cast", "shape": [1, 1, 48, 1152], "dtype": "float32"}, {"name": "StatefulPartitionedCall/model/block6f_se_expand/BiasAdd/Cast", "shape": [1152], "dtype": "float32"}, {"name": "StatefulPartitionedCall/model/block6e_se_squeeze/Mean/reduction_indices", "shape": [2], "dtype": "int32"}, {"name": "StatefulPartitionedCall/model/block6e_se_reshape/strided_slice/stack", "shape": [1], "dtype": "int32"}, {"name": "StatefulPartitionedCall/model/block6e_se_reshape/strided_slice/stack_1", "shape": [1], "dtype": "int32"}, {"name": "StatefulPartitionedCall/model/block6e_se_reshape/strided_slice/stack_2", "shape": [1], "dtype": "int32"}, {"name": "StatefulPartitionedCall/model/block6e_se_reshape/Reshape/shape/1", "shape": [], "dtype": "int32"}, {"name": "StatefulPartitionedCall/model/block6e_se_reshape/Reshape/shape/2", "shape": [], "dtype": "int32"}, {"name": "StatefulPartitionedCall/model/block6e_se_reshape/Reshape/shape/3", "shape": [], "dtype": "int32"}, {"name": "StatefulPartitionedCall/model/block6e_se_reduce/Conv2D/Cast", "shape": [1, 1, 1152, 48], "dtype": "float32"}, {"name": "StatefulPartitionedCall/model/block6e_se_reduce/BiasAdd/Cast", "shape": [48], "dtype": "float32"}, {"name": "StatefulPartitionedCall/model/block6e_se_expand/Conv2D/Cast", "shape": [1, 1, 48, 1152], "dtype": "float32"}, {"name": "StatefulPartitionedCall/model/block6e_se_expand/BiasAdd/Cast", "shape": [1152], "dtype": "float32"}, {"name": "StatefulPartitionedCall/model/block6d_se_squeeze/Mean/reduction_indices", "shape": [2], "dtype": "int32"}, {"name": "StatefulPartitionedCall/model/block6d_se_reshape/strided_slice/stack", "shape": [1], "dtype": "int32"}, {"name": "StatefulPartitionedCall/model/block6d_se_reshape/strided_slice/stack_1", "shape": [1], "dtype": "int32"}, {"name": "StatefulPartitionedCall/model/block6d_se_reshape/strided_slice/stack_2", "shape": [1], "dtype": "int32"}, {"name": "StatefulPartitionedCall/model/block6d_se_reshape/Reshape/shape/1", "shape": [], "dtype": "int32"}, {"name": "StatefulPartitionedCall/model/block6d_se_reshape/Reshape/shape/2", "shape": [], "dtype": "int32"}, {"name": "StatefulPartitionedCall/model/block6d_se_reshape/Reshape/shape/3", "shape": [], "dtype": "int32"}, {"name": "StatefulPartitionedCall/model/block6d_se_reduce/Conv2D/Cast", "shape": [1, 1, 1152, 48], "dtype": "float32"}, {"name": "StatefulPartitionedCall/model/block6d_se_reduce/BiasAdd/Cast", "shape": [48], "dtype": "float32"}, {"name": "StatefulPartitionedCall/model/block6d_se_expand/Conv2D/Cast", "shape": [1, 1, 48, 1152], "dtype": "float32"}, {"name": "StatefulPartitionedCall/model/block6d_se_expand/BiasAdd/Cast", "shape": [1152], "dtype": "float32"}, {"name": "StatefulPartitionedCall/model/block6c_se_squeeze/Mean/reduction_indices", "shape": [2], "dtype": "int32"}, {"name": "StatefulPartitionedCall/model/block6c_se_reshape/strided_slice/stack", "shape": [1], "dtype": "int32"}, {"name": "StatefulPartitionedCall/model/block6c_se_reshape/strided_slice/stack_1", "shape": [1], "dtype": "int32"}, {"name": "StatefulPartitionedCall/model/block6c_se_reshape/strided_slice/stack_2", "shape": [1], "dtype": "int32"}, {"name": "StatefulPartitionedCall/model/block6c_se_reshape/Reshape/shape/1", "shape": [], "dtype": "int32"}, {"name": "StatefulPartitionedCall/model/block6c_se_reshape/Reshape/shape/2", "shape": [], "dtype": "int32"}, {"name": "StatefulPartitionedCall/model/block6c_se_reshape/Reshape/shape/3", "shape": [], "dtype": "int32"}, {"name": "StatefulPartitionedCall/model/block6c_se_reduce/Conv2D/Cast", "shape": [1, 1, 1152, 48], "dtype": "float32"}, {"name": "StatefulPartitionedCall/model/block6c_se_reduce/BiasAdd/Cast", "shape": [48], "dtype": "float32"}, {"name": "StatefulPartitionedCall/model/block6c_se_expand/Conv2D/Cast", "shape": [1, 1, 48, 1152], "dtype": "float32"}, {"name": "StatefulPartitionedCall/model/block6c_se_expand/BiasAdd/Cast", "shape": [1152], "dtype": "float32"}, {"name": "StatefulPartitionedCall/model/block6b_se_squeeze/Mean/reduction_indices", "shape": [2], "dtype": "int32"}, {"name": "StatefulPartitionedCall/model/block6b_se_reshape/strided_slice/stack", "shape": [1], "dtype": "int32"}, {"name": "StatefulPartitionedCall/model/block6b_se_reshape/strided_slice/stack_1", "shape": [1], "dtype": "int32"}, {"name": "StatefulPartitionedCall/model/block6b_se_reshape/strided_slice/stack_2", "shape": [1], "dtype": "int32"}, {"name": "StatefulPartitionedCall/model/block6b_se_reshape/Reshape/shape/1", "shape": [], "dtype": "int32"}, {"name": "StatefulPartitionedCall/model/block6b_se_reshape/Reshape/shape/2", "shape": [], "dtype": "int32"}, {"name": "StatefulPartitionedCall/model/block6b_se_reshape/Reshape/shape/3", "shape": [], "dtype": "int32"}, {"name": "StatefulPartitionedCall/model/block6b_se_reduce/Conv2D/Cast", "shape": [1, 1, 1152, 48], "dtype": "float32"}, {"name": "StatefulPartitionedCall/model/block6b_se_reduce/BiasAdd/Cast", "shape": [48], "dtype": "float32"}, {"name": "StatefulPartitionedCall/model/block6b_se_expand/Conv2D/Cast", "shape": [1, 1, 48, 1152], "dtype": "float32"}, {"name": "StatefulPartitionedCall/model/block6b_se_expand/BiasAdd/Cast", "shape": [1152], "dtype": "float32"}, {"name": "StatefulPartitionedCall/model/block5e_se_squeeze/Mean/reduction_indices", "shape": [2], "dtype": "int32"}, {"name": "StatefulPartitionedCall/model/block5e_se_reshape/strided_slice/stack", "shape": [1], "dtype": "int32"}, {"name": "StatefulPartitionedCall/model/block5e_se_reshape/strided_slice/stack_1", "shape": [1], "dtype": "int32"}, {"name": "StatefulPartitionedCall/model/block5e_se_reshape/strided_slice/stack_2", "shape": [1], "dtype": "int32"}, {"name": "StatefulPartitionedCall/model/block5e_se_reshape/Reshape/shape/1", "shape": [], "dtype": "int32"}, {"name": "StatefulPartitionedCall/model/block5e_se_reshape/Reshape/shape/2", "shape": [], "dtype": "int32"}, {"name": "StatefulPartitionedCall/model/block5e_se_reshape/Reshape/shape/3", "shape": [], "dtype": "int32"}, {"name": "StatefulPartitionedCall/model/block5e_se_reduce/Conv2D/Cast", "shape": [1, 1, 672, 28], "dtype": "float32"}, {"name": "StatefulPartitionedCall/model/block5e_se_reduce/BiasAdd/Cast", "shape": [28], "dtype": "float32"}, {"name": "StatefulPartitionedCall/model/block5e_se_expand/Conv2D/Cast", "shape": [1, 1, 28, 672], "dtype": "float32"}, {"name": "StatefulPartitionedCall/model/block5e_se_expand/BiasAdd/Cast", "shape": [672], "dtype": "float32"}, {"name": "StatefulPartitionedCall/model/block5d_se_squeeze/Mean/reduction_indices", "shape": [2], "dtype": "int32"}, {"name": "StatefulPartitionedCall/model/block5d_se_reshape/strided_slice/stack", "shape": [1], "dtype": "int32"}, {"name": "StatefulPartitionedCall/model/block5d_se_reshape/strided_slice/stack_1", "shape": [1], "dtype": "int32"}, {"name": "StatefulPartitionedCall/model/block5d_se_reshape/strided_slice/stack_2", "shape": [1], "dtype": "int32"}, {"name": "StatefulPartitionedCall/model/block5d_se_reshape/Reshape/shape/1", "shape": [], "dtype": "int32"}, {"name": "StatefulPartitionedCall/model/block5d_se_reshape/Reshape/shape/2", "shape": [], "dtype": "int32"}, {"name": "StatefulPartitionedCall/model/block5d_se_reshape/Reshape/shape/3", "shape": [], "dtype": "int32"}, {"name": "StatefulPartitionedCall/model/block5d_se_reduce/Conv2D/Cast", "shape": [1, 1, 672, 28], "dtype": "float32"}, {"name": "StatefulPartitionedCall/model/block5d_se_reduce/BiasAdd/Cast", "shape": [28], "dtype": "float32"}, {"name": "StatefulPartitionedCall/model/block5d_se_expand/Conv2D/Cast", "shape": [1, 1, 28, 672], "dtype": "float32"}, {"name": "StatefulPartitionedCall/model/block5d_se_expand/BiasAdd/Cast", "shape": [672], "dtype": "float32"}, {"name": "StatefulPartitionedCall/model/block5c_se_squeeze/Mean/reduction_indices", "shape": [2], "dtype": "int32"}, {"name": "StatefulPartitionedCall/model/block5c_se_reshape/strided_slice/stack", "shape": [1], "dtype": "int32"}, {"name": "StatefulPartitionedCall/model/block5c_se_reshape/strided_slice/stack_1", "shape": [1], "dtype": "int32"}, {"name": "StatefulPartitionedCall/model/block5c_se_reshape/strided_slice/stack_2", "shape": [1], "dtype": "int32"}, {"name": "StatefulPartitionedCall/model/block5c_se_reshape/Reshape/shape/1", "shape": [], "dtype": "int32"}, {"name": "StatefulPartitionedCall/model/block5c_se_reshape/Reshape/shape/2", "shape": [], "dtype": "int32"}, {"name": "StatefulPartitionedCall/model/block5c_se_reshape/Reshape/shape/3", "shape": [], "dtype": "int32"}, {"name": "StatefulPartitionedCall/model/block5c_se_reduce/Conv2D/Cast", "shape": [1, 1, 672, 28], "dtype": "float32"}, {"name": "StatefulPartitionedCall/model/block5c_se_reduce/BiasAdd/Cast", "shape": [28], "dtype": "float32"}, {"name": "StatefulPartitionedCall/model/block5c_se_expand/Conv2D/Cast", "shape": [1, 1, 28, 672], "dtype": "float32"}, {"name": "StatefulPartitionedCall/model/block5c_se_expand/BiasAdd/Cast", "shape": [672], "dtype": "float32"}, {"name": "StatefulPartitionedCall/model/block5b_se_squeeze/Mean/reduction_indices", "shape": [2], "dtype": "int32"}, {"name": "StatefulPartitionedCall/model/block5b_se_reshape/strided_slice/stack", "shape": [1], "dtype": "int32"}, {"name": "StatefulPartitionedCall/model/block5b_se_reshape/strided_slice/stack_1", "shape": [1], "dtype": "int32"}, {"name": "StatefulPartitionedCall/model/block5b_se_reshape/strided_slice/stack_2", "shape": [1], "dtype": "int32"}, {"name": "StatefulPartitionedCall/model/block5b_se_reshape/Reshape/shape/1", "shape": [], "dtype": "int32"}, {"name": "StatefulPartitionedCall/model/block5b_se_reshape/Reshape/shape/2", "shape": [], "dtype": "int32"}, {"name": "StatefulPartitionedCall/model/block5b_se_reshape/Reshape/shape/3", "shape": [], "dtype": "int32"}, {"name": "StatefulPartitionedCall/model/block5b_se_reduce/Conv2D/Cast", "shape": [1, 1, 672, 28], "dtype": "float32"}, {"name": "StatefulPartitionedCall/model/block5b_se_reduce/BiasAdd/Cast", "shape": [28], "dtype": "float32"}, {"name": "StatefulPartitionedCall/model/block5b_se_expand/Conv2D/Cast", "shape": [1, 1, 28, 672], "dtype": "float32"}, {"name": "StatefulPartitionedCall/model/block5b_se_expand/BiasAdd/Cast", "shape": [672], "dtype": "float32"}, {"name": "StatefulPartitionedCall/model/block4c_se_squeeze/Mean/reduction_indices", "shape": [2], "dtype": "int32"}, {"name": "StatefulPartitionedCall/model/block4c_se_reshape/strided_slice/stack", "shape": [1], "dtype": "int32"}, {"name": "StatefulPartitionedCall/model/block4c_se_reshape/strided_slice/stack_1", "shape": [1], "dtype": "int32"}, {"name": "StatefulPartitionedCall/model/block4c_se_reshape/strided_slice/stack_2", "shape": [1], "dtype": "int32"}, {"name": "StatefulPartitionedCall/model/block4c_se_reshape/Reshape/shape/1", "shape": [], "dtype": "int32"}, {"name": "StatefulPartitionedCall/model/block4c_se_reshape/Reshape/shape/2", "shape": [], "dtype": "int32"}, {"name": "StatefulPartitionedCall/model/block4c_se_reshape/Reshape/shape/3", "shape": [], "dtype": "int32"}, {"name": "StatefulPartitionedCall/model/block4c_se_reduce/Conv2D/Cast", "shape": [1, 1, 384, 24], "dtype": "float32"}, {"name": "StatefulPartitionedCall/model/block4c_se_reduce/BiasAdd/Cast", "shape": [24], "dtype": "float32"}, {"name": "StatefulPartitionedCall/model/block4c_se_expand/Conv2D/Cast", "shape": [1, 1, 24, 384], "dtype": "float32"}, {"name": "StatefulPartitionedCall/model/block4c_se_expand/BiasAdd/Cast", "shape": [384], "dtype": "float32"}, {"name": "StatefulPartitionedCall/model/block4b_se_squeeze/Mean/reduction_indices", "shape": [2], "dtype": "int32"}, {"name": "StatefulPartitionedCall/model/block4b_se_reshape/strided_slice/stack", "shape": [1], "dtype": "int32"}, {"name": "StatefulPartitionedCall/model/block4b_se_reshape/strided_slice/stack_1", "shape": [1], "dtype": "int32"}, {"name": "StatefulPartitionedCall/model/block4b_se_reshape/strided_slice/stack_2", "shape": [1], "dtype": "int32"}, {"name": "StatefulPartitionedCall/model/block4b_se_reshape/Reshape/shape/1", "shape": [], "dtype": "int32"}, {"name": "StatefulPartitionedCall/model/block4b_se_reshape/Reshape/shape/2", "shape": [], "dtype": "int32"}, {"name": "StatefulPartitionedCall/model/block4b_se_reshape/Reshape/shape/3", "shape": [], "dtype": "int32"}, {"name": "StatefulPartitionedCall/model/block4b_se_reduce/Conv2D/Cast", "shape": [1, 1, 384, 24], "dtype": "float32"}, {"name": "StatefulPartitionedCall/model/block4b_se_reduce/BiasAdd/Cast", "shape": [24], "dtype": "float32"}, {"name": "StatefulPartitionedCall/model/block4b_se_expand/Conv2D/Cast", "shape": [1, 1, 24, 384], "dtype": "float32"}, {"name": "StatefulPartitionedCall/model/block4b_se_expand/BiasAdd/Cast", "shape": [384], "dtype": "float32"}, {"name": "StatefulPartitionedCall/model/block4a_se_squeeze/Mean/reduction_indices", "shape": [2], "dtype": "int32"}, {"name": "StatefulPartitionedCall/model/block4a_se_reshape/strided_slice/stack", "shape": [1], "dtype": "int32"}, {"name": "StatefulPartitionedCall/model/block4a_se_reshape/strided_slice/stack_1", "shape": [1], "dtype": "int32"}, {"name": "StatefulPartitionedCall/model/block4a_se_reshape/strided_slice/stack_2", "shape": [1], "dtype": "int32"}, {"name": "StatefulPartitionedCall/model/block4a_se_reshape/Reshape/shape/1", "shape": [], "dtype": "int32"}, {"name": "StatefulPartitionedCall/model/block4a_se_reshape/Reshape/shape/2", "shape": [], "dtype": "int32"}, {"name": "StatefulPartitionedCall/model/block4a_se_reshape/Reshape/shape/3", "shape": [], "dtype": "int32"}, {"name": "StatefulPartitionedCall/model/block4a_se_reduce/Conv2D/Cast", "shape": [1, 1, 192, 12], "dtype": "float32"}, {"name": "StatefulPartitionedCall/model/block4a_se_reduce/BiasAdd/Cast", "shape": [12], "dtype": "float32"}, {"name": "StatefulPartitionedCall/model/block4a_se_expand/Conv2D/Cast", "shape": [1, 1, 12, 192], "dtype": "float32"}, {"name": "StatefulPartitionedCall/model/block4a_se_expand/BiasAdd/Cast", "shape": [192], "dtype": "float32"}, {"name": "StatefulPartitionedCall/model/block5a_se_squeeze/Mean/reduction_indices", "shape": [2], "dtype": "int32"}, {"name": "StatefulPartitionedCall/model/block5a_se_reshape/strided_slice/stack", "shape": [1], "dtype": "int32"}, {"name": "StatefulPartitionedCall/model/block5a_se_reshape/strided_slice/stack_1", "shape": [1], "dtype": "int32"}, {"name": "StatefulPartitionedCall/model/block5a_se_reshape/strided_slice/stack_2", "shape": [1], "dtype": "int32"}, {"name": "StatefulPartitionedCall/model/block5a_se_reshape/Reshape/shape/1", "shape": [], "dtype": "int32"}, {"name": "StatefulPartitionedCall/model/block5a_se_reshape/Reshape/shape/2", "shape": [], "dtype": "int32"}, {"name": "StatefulPartitionedCall/model/block5a_se_reshape/Reshape/shape/3", "shape": [], "dtype": "int32"}, {"name": "StatefulPartitionedCall/model/block5a_se_reduce/Conv2D/Cast", "shape": [1, 1, 576, 24], "dtype": "float32"}, {"name": "StatefulPartitionedCall/model/block5a_se_reduce/BiasAdd/Cast", "shape": [24], "dtype": "float32"}, {"name": "StatefulPartitionedCall/model/block5a_se_expand/Conv2D/Cast", "shape": [1, 1, 24, 576], "dtype": "float32"}, {"name": "StatefulPartitionedCall/model/block5a_se_expand/BiasAdd/Cast", "shape": [576], "dtype": "float32"}, {"name": "StatefulPartitionedCall/model/block6a_se_squeeze/Mean/reduction_indices", "shape": [2], "dtype": "int32"}, {"name": "StatefulPartitionedCall/model/block6a_se_reshape/strided_slice/stack", "shape": [1], "dtype": "int32"}, {"name": "StatefulPartitionedCall/model/block6a_se_reshape/strided_slice/stack_1", "shape": [1], "dtype": "int32"}, {"name": "StatefulPartitionedCall/model/block6a_se_reshape/strided_slice/stack_2", "shape": [1], "dtype": "int32"}, {"name": "StatefulPartitionedCall/model/block6a_se_reshape/Reshape/shape/1", "shape": [], "dtype": "int32"}, {"name": "StatefulPartitionedCall/model/block6a_se_reshape/Reshape/shape/2", "shape": [], "dtype": "int32"}, {"name": "StatefulPartitionedCall/model/block6a_se_reshape/Reshape/shape/3", "shape": [], "dtype": "int32"}, {"name": "StatefulPartitionedCall/model/block6a_se_reduce/Conv2D/Cast", "shape": [1, 1, 672, 28], "dtype": "float32"}, {"name": "StatefulPartitionedCall/model/block6a_se_reduce/BiasAdd/Cast", "shape": [28], "dtype": "float32"}, {"name": "StatefulPartitionedCall/model/block6a_se_expand/Conv2D/Cast", "shape": [1, 1, 28, 672], "dtype": "float32"}, {"name": "StatefulPartitionedCall/model/block6a_se_expand/BiasAdd/Cast", "shape": [672], "dtype": "float32"}, {"name": "StatefulPartitionedCall/model/avg_pool/Mean/reduction_indices", "shape": [2], "dtype": "int32"}, {"name": "StatefulPartitionedCall/model/logits/MatMul/Cast", "shape": [1280, 392], "dtype": "float32"}, {"name": "StatefulPartitionedCall/model/logits/BiasAdd/Cast", "shape": [392], "dtype": "float32"}, {"name": "StatefulPartitionedCall/model/stem_conv/Conv2D_weights", "shape": [3, 3, 1, 32], "dtype": "float32"}, {"name": "StatefulPartitionedCall/model/stem_conv/Conv2D_bn_offset", "shape": [32], "dtype": "float32"}, {"name": "StatefulPartitionedCall/model/block1a_project_conv/Conv2D_weights", "shape": [3, 3, 32, 16], "dtype": "float32"}, {"name": "StatefulPartitionedCall/model/block1a_project_conv/Conv2D_bn_offset", "shape": [16], "dtype": "float32"}, {"name": "StatefulPartitionedCall/model/block2a_expand_conv/Conv2D_weights", "shape": [3, 3, 16, 64], "dtype": "float32"}, {"name": "StatefulPartitionedCall/model/block2a_expand_conv/Conv2D_bn_offset", "shape": [64], "dtype": "float32"}, {"name": "StatefulPartitionedCall/model/block2a_project_conv/Conv2D_weights", "shape": [1, 1, 64, 32], "dtype": "float32"}, {"name": "StatefulPartitionedCall/model/block2a_project_conv/Conv2D_bn_offset", "shape": [32], "dtype": "float32"}, {"name": "StatefulPartitionedCall/model/block2b_expand_conv/Conv2D_weights", "shape": [3, 3, 32, 128], "dtype": "float32"}, {"name": "StatefulPartitionedCall/model/block2b_expand_conv/Conv2D_bn_offset", "shape": [128], "dtype": "float32"}, {"name": "StatefulPartitionedCall/model/block2b_project_conv/Conv2D_weights", "shape": [1, 1, 128, 32], "dtype": "float32"}, {"name": "StatefulPartitionedCall/model/block2b_project_conv/Conv2D_bn_offset", "shape": [32], "dtype": "float32"}, {"name": "StatefulPartitionedCall/model/block3a_expand_conv/Conv2D_weights", "shape": [3, 3, 32, 128], "dtype": "float32"}, {"name": "StatefulPartitionedCall/model/block3a_expand_conv/Conv2D_bn_offset", "shape": [128], "dtype": "float32"}, {"name": "StatefulPartitionedCall/model/block3a_project_conv/Conv2D_weights", "shape": [1, 1, 128, 48], "dtype": "float32"}, {"name": "StatefulPartitionedCall/model/block3a_project_conv/Conv2D_bn_offset", "shape": [48], "dtype": "float32"}, {"name": "StatefulPartitionedCall/model/block3b_expand_conv/Conv2D_weights", "shape": [3, 3, 48, 192], "dtype": "float32"}, {"name": "StatefulPartitionedCall/model/block3b_expand_conv/Conv2D_bn_offset", "shape": [192], "dtype": "float32"}, {"name": "StatefulPartitionedCall/model/block3b_project_conv/Conv2D_weights", "shape": [1, 1, 192, 48], "dtype": "float32"}, {"name": "StatefulPartitionedCall/model/block3b_project_conv/Conv2D_bn_offset", "shape": [48], "dtype": "float32"}, {"name": "StatefulPartitionedCall/model/block4a_expand_conv/Conv2D_weights", "shape": [1, 1, 48, 192], "dtype": "float32"}, {"name": "StatefulPartitionedCall/model/block4a_expand_conv/Conv2D_bn_offset", "shape": [192], "dtype": "float32"}, {"name": "StatefulPartitionedCall/model/block4a_dwconv2/depthwise_weights", "shape": [3, 3, 192, 1], "dtype": "float32"}, {"name": "StatefulPartitionedCall/model/block4a_dwconv2/depthwise_bn_offset", "shape": [192], "dtype": "float32"}, {"name": "StatefulPartitionedCall/model/block4a_project_conv/Conv2D_weights", "shape": [1, 1, 192, 96], "dtype": "float32"}, {"name": "StatefulPartitionedCall/model/block4a_project_conv/Conv2D_bn_offset", "shape": [96], "dtype": "float32"}, {"name": "StatefulPartitionedCall/model/block4b_expand_conv/Conv2D_weights", "shape": [1, 1, 96, 384], "dtype": "float32"}, {"name": "StatefulPartitionedCall/model/block4b_expand_conv/Conv2D_bn_offset", "shape": [384], "dtype": "float32"}, {"name": "StatefulPartitionedCall/model/block4b_dwconv2/depthwise_weights", "shape": [3, 3, 384, 1], "dtype": "float32"}, {"name": "StatefulPartitionedCall/model/block4b_dwconv2/depthwise_bn_offset", "shape": [384], "dtype": "float32"}, {"name": "StatefulPartitionedCall/model/block4b_project_conv/Conv2D_weights", "shape": [1, 1, 384, 96], "dtype": "float32"}, {"name": "StatefulPartitionedCall/model/block4b_project_conv/Conv2D_bn_offset", "shape": [96], "dtype": "float32"}, {"name": "StatefulPartitionedCall/model/block4c_expand_conv/Conv2D_weights", "shape": [1, 1, 96, 384], "dtype": "float32"}, {"name": "StatefulPartitionedCall/model/block4c_expand_conv/Conv2D_bn_offset", "shape": [384], "dtype": "float32"}, {"name": "StatefulPartitionedCall/model/block4c_dwconv2/depthwise_weights", "shape": [3, 3, 384, 1], "dtype": "float32"}, {"name": "StatefulPartitionedCall/model/block4c_dwconv2/depthwise_bn_offset", "shape": [384], "dtype": "float32"}, {"name": "StatefulPartitionedCall/model/block4c_project_conv/Conv2D_weights", "shape": [1, 1, 384, 96], "dtype": "float32"}, {"name": "StatefulPartitionedCall/model/block4c_project_conv/Conv2D_bn_offset", "shape": [96], "dtype": "float32"}, {"name": "StatefulPartitionedCall/model/block5a_expand_conv/Conv2D_weights", "shape": [1, 1, 96, 576], "dtype": "float32"}, {"name": "StatefulPartitionedCall/model/block5a_expand_conv/Conv2D_bn_offset", "shape": [576], "dtype": "float32"}, {"name": "StatefulPartitionedCall/model/block5a_dwconv2/depthwise_weights", "shape": [3, 3, 576, 1], "dtype": "float32"}, {"name": "StatefulPartitionedCall/model/block5a_dwconv2/depthwise_bn_offset", "shape": [576], "dtype": "float32"}, {"name": "StatefulPartitionedCall/model/block5a_project_conv/Conv2D_weights", "shape": [1, 1, 576, 112], "dtype": "float32"}, {"name": "StatefulPartitionedCall/model/block5a_project_conv/Conv2D_bn_offset", "shape": [112], "dtype": "float32"}, {"name": "StatefulPartitionedCall/model/block5b_expand_conv/Conv2D_weights", "shape": [1, 1, 112, 672], "dtype": "float32"}, {"name": "StatefulPartitionedCall/model/block5b_expand_conv/Conv2D_bn_offset", "shape": [672], "dtype": "float32"}, {"name": "StatefulPartitionedCall/model/block5b_dwconv2/depthwise_weights", "shape": [3, 3, 672, 1], "dtype": "float32"}, {"name": "StatefulPartitionedCall/model/block5b_dwconv2/depthwise_bn_offset", "shape": [672], "dtype": "float32"}, {"name": "StatefulPartitionedCall/model/block5b_project_conv/Conv2D_weights", "shape": [1, 1, 672, 112], "dtype": "float32"}, {"name": "StatefulPartitionedCall/model/block5b_project_conv/Conv2D_bn_offset", "shape": [112], "dtype": "float32"}, {"name": "StatefulPartitionedCall/model/block5c_expand_conv/Conv2D_weights", "shape": [1, 1, 112, 672], "dtype": "float32"}, {"name": "StatefulPartitionedCall/model/block5c_expand_conv/Conv2D_bn_offset", "shape": [672], "dtype": "float32"}, {"name": "StatefulPartitionedCall/model/block5c_dwconv2/depthwise_weights", "shape": [3, 3, 672, 1], "dtype": "float32"}, {"name": "StatefulPartitionedCall/model/block5c_dwconv2/depthwise_bn_offset", "shape": [672], "dtype": "float32"}, {"name": "StatefulPartitionedCall/model/block5c_project_conv/Conv2D_weights", "shape": [1, 1, 672, 112], "dtype": "float32"}, {"name": "StatefulPartitionedCall/model/block5c_project_conv/Conv2D_bn_offset", "shape": [112], "dtype": "float32"}, {"name": "StatefulPartitionedCall/model/block5d_expand_conv/Conv2D_weights", "shape": [1, 1, 112, 672], "dtype": "float32"}, {"name": "StatefulPartitionedCall/model/block5d_expand_conv/Conv2D_bn_offset", "shape": [672], "dtype": "float32"}, {"name": "StatefulPartitionedCall/model/block5d_dwconv2/depthwise_weights", "shape": [3, 3, 672, 1], "dtype": "float32"}, {"name": "StatefulPartitionedCall/model/block5d_dwconv2/depthwise_bn_offset", "shape": [672], "dtype": "float32"}, {"name": "StatefulPartitionedCall/model/block5d_project_conv/Conv2D_weights", "shape": [1, 1, 672, 112], "dtype": "float32"}, {"name": "StatefulPartitionedCall/model/block5d_project_conv/Conv2D_bn_offset", "shape": [112], "dtype": "float32"}, {"name": "StatefulPartitionedCall/model/block5e_expand_conv/Conv2D_weights", "shape": [1, 1, 112, 672], "dtype": "float32"}, {"name": "StatefulPartitionedCall/model/block5e_expand_conv/Conv2D_bn_offset", "shape": [672], "dtype": "float32"}, {"name": "StatefulPartitionedCall/model/block5e_dwconv2/depthwise_weights", "shape": [3, 3, 672, 1], "dtype": "float32"}, {"name": "StatefulPartitionedCall/model/block5e_dwconv2/depthwise_bn_offset", "shape": [672], "dtype": "float32"}, {"name": "StatefulPartitionedCall/model/block5e_project_conv/Conv2D_weights", "shape": [1, 1, 672, 112], "dtype": "float32"}, {"name": "StatefulPartitionedCall/model/block5e_project_conv/Conv2D_bn_offset", "shape": [112], "dtype": "float32"}, {"name": "StatefulPartitionedCall/model/block6a_expand_conv/Conv2D_weights", "shape": [1, 1, 112, 672], "dtype": "float32"}, {"name": "StatefulPartitionedCall/model/block6a_expand_conv/Conv2D_bn_offset", "shape": [672], "dtype": "float32"}, {"name": "StatefulPartitionedCall/model/block6a_dwconv2/depthwise_weights", "shape": [3, 3, 672, 1], "dtype": "float32"}, {"name": "StatefulPartitionedCall/model/block6a_dwconv2/depthwise_bn_offset", "shape": [672], "dtype": "float32"}, {"name": "StatefulPartitionedCall/model/block6a_project_conv/Conv2D_weights", "shape": [1, 1, 672, 192], "dtype": "float32"}, {"name": "StatefulPartitionedCall/model/block6a_project_conv/Conv2D_bn_offset", "shape": [192], "dtype": "float32"}, {"name": "StatefulPartitionedCall/model/block6b_expand_conv/Conv2D_weights", "shape": [1, 1, 192, 1152], "dtype": "float32"}, {"name": "StatefulPartitionedCall/model/block6b_expand_conv/Conv2D_bn_offset", "shape": [1152], "dtype": "float32"}, {"name": "StatefulPartitionedCall/model/block6b_dwconv2/depthwise_weights", "shape": [3, 3, 1152, 1], "dtype": "float32"}, {"name": "StatefulPartitionedCall/model/block6b_dwconv2/depthwise_bn_offset", "shape": [1152], "dtype": "float32"}, {"name": "StatefulPartitionedCall/model/block6b_project_conv/Conv2D_weights", "shape": [1, 1, 1152, 192], "dtype": "float32"}, {"name": "StatefulPartitionedCall/model/block6b_project_conv/Conv2D_bn_offset", "shape": [192], "dtype": "float32"}, {"name": "StatefulPartitionedCall/model/block6c_expand_conv/Conv2D_weights", "shape": [1, 1, 192, 1152], "dtype": "float32"}, {"name": "StatefulPartitionedCall/model/block6c_expand_conv/Conv2D_bn_offset", "shape": [1152], "dtype": "float32"}, {"name": "StatefulPartitionedCall/model/block6c_dwconv2/depthwise_weights", "shape": [3, 3, 1152, 1], "dtype": "float32"}, {"name": "StatefulPartitionedCall/model/block6c_dwconv2/depthwise_bn_offset", "shape": [1152], "dtype": "float32"}, {"name": "StatefulPartitionedCall/model/block6c_project_conv/Conv2D_weights", "shape": [1, 1, 1152, 192], "dtype": "float32"}, {"name": "StatefulPartitionedCall/model/block6c_project_conv/Conv2D_bn_offset", "shape": [192], "dtype": "float32"}, {"name": "StatefulPartitionedCall/model/block6d_expand_conv/Conv2D_weights", "shape": [1, 1, 192, 1152], "dtype": "float32"}, {"name": "StatefulPartitionedCall/model/block6d_expand_conv/Conv2D_bn_offset", "shape": [1152], "dtype": "float32"}, {"name": "StatefulPartitionedCall/model/block6d_dwconv2/depthwise_weights", "shape": [3, 3, 1152, 1], "dtype": "float32"}, {"name": "StatefulPartitionedCall/model/block6d_dwconv2/depthwise_bn_offset", "shape": [1152], "dtype": "float32"}, {"name": "StatefulPartitionedCall/model/block6d_project_conv/Conv2D_weights", "shape": [1, 1, 1152, 192], "dtype": "float32"}, {"name": "StatefulPartitionedCall/model/block6d_project_conv/Conv2D_bn_offset", "shape": [192], "dtype": "float32"}, {"name": "StatefulPartitionedCall/model/block6e_expand_conv/Conv2D_weights", "shape": [1, 1, 192, 1152], "dtype": "float32"}, {"name": "StatefulPartitionedCall/model/block6e_expand_conv/Conv2D_bn_offset", "shape": [1152], "dtype": "float32"}, {"name": "StatefulPartitionedCall/model/block6e_dwconv2/depthwise_weights", "shape": [3, 3, 1152, 1], "dtype": "float32"}, {"name": "StatefulPartitionedCall/model/block6e_dwconv2/depthwise_bn_offset", "shape": [1152], "dtype": "float32"}, {"name": "StatefulPartitionedCall/model/block6e_project_conv/Conv2D_weights", "shape": [1, 1, 1152, 192], "dtype": "float32"}, {"name": "StatefulPartitionedCall/model/block6e_project_conv/Conv2D_bn_offset", "shape": [192], "dtype": "float32"}, {"name": "StatefulPartitionedCall/model/block6f_expand_conv/Conv2D_weights", "shape": [1, 1, 192, 1152], "dtype": "float32"}, {"name": "StatefulPartitionedCall/model/block6f_expand_conv/Conv2D_bn_offset", "shape": [1152], "dtype": "float32"}, {"name": "StatefulPartitionedCall/model/block6f_dwconv2/depthwise_weights", "shape": [3, 3, 1152, 1], "dtype": "float32"}, {"name": "StatefulPartitionedCall/model/block6f_dwconv2/depthwise_bn_offset", "shape": [1152], "dtype": "float32"}, {"name": "StatefulPartitionedCall/model/block6f_project_conv/Conv2D_weights", "shape": [1, 1, 1152, 192], "dtype": "float32"}, {"name": "StatefulPartitionedCall/model/block6f_project_conv/Conv2D_bn_offset", "shape": [192], "dtype": "float32"}, {"name": "StatefulPartitionedCall/model/block6g_expand_conv/Conv2D_weights", "shape": [1, 1, 192, 1152], "dtype": "float32"}, {"name": "StatefulPartitionedCall/model/block6g_expand_conv/Conv2D_bn_offset", "shape": [1152], "dtype": "float32"}, {"name": "StatefulPartitionedCall/model/block6g_dwconv2/depthwise_weights", "shape": [3, 3, 1152, 1], "dtype": "float32"}, {"name": "StatefulPartitionedCall/model/block6g_dwconv2/depthwise_bn_offset", "shape": [1152], "dtype": "float32"}, {"name": "StatefulPartitionedCall/model/block6g_project_conv/Conv2D_weights", "shape": [1, 1, 1152, 192], "dtype": "float32"}, {"name": "StatefulPartitionedCall/model/block6g_project_conv/Conv2D_bn_offset", "shape": [192], "dtype": "float32"}, {"name": "StatefulPartitionedCall/model/block6h_expand_conv/Conv2D_weights", "shape": [1, 1, 192, 1152], "dtype": "float32"}, {"name": "StatefulPartitionedCall/model/block6h_expand_conv/Conv2D_bn_offset", "shape": [1152], "dtype": "float32"}, {"name": "StatefulPartitionedCall/model/block6h_dwconv2/depthwise_weights", "shape": [3, 3, 1152, 1], "dtype": "float32"}, {"name": "StatefulPartitionedCall/model/block6h_dwconv2/depthwise_bn_offset", "shape": [1152], "dtype": "float32"}, {"name": "StatefulPartitionedCall/model/block6h_project_conv/Conv2D_weights", "shape": [1, 1, 1152, 192], "dtype": "float32"}, {"name": "StatefulPartitionedCall/model/block6h_project_conv/Conv2D_bn_offset", "shape": [192], "dtype": "float32"}, {"name": "StatefulPartitionedCall/model/top_conv/Conv2D_weights", "shape": [1, 1, 192, 1280], "dtype": "float32"}, {"name": "StatefulPartitionedCall/model/top_conv/Conv2D_bn_offset", "shape": [1280], "dtype": "float32"}]}]}