{"format": "graph-model", "generatedBy": "2.11.0", "convertedBy": "TensorFlow.js Converter v4.2.0", "signature": {"inputs": {"input_1": {"name": "input_1:0", "dtype": "DT_FLOAT", "tensorShape": {"dim": [{"size": "-1"}, {"size": "256"}, {"size": "384"}, {"size": "1"}]}}}, "outputs": {"dense_18": {"name": "Identity:0", "dtype": "DT_HALF", "tensorShape": {"dim": [{"size": "-1"}, {"size": "408"}]}}}}, "modelTopology": {"node": [{"name": "StatefulPartitionedCall/MobileViT-v3_v2_0.75/MobileViTBlock-3/sequential_20/layer_normalization_20/batchnorm/ReadVariableOp", "op": "Const", "attr": {"value": {"tensor": {"dtype": "DT_FLOAT", "tensorShape": {"dim": [{"size": "192"}]}}}, "dtype": {"type": "DT_FLOAT"}}}, {"name": "StatefulPartitionedCall/MobileViT-v3_v2_0.75/MobileViTBlock-3/sequential_20/transformer_8/sequential_19/dense_17/Tensordot/Const", "op": "Const", "attr": {"dtype": {"type": "DT_INT32"}, "value": {"tensor": {"dtype": "DT_INT32", "tensorShape": {"dim": [{"size": "1"}]}}}}}, {"name": "StatefulPartitionedCall/MobileViT-v3_v2_0.75/MobileViTBlock-3/sequential_20/transformer_8/sequential_19/dense_17/Tensordot/axes", "op": "Const", "attr": {"dtype": {"type": "DT_INT32"}, "value": {"tensor": {"dtype": "DT_INT32", "tensorShape": {"dim": [{"size": "1"}]}}}}}, {"name": "StatefulPartitionedCall/MobileViT-v3_v2_0.75/MobileViTBlock-3/sequential_20/transformer_8/sequential_19/dense_17/Tensordot/GatherV2_1/axis", "op": "Const", "attr": {"value": {"tensor": {"dtype": "DT_INT32", "tensorShape": {}}}, "dtype": {"type": "DT_INT32"}}}, {"name": "StatefulPartitionedCall/MobileViT-v3_v2_0.75/MobileViTBlock-3/sequential_20/transformer_8/sequential_19/dense_17/Tensordot/Const_1", "op": "Const", "attr": {"dtype": {"type": "DT_INT32"}, "value": {"tensor": {"dtype": "DT_INT32", "tensorShape": {"dim": [{"size": "1"}]}}}}}, {"name": "StatefulPartitionedCall/MobileViT-v3_v2_0.75/MobileViTBlock-3/sequential_20/transformer_8/sequential_19/dense_17/Tensordot/Cast", "op": "Const", "attr": {"dtype": {"type": "DT_HALF"}, "value": {"tensor": {"dtype": "DT_HALF", "tensorShape": {"dim": [{"size": "384"}, {"size": "192"}]}}}}}, {"name": "StatefulPartitionedCall/MobileViT-v3_v2_0.75/MobileViTBlock-3/sequential_20/transformer_8/sequential_19/dense_16/Tensordot/Const", "op": "Const", "attr": {"dtype": {"type": "DT_INT32"}, "value": {"tensor": {"dtype": "DT_INT32", "tensorShape": {"dim": [{"size": "1"}]}}}}}, {"name": "StatefulPartitionedCall/MobileViT-v3_v2_0.75/MobileViTBlock-3/sequential_20/transformer_8/sequential_19/dense_16/Tensordot/axes", "op": "Const", "attr": {"dtype": {"type": "DT_INT32"}, "value": {"tensor": {"dtype": "DT_INT32", "tensorShape": {"dim": [{"size": "1"}]}}}}}, {"name": "StatefulPartitionedCall/MobileViT-v3_v2_0.75/MobileViTBlock-3/sequential_20/transformer_8/sequential_19/dense_16/Tensordot/GatherV2_1/axis", "op": "Const", "attr": {"dtype": {"type": "DT_INT32"}, "value": {"tensor": {"dtype": "DT_INT32", "tensorShape": {}}}}}, {"name": "StatefulPartitionedCall/MobileViT-v3_v2_0.75/MobileViTBlock-3/sequential_20/transformer_8/sequential_19/dense_16/Tensordot/Const_1", "op": "Const", "attr": {"value": {"tensor": {"dtype": "DT_INT32", "tensorShape": {"dim": [{"size": "1"}]}}}, "dtype": {"type": "DT_INT32"}}}, {"name": "StatefulPartitionedCall/MobileViT-v3_v2_0.75/MobileViTBlock-3/sequential_20/transformer_8/sequential_19/dense_16/Tensordot/Cast", "op": "Const", "attr": {"dtype": {"type": "DT_HALF"}, "value": {"tensor": {"dtype": "DT_HALF", "tensorShape": {"dim": [{"size": "192"}, {"size": "384"}]}}}}}, {"name": "StatefulPartitionedCall/MobileViT-v3_v2_0.75/MobileViTBlock-3/sequential_20/transformer_8/layer_normalization_19/batchnorm/ReadVariableOp", "op": "Const", "attr": {"value": {"tensor": {"dtype": "DT_FLOAT", "tensorShape": {"dim": [{"size": "192"}]}}}, "dtype": {"type": "DT_FLOAT"}}}, {"name": "StatefulPartitionedCall/MobileViT-v3_v2_0.75/MobileViTBlock-3/sequential_20/transformer_8/linear_self_attention_8/einsum_dense_17/add/Cast", "op": "Const", "attr": {"value": {"tensor": {"dtype": "DT_HALF", "tensorShape": {"dim": [{"size": "192"}]}}}, "dtype": {"type": "DT_HALF"}}}, {"name": "StatefulPartitionedCall/MobileViT-v3_v2_0.75/MobileViTBlock-3/sequential_20/transformer_8/layer_normalization_18/batchnorm/ReadVariableOp", "op": "Const", "attr": {"dtype": {"type": "DT_FLOAT"}, "value": {"tensor": {"dtype": "DT_FLOAT", "tensorShape": {"dim": [{"size": "192"}]}}}}}, {"name": "StatefulPartitionedCall/MobileViT-v3_v2_0.75/MobileViTBlock-3/sequential_20/transformer_7/sequential_18/dense_15/Tensordot/Const", "op": "Const", "attr": {"dtype": {"type": "DT_INT32"}, "value": {"tensor": {"dtype": "DT_INT32", "tensorShape": {"dim": [{"size": "1"}]}}}}}, {"name": "StatefulPartitionedCall/MobileViT-v3_v2_0.75/MobileViTBlock-3/sequential_20/transformer_7/sequential_18/dense_15/Tensordot/axes", "op": "Const", "attr": {"dtype": {"type": "DT_INT32"}, "value": {"tensor": {"dtype": "DT_INT32", "tensorShape": {"dim": [{"size": "1"}]}}}}}, {"name": "StatefulPartitionedCall/MobileViT-v3_v2_0.75/MobileViTBlock-3/sequential_20/transformer_7/sequential_18/dense_15/Tensordot/GatherV2_1/axis", "op": "Const", "attr": {"value": {"tensor": {"dtype": "DT_INT32", "tensorShape": {}}}, "dtype": {"type": "DT_INT32"}}}, {"name": "StatefulPartitionedCall/MobileViT-v3_v2_0.75/MobileViTBlock-3/sequential_20/transformer_7/sequential_18/dense_15/Tensordot/Const_1", "op": "Const", "attr": {"value": {"tensor": {"dtype": "DT_INT32", "tensorShape": {"dim": [{"size": "1"}]}}}, "dtype": {"type": "DT_INT32"}}}, {"name": "StatefulPartitionedCall/MobileViT-v3_v2_0.75/MobileViTBlock-3/sequential_20/transformer_7/sequential_18/dense_15/Tensordot/Cast", "op": "Const", "attr": {"dtype": {"type": "DT_HALF"}, "value": {"tensor": {"dtype": "DT_HALF", "tensorShape": {"dim": [{"size": "384"}, {"size": "192"}]}}}}}, {"name": "StatefulPartitionedCall/MobileViT-v3_v2_0.75/MobileViTBlock-3/sequential_20/transformer_7/sequential_18/dense_14/Tensordot/Const", "op": "Const", "attr": {"dtype": {"type": "DT_INT32"}, "value": {"tensor": {"dtype": "DT_INT32", "tensorShape": {"dim": [{"size": "1"}]}}}}}, {"name": "StatefulPartitionedCall/MobileViT-v3_v2_0.75/MobileViTBlock-3/sequential_20/transformer_7/sequential_18/dense_14/Tensordot/axes", "op": "Const", "attr": {"value": {"tensor": {"dtype": "DT_INT32", "tensorShape": {"dim": [{"size": "1"}]}}}, "dtype": {"type": "DT_INT32"}}}, {"name": "StatefulPartitionedCall/MobileViT-v3_v2_0.75/MobileViTBlock-3/sequential_20/transformer_7/sequential_18/dense_14/Tensordot/GatherV2_1/axis", "op": "Const", "attr": {"dtype": {"type": "DT_INT32"}, "value": {"tensor": {"dtype": "DT_INT32", "tensorShape": {}}}}}, {"name": "StatefulPartitionedCall/MobileViT-v3_v2_0.75/MobileViTBlock-3/sequential_20/transformer_7/sequential_18/dense_14/Tensordot/Const_1", "op": "Const", "attr": {"dtype": {"type": "DT_INT32"}, "value": {"tensor": {"dtype": "DT_INT32", "tensorShape": {"dim": [{"size": "1"}]}}}}}, {"name": "StatefulPartitionedCall/MobileViT-v3_v2_0.75/MobileViTBlock-3/sequential_20/transformer_7/sequential_18/dense_14/Tensordot/Cast", "op": "Const", "attr": {"dtype": {"type": "DT_HALF"}, "value": {"tensor": {"dtype": "DT_HALF", "tensorShape": {"dim": [{"size": "192"}, {"size": "384"}]}}}}}, {"name": "StatefulPartitionedCall/MobileViT-v3_v2_0.75/MobileViTBlock-3/sequential_20/transformer_7/layer_normalization_17/batchnorm/ReadVariableOp", "op": "Const", "attr": {"dtype": {"type": "DT_FLOAT"}, "value": {"tensor": {"dtype": "DT_FLOAT", "tensorShape": {"dim": [{"size": "192"}]}}}}}, {"name": "StatefulPartitionedCall/MobileViT-v3_v2_0.75/MobileViTBlock-3/sequential_20/transformer_7/linear_self_attention_7/einsum_dense_15/add/Cast", "op": "Const", "attr": {"dtype": {"type": "DT_HALF"}, "value": {"tensor": {"dtype": "DT_HALF", "tensorShape": {"dim": [{"size": "192"}]}}}}}, {"name": "StatefulPartitionedCall/MobileViT-v3_v2_0.75/MobileViTBlock-3/sequential_20/transformer_7/layer_normalization_16/batchnorm/ReadVariableOp", "op": "Const", "attr": {"value": {"tensor": {"dtype": "DT_FLOAT", "tensorShape": {"dim": [{"size": "192"}]}}}, "dtype": {"type": "DT_FLOAT"}}}, {"name": "StatefulPartitionedCall/MobileViT-v3_v2_0.75/MobileViTBlock-3/sequential_20/transformer_6/sequential_17/dense_13/Tensordot/Const", "op": "Const", "attr": {"dtype": {"type": "DT_INT32"}, "value": {"tensor": {"dtype": "DT_INT32", "tensorShape": {"dim": [{"size": "1"}]}}}}}, {"name": "StatefulPartitionedCall/MobileViT-v3_v2_0.75/MobileViTBlock-3/sequential_20/transformer_6/sequential_17/dense_13/Tensordot/axes", "op": "Const", "attr": {"dtype": {"type": "DT_INT32"}, "value": {"tensor": {"dtype": "DT_INT32", "tensorShape": {"dim": [{"size": "1"}]}}}}}, {"name": "StatefulPartitionedCall/MobileViT-v3_v2_0.75/MobileViTBlock-3/sequential_20/transformer_6/sequential_17/dense_13/Tensordot/GatherV2_1/axis", "op": "Const", "attr": {"dtype": {"type": "DT_INT32"}, "value": {"tensor": {"dtype": "DT_INT32", "tensorShape": {}}}}}, {"name": "StatefulPartitionedCall/MobileViT-v3_v2_0.75/MobileViTBlock-3/sequential_20/transformer_6/sequential_17/dense_13/Tensordot/Const_1", "op": "Const", "attr": {"dtype": {"type": "DT_INT32"}, "value": {"tensor": {"dtype": "DT_INT32", "tensorShape": {"dim": [{"size": "1"}]}}}}}, {"name": "StatefulPartitionedCall/MobileViT-v3_v2_0.75/MobileViTBlock-3/sequential_20/transformer_6/sequential_17/dense_13/Tensordot/Cast", "op": "Const", "attr": {"dtype": {"type": "DT_HALF"}, "value": {"tensor": {"dtype": "DT_HALF", "tensorShape": {"dim": [{"size": "384"}, {"size": "192"}]}}}}}, {"name": "StatefulPartitionedCall/MobileViT-v3_v2_0.75/MobileViTBlock-3/sequential_20/transformer_6/sequential_17/dense_12/Tensordot/Const", "op": "Const", "attr": {"dtype": {"type": "DT_INT32"}, "value": {"tensor": {"dtype": "DT_INT32", "tensorShape": {"dim": [{"size": "1"}]}}}}}, {"name": "StatefulPartitionedCall/MobileViT-v3_v2_0.75/MobileViTBlock-3/sequential_20/transformer_6/sequential_17/dense_12/Tensordot/axes", "op": "Const", "attr": {"value": {"tensor": {"dtype": "DT_INT32", "tensorShape": {"dim": [{"size": "1"}]}}}, "dtype": {"type": "DT_INT32"}}}, {"name": "StatefulPartitionedCall/MobileViT-v3_v2_0.75/MobileViTBlock-3/sequential_20/transformer_6/sequential_17/dense_12/Tensordot/GatherV2_1/axis", "op": "Const", "attr": {"dtype": {"type": "DT_INT32"}, "value": {"tensor": {"dtype": "DT_INT32", "tensorShape": {}}}}}, {"name": "StatefulPartitionedCall/MobileViT-v3_v2_0.75/MobileViTBlock-3/sequential_20/transformer_6/sequential_17/dense_12/Tensordot/Const_1", "op": "Const", "attr": {"value": {"tensor": {"dtype": "DT_INT32", "tensorShape": {"dim": [{"size": "1"}]}}}, "dtype": {"type": "DT_INT32"}}}, {"name": "StatefulPartitionedCall/MobileViT-v3_v2_0.75/MobileViTBlock-3/sequential_20/transformer_6/sequential_17/dense_12/Tensordot/Cast", "op": "Const", "attr": {"value": {"tensor": {"dtype": "DT_HALF", "tensorShape": {"dim": [{"size": "192"}, {"size": "384"}]}}}, "dtype": {"type": "DT_HALF"}}}, {"name": "StatefulPartitionedCall/MobileViT-v3_v2_0.75/MobileViTBlock-3/sequential_20/transformer_6/layer_normalization_15/batchnorm/ReadVariableOp", "op": "Const", "attr": {"dtype": {"type": "DT_FLOAT"}, "value": {"tensor": {"dtype": "DT_FLOAT", "tensorShape": {"dim": [{"size": "192"}]}}}}}, {"name": "StatefulPartitionedCall/MobileViT-v3_v2_0.75/MobileViTBlock-3/sequential_20/transformer_6/linear_self_attention_6/einsum_dense_13/add/Cast", "op": "Const", "attr": {"dtype": {"type": "DT_HALF"}, "value": {"tensor": {"dtype": "DT_HALF", "tensorShape": {"dim": [{"size": "192"}]}}}}}, {"name": "StatefulPartitionedCall/MobileViT-v3_v2_0.75/MobileViTBlock-3/sequential_20/transformer_6/layer_normalization_14/batchnorm/ReadVariableOp", "op": "Const", "attr": {"dtype": {"type": "DT_FLOAT"}, "value": {"tensor": {"dtype": "DT_FLOAT", "tensorShape": {"dim": [{"size": "192"}]}}}}}, {"name": "StatefulPartitionedCall/MobileViT-v3_v2_0.75/MobileViTBlock-3/mul_1", "op": "Const", "attr": {"value": {"tensor": {"dtype": "DT_INT32", "tensorShape": {}}}, "dtype": {"type": "DT_INT32"}}}, {"name": "StatefulPartitionedCall/MobileViT-v3_v2_0.75/MobileViTBlock-3/transpose/perm", "op": "Const", "attr": {"value": {"tensor": {"dtype": "DT_INT32", "tensorShape": {"dim": [{"size": "4"}]}}}, "dtype": {"type": "DT_INT32"}}}, {"name": "StatefulPartitionedCall/MobileViT-v3_v2_0.75/MobileViTBlock-3/mul_3", "op": "Const", "attr": {"value": {"tensor": {"dtype": "DT_INT32", "tensorShape": {}}}, "dtype": {"type": "DT_INT32"}}}, {"name": "StatefulPartitionedCall/MobileViT-v3_v2_0.75/MobileViTBlock-3/Reshape_1/shape/3", "op": "Const", "attr": {"value": {"tensor": {"dtype": "DT_INT32", "tensorShape": {}}}, "dtype": {"type": "DT_INT32"}}}, {"name": "StatefulPartitionedCall/MobileViT-v3_v2_0.75/MobileViTBlock-3/transpose_1/perm", "op": "Const", "attr": {"value": {"tensor": {"dtype": "DT_INT32", "tensorShape": {"dim": [{"size": "4"}]}}}, "dtype": {"type": "DT_INT32"}}}, {"name": "StatefulPartitionedCall/MobileViT-v3_v2_0.75/MobileViTBlock-3/sequential_20/transformer_6/layer_normalization_14/moments/mean/reduction_indices", "op": "Const", "attr": {"dtype": {"type": "DT_INT32"}, "value": {"tensor": {"dtype": "DT_INT32", "tensorShape": {"dim": [{"size": "1"}]}}}}}, {"name": "StatefulPartitionedCall/MobileViT-v3_v2_0.75/MobileViTBlock-3/sequential_20/transformer_6/layer_normalization_14/moments/variance/reduction_indices", "op": "Const", "attr": {"value": {"tensor": {"dtype": "DT_INT32", "tensorShape": {"dim": [{"size": "1"}]}}}, "dtype": {"type": "DT_INT32"}}}, {"name": "StatefulPartitionedCall/MobileViT-v3_v2_0.75/MobileViTBlock-3/sequential_20/transformer_6/layer_normalization_14/batchnorm/add/y", "op": "Const", "attr": {"dtype": {"type": "DT_FLOAT"}, "value": {"tensor": {"dtype": "DT_FLOAT", "tensorShape": {}}}}}, {"name": "StatefulPartitionedCall/MobileViT-v3_v2_0.75/MobileViTBlock-3/sequential_20/transformer_6/layer_normalization_14/batchnorm/mul/ReadVariableOp", "op": "Const", "attr": {"dtype": {"type": "DT_FLOAT"}, "value": {"tensor": {"dtype": "DT_FLOAT", "tensorShape": {"dim": [{"size": "192"}]}}}}}, {"name": "StatefulPartitionedCall/MobileViT-v3_v2_0.75/MobileViTBlock-3/sequential_20/transformer_6/linear_self_attention_6/einsum_dense_12/einsum/Einsum/Cast", "op": "Const", "attr": {"value": {"tensor": {"dtype": "DT_HALF", "tensorShape": {"dim": [{"size": "192"}, {"size": "385"}]}}}, "dtype": {"type": "DT_HALF"}}}, {"name": "StatefulPartitionedCall/MobileViT-v3_v2_0.75/MobileViTBlock-3/sequential_20/transformer_6/linear_self_attention_6/einsum_dense_12/add/Cast", "op": "Const", "attr": {"dtype": {"type": "DT_HALF"}, "value": {"tensor": {"dtype": "DT_HALF", "tensorShape": {"dim": [{"size": "385"}]}}}}}, {"name": "StatefulPartitionedCall/MobileViT-v3_v2_0.75/MobileViTBlock-3/sequential_20/transformer_6/linear_self_attention_6/Const", "op": "Const", "attr": {"dtype": {"type": "DT_INT32"}, "value": {"tensor": {"dtype": "DT_INT32", "tensorShape": {"dim": [{"size": "3"}]}}}}}, {"name": "StatefulPartitionedCall/MobileViT-v3_v2_0.75/MobileViTBlock-3/sequential_20/transformer_6/linear_self_attention_6/split/split_dim", "op": "Const", "attr": {"value": {"tensor": {"dtype": "DT_INT32", "tensorShape": {}}}, "dtype": {"type": "DT_INT32"}}}, {"name": "StatefulPartitionedCall/MobileViT-v3_v2_0.75/MobileViTBlock-3/sequential_20/transformer_6/linear_self_attention_6/concat", "op": "Const", "attr": {"dtype": {"type": "DT_INT32"}, "value": {"tensor": {"dtype": "DT_INT32", "tensorShape": {"dim": [{"size": "4"}]}}}}}, {"name": "StatefulPartitionedCall/MobileViT-v3_v2_0.75/MobileViTBlock-3/sequential_20/transformer_6/linear_self_attention_6/concat_1", "op": "Const", "attr": {"value": {"tensor": {"dtype": "DT_INT32", "tensorShape": {"dim": [{"size": "4"}]}}}, "dtype": {"type": "DT_INT32"}}}, {"name": "StatefulPartitionedCall/MobileViT-v3_v2_0.75/MobileViTBlock-3/sequential_20/transformer_6/linear_self_attention_6/Sum/reduction_indices", "op": "Const", "attr": {"value": {"tensor": {"dtype": "DT_INT32", "tensorShape": {}}}, "dtype": {"type": "DT_INT32"}}}, {"name": "StatefulPartitionedCall/MobileViT-v3_v2_0.75/MobileViTBlock-3/sequential_20/transformer_6/linear_self_attention_6/einsum_dense_13/einsum/Einsum/Cast", "op": "Const", "attr": {"value": {"tensor": {"dtype": "DT_HALF", "tensorShape": {"dim": [{"size": "192"}, {"size": "192"}]}}}, "dtype": {"type": "DT_HALF"}}}, {"name": "StatefulPartitionedCall/MobileViT-v3_v2_0.75/MobileViTBlock-3/sequential_20/transformer_6/layer_normalization_15/moments/mean/reduction_indices", "op": "Const", "attr": {"value": {"tensor": {"dtype": "DT_INT32", "tensorShape": {"dim": [{"size": "1"}]}}}, "dtype": {"type": "DT_INT32"}}}, {"name": "StatefulPartitionedCall/MobileViT-v3_v2_0.75/MobileViTBlock-3/sequential_20/transformer_6/layer_normalization_15/moments/variance/reduction_indices", "op": "Const", "attr": {"dtype": {"type": "DT_INT32"}, "value": {"tensor": {"dtype": "DT_INT32", "tensorShape": {"dim": [{"size": "1"}]}}}}}, {"name": "StatefulPartitionedCall/MobileViT-v3_v2_0.75/MobileViTBlock-3/sequential_20/transformer_6/layer_normalization_15/batchnorm/add/y", "op": "Const", "attr": {"value": {"tensor": {"dtype": "DT_FLOAT", "tensorShape": {}}}, "dtype": {"type": "DT_FLOAT"}}}, {"name": "StatefulPartitionedCall/MobileViT-v3_v2_0.75/MobileViTBlock-3/sequential_20/transformer_6/layer_normalization_15/batchnorm/mul/ReadVariableOp", "op": "Const", "attr": {"value": {"tensor": {"dtype": "DT_FLOAT", "tensorShape": {"dim": [{"size": "192"}]}}}, "dtype": {"type": "DT_FLOAT"}}}, {"name": "StatefulPartitionedCall/MobileViT-v3_v2_0.75/MobileViTBlock-3/sequential_20/transformer_6/sequential_17/dense_12/Tensordot/free", "op": "Const", "attr": {"dtype": {"type": "DT_INT32"}, "value": {"tensor": {"dtype": "DT_INT32", "tensorShape": {"dim": [{"size": "3"}]}}}}}, {"name": "StatefulPartitionedCall/MobileViT-v3_v2_0.75/MobileViTBlock-3/sequential_20/transformer_6/sequential_17/dense_12/Tensordot/GatherV2/axis", "op": "Const", "attr": {"dtype": {"type": "DT_INT32"}, "value": {"tensor": {"dtype": "DT_INT32", "tensorShape": {}}}}}, {"name": "StatefulPartitionedCall/MobileViT-v3_v2_0.75/MobileViTBlock-3/sequential_20/transformer_6/sequential_17/dense_12/Tensordot/Const_2", "op": "Const", "attr": {"dtype": {"type": "DT_INT32"}, "value": {"tensor": {"dtype": "DT_INT32", "tensorShape": {"dim": [{"size": "1"}]}}}}}, {"name": "StatefulPartitionedCall/MobileViT-v3_v2_0.75/MobileViTBlock-3/sequential_20/transformer_6/sequential_17/dense_12/Tensordot/concat_1/axis", "op": "Const", "attr": {"value": {"tensor": {"dtype": "DT_INT32", "tensorShape": {}}}, "dtype": {"type": "DT_INT32"}}}, {"name": "StatefulPartitionedCall/MobileViT-v3_v2_0.75/MobileViTBlock-3/sequential_20/transformer_6/sequential_17/dense_12/BiasAdd/Cast", "op": "Const", "attr": {"dtype": {"type": "DT_HALF"}, "value": {"tensor": {"dtype": "DT_HALF", "tensorShape": {"dim": [{"size": "384"}]}}}}}, {"name": "StatefulPartitionedCall/MobileViT-v3_v2_0.75/MobileViTBlock-3/sequential_20/transformer_6/sequential_17/dense_13/Tensordot/free", "op": "Const", "attr": {"value": {"tensor": {"dtype": "DT_INT32", "tensorShape": {"dim": [{"size": "3"}]}}}, "dtype": {"type": "DT_INT32"}}}, {"name": "StatefulPartitionedCall/MobileViT-v3_v2_0.75/MobileViTBlock-3/sequential_20/transformer_6/sequential_17/dense_13/Tensordot/GatherV2/axis", "op": "Const", "attr": {"dtype": {"type": "DT_INT32"}, "value": {"tensor": {"dtype": "DT_INT32", "tensorShape": {}}}}}, {"name": "StatefulPartitionedCall/MobileViT-v3_v2_0.75/MobileViTBlock-3/sequential_20/transformer_6/sequential_17/dense_13/Tensordot/Const_2", "op": "Const", "attr": {"dtype": {"type": "DT_INT32"}, "value": {"tensor": {"dtype": "DT_INT32", "tensorShape": {"dim": [{"size": "1"}]}}}}}, {"name": "StatefulPartitionedCall/MobileViT-v3_v2_0.75/MobileViTBlock-3/sequential_20/transformer_6/sequential_17/dense_13/Tensordot/concat_1/axis", "op": "Const", "attr": {"dtype": {"type": "DT_INT32"}, "value": {"tensor": {"dtype": "DT_INT32", "tensorShape": {}}}}}, {"name": "StatefulPartitionedCall/MobileViT-v3_v2_0.75/MobileViTBlock-3/sequential_20/transformer_6/sequential_17/dense_13/BiasAdd/Cast", "op": "Const", "attr": {"value": {"tensor": {"dtype": "DT_HALF", "tensorShape": {"dim": [{"size": "192"}]}}}, "dtype": {"type": "DT_HALF"}}}, {"name": "StatefulPartitionedCall/MobileViT-v3_v2_0.75/MobileViTBlock-3/sequential_20/transformer_7/layer_normalization_16/moments/mean/reduction_indices", "op": "Const", "attr": {"value": {"tensor": {"dtype": "DT_INT32", "tensorShape": {"dim": [{"size": "1"}]}}}, "dtype": {"type": "DT_INT32"}}}, {"name": "StatefulPartitionedCall/MobileViT-v3_v2_0.75/MobileViTBlock-3/sequential_20/transformer_7/layer_normalization_16/moments/variance/reduction_indices", "op": "Const", "attr": {"dtype": {"type": "DT_INT32"}, "value": {"tensor": {"dtype": "DT_INT32", "tensorShape": {"dim": [{"size": "1"}]}}}}}, {"name": "StatefulPartitionedCall/MobileViT-v3_v2_0.75/MobileViTBlock-3/sequential_20/transformer_7/layer_normalization_16/batchnorm/add/y", "op": "Const", "attr": {"value": {"tensor": {"dtype": "DT_FLOAT", "tensorShape": {}}}, "dtype": {"type": "DT_FLOAT"}}}, {"name": "StatefulPartitionedCall/MobileViT-v3_v2_0.75/MobileViTBlock-3/sequential_20/transformer_7/layer_normalization_16/batchnorm/mul/ReadVariableOp", "op": "Const", "attr": {"dtype": {"type": "DT_FLOAT"}, "value": {"tensor": {"dtype": "DT_FLOAT", "tensorShape": {"dim": [{"size": "192"}]}}}}}, {"name": "StatefulPartitionedCall/MobileViT-v3_v2_0.75/MobileViTBlock-3/sequential_20/transformer_7/linear_self_attention_7/einsum_dense_14/einsum/Einsum/Cast", "op": "Const", "attr": {"dtype": {"type": "DT_HALF"}, "value": {"tensor": {"dtype": "DT_HALF", "tensorShape": {"dim": [{"size": "192"}, {"size": "385"}]}}}}}, {"name": "StatefulPartitionedCall/MobileViT-v3_v2_0.75/MobileViTBlock-3/sequential_20/transformer_7/linear_self_attention_7/einsum_dense_14/add/Cast", "op": "Const", "attr": {"dtype": {"type": "DT_HALF"}, "value": {"tensor": {"dtype": "DT_HALF", "tensorShape": {"dim": [{"size": "385"}]}}}}}, {"name": "StatefulPartitionedCall/MobileViT-v3_v2_0.75/MobileViTBlock-3/sequential_20/transformer_7/linear_self_attention_7/Const", "op": "Const", "attr": {"value": {"tensor": {"dtype": "DT_INT32", "tensorShape": {"dim": [{"size": "3"}]}}}, "dtype": {"type": "DT_INT32"}}}, {"name": "StatefulPartitionedCall/MobileViT-v3_v2_0.75/MobileViTBlock-3/sequential_20/transformer_7/linear_self_attention_7/split/split_dim", "op": "Const", "attr": {"value": {"tensor": {"dtype": "DT_INT32", "tensorShape": {}}}, "dtype": {"type": "DT_INT32"}}}, {"name": "StatefulPartitionedCall/MobileViT-v3_v2_0.75/MobileViTBlock-3/sequential_20/transformer_7/linear_self_attention_7/concat", "op": "Const", "attr": {"value": {"tensor": {"dtype": "DT_INT32", "tensorShape": {"dim": [{"size": "4"}]}}}, "dtype": {"type": "DT_INT32"}}}, {"name": "StatefulPartitionedCall/MobileViT-v3_v2_0.75/MobileViTBlock-3/sequential_20/transformer_7/linear_self_attention_7/concat_1", "op": "Const", "attr": {"dtype": {"type": "DT_INT32"}, "value": {"tensor": {"dtype": "DT_INT32", "tensorShape": {"dim": [{"size": "4"}]}}}}}, {"name": "StatefulPartitionedCall/MobileViT-v3_v2_0.75/MobileViTBlock-3/sequential_20/transformer_7/linear_self_attention_7/Sum/reduction_indices", "op": "Const", "attr": {"value": {"tensor": {"dtype": "DT_INT32", "tensorShape": {}}}, "dtype": {"type": "DT_INT32"}}}, {"name": "StatefulPartitionedCall/MobileViT-v3_v2_0.75/MobileViTBlock-3/sequential_20/transformer_7/linear_self_attention_7/einsum_dense_15/einsum/Einsum/Cast", "op": "Const", "attr": {"dtype": {"type": "DT_HALF"}, "value": {"tensor": {"dtype": "DT_HALF", "tensorShape": {"dim": [{"size": "192"}, {"size": "192"}]}}}}}, {"name": "StatefulPartitionedCall/MobileViT-v3_v2_0.75/MobileViTBlock-3/sequential_20/transformer_7/layer_normalization_17/moments/mean/reduction_indices", "op": "Const", "attr": {"value": {"tensor": {"dtype": "DT_INT32", "tensorShape": {"dim": [{"size": "1"}]}}}, "dtype": {"type": "DT_INT32"}}}, {"name": "StatefulPartitionedCall/MobileViT-v3_v2_0.75/MobileViTBlock-3/sequential_20/transformer_7/layer_normalization_17/moments/variance/reduction_indices", "op": "Const", "attr": {"value": {"tensor": {"dtype": "DT_INT32", "tensorShape": {"dim": [{"size": "1"}]}}}, "dtype": {"type": "DT_INT32"}}}, {"name": "StatefulPartitionedCall/MobileViT-v3_v2_0.75/MobileViTBlock-3/sequential_20/transformer_7/layer_normalization_17/batchnorm/add/y", "op": "Const", "attr": {"dtype": {"type": "DT_FLOAT"}, "value": {"tensor": {"dtype": "DT_FLOAT", "tensorShape": {}}}}}, {"name": "StatefulPartitionedCall/MobileViT-v3_v2_0.75/MobileViTBlock-3/sequential_20/transformer_7/layer_normalization_17/batchnorm/mul/ReadVariableOp", "op": "Const", "attr": {"dtype": {"type": "DT_FLOAT"}, "value": {"tensor": {"dtype": "DT_FLOAT", "tensorShape": {"dim": [{"size": "192"}]}}}}}, {"name": "StatefulPartitionedCall/MobileViT-v3_v2_0.75/MobileViTBlock-3/sequential_20/transformer_7/sequential_18/dense_14/Tensordot/free", "op": "Const", "attr": {"value": {"tensor": {"dtype": "DT_INT32", "tensorShape": {"dim": [{"size": "3"}]}}}, "dtype": {"type": "DT_INT32"}}}, {"name": "StatefulPartitionedCall/MobileViT-v3_v2_0.75/MobileViTBlock-3/sequential_20/transformer_7/sequential_18/dense_14/Tensordot/GatherV2/axis", "op": "Const", "attr": {"value": {"tensor": {"dtype": "DT_INT32", "tensorShape": {}}}, "dtype": {"type": "DT_INT32"}}}, {"name": "StatefulPartitionedCall/MobileViT-v3_v2_0.75/MobileViTBlock-3/sequential_20/transformer_7/sequential_18/dense_14/Tensordot/Const_2", "op": "Const", "attr": {"value": {"tensor": {"dtype": "DT_INT32", "tensorShape": {"dim": [{"size": "1"}]}}}, "dtype": {"type": "DT_INT32"}}}, {"name": "StatefulPartitionedCall/MobileViT-v3_v2_0.75/MobileViTBlock-3/sequential_20/transformer_7/sequential_18/dense_14/Tensordot/concat_1/axis", "op": "Const", "attr": {"dtype": {"type": "DT_INT32"}, "value": {"tensor": {"dtype": "DT_INT32", "tensorShape": {}}}}}, {"name": "StatefulPartitionedCall/MobileViT-v3_v2_0.75/MobileViTBlock-3/sequential_20/transformer_7/sequential_18/dense_14/BiasAdd/Cast", "op": "Const", "attr": {"dtype": {"type": "DT_HALF"}, "value": {"tensor": {"dtype": "DT_HALF", "tensorShape": {"dim": [{"size": "384"}]}}}}}, {"name": "StatefulPartitionedCall/MobileViT-v3_v2_0.75/MobileViTBlock-3/sequential_20/transformer_7/sequential_18/dense_15/Tensordot/free", "op": "Const", "attr": {"value": {"tensor": {"dtype": "DT_INT32", "tensorShape": {"dim": [{"size": "3"}]}}}, "dtype": {"type": "DT_INT32"}}}, {"name": "StatefulPartitionedCall/MobileViT-v3_v2_0.75/MobileViTBlock-3/sequential_20/transformer_7/sequential_18/dense_15/Tensordot/GatherV2/axis", "op": "Const", "attr": {"dtype": {"type": "DT_INT32"}, "value": {"tensor": {"dtype": "DT_INT32", "tensorShape": {}}}}}, {"name": "StatefulPartitionedCall/MobileViT-v3_v2_0.75/MobileViTBlock-3/sequential_20/transformer_7/sequential_18/dense_15/Tensordot/Const_2", "op": "Const", "attr": {"value": {"tensor": {"dtype": "DT_INT32", "tensorShape": {"dim": [{"size": "1"}]}}}, "dtype": {"type": "DT_INT32"}}}, {"name": "StatefulPartitionedCall/MobileViT-v3_v2_0.75/MobileViTBlock-3/sequential_20/transformer_7/sequential_18/dense_15/Tensordot/concat_1/axis", "op": "Const", "attr": {"value": {"tensor": {"dtype": "DT_INT32", "tensorShape": {}}}, "dtype": {"type": "DT_INT32"}}}, {"name": "StatefulPartitionedCall/MobileViT-v3_v2_0.75/MobileViTBlock-3/sequential_20/transformer_7/sequential_18/dense_15/BiasAdd/Cast", "op": "Const", "attr": {"dtype": {"type": "DT_HALF"}, "value": {"tensor": {"dtype": "DT_HALF", "tensorShape": {"dim": [{"size": "192"}]}}}}}, {"name": "StatefulPartitionedCall/MobileViT-v3_v2_0.75/MobileViTBlock-3/sequential_20/transformer_8/layer_normalization_18/moments/mean/reduction_indices", "op": "Const", "attr": {"dtype": {"type": "DT_INT32"}, "value": {"tensor": {"dtype": "DT_INT32", "tensorShape": {"dim": [{"size": "1"}]}}}}}, {"name": "StatefulPartitionedCall/MobileViT-v3_v2_0.75/MobileViTBlock-3/sequential_20/transformer_8/layer_normalization_18/moments/variance/reduction_indices", "op": "Const", "attr": {"value": {"tensor": {"dtype": "DT_INT32", "tensorShape": {"dim": [{"size": "1"}]}}}, "dtype": {"type": "DT_INT32"}}}, {"name": "StatefulPartitionedCall/MobileViT-v3_v2_0.75/MobileViTBlock-3/sequential_20/transformer_8/layer_normalization_18/batchnorm/add/y", "op": "Const", "attr": {"dtype": {"type": "DT_FLOAT"}, "value": {"tensor": {"dtype": "DT_FLOAT", "tensorShape": {}}}}}, {"name": "StatefulPartitionedCall/MobileViT-v3_v2_0.75/MobileViTBlock-3/sequential_20/transformer_8/layer_normalization_18/batchnorm/mul/ReadVariableOp", "op": "Const", "attr": {"dtype": {"type": "DT_FLOAT"}, "value": {"tensor": {"dtype": "DT_FLOAT", "tensorShape": {"dim": [{"size": "192"}]}}}}}, {"name": "StatefulPartitionedCall/MobileViT-v3_v2_0.75/MobileViTBlock-3/sequential_20/transformer_8/linear_self_attention_8/einsum_dense_16/einsum/Einsum/Cast", "op": "Const", "attr": {"value": {"tensor": {"dtype": "DT_HALF", "tensorShape": {"dim": [{"size": "192"}, {"size": "385"}]}}}, "dtype": {"type": "DT_HALF"}}}, {"name": "StatefulPartitionedCall/MobileViT-v3_v2_0.75/MobileViTBlock-3/sequential_20/transformer_8/linear_self_attention_8/einsum_dense_16/add/Cast", "op": "Const", "attr": {"dtype": {"type": "DT_HALF"}, "value": {"tensor": {"dtype": "DT_HALF", "tensorShape": {"dim": [{"size": "385"}]}}}}}, {"name": "StatefulPartitionedCall/MobileViT-v3_v2_0.75/MobileViTBlock-3/sequential_20/transformer_8/linear_self_attention_8/Const", "op": "Const", "attr": {"value": {"tensor": {"dtype": "DT_INT32", "tensorShape": {"dim": [{"size": "3"}]}}}, "dtype": {"type": "DT_INT32"}}}, {"name": "StatefulPartitionedCall/MobileViT-v3_v2_0.75/MobileViTBlock-3/sequential_20/transformer_8/linear_self_attention_8/split/split_dim", "op": "Const", "attr": {"value": {"tensor": {"dtype": "DT_INT32", "tensorShape": {}}}, "dtype": {"type": "DT_INT32"}}}, {"name": "StatefulPartitionedCall/MobileViT-v3_v2_0.75/MobileViTBlock-3/sequential_20/transformer_8/linear_self_attention_8/concat", "op": "Const", "attr": {"dtype": {"type": "DT_INT32"}, "value": {"tensor": {"dtype": "DT_INT32", "tensorShape": {"dim": [{"size": "4"}]}}}}}, {"name": "StatefulPartitionedCall/MobileViT-v3_v2_0.75/MobileViTBlock-3/sequential_20/transformer_8/linear_self_attention_8/concat_1", "op": "Const", "attr": {"value": {"tensor": {"dtype": "DT_INT32", "tensorShape": {"dim": [{"size": "4"}]}}}, "dtype": {"type": "DT_INT32"}}}, {"name": "StatefulPartitionedCall/MobileViT-v3_v2_0.75/MobileViTBlock-3/sequential_20/transformer_8/linear_self_attention_8/Sum/reduction_indices", "op": "Const", "attr": {"value": {"tensor": {"dtype": "DT_INT32", "tensorShape": {}}}, "dtype": {"type": "DT_INT32"}}}, {"name": "StatefulPartitionedCall/MobileViT-v3_v2_0.75/MobileViTBlock-3/sequential_20/transformer_8/linear_self_attention_8/einsum_dense_17/einsum/Einsum/Cast", "op": "Const", "attr": {"value": {"tensor": {"dtype": "DT_HALF", "tensorShape": {"dim": [{"size": "192"}, {"size": "192"}]}}}, "dtype": {"type": "DT_HALF"}}}, {"name": "StatefulPartitionedCall/MobileViT-v3_v2_0.75/MobileViTBlock-3/sequential_20/transformer_8/layer_normalization_19/moments/mean/reduction_indices", "op": "Const", "attr": {"value": {"tensor": {"dtype": "DT_INT32", "tensorShape": {"dim": [{"size": "1"}]}}}, "dtype": {"type": "DT_INT32"}}}, {"name": "StatefulPartitionedCall/MobileViT-v3_v2_0.75/MobileViTBlock-3/sequential_20/transformer_8/layer_normalization_19/moments/variance/reduction_indices", "op": "Const", "attr": {"value": {"tensor": {"dtype": "DT_INT32", "tensorShape": {"dim": [{"size": "1"}]}}}, "dtype": {"type": "DT_INT32"}}}, {"name": "StatefulPartitionedCall/MobileViT-v3_v2_0.75/MobileViTBlock-3/sequential_20/transformer_8/layer_normalization_19/batchnorm/add/y", "op": "Const", "attr": {"value": {"tensor": {"dtype": "DT_FLOAT", "tensorShape": {}}}, "dtype": {"type": "DT_FLOAT"}}}, {"name": "StatefulPartitionedCall/MobileViT-v3_v2_0.75/MobileViTBlock-3/sequential_20/transformer_8/layer_normalization_19/batchnorm/mul/ReadVariableOp", "op": "Const", "attr": {"dtype": {"type": "DT_FLOAT"}, "value": {"tensor": {"dtype": "DT_FLOAT", "tensorShape": {"dim": [{"size": "192"}]}}}}}, {"name": "StatefulPartitionedCall/MobileViT-v3_v2_0.75/MobileViTBlock-3/sequential_20/transformer_8/sequential_19/dense_16/Tensordot/free", "op": "Const", "attr": {"dtype": {"type": "DT_INT32"}, "value": {"tensor": {"dtype": "DT_INT32", "tensorShape": {"dim": [{"size": "3"}]}}}}}, {"name": "StatefulPartitionedCall/MobileViT-v3_v2_0.75/MobileViTBlock-3/sequential_20/transformer_8/sequential_19/dense_16/Tensordot/GatherV2/axis", "op": "Const", "attr": {"dtype": {"type": "DT_INT32"}, "value": {"tensor": {"dtype": "DT_INT32", "tensorShape": {}}}}}, {"name": "StatefulPartitionedCall/MobileViT-v3_v2_0.75/MobileViTBlock-3/sequential_20/transformer_8/sequential_19/dense_16/Tensordot/Const_2", "op": "Const", "attr": {"dtype": {"type": "DT_INT32"}, "value": {"tensor": {"dtype": "DT_INT32", "tensorShape": {"dim": [{"size": "1"}]}}}}}, {"name": "StatefulPartitionedCall/MobileViT-v3_v2_0.75/MobileViTBlock-3/sequential_20/transformer_8/sequential_19/dense_16/Tensordot/concat_1/axis", "op": "Const", "attr": {"value": {"tensor": {"dtype": "DT_INT32", "tensorShape": {}}}, "dtype": {"type": "DT_INT32"}}}, {"name": "StatefulPartitionedCall/MobileViT-v3_v2_0.75/MobileViTBlock-3/sequential_20/transformer_8/sequential_19/dense_16/BiasAdd/Cast", "op": "Const", "attr": {"value": {"tensor": {"dtype": "DT_HALF", "tensorShape": {"dim": [{"size": "384"}]}}}, "dtype": {"type": "DT_HALF"}}}, {"name": "StatefulPartitionedCall/MobileViT-v3_v2_0.75/MobileViTBlock-3/sequential_20/transformer_8/sequential_19/dense_17/Tensordot/free", "op": "Const", "attr": {"value": {"tensor": {"dtype": "DT_INT32", "tensorShape": {"dim": [{"size": "3"}]}}}, "dtype": {"type": "DT_INT32"}}}, {"name": "StatefulPartitionedCall/MobileViT-v3_v2_0.75/MobileViTBlock-3/sequential_20/transformer_8/sequential_19/dense_17/Tensordot/GatherV2/axis", "op": "Const", "attr": {"dtype": {"type": "DT_INT32"}, "value": {"tensor": {"dtype": "DT_INT32", "tensorShape": {}}}}}, {"name": "StatefulPartitionedCall/MobileViT-v3_v2_0.75/MobileViTBlock-3/sequential_20/transformer_8/sequential_19/dense_17/Tensordot/Const_2", "op": "Const", "attr": {"value": {"tensor": {"dtype": "DT_INT32", "tensorShape": {"dim": [{"size": "1"}]}}}, "dtype": {"type": "DT_INT32"}}}, {"name": "StatefulPartitionedCall/MobileViT-v3_v2_0.75/MobileViTBlock-3/sequential_20/transformer_8/sequential_19/dense_17/Tensordot/concat_1/axis", "op": "Const", "attr": {"value": {"tensor": {"dtype": "DT_INT32", "tensorShape": {}}}, "dtype": {"type": "DT_INT32"}}}, {"name": "StatefulPartitionedCall/MobileViT-v3_v2_0.75/MobileViTBlock-3/sequential_20/transformer_8/sequential_19/dense_17/BiasAdd/Cast", "op": "Const", "attr": {"value": {"tensor": {"dtype": "DT_HALF", "tensorShape": {"dim": [{"size": "192"}]}}}, "dtype": {"type": "DT_HALF"}}}, {"name": "StatefulPartitionedCall/MobileViT-v3_v2_0.75/MobileViTBlock-3/sequential_20/layer_normalization_20/moments/mean/reduction_indices", "op": "Const", "attr": {"value": {"tensor": {"dtype": "DT_INT32", "tensorShape": {"dim": [{"size": "1"}]}}}, "dtype": {"type": "DT_INT32"}}}, {"name": "StatefulPartitionedCall/MobileViT-v3_v2_0.75/MobileViTBlock-3/sequential_20/layer_normalization_20/moments/variance/reduction_indices", "op": "Const", "attr": {"dtype": {"type": "DT_INT32"}, "value": {"tensor": {"dtype": "DT_INT32", "tensorShape": {"dim": [{"size": "1"}]}}}}}, {"name": "StatefulPartitionedCall/MobileViT-v3_v2_0.75/MobileViTBlock-3/sequential_20/layer_normalization_20/batchnorm/add/y", "op": "Const", "attr": {"value": {"tensor": {"dtype": "DT_FLOAT", "tensorShape": {}}}, "dtype": {"type": "DT_FLOAT"}}}, {"name": "StatefulPartitionedCall/MobileViT-v3_v2_0.75/MobileViTBlock-3/sequential_20/layer_normalization_20/batchnorm/mul/ReadVariableOp", "op": "Const", "attr": {"dtype": {"type": "DT_FLOAT"}, "value": {"tensor": {"dtype": "DT_FLOAT", "tensorShape": {"dim": [{"size": "192"}]}}}}}, {"name": "StatefulPartitionedCall/MobileViT-v3_v2_0.75/MobileViTBlock-3/transpose_2/perm", "op": "Const", "attr": {"value": {"tensor": {"dtype": "DT_INT32", "tensorShape": {"dim": [{"size": "4"}]}}}, "dtype": {"type": "DT_INT32"}}}, {"name": "StatefulPartitionedCall/MobileViT-v3_v2_0.75/MobileViTBlock-3/mul_5", "op": "Const", "attr": {"dtype": {"type": "DT_INT32"}, "value": {"tensor": {"dtype": "DT_INT32", "tensorShape": {}}}}}, {"name": "StatefulPartitionedCall/MobileViT-v3_v2_0.75/MobileViTBlock-3/transpose_3/perm", "op": "Const", "attr": {"value": {"tensor": {"dtype": "DT_INT32", "tensorShape": {"dim": [{"size": "4"}]}}}, "dtype": {"type": "DT_INT32"}}}, {"name": "StatefulPartitionedCall/MobileViT-v3_v2_0.75/MobileViTBlock-3/strided_slice/stack", "op": "Const", "attr": {"value": {"tensor": {"dtype": "DT_INT32", "tensorShape": {"dim": [{"size": "1"}]}}}, "dtype": {"type": "DT_INT32"}}}, {"name": "StatefulPartitionedCall/MobileViT-v3_v2_0.75/MobileViTBlock-3/strided_slice/stack_1", "op": "Const", "attr": {"dtype": {"type": "DT_INT32"}, "value": {"tensor": {"dtype": "DT_INT32", "tensorShape": {"dim": [{"size": "1"}]}}}}}, {"name": "StatefulPartitionedCall/MobileViT-v3_v2_0.75/MobileViTBlock-3/strided_slice/stack_2", "op": "Const", "attr": {"dtype": {"type": "DT_INT32"}, "value": {"tensor": {"dtype": "DT_INT32", "tensorShape": {"dim": [{"size": "1"}]}}}}}, {"name": "StatefulPartitionedCall/MobileViT-v3_v2_0.75/MobileViTBlock-3/strided_slice_1/stack", "op": "Const", "attr": {"value": {"tensor": {"dtype": "DT_INT32", "tensorShape": {"dim": [{"size": "1"}]}}}, "dtype": {"type": "DT_INT32"}}}, {"name": "StatefulPartitionedCall/MobileViT-v3_v2_0.75/MobileViTBlock-3/strided_slice_1/stack_1", "op": "Const", "attr": {"value": {"tensor": {"dtype": "DT_INT32", "tensorShape": {"dim": [{"size": "1"}]}}}, "dtype": {"type": "DT_INT32"}}}, {"name": "StatefulPartitionedCall/MobileViT-v3_v2_0.75/MobileViTBlock-3/strided_slice_1/stack_2", "op": "Const", "attr": {"dtype": {"type": "DT_INT32"}, "value": {"tensor": {"dtype": "DT_INT32", "tensorShape": {"dim": [{"size": "1"}]}}}}}, {"name": "unknown_202", "op": "Const", "attr": {"dtype": {"type": "DT_INT32"}, "value": {"tensor": {"dtype": "DT_INT32", "tensorShape": {}}}}}, {"name": "StatefulPartitionedCall/MobileViT-v3_v2_0.75/MobileViTBlock-3/strided_slice_2/stack", "op": "Const", "attr": {"dtype": {"type": "DT_INT32"}, "value": {"tensor": {"dtype": "DT_INT32", "tensorShape": {"dim": [{"size": "1"}]}}}}}, {"name": "StatefulPartitionedCall/MobileViT-v3_v2_0.75/MobileViTBlock-3/strided_slice_2/stack_1", "op": "Const", "attr": {"value": {"tensor": {"dtype": "DT_INT32", "tensorShape": {"dim": [{"size": "1"}]}}}, "dtype": {"type": "DT_INT32"}}}, {"name": "StatefulPartitionedCall/MobileViT-v3_v2_0.75/MobileViTBlock-3/strided_slice_2/stack_2", "op": "Const", "attr": {"dtype": {"type": "DT_INT32"}, "value": {"tensor": {"dtype": "DT_INT32", "tensorShape": {"dim": [{"size": "1"}]}}}}}, {"name": "unknown_203", "op": "Const", "attr": {"value": {"tensor": {"dtype": "DT_INT32", "tensorShape": {}}}, "dtype": {"type": "DT_INT32"}}}, {"name": "StatefulPartitionedCall/MobileViT-v3_v2_0.75/MobileViTBlock-3/Reshape_3/shape/3", "op": "Const", "attr": {"dtype": {"type": "DT_INT32"}, "value": {"tensor": {"dtype": "DT_INT32", "tensorShape": {}}}}}, {"name": "StatefulPartitionedCall/MobileViT-v3_v2_0.75/MobileViTBlock-2/sequential_14/layer_normalization_13/batchnorm/ReadVariableOp", "op": "Const", "attr": {"value": {"tensor": {"dtype": "DT_FLOAT", "tensorShape": {"dim": [{"size": "144"}]}}}, "dtype": {"type": "DT_FLOAT"}}}, {"name": "StatefulPartitionedCall/MobileViT-v3_v2_0.75/MobileViTBlock-2/sequential_14/transformer_5/sequential_13/dense_11/Tensordot/Const", "op": "Const", "attr": {"value": {"tensor": {"dtype": "DT_INT32", "tensorShape": {"dim": [{"size": "1"}]}}}, "dtype": {"type": "DT_INT32"}}}, {"name": "StatefulPartitionedCall/MobileViT-v3_v2_0.75/MobileViTBlock-2/sequential_14/transformer_5/sequential_13/dense_11/Tensordot/axes", "op": "Const", "attr": {"value": {"tensor": {"dtype": "DT_INT32", "tensorShape": {"dim": [{"size": "1"}]}}}, "dtype": {"type": "DT_INT32"}}}, {"name": "StatefulPartitionedCall/MobileViT-v3_v2_0.75/MobileViTBlock-2/sequential_14/transformer_5/sequential_13/dense_11/Tensordot/GatherV2_1/axis", "op": "Const", "attr": {"dtype": {"type": "DT_INT32"}, "value": {"tensor": {"dtype": "DT_INT32", "tensorShape": {}}}}}, {"name": "StatefulPartitionedCall/MobileViT-v3_v2_0.75/MobileViTBlock-2/sequential_14/transformer_5/sequential_13/dense_11/Tensordot/Const_1", "op": "Const", "attr": {"value": {"tensor": {"dtype": "DT_INT32", "tensorShape": {"dim": [{"size": "1"}]}}}, "dtype": {"type": "DT_INT32"}}}, {"name": "StatefulPartitionedCall/MobileViT-v3_v2_0.75/MobileViTBlock-2/sequential_14/transformer_5/sequential_13/dense_11/Tensordot/Cast", "op": "Const", "attr": {"value": {"tensor": {"dtype": "DT_HALF", "tensorShape": {"dim": [{"size": "288"}, {"size": "144"}]}}}, "dtype": {"type": "DT_HALF"}}}, {"name": "StatefulPartitionedCall/MobileViT-v3_v2_0.75/MobileViTBlock-2/sequential_14/transformer_5/sequential_13/dense_10/Tensordot/Const", "op": "Const", "attr": {"value": {"tensor": {"dtype": "DT_INT32", "tensorShape": {"dim": [{"size": "1"}]}}}, "dtype": {"type": "DT_INT32"}}}, {"name": "StatefulPartitionedCall/MobileViT-v3_v2_0.75/MobileViTBlock-2/sequential_14/transformer_5/sequential_13/dense_10/Tensordot/axes", "op": "Const", "attr": {"dtype": {"type": "DT_INT32"}, "value": {"tensor": {"dtype": "DT_INT32", "tensorShape": {"dim": [{"size": "1"}]}}}}}, {"name": "StatefulPartitionedCall/MobileViT-v3_v2_0.75/MobileViTBlock-2/sequential_14/transformer_5/sequential_13/dense_10/Tensordot/GatherV2_1/axis", "op": "Const", "attr": {"value": {"tensor": {"dtype": "DT_INT32", "tensorShape": {}}}, "dtype": {"type": "DT_INT32"}}}, {"name": "StatefulPartitionedCall/MobileViT-v3_v2_0.75/MobileViTBlock-2/sequential_14/transformer_5/sequential_13/dense_10/Tensordot/Const_1", "op": "Const", "attr": {"dtype": {"type": "DT_INT32"}, "value": {"tensor": {"dtype": "DT_INT32", "tensorShape": {"dim": [{"size": "1"}]}}}}}, {"name": "StatefulPartitionedCall/MobileViT-v3_v2_0.75/MobileViTBlock-2/sequential_14/transformer_5/sequential_13/dense_10/Tensordot/Cast", "op": "Const", "attr": {"value": {"tensor": {"dtype": "DT_HALF", "tensorShape": {"dim": [{"size": "144"}, {"size": "288"}]}}}, "dtype": {"type": "DT_HALF"}}}, {"name": "StatefulPartitionedCall/MobileViT-v3_v2_0.75/MobileViTBlock-2/sequential_14/transformer_5/layer_normalization_12/batchnorm/ReadVariableOp", "op": "Const", "attr": {"value": {"tensor": {"dtype": "DT_FLOAT", "tensorShape": {"dim": [{"size": "144"}]}}}, "dtype": {"type": "DT_FLOAT"}}}, {"name": "StatefulPartitionedCall/MobileViT-v3_v2_0.75/MobileViTBlock-2/sequential_14/transformer_5/linear_self_attention_5/einsum_dense_11/add/Cast", "op": "Const", "attr": {"dtype": {"type": "DT_HALF"}, "value": {"tensor": {"dtype": "DT_HALF", "tensorShape": {"dim": [{"size": "144"}]}}}}}, {"name": "StatefulPartitionedCall/MobileViT-v3_v2_0.75/MobileViTBlock-2/sequential_14/transformer_5/layer_normalization_11/batchnorm/ReadVariableOp", "op": "Const", "attr": {"dtype": {"type": "DT_FLOAT"}, "value": {"tensor": {"dtype": "DT_FLOAT", "tensorShape": {"dim": [{"size": "144"}]}}}}}, {"name": "StatefulPartitionedCall/MobileViT-v3_v2_0.75/MobileViTBlock-2/sequential_14/transformer_4/sequential_12/dense_9/Tensordot/Const", "op": "Const", "attr": {"value": {"tensor": {"dtype": "DT_INT32", "tensorShape": {"dim": [{"size": "1"}]}}}, "dtype": {"type": "DT_INT32"}}}, {"name": "StatefulPartitionedCall/MobileViT-v3_v2_0.75/MobileViTBlock-2/sequential_14/transformer_4/sequential_12/dense_9/Tensordot/axes", "op": "Const", "attr": {"dtype": {"type": "DT_INT32"}, "value": {"tensor": {"dtype": "DT_INT32", "tensorShape": {"dim": [{"size": "1"}]}}}}}, {"name": "StatefulPartitionedCall/MobileViT-v3_v2_0.75/MobileViTBlock-2/sequential_14/transformer_4/sequential_12/dense_9/Tensordot/GatherV2_1/axis", "op": "Const", "attr": {"value": {"tensor": {"dtype": "DT_INT32", "tensorShape": {}}}, "dtype": {"type": "DT_INT32"}}}, {"name": "StatefulPartitionedCall/MobileViT-v3_v2_0.75/MobileViTBlock-2/sequential_14/transformer_4/sequential_12/dense_9/Tensordot/Const_1", "op": "Const", "attr": {"dtype": {"type": "DT_INT32"}, "value": {"tensor": {"dtype": "DT_INT32", "tensorShape": {"dim": [{"size": "1"}]}}}}}, {"name": "StatefulPartitionedCall/MobileViT-v3_v2_0.75/MobileViTBlock-2/sequential_14/transformer_4/sequential_12/dense_9/Tensordot/Cast", "op": "Const", "attr": {"dtype": {"type": "DT_HALF"}, "value": {"tensor": {"dtype": "DT_HALF", "tensorShape": {"dim": [{"size": "288"}, {"size": "144"}]}}}}}, {"name": "StatefulPartitionedCall/MobileViT-v3_v2_0.75/MobileViTBlock-2/sequential_14/transformer_4/sequential_12/dense_8/Tensordot/Const", "op": "Const", "attr": {"value": {"tensor": {"dtype": "DT_INT32", "tensorShape": {"dim": [{"size": "1"}]}}}, "dtype": {"type": "DT_INT32"}}}, {"name": "StatefulPartitionedCall/MobileViT-v3_v2_0.75/MobileViTBlock-2/sequential_14/transformer_4/sequential_12/dense_8/Tensordot/axes", "op": "Const", "attr": {"dtype": {"type": "DT_INT32"}, "value": {"tensor": {"dtype": "DT_INT32", "tensorShape": {"dim": [{"size": "1"}]}}}}}, {"name": "StatefulPartitionedCall/MobileViT-v3_v2_0.75/MobileViTBlock-2/sequential_14/transformer_4/sequential_12/dense_8/Tensordot/GatherV2_1/axis", "op": "Const", "attr": {"value": {"tensor": {"dtype": "DT_INT32", "tensorShape": {}}}, "dtype": {"type": "DT_INT32"}}}, {"name": "StatefulPartitionedCall/MobileViT-v3_v2_0.75/MobileViTBlock-2/sequential_14/transformer_4/sequential_12/dense_8/Tensordot/Const_1", "op": "Const", "attr": {"value": {"tensor": {"dtype": "DT_INT32", "tensorShape": {"dim": [{"size": "1"}]}}}, "dtype": {"type": "DT_INT32"}}}, {"name": "StatefulPartitionedCall/MobileViT-v3_v2_0.75/MobileViTBlock-2/sequential_14/transformer_4/sequential_12/dense_8/Tensordot/Cast", "op": "Const", "attr": {"dtype": {"type": "DT_HALF"}, "value": {"tensor": {"dtype": "DT_HALF", "tensorShape": {"dim": [{"size": "144"}, {"size": "288"}]}}}}}, {"name": "StatefulPartitionedCall/MobileViT-v3_v2_0.75/MobileViTBlock-2/sequential_14/transformer_4/layer_normalization_10/batchnorm/ReadVariableOp", "op": "Const", "attr": {"value": {"tensor": {"dtype": "DT_FLOAT", "tensorShape": {"dim": [{"size": "144"}]}}}, "dtype": {"type": "DT_FLOAT"}}}, {"name": "StatefulPartitionedCall/MobileViT-v3_v2_0.75/MobileViTBlock-2/sequential_14/transformer_4/linear_self_attention_4/einsum_dense_9/add/Cast", "op": "Const", "attr": {"dtype": {"type": "DT_HALF"}, "value": {"tensor": {"dtype": "DT_HALF", "tensorShape": {"dim": [{"size": "144"}]}}}}}, {"name": "StatefulPartitionedCall/MobileViT-v3_v2_0.75/MobileViTBlock-2/sequential_14/transformer_4/layer_normalization_9/batchnorm/ReadVariableOp", "op": "Const", "attr": {"dtype": {"type": "DT_FLOAT"}, "value": {"tensor": {"dtype": "DT_FLOAT", "tensorShape": {"dim": [{"size": "144"}]}}}}}, {"name": "StatefulPartitionedCall/MobileViT-v3_v2_0.75/MobileViTBlock-2/sequential_14/transformer_3/sequential_11/dense_7/Tensordot/Const", "op": "Const", "attr": {"value": {"tensor": {"dtype": "DT_INT32", "tensorShape": {"dim": [{"size": "1"}]}}}, "dtype": {"type": "DT_INT32"}}}, {"name": "StatefulPartitionedCall/MobileViT-v3_v2_0.75/MobileViTBlock-2/sequential_14/transformer_3/sequential_11/dense_7/Tensordot/axes", "op": "Const", "attr": {"dtype": {"type": "DT_INT32"}, "value": {"tensor": {"dtype": "DT_INT32", "tensorShape": {"dim": [{"size": "1"}]}}}}}, {"name": "StatefulPartitionedCall/MobileViT-v3_v2_0.75/MobileViTBlock-2/sequential_14/transformer_3/sequential_11/dense_7/Tensordot/GatherV2_1/axis", "op": "Const", "attr": {"value": {"tensor": {"dtype": "DT_INT32", "tensorShape": {}}}, "dtype": {"type": "DT_INT32"}}}, {"name": "StatefulPartitionedCall/MobileViT-v3_v2_0.75/MobileViTBlock-2/sequential_14/transformer_3/sequential_11/dense_7/Tensordot/Const_1", "op": "Const", "attr": {"dtype": {"type": "DT_INT32"}, "value": {"tensor": {"dtype": "DT_INT32", "tensorShape": {"dim": [{"size": "1"}]}}}}}, {"name": "StatefulPartitionedCall/MobileViT-v3_v2_0.75/MobileViTBlock-2/sequential_14/transformer_3/sequential_11/dense_7/Tensordot/Cast", "op": "Const", "attr": {"value": {"tensor": {"dtype": "DT_HALF", "tensorShape": {"dim": [{"size": "288"}, {"size": "144"}]}}}, "dtype": {"type": "DT_HALF"}}}, {"name": "StatefulPartitionedCall/MobileViT-v3_v2_0.75/MobileViTBlock-2/sequential_14/transformer_3/sequential_11/dense_6/Tensordot/Const", "op": "Const", "attr": {"dtype": {"type": "DT_INT32"}, "value": {"tensor": {"dtype": "DT_INT32", "tensorShape": {"dim": [{"size": "1"}]}}}}}, {"name": "StatefulPartitionedCall/MobileViT-v3_v2_0.75/MobileViTBlock-2/sequential_14/transformer_3/sequential_11/dense_6/Tensordot/axes", "op": "Const", "attr": {"dtype": {"type": "DT_INT32"}, "value": {"tensor": {"dtype": "DT_INT32", "tensorShape": {"dim": [{"size": "1"}]}}}}}, {"name": "StatefulPartitionedCall/MobileViT-v3_v2_0.75/MobileViTBlock-2/sequential_14/transformer_3/sequential_11/dense_6/Tensordot/GatherV2_1/axis", "op": "Const", "attr": {"value": {"tensor": {"dtype": "DT_INT32", "tensorShape": {}}}, "dtype": {"type": "DT_INT32"}}}, {"name": "StatefulPartitionedCall/MobileViT-v3_v2_0.75/MobileViTBlock-2/sequential_14/transformer_3/sequential_11/dense_6/Tensordot/Const_1", "op": "Const", "attr": {"dtype": {"type": "DT_INT32"}, "value": {"tensor": {"dtype": "DT_INT32", "tensorShape": {"dim": [{"size": "1"}]}}}}}, {"name": "StatefulPartitionedCall/MobileViT-v3_v2_0.75/MobileViTBlock-2/sequential_14/transformer_3/sequential_11/dense_6/Tensordot/Cast", "op": "Const", "attr": {"dtype": {"type": "DT_HALF"}, "value": {"tensor": {"dtype": "DT_HALF", "tensorShape": {"dim": [{"size": "144"}, {"size": "288"}]}}}}}, {"name": "StatefulPartitionedCall/MobileViT-v3_v2_0.75/MobileViTBlock-2/sequential_14/transformer_3/layer_normalization_8/batchnorm/ReadVariableOp", "op": "Const", "attr": {"value": {"tensor": {"dtype": "DT_FLOAT", "tensorShape": {"dim": [{"size": "144"}]}}}, "dtype": {"type": "DT_FLOAT"}}}, {"name": "StatefulPartitionedCall/MobileViT-v3_v2_0.75/MobileViTBlock-2/sequential_14/transformer_3/linear_self_attention_3/einsum_dense_7/add/Cast", "op": "Const", "attr": {"value": {"tensor": {"dtype": "DT_HALF", "tensorShape": {"dim": [{"size": "144"}]}}}, "dtype": {"type": "DT_HALF"}}}, {"name": "StatefulPartitionedCall/MobileViT-v3_v2_0.75/MobileViTBlock-2/sequential_14/transformer_3/layer_normalization_7/batchnorm/ReadVariableOp", "op": "Const", "attr": {"value": {"tensor": {"dtype": "DT_FLOAT", "tensorShape": {"dim": [{"size": "144"}]}}}, "dtype": {"type": "DT_FLOAT"}}}, {"name": "StatefulPartitionedCall/MobileViT-v3_v2_0.75/MobileViTBlock-2/sequential_14/transformer_2/sequential_10/dense_5/Tensordot/Const", "op": "Const", "attr": {"value": {"tensor": {"dtype": "DT_INT32", "tensorShape": {"dim": [{"size": "1"}]}}}, "dtype": {"type": "DT_INT32"}}}, {"name": "StatefulPartitionedCall/MobileViT-v3_v2_0.75/MobileViTBlock-2/sequential_14/transformer_2/sequential_10/dense_5/Tensordot/axes", "op": "Const", "attr": {"dtype": {"type": "DT_INT32"}, "value": {"tensor": {"dtype": "DT_INT32", "tensorShape": {"dim": [{"size": "1"}]}}}}}, {"name": "StatefulPartitionedCall/MobileViT-v3_v2_0.75/MobileViTBlock-2/sequential_14/transformer_2/sequential_10/dense_5/Tensordot/GatherV2_1/axis", "op": "Const", "attr": {"value": {"tensor": {"dtype": "DT_INT32", "tensorShape": {}}}, "dtype": {"type": "DT_INT32"}}}, {"name": "StatefulPartitionedCall/MobileViT-v3_v2_0.75/MobileViTBlock-2/sequential_14/transformer_2/sequential_10/dense_5/Tensordot/Const_1", "op": "Const", "attr": {"value": {"tensor": {"dtype": "DT_INT32", "tensorShape": {"dim": [{"size": "1"}]}}}, "dtype": {"type": "DT_INT32"}}}, {"name": "StatefulPartitionedCall/MobileViT-v3_v2_0.75/MobileViTBlock-2/sequential_14/transformer_2/sequential_10/dense_5/Tensordot/Cast", "op": "Const", "attr": {"dtype": {"type": "DT_HALF"}, "value": {"tensor": {"dtype": "DT_HALF", "tensorShape": {"dim": [{"size": "288"}, {"size": "144"}]}}}}}, {"name": "StatefulPartitionedCall/MobileViT-v3_v2_0.75/MobileViTBlock-2/sequential_14/transformer_2/sequential_10/dense_4/Tensordot/Const", "op": "Const", "attr": {"value": {"tensor": {"dtype": "DT_INT32", "tensorShape": {"dim": [{"size": "1"}]}}}, "dtype": {"type": "DT_INT32"}}}, {"name": "StatefulPartitionedCall/MobileViT-v3_v2_0.75/MobileViTBlock-2/sequential_14/transformer_2/sequential_10/dense_4/Tensordot/axes", "op": "Const", "attr": {"value": {"tensor": {"dtype": "DT_INT32", "tensorShape": {"dim": [{"size": "1"}]}}}, "dtype": {"type": "DT_INT32"}}}, {"name": "StatefulPartitionedCall/MobileViT-v3_v2_0.75/MobileViTBlock-2/sequential_14/transformer_2/sequential_10/dense_4/Tensordot/GatherV2_1/axis", "op": "Const", "attr": {"dtype": {"type": "DT_INT32"}, "value": {"tensor": {"dtype": "DT_INT32", "tensorShape": {}}}}}, {"name": "StatefulPartitionedCall/MobileViT-v3_v2_0.75/MobileViTBlock-2/sequential_14/transformer_2/sequential_10/dense_4/Tensordot/Const_1", "op": "Const", "attr": {"value": {"tensor": {"dtype": "DT_INT32", "tensorShape": {"dim": [{"size": "1"}]}}}, "dtype": {"type": "DT_INT32"}}}, {"name": "StatefulPartitionedCall/MobileViT-v3_v2_0.75/MobileViTBlock-2/sequential_14/transformer_2/sequential_10/dense_4/Tensordot/Cast", "op": "Const", "attr": {"dtype": {"type": "DT_HALF"}, "value": {"tensor": {"dtype": "DT_HALF", "tensorShape": {"dim": [{"size": "144"}, {"size": "288"}]}}}}}, {"name": "StatefulPartitionedCall/MobileViT-v3_v2_0.75/MobileViTBlock-2/sequential_14/transformer_2/layer_normalization_6/batchnorm/ReadVariableOp", "op": "Const", "attr": {"value": {"tensor": {"dtype": "DT_FLOAT", "tensorShape": {"dim": [{"size": "144"}]}}}, "dtype": {"type": "DT_FLOAT"}}}, {"name": "StatefulPartitionedCall/MobileViT-v3_v2_0.75/MobileViTBlock-2/sequential_14/transformer_2/linear_self_attention_2/einsum_dense_5/add/Cast", "op": "Const", "attr": {"dtype": {"type": "DT_HALF"}, "value": {"tensor": {"dtype": "DT_HALF", "tensorShape": {"dim": [{"size": "144"}]}}}}}, {"name": "StatefulPartitionedCall/MobileViT-v3_v2_0.75/MobileViTBlock-2/sequential_14/transformer_2/layer_normalization_5/batchnorm/ReadVariableOp", "op": "Const", "attr": {"dtype": {"type": "DT_FLOAT"}, "value": {"tensor": {"dtype": "DT_FLOAT", "tensorShape": {"dim": [{"size": "144"}]}}}}}, {"name": "StatefulPartitionedCall/MobileViT-v3_v2_0.75/MobileViTBlock-2/mul_1", "op": "Const", "attr": {"value": {"tensor": {"dtype": "DT_INT32", "tensorShape": {}}}, "dtype": {"type": "DT_INT32"}}}, {"name": "StatefulPartitionedCall/MobileViT-v3_v2_0.75/MobileViTBlock-2/transpose/perm", "op": "Const", "attr": {"value": {"tensor": {"dtype": "DT_INT32", "tensorShape": {"dim": [{"size": "4"}]}}}, "dtype": {"type": "DT_INT32"}}}, {"name": "StatefulPartitionedCall/MobileViT-v3_v2_0.75/MobileViTBlock-2/mul_3", "op": "Const", "attr": {"dtype": {"type": "DT_INT32"}, "value": {"tensor": {"dtype": "DT_INT32", "tensorShape": {}}}}}, {"name": "StatefulPartitionedCall/MobileViT-v3_v2_0.75/MobileViTBlock-2/Reshape_1/shape/3", "op": "Const", "attr": {"value": {"tensor": {"dtype": "DT_INT32", "tensorShape": {}}}, "dtype": {"type": "DT_INT32"}}}, {"name": "StatefulPartitionedCall/MobileViT-v3_v2_0.75/MobileViTBlock-2/transpose_1/perm", "op": "Const", "attr": {"dtype": {"type": "DT_INT32"}, "value": {"tensor": {"dtype": "DT_INT32", "tensorShape": {"dim": [{"size": "4"}]}}}}}, {"name": "StatefulPartitionedCall/MobileViT-v3_v2_0.75/MobileViTBlock-2/sequential_14/transformer_2/layer_normalization_5/moments/mean/reduction_indices", "op": "Const", "attr": {"dtype": {"type": "DT_INT32"}, "value": {"tensor": {"dtype": "DT_INT32", "tensorShape": {"dim": [{"size": "1"}]}}}}}, {"name": "StatefulPartitionedCall/MobileViT-v3_v2_0.75/MobileViTBlock-2/sequential_14/transformer_2/layer_normalization_5/moments/variance/reduction_indices", "op": "Const", "attr": {"dtype": {"type": "DT_INT32"}, "value": {"tensor": {"dtype": "DT_INT32", "tensorShape": {"dim": [{"size": "1"}]}}}}}, {"name": "StatefulPartitionedCall/MobileViT-v3_v2_0.75/MobileViTBlock-2/sequential_14/transformer_2/layer_normalization_5/batchnorm/add/y", "op": "Const", "attr": {"dtype": {"type": "DT_FLOAT"}, "value": {"tensor": {"dtype": "DT_FLOAT", "tensorShape": {}}}}}, {"name": "StatefulPartitionedCall/MobileViT-v3_v2_0.75/MobileViTBlock-2/sequential_14/transformer_2/layer_normalization_5/batchnorm/mul/ReadVariableOp", "op": "Const", "attr": {"value": {"tensor": {"dtype": "DT_FLOAT", "tensorShape": {"dim": [{"size": "144"}]}}}, "dtype": {"type": "DT_FLOAT"}}}, {"name": "StatefulPartitionedCall/MobileViT-v3_v2_0.75/MobileViTBlock-2/sequential_14/transformer_2/linear_self_attention_2/einsum_dense_4/einsum/Einsum/Cast", "op": "Const", "attr": {"dtype": {"type": "DT_HALF"}, "value": {"tensor": {"dtype": "DT_HALF", "tensorShape": {"dim": [{"size": "144"}, {"size": "289"}]}}}}}, {"name": "StatefulPartitionedCall/MobileViT-v3_v2_0.75/MobileViTBlock-2/sequential_14/transformer_2/linear_self_attention_2/einsum_dense_4/add/Cast", "op": "Const", "attr": {"dtype": {"type": "DT_HALF"}, "value": {"tensor": {"dtype": "DT_HALF", "tensorShape": {"dim": [{"size": "289"}]}}}}}, {"name": "StatefulPartitionedCall/MobileViT-v3_v2_0.75/MobileViTBlock-2/sequential_14/transformer_2/linear_self_attention_2/Const", "op": "Const", "attr": {"value": {"tensor": {"dtype": "DT_INT32", "tensorShape": {"dim": [{"size": "3"}]}}}, "dtype": {"type": "DT_INT32"}}}, {"name": "StatefulPartitionedCall/MobileViT-v3_v2_0.75/MobileViTBlock-2/sequential_14/transformer_2/linear_self_attention_2/split/split_dim", "op": "Const", "attr": {"dtype": {"type": "DT_INT32"}, "value": {"tensor": {"dtype": "DT_INT32", "tensorShape": {}}}}}, {"name": "StatefulPartitionedCall/MobileViT-v3_v2_0.75/MobileViTBlock-2/sequential_14/transformer_2/linear_self_attention_2/concat", "op": "Const", "attr": {"value": {"tensor": {"dtype": "DT_INT32", "tensorShape": {"dim": [{"size": "4"}]}}}, "dtype": {"type": "DT_INT32"}}}, {"name": "StatefulPartitionedCall/MobileViT-v3_v2_0.75/MobileViTBlock-2/sequential_14/transformer_2/linear_self_attention_2/concat_1", "op": "Const", "attr": {"dtype": {"type": "DT_INT32"}, "value": {"tensor": {"dtype": "DT_INT32", "tensorShape": {"dim": [{"size": "4"}]}}}}}, {"name": "StatefulPartitionedCall/MobileViT-v3_v2_0.75/MobileViTBlock-2/sequential_14/transformer_2/linear_self_attention_2/Sum/reduction_indices", "op": "Const", "attr": {"dtype": {"type": "DT_INT32"}, "value": {"tensor": {"dtype": "DT_INT32", "tensorShape": {}}}}}, {"name": "StatefulPartitionedCall/MobileViT-v3_v2_0.75/MobileViTBlock-2/sequential_14/transformer_2/linear_self_attention_2/einsum_dense_5/einsum/Einsum/Cast", "op": "Const", "attr": {"value": {"tensor": {"dtype": "DT_HALF", "tensorShape": {"dim": [{"size": "144"}, {"size": "144"}]}}}, "dtype": {"type": "DT_HALF"}}}, {"name": "StatefulPartitionedCall/MobileViT-v3_v2_0.75/MobileViTBlock-2/sequential_14/transformer_2/layer_normalization_6/moments/mean/reduction_indices", "op": "Const", "attr": {"dtype": {"type": "DT_INT32"}, "value": {"tensor": {"dtype": "DT_INT32", "tensorShape": {"dim": [{"size": "1"}]}}}}}, {"name": "StatefulPartitionedCall/MobileViT-v3_v2_0.75/MobileViTBlock-2/sequential_14/transformer_2/layer_normalization_6/moments/variance/reduction_indices", "op": "Const", "attr": {"dtype": {"type": "DT_INT32"}, "value": {"tensor": {"dtype": "DT_INT32", "tensorShape": {"dim": [{"size": "1"}]}}}}}, {"name": "StatefulPartitionedCall/MobileViT-v3_v2_0.75/MobileViTBlock-2/sequential_14/transformer_2/layer_normalization_6/batchnorm/add/y", "op": "Const", "attr": {"value": {"tensor": {"dtype": "DT_FLOAT", "tensorShape": {}}}, "dtype": {"type": "DT_FLOAT"}}}, {"name": "StatefulPartitionedCall/MobileViT-v3_v2_0.75/MobileViTBlock-2/sequential_14/transformer_2/layer_normalization_6/batchnorm/mul/ReadVariableOp", "op": "Const", "attr": {"value": {"tensor": {"dtype": "DT_FLOAT", "tensorShape": {"dim": [{"size": "144"}]}}}, "dtype": {"type": "DT_FLOAT"}}}, {"name": "StatefulPartitionedCall/MobileViT-v3_v2_0.75/MobileViTBlock-2/sequential_14/transformer_2/sequential_10/dense_4/Tensordot/free", "op": "Const", "attr": {"value": {"tensor": {"dtype": "DT_INT32", "tensorShape": {"dim": [{"size": "3"}]}}}, "dtype": {"type": "DT_INT32"}}}, {"name": "StatefulPartitionedCall/MobileViT-v3_v2_0.75/MobileViTBlock-2/sequential_14/transformer_2/sequential_10/dense_4/Tensordot/GatherV2/axis", "op": "Const", "attr": {"value": {"tensor": {"dtype": "DT_INT32", "tensorShape": {}}}, "dtype": {"type": "DT_INT32"}}}, {"name": "StatefulPartitionedCall/MobileViT-v3_v2_0.75/MobileViTBlock-2/sequential_14/transformer_2/sequential_10/dense_4/Tensordot/Const_2", "op": "Const", "attr": {"value": {"tensor": {"dtype": "DT_INT32", "tensorShape": {"dim": [{"size": "1"}]}}}, "dtype": {"type": "DT_INT32"}}}, {"name": "StatefulPartitionedCall/MobileViT-v3_v2_0.75/MobileViTBlock-2/sequential_14/transformer_2/sequential_10/dense_4/Tensordot/concat_1/axis", "op": "Const", "attr": {"value": {"tensor": {"dtype": "DT_INT32", "tensorShape": {}}}, "dtype": {"type": "DT_INT32"}}}, {"name": "StatefulPartitionedCall/MobileViT-v3_v2_0.75/MobileViTBlock-2/sequential_14/transformer_2/sequential_10/dense_4/BiasAdd/Cast", "op": "Const", "attr": {"value": {"tensor": {"dtype": "DT_HALF", "tensorShape": {"dim": [{"size": "288"}]}}}, "dtype": {"type": "DT_HALF"}}}, {"name": "StatefulPartitionedCall/MobileViT-v3_v2_0.75/MobileViTBlock-2/sequential_14/transformer_2/sequential_10/dense_5/Tensordot/free", "op": "Const", "attr": {"dtype": {"type": "DT_INT32"}, "value": {"tensor": {"dtype": "DT_INT32", "tensorShape": {"dim": [{"size": "3"}]}}}}}, {"name": "StatefulPartitionedCall/MobileViT-v3_v2_0.75/MobileViTBlock-2/sequential_14/transformer_2/sequential_10/dense_5/Tensordot/GatherV2/axis", "op": "Const", "attr": {"value": {"tensor": {"dtype": "DT_INT32", "tensorShape": {}}}, "dtype": {"type": "DT_INT32"}}}, {"name": "StatefulPartitionedCall/MobileViT-v3_v2_0.75/MobileViTBlock-2/sequential_14/transformer_2/sequential_10/dense_5/Tensordot/Const_2", "op": "Const", "attr": {"value": {"tensor": {"dtype": "DT_INT32", "tensorShape": {"dim": [{"size": "1"}]}}}, "dtype": {"type": "DT_INT32"}}}, {"name": "StatefulPartitionedCall/MobileViT-v3_v2_0.75/MobileViTBlock-2/sequential_14/transformer_2/sequential_10/dense_5/Tensordot/concat_1/axis", "op": "Const", "attr": {"value": {"tensor": {"dtype": "DT_INT32", "tensorShape": {}}}, "dtype": {"type": "DT_INT32"}}}, {"name": "StatefulPartitionedCall/MobileViT-v3_v2_0.75/MobileViTBlock-2/sequential_14/transformer_2/sequential_10/dense_5/BiasAdd/Cast", "op": "Const", "attr": {"dtype": {"type": "DT_HALF"}, "value": {"tensor": {"dtype": "DT_HALF", "tensorShape": {"dim": [{"size": "144"}]}}}}}, {"name": "StatefulPartitionedCall/MobileViT-v3_v2_0.75/MobileViTBlock-2/sequential_14/transformer_3/layer_normalization_7/moments/mean/reduction_indices", "op": "Const", "attr": {"value": {"tensor": {"dtype": "DT_INT32", "tensorShape": {"dim": [{"size": "1"}]}}}, "dtype": {"type": "DT_INT32"}}}, {"name": "StatefulPartitionedCall/MobileViT-v3_v2_0.75/MobileViTBlock-2/sequential_14/transformer_3/layer_normalization_7/moments/variance/reduction_indices", "op": "Const", "attr": {"value": {"tensor": {"dtype": "DT_INT32", "tensorShape": {"dim": [{"size": "1"}]}}}, "dtype": {"type": "DT_INT32"}}}, {"name": "StatefulPartitionedCall/MobileViT-v3_v2_0.75/MobileViTBlock-2/sequential_14/transformer_3/layer_normalization_7/batchnorm/add/y", "op": "Const", "attr": {"dtype": {"type": "DT_FLOAT"}, "value": {"tensor": {"dtype": "DT_FLOAT", "tensorShape": {}}}}}, {"name": "StatefulPartitionedCall/MobileViT-v3_v2_0.75/MobileViTBlock-2/sequential_14/transformer_3/layer_normalization_7/batchnorm/mul/ReadVariableOp", "op": "Const", "attr": {"dtype": {"type": "DT_FLOAT"}, "value": {"tensor": {"dtype": "DT_FLOAT", "tensorShape": {"dim": [{"size": "144"}]}}}}}, {"name": "StatefulPartitionedCall/MobileViT-v3_v2_0.75/MobileViTBlock-2/sequential_14/transformer_3/linear_self_attention_3/einsum_dense_6/einsum/Einsum/Cast", "op": "Const", "attr": {"value": {"tensor": {"dtype": "DT_HALF", "tensorShape": {"dim": [{"size": "144"}, {"size": "289"}]}}}, "dtype": {"type": "DT_HALF"}}}, {"name": "StatefulPartitionedCall/MobileViT-v3_v2_0.75/MobileViTBlock-2/sequential_14/transformer_3/linear_self_attention_3/einsum_dense_6/add/Cast", "op": "Const", "attr": {"value": {"tensor": {"dtype": "DT_HALF", "tensorShape": {"dim": [{"size": "289"}]}}}, "dtype": {"type": "DT_HALF"}}}, {"name": "StatefulPartitionedCall/MobileViT-v3_v2_0.75/MobileViTBlock-2/sequential_14/transformer_3/linear_self_attention_3/Const", "op": "Const", "attr": {"dtype": {"type": "DT_INT32"}, "value": {"tensor": {"dtype": "DT_INT32", "tensorShape": {"dim": [{"size": "3"}]}}}}}, {"name": "StatefulPartitionedCall/MobileViT-v3_v2_0.75/MobileViTBlock-2/sequential_14/transformer_3/linear_self_attention_3/split/split_dim", "op": "Const", "attr": {"value": {"tensor": {"dtype": "DT_INT32", "tensorShape": {}}}, "dtype": {"type": "DT_INT32"}}}, {"name": "StatefulPartitionedCall/MobileViT-v3_v2_0.75/MobileViTBlock-2/sequential_14/transformer_3/linear_self_attention_3/concat", "op": "Const", "attr": {"dtype": {"type": "DT_INT32"}, "value": {"tensor": {"dtype": "DT_INT32", "tensorShape": {"dim": [{"size": "4"}]}}}}}, {"name": "StatefulPartitionedCall/MobileViT-v3_v2_0.75/MobileViTBlock-2/sequential_14/transformer_3/linear_self_attention_3/concat_1", "op": "Const", "attr": {"value": {"tensor": {"dtype": "DT_INT32", "tensorShape": {"dim": [{"size": "4"}]}}}, "dtype": {"type": "DT_INT32"}}}, {"name": "StatefulPartitionedCall/MobileViT-v3_v2_0.75/MobileViTBlock-2/sequential_14/transformer_3/linear_self_attention_3/Sum/reduction_indices", "op": "Const", "attr": {"dtype": {"type": "DT_INT32"}, "value": {"tensor": {"dtype": "DT_INT32", "tensorShape": {}}}}}, {"name": "StatefulPartitionedCall/MobileViT-v3_v2_0.75/MobileViTBlock-2/sequential_14/transformer_3/linear_self_attention_3/einsum_dense_7/einsum/Einsum/Cast", "op": "Const", "attr": {"value": {"tensor": {"dtype": "DT_HALF", "tensorShape": {"dim": [{"size": "144"}, {"size": "144"}]}}}, "dtype": {"type": "DT_HALF"}}}, {"name": "StatefulPartitionedCall/MobileViT-v3_v2_0.75/MobileViTBlock-2/sequential_14/transformer_3/layer_normalization_8/moments/mean/reduction_indices", "op": "Const", "attr": {"dtype": {"type": "DT_INT32"}, "value": {"tensor": {"dtype": "DT_INT32", "tensorShape": {"dim": [{"size": "1"}]}}}}}, {"name": "StatefulPartitionedCall/MobileViT-v3_v2_0.75/MobileViTBlock-2/sequential_14/transformer_3/layer_normalization_8/moments/variance/reduction_indices", "op": "Const", "attr": {"value": {"tensor": {"dtype": "DT_INT32", "tensorShape": {"dim": [{"size": "1"}]}}}, "dtype": {"type": "DT_INT32"}}}, {"name": "StatefulPartitionedCall/MobileViT-v3_v2_0.75/MobileViTBlock-2/sequential_14/transformer_3/layer_normalization_8/batchnorm/add/y", "op": "Const", "attr": {"value": {"tensor": {"dtype": "DT_FLOAT", "tensorShape": {}}}, "dtype": {"type": "DT_FLOAT"}}}, {"name": "StatefulPartitionedCall/MobileViT-v3_v2_0.75/MobileViTBlock-2/sequential_14/transformer_3/layer_normalization_8/batchnorm/mul/ReadVariableOp", "op": "Const", "attr": {"value": {"tensor": {"dtype": "DT_FLOAT", "tensorShape": {"dim": [{"size": "144"}]}}}, "dtype": {"type": "DT_FLOAT"}}}, {"name": "StatefulPartitionedCall/MobileViT-v3_v2_0.75/MobileViTBlock-2/sequential_14/transformer_3/sequential_11/dense_6/Tensordot/free", "op": "Const", "attr": {"value": {"tensor": {"dtype": "DT_INT32", "tensorShape": {"dim": [{"size": "3"}]}}}, "dtype": {"type": "DT_INT32"}}}, {"name": "StatefulPartitionedCall/MobileViT-v3_v2_0.75/MobileViTBlock-2/sequential_14/transformer_3/sequential_11/dense_6/Tensordot/GatherV2/axis", "op": "Const", "attr": {"value": {"tensor": {"dtype": "DT_INT32", "tensorShape": {}}}, "dtype": {"type": "DT_INT32"}}}, {"name": "StatefulPartitionedCall/MobileViT-v3_v2_0.75/MobileViTBlock-2/sequential_14/transformer_3/sequential_11/dense_6/Tensordot/Const_2", "op": "Const", "attr": {"value": {"tensor": {"dtype": "DT_INT32", "tensorShape": {"dim": [{"size": "1"}]}}}, "dtype": {"type": "DT_INT32"}}}, {"name": "StatefulPartitionedCall/MobileViT-v3_v2_0.75/MobileViTBlock-2/sequential_14/transformer_3/sequential_11/dense_6/Tensordot/concat_1/axis", "op": "Const", "attr": {"dtype": {"type": "DT_INT32"}, "value": {"tensor": {"dtype": "DT_INT32", "tensorShape": {}}}}}, {"name": "StatefulPartitionedCall/MobileViT-v3_v2_0.75/MobileViTBlock-2/sequential_14/transformer_3/sequential_11/dense_6/BiasAdd/Cast", "op": "Const", "attr": {"value": {"tensor": {"dtype": "DT_HALF", "tensorShape": {"dim": [{"size": "288"}]}}}, "dtype": {"type": "DT_HALF"}}}, {"name": "StatefulPartitionedCall/MobileViT-v3_v2_0.75/MobileViTBlock-2/sequential_14/transformer_3/sequential_11/dense_7/Tensordot/free", "op": "Const", "attr": {"value": {"tensor": {"dtype": "DT_INT32", "tensorShape": {"dim": [{"size": "3"}]}}}, "dtype": {"type": "DT_INT32"}}}, {"name": "StatefulPartitionedCall/MobileViT-v3_v2_0.75/MobileViTBlock-2/sequential_14/transformer_3/sequential_11/dense_7/Tensordot/GatherV2/axis", "op": "Const", "attr": {"dtype": {"type": "DT_INT32"}, "value": {"tensor": {"dtype": "DT_INT32", "tensorShape": {}}}}}, {"name": "StatefulPartitionedCall/MobileViT-v3_v2_0.75/MobileViTBlock-2/sequential_14/transformer_3/sequential_11/dense_7/Tensordot/Const_2", "op": "Const", "attr": {"value": {"tensor": {"dtype": "DT_INT32", "tensorShape": {"dim": [{"size": "1"}]}}}, "dtype": {"type": "DT_INT32"}}}, {"name": "StatefulPartitionedCall/MobileViT-v3_v2_0.75/MobileViTBlock-2/sequential_14/transformer_3/sequential_11/dense_7/Tensordot/concat_1/axis", "op": "Const", "attr": {"value": {"tensor": {"dtype": "DT_INT32", "tensorShape": {}}}, "dtype": {"type": "DT_INT32"}}}, {"name": "StatefulPartitionedCall/MobileViT-v3_v2_0.75/MobileViTBlock-2/sequential_14/transformer_3/sequential_11/dense_7/BiasAdd/Cast", "op": "Const", "attr": {"value": {"tensor": {"dtype": "DT_HALF", "tensorShape": {"dim": [{"size": "144"}]}}}, "dtype": {"type": "DT_HALF"}}}, {"name": "StatefulPartitionedCall/MobileViT-v3_v2_0.75/MobileViTBlock-2/sequential_14/transformer_4/layer_normalization_9/moments/mean/reduction_indices", "op": "Const", "attr": {"value": {"tensor": {"dtype": "DT_INT32", "tensorShape": {"dim": [{"size": "1"}]}}}, "dtype": {"type": "DT_INT32"}}}, {"name": "StatefulPartitionedCall/MobileViT-v3_v2_0.75/MobileViTBlock-2/sequential_14/transformer_4/layer_normalization_9/moments/variance/reduction_indices", "op": "Const", "attr": {"value": {"tensor": {"dtype": "DT_INT32", "tensorShape": {"dim": [{"size": "1"}]}}}, "dtype": {"type": "DT_INT32"}}}, {"name": "StatefulPartitionedCall/MobileViT-v3_v2_0.75/MobileViTBlock-2/sequential_14/transformer_4/layer_normalization_9/batchnorm/add/y", "op": "Const", "attr": {"dtype": {"type": "DT_FLOAT"}, "value": {"tensor": {"dtype": "DT_FLOAT", "tensorShape": {}}}}}, {"name": "StatefulPartitionedCall/MobileViT-v3_v2_0.75/MobileViTBlock-2/sequential_14/transformer_4/layer_normalization_9/batchnorm/mul/ReadVariableOp", "op": "Const", "attr": {"dtype": {"type": "DT_FLOAT"}, "value": {"tensor": {"dtype": "DT_FLOAT", "tensorShape": {"dim": [{"size": "144"}]}}}}}, {"name": "StatefulPartitionedCall/MobileViT-v3_v2_0.75/MobileViTBlock-2/sequential_14/transformer_4/linear_self_attention_4/einsum_dense_8/einsum/Einsum/Cast", "op": "Const", "attr": {"value": {"tensor": {"dtype": "DT_HALF", "tensorShape": {"dim": [{"size": "144"}, {"size": "289"}]}}}, "dtype": {"type": "DT_HALF"}}}, {"name": "StatefulPartitionedCall/MobileViT-v3_v2_0.75/MobileViTBlock-2/sequential_14/transformer_4/linear_self_attention_4/einsum_dense_8/add/Cast", "op": "Const", "attr": {"dtype": {"type": "DT_HALF"}, "value": {"tensor": {"dtype": "DT_HALF", "tensorShape": {"dim": [{"size": "289"}]}}}}}, {"name": "StatefulPartitionedCall/MobileViT-v3_v2_0.75/MobileViTBlock-2/sequential_14/transformer_4/linear_self_attention_4/Const", "op": "Const", "attr": {"dtype": {"type": "DT_INT32"}, "value": {"tensor": {"dtype": "DT_INT32", "tensorShape": {"dim": [{"size": "3"}]}}}}}, {"name": "StatefulPartitionedCall/MobileViT-v3_v2_0.75/MobileViTBlock-2/sequential_14/transformer_4/linear_self_attention_4/split/split_dim", "op": "Const", "attr": {"value": {"tensor": {"dtype": "DT_INT32", "tensorShape": {}}}, "dtype": {"type": "DT_INT32"}}}, {"name": "StatefulPartitionedCall/MobileViT-v3_v2_0.75/MobileViTBlock-2/sequential_14/transformer_4/linear_self_attention_4/concat", "op": "Const", "attr": {"value": {"tensor": {"dtype": "DT_INT32", "tensorShape": {"dim": [{"size": "4"}]}}}, "dtype": {"type": "DT_INT32"}}}, {"name": "StatefulPartitionedCall/MobileViT-v3_v2_0.75/MobileViTBlock-2/sequential_14/transformer_4/linear_self_attention_4/concat_1", "op": "Const", "attr": {"value": {"tensor": {"dtype": "DT_INT32", "tensorShape": {"dim": [{"size": "4"}]}}}, "dtype": {"type": "DT_INT32"}}}, {"name": "StatefulPartitionedCall/MobileViT-v3_v2_0.75/MobileViTBlock-2/sequential_14/transformer_4/linear_self_attention_4/Sum/reduction_indices", "op": "Const", "attr": {"value": {"tensor": {"dtype": "DT_INT32", "tensorShape": {}}}, "dtype": {"type": "DT_INT32"}}}, {"name": "StatefulPartitionedCall/MobileViT-v3_v2_0.75/MobileViTBlock-2/sequential_14/transformer_4/linear_self_attention_4/einsum_dense_9/einsum/Einsum/Cast", "op": "Const", "attr": {"value": {"tensor": {"dtype": "DT_HALF", "tensorShape": {"dim": [{"size": "144"}, {"size": "144"}]}}}, "dtype": {"type": "DT_HALF"}}}, {"name": "StatefulPartitionedCall/MobileViT-v3_v2_0.75/MobileViTBlock-2/sequential_14/transformer_4/layer_normalization_10/moments/mean/reduction_indices", "op": "Const", "attr": {"value": {"tensor": {"dtype": "DT_INT32", "tensorShape": {"dim": [{"size": "1"}]}}}, "dtype": {"type": "DT_INT32"}}}, {"name": "StatefulPartitionedCall/MobileViT-v3_v2_0.75/MobileViTBlock-2/sequential_14/transformer_4/layer_normalization_10/moments/variance/reduction_indices", "op": "Const", "attr": {"value": {"tensor": {"dtype": "DT_INT32", "tensorShape": {"dim": [{"size": "1"}]}}}, "dtype": {"type": "DT_INT32"}}}, {"name": "StatefulPartitionedCall/MobileViT-v3_v2_0.75/MobileViTBlock-2/sequential_14/transformer_4/layer_normalization_10/batchnorm/add/y", "op": "Const", "attr": {"dtype": {"type": "DT_FLOAT"}, "value": {"tensor": {"dtype": "DT_FLOAT", "tensorShape": {}}}}}, {"name": "StatefulPartitionedCall/MobileViT-v3_v2_0.75/MobileViTBlock-2/sequential_14/transformer_4/layer_normalization_10/batchnorm/mul/ReadVariableOp", "op": "Const", "attr": {"dtype": {"type": "DT_FLOAT"}, "value": {"tensor": {"dtype": "DT_FLOAT", "tensorShape": {"dim": [{"size": "144"}]}}}}}, {"name": "StatefulPartitionedCall/MobileViT-v3_v2_0.75/MobileViTBlock-2/sequential_14/transformer_4/sequential_12/dense_8/Tensordot/free", "op": "Const", "attr": {"value": {"tensor": {"dtype": "DT_INT32", "tensorShape": {"dim": [{"size": "3"}]}}}, "dtype": {"type": "DT_INT32"}}}, {"name": "StatefulPartitionedCall/MobileViT-v3_v2_0.75/MobileViTBlock-2/sequential_14/transformer_4/sequential_12/dense_8/Tensordot/GatherV2/axis", "op": "Const", "attr": {"value": {"tensor": {"dtype": "DT_INT32", "tensorShape": {}}}, "dtype": {"type": "DT_INT32"}}}, {"name": "StatefulPartitionedCall/MobileViT-v3_v2_0.75/MobileViTBlock-2/sequential_14/transformer_4/sequential_12/dense_8/Tensordot/Const_2", "op": "Const", "attr": {"value": {"tensor": {"dtype": "DT_INT32", "tensorShape": {"dim": [{"size": "1"}]}}}, "dtype": {"type": "DT_INT32"}}}, {"name": "StatefulPartitionedCall/MobileViT-v3_v2_0.75/MobileViTBlock-2/sequential_14/transformer_4/sequential_12/dense_8/Tensordot/concat_1/axis", "op": "Const", "attr": {"dtype": {"type": "DT_INT32"}, "value": {"tensor": {"dtype": "DT_INT32", "tensorShape": {}}}}}, {"name": "StatefulPartitionedCall/MobileViT-v3_v2_0.75/MobileViTBlock-2/sequential_14/transformer_4/sequential_12/dense_8/BiasAdd/Cast", "op": "Const", "attr": {"value": {"tensor": {"dtype": "DT_HALF", "tensorShape": {"dim": [{"size": "288"}]}}}, "dtype": {"type": "DT_HALF"}}}, {"name": "StatefulPartitionedCall/MobileViT-v3_v2_0.75/MobileViTBlock-2/sequential_14/transformer_4/sequential_12/dense_9/Tensordot/free", "op": "Const", "attr": {"value": {"tensor": {"dtype": "DT_INT32", "tensorShape": {"dim": [{"size": "3"}]}}}, "dtype": {"type": "DT_INT32"}}}, {"name": "StatefulPartitionedCall/MobileViT-v3_v2_0.75/MobileViTBlock-2/sequential_14/transformer_4/sequential_12/dense_9/Tensordot/GatherV2/axis", "op": "Const", "attr": {"dtype": {"type": "DT_INT32"}, "value": {"tensor": {"dtype": "DT_INT32", "tensorShape": {}}}}}, {"name": "StatefulPartitionedCall/MobileViT-v3_v2_0.75/MobileViTBlock-2/sequential_14/transformer_4/sequential_12/dense_9/Tensordot/Const_2", "op": "Const", "attr": {"value": {"tensor": {"dtype": "DT_INT32", "tensorShape": {"dim": [{"size": "1"}]}}}, "dtype": {"type": "DT_INT32"}}}, {"name": "StatefulPartitionedCall/MobileViT-v3_v2_0.75/MobileViTBlock-2/sequential_14/transformer_4/sequential_12/dense_9/Tensordot/concat_1/axis", "op": "Const", "attr": {"value": {"tensor": {"dtype": "DT_INT32", "tensorShape": {}}}, "dtype": {"type": "DT_INT32"}}}, {"name": "StatefulPartitionedCall/MobileViT-v3_v2_0.75/MobileViTBlock-2/sequential_14/transformer_4/sequential_12/dense_9/BiasAdd/Cast", "op": "Const", "attr": {"dtype": {"type": "DT_HALF"}, "value": {"tensor": {"dtype": "DT_HALF", "tensorShape": {"dim": [{"size": "144"}]}}}}}, {"name": "StatefulPartitionedCall/MobileViT-v3_v2_0.75/MobileViTBlock-2/sequential_14/transformer_5/layer_normalization_11/moments/mean/reduction_indices", "op": "Const", "attr": {"dtype": {"type": "DT_INT32"}, "value": {"tensor": {"dtype": "DT_INT32", "tensorShape": {"dim": [{"size": "1"}]}}}}}, {"name": "StatefulPartitionedCall/MobileViT-v3_v2_0.75/MobileViTBlock-2/sequential_14/transformer_5/layer_normalization_11/moments/variance/reduction_indices", "op": "Const", "attr": {"value": {"tensor": {"dtype": "DT_INT32", "tensorShape": {"dim": [{"size": "1"}]}}}, "dtype": {"type": "DT_INT32"}}}, {"name": "StatefulPartitionedCall/MobileViT-v3_v2_0.75/MobileViTBlock-2/sequential_14/transformer_5/layer_normalization_11/batchnorm/add/y", "op": "Const", "attr": {"dtype": {"type": "DT_FLOAT"}, "value": {"tensor": {"dtype": "DT_FLOAT", "tensorShape": {}}}}}, {"name": "StatefulPartitionedCall/MobileViT-v3_v2_0.75/MobileViTBlock-2/sequential_14/transformer_5/layer_normalization_11/batchnorm/mul/ReadVariableOp", "op": "Const", "attr": {"value": {"tensor": {"dtype": "DT_FLOAT", "tensorShape": {"dim": [{"size": "144"}]}}}, "dtype": {"type": "DT_FLOAT"}}}, {"name": "StatefulPartitionedCall/MobileViT-v3_v2_0.75/MobileViTBlock-2/sequential_14/transformer_5/linear_self_attention_5/einsum_dense_10/einsum/Einsum/Cast", "op": "Const", "attr": {"dtype": {"type": "DT_HALF"}, "value": {"tensor": {"dtype": "DT_HALF", "tensorShape": {"dim": [{"size": "144"}, {"size": "289"}]}}}}}, {"name": "StatefulPartitionedCall/MobileViT-v3_v2_0.75/MobileViTBlock-2/sequential_14/transformer_5/linear_self_attention_5/einsum_dense_10/add/Cast", "op": "Const", "attr": {"value": {"tensor": {"dtype": "DT_HALF", "tensorShape": {"dim": [{"size": "289"}]}}}, "dtype": {"type": "DT_HALF"}}}, {"name": "StatefulPartitionedCall/MobileViT-v3_v2_0.75/MobileViTBlock-2/sequential_14/transformer_5/linear_self_attention_5/Const", "op": "Const", "attr": {"dtype": {"type": "DT_INT32"}, "value": {"tensor": {"dtype": "DT_INT32", "tensorShape": {"dim": [{"size": "3"}]}}}}}, {"name": "StatefulPartitionedCall/MobileViT-v3_v2_0.75/MobileViTBlock-2/sequential_14/transformer_5/linear_self_attention_5/split/split_dim", "op": "Const", "attr": {"dtype": {"type": "DT_INT32"}, "value": {"tensor": {"dtype": "DT_INT32", "tensorShape": {}}}}}, {"name": "StatefulPartitionedCall/MobileViT-v3_v2_0.75/MobileViTBlock-2/sequential_14/transformer_5/linear_self_attention_5/concat", "op": "Const", "attr": {"value": {"tensor": {"dtype": "DT_INT32", "tensorShape": {"dim": [{"size": "4"}]}}}, "dtype": {"type": "DT_INT32"}}}, {"name": "StatefulPartitionedCall/MobileViT-v3_v2_0.75/MobileViTBlock-2/sequential_14/transformer_5/linear_self_attention_5/concat_1", "op": "Const", "attr": {"dtype": {"type": "DT_INT32"}, "value": {"tensor": {"dtype": "DT_INT32", "tensorShape": {"dim": [{"size": "4"}]}}}}}, {"name": "StatefulPartitionedCall/MobileViT-v3_v2_0.75/MobileViTBlock-2/sequential_14/transformer_5/linear_self_attention_5/Sum/reduction_indices", "op": "Const", "attr": {"dtype": {"type": "DT_INT32"}, "value": {"tensor": {"dtype": "DT_INT32", "tensorShape": {}}}}}, {"name": "StatefulPartitionedCall/MobileViT-v3_v2_0.75/MobileViTBlock-2/sequential_14/transformer_5/linear_self_attention_5/einsum_dense_11/einsum/Einsum/Cast", "op": "Const", "attr": {"value": {"tensor": {"dtype": "DT_HALF", "tensorShape": {"dim": [{"size": "144"}, {"size": "144"}]}}}, "dtype": {"type": "DT_HALF"}}}, {"name": "StatefulPartitionedCall/MobileViT-v3_v2_0.75/MobileViTBlock-2/sequential_14/transformer_5/layer_normalization_12/moments/mean/reduction_indices", "op": "Const", "attr": {"dtype": {"type": "DT_INT32"}, "value": {"tensor": {"dtype": "DT_INT32", "tensorShape": {"dim": [{"size": "1"}]}}}}}, {"name": "StatefulPartitionedCall/MobileViT-v3_v2_0.75/MobileViTBlock-2/sequential_14/transformer_5/layer_normalization_12/moments/variance/reduction_indices", "op": "Const", "attr": {"dtype": {"type": "DT_INT32"}, "value": {"tensor": {"dtype": "DT_INT32", "tensorShape": {"dim": [{"size": "1"}]}}}}}, {"name": "StatefulPartitionedCall/MobileViT-v3_v2_0.75/MobileViTBlock-2/sequential_14/transformer_5/layer_normalization_12/batchnorm/add/y", "op": "Const", "attr": {"value": {"tensor": {"dtype": "DT_FLOAT", "tensorShape": {}}}, "dtype": {"type": "DT_FLOAT"}}}, {"name": "StatefulPartitionedCall/MobileViT-v3_v2_0.75/MobileViTBlock-2/sequential_14/transformer_5/layer_normalization_12/batchnorm/mul/ReadVariableOp", "op": "Const", "attr": {"dtype": {"type": "DT_FLOAT"}, "value": {"tensor": {"dtype": "DT_FLOAT", "tensorShape": {"dim": [{"size": "144"}]}}}}}, {"name": "StatefulPartitionedCall/MobileViT-v3_v2_0.75/MobileViTBlock-2/sequential_14/transformer_5/sequential_13/dense_10/Tensordot/free", "op": "Const", "attr": {"dtype": {"type": "DT_INT32"}, "value": {"tensor": {"dtype": "DT_INT32", "tensorShape": {"dim": [{"size": "3"}]}}}}}, {"name": "StatefulPartitionedCall/MobileViT-v3_v2_0.75/MobileViTBlock-2/sequential_14/transformer_5/sequential_13/dense_10/Tensordot/GatherV2/axis", "op": "Const", "attr": {"dtype": {"type": "DT_INT32"}, "value": {"tensor": {"dtype": "DT_INT32", "tensorShape": {}}}}}, {"name": "StatefulPartitionedCall/MobileViT-v3_v2_0.75/MobileViTBlock-2/sequential_14/transformer_5/sequential_13/dense_10/Tensordot/Const_2", "op": "Const", "attr": {"value": {"tensor": {"dtype": "DT_INT32", "tensorShape": {"dim": [{"size": "1"}]}}}, "dtype": {"type": "DT_INT32"}}}, {"name": "StatefulPartitionedCall/MobileViT-v3_v2_0.75/MobileViTBlock-2/sequential_14/transformer_5/sequential_13/dense_10/Tensordot/concat_1/axis", "op": "Const", "attr": {"value": {"tensor": {"dtype": "DT_INT32", "tensorShape": {}}}, "dtype": {"type": "DT_INT32"}}}, {"name": "StatefulPartitionedCall/MobileViT-v3_v2_0.75/MobileViTBlock-2/sequential_14/transformer_5/sequential_13/dense_10/BiasAdd/Cast", "op": "Const", "attr": {"value": {"tensor": {"dtype": "DT_HALF", "tensorShape": {"dim": [{"size": "288"}]}}}, "dtype": {"type": "DT_HALF"}}}, {"name": "StatefulPartitionedCall/MobileViT-v3_v2_0.75/MobileViTBlock-2/sequential_14/transformer_5/sequential_13/dense_11/Tensordot/free", "op": "Const", "attr": {"value": {"tensor": {"dtype": "DT_INT32", "tensorShape": {"dim": [{"size": "3"}]}}}, "dtype": {"type": "DT_INT32"}}}, {"name": "StatefulPartitionedCall/MobileViT-v3_v2_0.75/MobileViTBlock-2/sequential_14/transformer_5/sequential_13/dense_11/Tensordot/GatherV2/axis", "op": "Const", "attr": {"value": {"tensor": {"dtype": "DT_INT32", "tensorShape": {}}}, "dtype": {"type": "DT_INT32"}}}, {"name": "StatefulPartitionedCall/MobileViT-v3_v2_0.75/MobileViTBlock-2/sequential_14/transformer_5/sequential_13/dense_11/Tensordot/Const_2", "op": "Const", "attr": {"value": {"tensor": {"dtype": "DT_INT32", "tensorShape": {"dim": [{"size": "1"}]}}}, "dtype": {"type": "DT_INT32"}}}, {"name": "StatefulPartitionedCall/MobileViT-v3_v2_0.75/MobileViTBlock-2/sequential_14/transformer_5/sequential_13/dense_11/Tensordot/concat_1/axis", "op": "Const", "attr": {"dtype": {"type": "DT_INT32"}, "value": {"tensor": {"dtype": "DT_INT32", "tensorShape": {}}}}}, {"name": "StatefulPartitionedCall/MobileViT-v3_v2_0.75/MobileViTBlock-2/sequential_14/transformer_5/sequential_13/dense_11/BiasAdd/Cast", "op": "Const", "attr": {"value": {"tensor": {"dtype": "DT_HALF", "tensorShape": {"dim": [{"size": "144"}]}}}, "dtype": {"type": "DT_HALF"}}}, {"name": "StatefulPartitionedCall/MobileViT-v3_v2_0.75/MobileViTBlock-2/sequential_14/layer_normalization_13/moments/mean/reduction_indices", "op": "Const", "attr": {"value": {"tensor": {"dtype": "DT_INT32", "tensorShape": {"dim": [{"size": "1"}]}}}, "dtype": {"type": "DT_INT32"}}}, {"name": "StatefulPartitionedCall/MobileViT-v3_v2_0.75/MobileViTBlock-2/sequential_14/layer_normalization_13/moments/variance/reduction_indices", "op": "Const", "attr": {"dtype": {"type": "DT_INT32"}, "value": {"tensor": {"dtype": "DT_INT32", "tensorShape": {"dim": [{"size": "1"}]}}}}}, {"name": "StatefulPartitionedCall/MobileViT-v3_v2_0.75/MobileViTBlock-2/sequential_14/layer_normalization_13/batchnorm/add/y", "op": "Const", "attr": {"dtype": {"type": "DT_FLOAT"}, "value": {"tensor": {"dtype": "DT_FLOAT", "tensorShape": {}}}}}, {"name": "StatefulPartitionedCall/MobileViT-v3_v2_0.75/MobileViTBlock-2/sequential_14/layer_normalization_13/batchnorm/mul/ReadVariableOp", "op": "Const", "attr": {"dtype": {"type": "DT_FLOAT"}, "value": {"tensor": {"dtype": "DT_FLOAT", "tensorShape": {"dim": [{"size": "144"}]}}}}}, {"name": "StatefulPartitionedCall/MobileViT-v3_v2_0.75/MobileViTBlock-2/transpose_2/perm", "op": "Const", "attr": {"dtype": {"type": "DT_INT32"}, "value": {"tensor": {"dtype": "DT_INT32", "tensorShape": {"dim": [{"size": "4"}]}}}}}, {"name": "StatefulPartitionedCall/MobileViT-v3_v2_0.75/MobileViTBlock-2/mul_5", "op": "Const", "attr": {"value": {"tensor": {"dtype": "DT_INT32", "tensorShape": {}}}, "dtype": {"type": "DT_INT32"}}}, {"name": "StatefulPartitionedCall/MobileViT-v3_v2_0.75/MobileViTBlock-2/transpose_3/perm", "op": "Const", "attr": {"dtype": {"type": "DT_INT32"}, "value": {"tensor": {"dtype": "DT_INT32", "tensorShape": {"dim": [{"size": "4"}]}}}}}, {"name": "StatefulPartitionedCall/MobileViT-v3_v2_0.75/MobileViTBlock-2/strided_slice/stack", "op": "Const", "attr": {"dtype": {"type": "DT_INT32"}, "value": {"tensor": {"dtype": "DT_INT32", "tensorShape": {"dim": [{"size": "1"}]}}}}}, {"name": "StatefulPartitionedCall/MobileViT-v3_v2_0.75/MobileViTBlock-2/strided_slice/stack_1", "op": "Const", "attr": {"value": {"tensor": {"dtype": "DT_INT32", "tensorShape": {"dim": [{"size": "1"}]}}}, "dtype": {"type": "DT_INT32"}}}, {"name": "StatefulPartitionedCall/MobileViT-v3_v2_0.75/MobileViTBlock-2/strided_slice/stack_2", "op": "Const", "attr": {"value": {"tensor": {"dtype": "DT_INT32", "tensorShape": {"dim": [{"size": "1"}]}}}, "dtype": {"type": "DT_INT32"}}}, {"name": "StatefulPartitionedCall/MobileViT-v3_v2_0.75/MobileViTBlock-2/strided_slice_1/stack", "op": "Const", "attr": {"dtype": {"type": "DT_INT32"}, "value": {"tensor": {"dtype": "DT_INT32", "tensorShape": {"dim": [{"size": "1"}]}}}}}, {"name": "StatefulPartitionedCall/MobileViT-v3_v2_0.75/MobileViTBlock-2/strided_slice_1/stack_1", "op": "Const", "attr": {"value": {"tensor": {"dtype": "DT_INT32", "tensorShape": {"dim": [{"size": "1"}]}}}, "dtype": {"type": "DT_INT32"}}}, {"name": "StatefulPartitionedCall/MobileViT-v3_v2_0.75/MobileViTBlock-2/strided_slice_1/stack_2", "op": "Const", "attr": {"dtype": {"type": "DT_INT32"}, "value": {"tensor": {"dtype": "DT_INT32", "tensorShape": {"dim": [{"size": "1"}]}}}}}, {"name": "unknown_124", "op": "Const", "attr": {"dtype": {"type": "DT_INT32"}, "value": {"tensor": {"dtype": "DT_INT32", "tensorShape": {}}}}}, {"name": "StatefulPartitionedCall/MobileViT-v3_v2_0.75/MobileViTBlock-2/strided_slice_2/stack", "op": "Const", "attr": {"value": {"tensor": {"dtype": "DT_INT32", "tensorShape": {"dim": [{"size": "1"}]}}}, "dtype": {"type": "DT_INT32"}}}, {"name": "StatefulPartitionedCall/MobileViT-v3_v2_0.75/MobileViTBlock-2/strided_slice_2/stack_1", "op": "Const", "attr": {"value": {"tensor": {"dtype": "DT_INT32", "tensorShape": {"dim": [{"size": "1"}]}}}, "dtype": {"type": "DT_INT32"}}}, {"name": "StatefulPartitionedCall/MobileViT-v3_v2_0.75/MobileViTBlock-2/strided_slice_2/stack_2", "op": "Const", "attr": {"dtype": {"type": "DT_INT32"}, "value": {"tensor": {"dtype": "DT_INT32", "tensorShape": {"dim": [{"size": "1"}]}}}}}, {"name": "unknown_125", "op": "Const", "attr": {"dtype": {"type": "DT_INT32"}, "value": {"tensor": {"dtype": "DT_INT32", "tensorShape": {}}}}}, {"name": "StatefulPartitionedCall/MobileViT-v3_v2_0.75/MobileViTBlock-2/Reshape_3/shape/3", "op": "Const", "attr": {"value": {"tensor": {"dtype": "DT_INT32", "tensorShape": {}}}, "dtype": {"type": "DT_INT32"}}}, {"name": "StatefulPartitionedCall/MobileViT-v3_v2_0.75/MobileViTBlock-1/sequential_7/layer_normalization_4/batchnorm/ReadVariableOp", "op": "Const", "attr": {"dtype": {"type": "DT_FLOAT"}, "value": {"tensor": {"dtype": "DT_FLOAT", "tensorShape": {"dim": [{"size": "96"}]}}}}}, {"name": "StatefulPartitionedCall/MobileViT-v3_v2_0.75/MobileViTBlock-1/sequential_7/transformer_1/sequential_6/dense_3/Tensordot/Const", "op": "Const", "attr": {"value": {"tensor": {"dtype": "DT_INT32", "tensorShape": {"dim": [{"size": "1"}]}}}, "dtype": {"type": "DT_INT32"}}}, {"name": "StatefulPartitionedCall/MobileViT-v3_v2_0.75/MobileViTBlock-1/sequential_7/transformer_1/sequential_6/dense_3/Tensordot/axes", "op": "Const", "attr": {"value": {"tensor": {"dtype": "DT_INT32", "tensorShape": {"dim": [{"size": "1"}]}}}, "dtype": {"type": "DT_INT32"}}}, {"name": "StatefulPartitionedCall/MobileViT-v3_v2_0.75/MobileViTBlock-1/sequential_7/transformer_1/sequential_6/dense_3/Tensordot/GatherV2_1/axis", "op": "Const", "attr": {"dtype": {"type": "DT_INT32"}, "value": {"tensor": {"dtype": "DT_INT32", "tensorShape": {}}}}}, {"name": "StatefulPartitionedCall/MobileViT-v3_v2_0.75/MobileViTBlock-1/sequential_7/transformer_1/sequential_6/dense_3/Tensordot/Const_1", "op": "Const", "attr": {"value": {"tensor": {"dtype": "DT_INT32", "tensorShape": {"dim": [{"size": "1"}]}}}, "dtype": {"type": "DT_INT32"}}}, {"name": "StatefulPartitionedCall/MobileViT-v3_v2_0.75/MobileViTBlock-1/sequential_7/transformer_1/sequential_6/dense_3/Tensordot/Cast", "op": "Const", "attr": {"value": {"tensor": {"dtype": "DT_HALF", "tensorShape": {"dim": [{"size": "192"}, {"size": "96"}]}}}, "dtype": {"type": "DT_HALF"}}}, {"name": "StatefulPartitionedCall/MobileViT-v3_v2_0.75/MobileViTBlock-1/sequential_7/transformer_1/sequential_6/dense_2/Tensordot/Const", "op": "Const", "attr": {"value": {"tensor": {"dtype": "DT_INT32", "tensorShape": {"dim": [{"size": "1"}]}}}, "dtype": {"type": "DT_INT32"}}}, {"name": "StatefulPartitionedCall/MobileViT-v3_v2_0.75/MobileViTBlock-1/sequential_7/transformer_1/sequential_6/dense_2/Tensordot/axes", "op": "Const", "attr": {"dtype": {"type": "DT_INT32"}, "value": {"tensor": {"dtype": "DT_INT32", "tensorShape": {"dim": [{"size": "1"}]}}}}}, {"name": "StatefulPartitionedCall/MobileViT-v3_v2_0.75/MobileViTBlock-1/sequential_7/transformer_1/sequential_6/dense_2/Tensordot/GatherV2_1/axis", "op": "Const", "attr": {"value": {"tensor": {"dtype": "DT_INT32", "tensorShape": {}}}, "dtype": {"type": "DT_INT32"}}}, {"name": "StatefulPartitionedCall/MobileViT-v3_v2_0.75/MobileViTBlock-1/sequential_7/transformer_1/sequential_6/dense_2/Tensordot/Const_1", "op": "Const", "attr": {"value": {"tensor": {"dtype": "DT_INT32", "tensorShape": {"dim": [{"size": "1"}]}}}, "dtype": {"type": "DT_INT32"}}}, {"name": "StatefulPartitionedCall/MobileViT-v3_v2_0.75/MobileViTBlock-1/sequential_7/transformer_1/sequential_6/dense_2/Tensordot/Cast", "op": "Const", "attr": {"value": {"tensor": {"dtype": "DT_HALF", "tensorShape": {"dim": [{"size": "96"}, {"size": "192"}]}}}, "dtype": {"type": "DT_HALF"}}}, {"name": "StatefulPartitionedCall/MobileViT-v3_v2_0.75/MobileViTBlock-1/sequential_7/transformer_1/layer_normalization_3/batchnorm/ReadVariableOp", "op": "Const", "attr": {"dtype": {"type": "DT_FLOAT"}, "value": {"tensor": {"dtype": "DT_FLOAT", "tensorShape": {"dim": [{"size": "96"}]}}}}}, {"name": "StatefulPartitionedCall/MobileViT-v3_v2_0.75/MobileViTBlock-1/sequential_7/transformer_1/linear_self_attention_1/einsum_dense_3/add/Cast", "op": "Const", "attr": {"dtype": {"type": "DT_HALF"}, "value": {"tensor": {"dtype": "DT_HALF", "tensorShape": {"dim": [{"size": "96"}]}}}}}, {"name": "StatefulPartitionedCall/MobileViT-v3_v2_0.75/MobileViTBlock-1/sequential_7/transformer_1/layer_normalization_2/batchnorm/ReadVariableOp", "op": "Const", "attr": {"dtype": {"type": "DT_FLOAT"}, "value": {"tensor": {"dtype": "DT_FLOAT", "tensorShape": {"dim": [{"size": "96"}]}}}}}, {"name": "StatefulPartitionedCall/MobileViT-v3_v2_0.75/MobileViTBlock-1/sequential_7/transformer/sequential_5/dense_1/Tensordot/Const", "op": "Const", "attr": {"value": {"tensor": {"dtype": "DT_INT32", "tensorShape": {"dim": [{"size": "1"}]}}}, "dtype": {"type": "DT_INT32"}}}, {"name": "StatefulPartitionedCall/MobileViT-v3_v2_0.75/MobileViTBlock-1/sequential_7/transformer/sequential_5/dense_1/Tensordot/axes", "op": "Const", "attr": {"value": {"tensor": {"dtype": "DT_INT32", "tensorShape": {"dim": [{"size": "1"}]}}}, "dtype": {"type": "DT_INT32"}}}, {"name": "StatefulPartitionedCall/MobileViT-v3_v2_0.75/MobileViTBlock-1/sequential_7/transformer/sequential_5/dense_1/Tensordot/GatherV2_1/axis", "op": "Const", "attr": {"value": {"tensor": {"dtype": "DT_INT32", "tensorShape": {}}}, "dtype": {"type": "DT_INT32"}}}, {"name": "StatefulPartitionedCall/MobileViT-v3_v2_0.75/MobileViTBlock-1/sequential_7/transformer/sequential_5/dense_1/Tensordot/Const_1", "op": "Const", "attr": {"dtype": {"type": "DT_INT32"}, "value": {"tensor": {"dtype": "DT_INT32", "tensorShape": {"dim": [{"size": "1"}]}}}}}, {"name": "StatefulPartitionedCall/MobileViT-v3_v2_0.75/MobileViTBlock-1/sequential_7/transformer/sequential_5/dense_1/Tensordot/Cast", "op": "Const", "attr": {"value": {"tensor": {"dtype": "DT_HALF", "tensorShape": {"dim": [{"size": "192"}, {"size": "96"}]}}}, "dtype": {"type": "DT_HALF"}}}, {"name": "StatefulPartitionedCall/MobileViT-v3_v2_0.75/MobileViTBlock-1/sequential_7/transformer/sequential_5/dense/Tensordot/Const", "op": "Const", "attr": {"dtype": {"type": "DT_INT32"}, "value": {"tensor": {"dtype": "DT_INT32", "tensorShape": {"dim": [{"size": "1"}]}}}}}, {"name": "StatefulPartitionedCall/MobileViT-v3_v2_0.75/MobileViTBlock-1/sequential_7/transformer/sequential_5/dense/Tensordot/axes", "op": "Const", "attr": {"dtype": {"type": "DT_INT32"}, "value": {"tensor": {"dtype": "DT_INT32", "tensorShape": {"dim": [{"size": "1"}]}}}}}, {"name": "StatefulPartitionedCall/MobileViT-v3_v2_0.75/MobileViTBlock-1/sequential_7/transformer/sequential_5/dense/Tensordot/GatherV2_1/axis", "op": "Const", "attr": {"value": {"tensor": {"dtype": "DT_INT32", "tensorShape": {}}}, "dtype": {"type": "DT_INT32"}}}, {"name": "StatefulPartitionedCall/MobileViT-v3_v2_0.75/MobileViTBlock-1/sequential_7/transformer/sequential_5/dense/Tensordot/Const_1", "op": "Const", "attr": {"value": {"tensor": {"dtype": "DT_INT32", "tensorShape": {"dim": [{"size": "1"}]}}}, "dtype": {"type": "DT_INT32"}}}, {"name": "StatefulPartitionedCall/MobileViT-v3_v2_0.75/MobileViTBlock-1/sequential_7/transformer/sequential_5/dense/Tensordot/Cast", "op": "Const", "attr": {"value": {"tensor": {"dtype": "DT_HALF", "tensorShape": {"dim": [{"size": "96"}, {"size": "192"}]}}}, "dtype": {"type": "DT_HALF"}}}, {"name": "StatefulPartitionedCall/MobileViT-v3_v2_0.75/MobileViTBlock-1/sequential_7/transformer/layer_normalization_1/batchnorm/ReadVariableOp", "op": "Const", "attr": {"value": {"tensor": {"dtype": "DT_FLOAT", "tensorShape": {"dim": [{"size": "96"}]}}}, "dtype": {"type": "DT_FLOAT"}}}, {"name": "StatefulPartitionedCall/MobileViT-v3_v2_0.75/MobileViTBlock-1/sequential_7/transformer/linear_self_attention/einsum_dense_1/add/Cast", "op": "Const", "attr": {"dtype": {"type": "DT_HALF"}, "value": {"tensor": {"dtype": "DT_HALF", "tensorShape": {"dim": [{"size": "96"}]}}}}}, {"name": "StatefulPartitionedCall/MobileViT-v3_v2_0.75/MobileViTBlock-1/sequential_7/transformer/layer_normalization/batchnorm/ReadVariableOp", "op": "Const", "attr": {"dtype": {"type": "DT_FLOAT"}, "value": {"tensor": {"dtype": "DT_FLOAT", "tensorShape": {"dim": [{"size": "96"}]}}}}}, {"name": "StatefulPartitionedCall/MobileViT-v3_v2_0.75/MobileViTBlock-1/mul_1", "op": "Const", "attr": {"value": {"tensor": {"dtype": "DT_INT32", "tensorShape": {}}}, "dtype": {"type": "DT_INT32"}}}, {"name": "StatefulPartitionedCall/MobileViT-v3_v2_0.75/MobileViTBlock-1/transpose/perm", "op": "Const", "attr": {"dtype": {"type": "DT_INT32"}, "value": {"tensor": {"dtype": "DT_INT32", "tensorShape": {"dim": [{"size": "4"}]}}}}}, {"name": "StatefulPartitionedCall/MobileViT-v3_v2_0.75/MobileViTBlock-1/mul_3", "op": "Const", "attr": {"value": {"tensor": {"dtype": "DT_INT32", "tensorShape": {}}}, "dtype": {"type": "DT_INT32"}}}, {"name": "StatefulPartitionedCall/MobileViT-v3_v2_0.75/MobileViTBlock-1/Reshape_1/shape/3", "op": "Const", "attr": {"dtype": {"type": "DT_INT32"}, "value": {"tensor": {"dtype": "DT_INT32", "tensorShape": {}}}}}, {"name": "StatefulPartitionedCall/MobileViT-v3_v2_0.75/MobileViTBlock-1/transpose_1/perm", "op": "Const", "attr": {"dtype": {"type": "DT_INT32"}, "value": {"tensor": {"dtype": "DT_INT32", "tensorShape": {"dim": [{"size": "4"}]}}}}}, {"name": "StatefulPartitionedCall/MobileViT-v3_v2_0.75/MobileViTBlock-1/sequential_7/transformer/layer_normalization/moments/mean/reduction_indices", "op": "Const", "attr": {"dtype": {"type": "DT_INT32"}, "value": {"tensor": {"dtype": "DT_INT32", "tensorShape": {"dim": [{"size": "1"}]}}}}}, {"name": "StatefulPartitionedCall/MobileViT-v3_v2_0.75/MobileViTBlock-1/sequential_7/transformer/layer_normalization/moments/variance/reduction_indices", "op": "Const", "attr": {"dtype": {"type": "DT_INT32"}, "value": {"tensor": {"dtype": "DT_INT32", "tensorShape": {"dim": [{"size": "1"}]}}}}}, {"name": "StatefulPartitionedCall/MobileViT-v3_v2_0.75/MobileViTBlock-1/sequential_7/transformer/layer_normalization/batchnorm/add/y", "op": "Const", "attr": {"dtype": {"type": "DT_FLOAT"}, "value": {"tensor": {"dtype": "DT_FLOAT", "tensorShape": {}}}}}, {"name": "StatefulPartitionedCall/MobileViT-v3_v2_0.75/MobileViTBlock-1/sequential_7/transformer/layer_normalization/batchnorm/mul/ReadVariableOp", "op": "Const", "attr": {"value": {"tensor": {"dtype": "DT_FLOAT", "tensorShape": {"dim": [{"size": "96"}]}}}, "dtype": {"type": "DT_FLOAT"}}}, {"name": "StatefulPartitionedCall/MobileViT-v3_v2_0.75/MobileViTBlock-1/sequential_7/transformer/linear_self_attention/einsum_dense/einsum/Einsum/Cast", "op": "Const", "attr": {"value": {"tensor": {"dtype": "DT_HALF", "tensorShape": {"dim": [{"size": "96"}, {"size": "193"}]}}}, "dtype": {"type": "DT_HALF"}}}, {"name": "StatefulPartitionedCall/MobileViT-v3_v2_0.75/MobileViTBlock-1/sequential_7/transformer/linear_self_attention/einsum_dense/add/Cast", "op": "Const", "attr": {"dtype": {"type": "DT_HALF"}, "value": {"tensor": {"dtype": "DT_HALF", "tensorShape": {"dim": [{"size": "193"}]}}}}}, {"name": "StatefulPartitionedCall/MobileViT-v3_v2_0.75/MobileViTBlock-1/sequential_7/transformer/linear_self_attention/Const", "op": "Const", "attr": {"dtype": {"type": "DT_INT32"}, "value": {"tensor": {"dtype": "DT_INT32", "tensorShape": {"dim": [{"size": "3"}]}}}}}, {"name": "StatefulPartitionedCall/MobileViT-v3_v2_0.75/MobileViTBlock-1/sequential_7/transformer/linear_self_attention/split/split_dim", "op": "Const", "attr": {"value": {"tensor": {"dtype": "DT_INT32", "tensorShape": {}}}, "dtype": {"type": "DT_INT32"}}}, {"name": "StatefulPartitionedCall/MobileViT-v3_v2_0.75/MobileViTBlock-1/sequential_7/transformer/linear_self_attention/concat", "op": "Const", "attr": {"value": {"tensor": {"dtype": "DT_INT32", "tensorShape": {"dim": [{"size": "4"}]}}}, "dtype": {"type": "DT_INT32"}}}, {"name": "StatefulPartitionedCall/MobileViT-v3_v2_0.75/MobileViTBlock-1/sequential_7/transformer/linear_self_attention/concat_1", "op": "Const", "attr": {"dtype": {"type": "DT_INT32"}, "value": {"tensor": {"dtype": "DT_INT32", "tensorShape": {"dim": [{"size": "4"}]}}}}}, {"name": "StatefulPartitionedCall/MobileViT-v3_v2_0.75/MobileViTBlock-1/sequential_7/transformer/linear_self_attention/Sum/reduction_indices", "op": "Const", "attr": {"value": {"tensor": {"dtype": "DT_INT32", "tensorShape": {}}}, "dtype": {"type": "DT_INT32"}}}, {"name": "StatefulPartitionedCall/MobileViT-v3_v2_0.75/MobileViTBlock-1/sequential_7/transformer/linear_self_attention/einsum_dense_1/einsum/Einsum/Cast", "op": "Const", "attr": {"value": {"tensor": {"dtype": "DT_HALF", "tensorShape": {"dim": [{"size": "96"}, {"size": "96"}]}}}, "dtype": {"type": "DT_HALF"}}}, {"name": "StatefulPartitionedCall/MobileViT-v3_v2_0.75/MobileViTBlock-1/sequential_7/transformer/layer_normalization_1/moments/mean/reduction_indices", "op": "Const", "attr": {"dtype": {"type": "DT_INT32"}, "value": {"tensor": {"dtype": "DT_INT32", "tensorShape": {"dim": [{"size": "1"}]}}}}}, {"name": "StatefulPartitionedCall/MobileViT-v3_v2_0.75/MobileViTBlock-1/sequential_7/transformer/layer_normalization_1/moments/variance/reduction_indices", "op": "Const", "attr": {"value": {"tensor": {"dtype": "DT_INT32", "tensorShape": {"dim": [{"size": "1"}]}}}, "dtype": {"type": "DT_INT32"}}}, {"name": "StatefulPartitionedCall/MobileViT-v3_v2_0.75/MobileViTBlock-1/sequential_7/transformer/layer_normalization_1/batchnorm/add/y", "op": "Const", "attr": {"dtype": {"type": "DT_FLOAT"}, "value": {"tensor": {"dtype": "DT_FLOAT", "tensorShape": {}}}}}, {"name": "StatefulPartitionedCall/MobileViT-v3_v2_0.75/MobileViTBlock-1/sequential_7/transformer/layer_normalization_1/batchnorm/mul/ReadVariableOp", "op": "Const", "attr": {"dtype": {"type": "DT_FLOAT"}, "value": {"tensor": {"dtype": "DT_FLOAT", "tensorShape": {"dim": [{"size": "96"}]}}}}}, {"name": "StatefulPartitionedCall/MobileViT-v3_v2_0.75/MobileViTBlock-1/sequential_7/transformer/sequential_5/dense/Tensordot/free", "op": "Const", "attr": {"dtype": {"type": "DT_INT32"}, "value": {"tensor": {"dtype": "DT_INT32", "tensorShape": {"dim": [{"size": "3"}]}}}}}, {"name": "StatefulPartitionedCall/MobileViT-v3_v2_0.75/MobileViTBlock-1/sequential_7/transformer/sequential_5/dense/Tensordot/GatherV2/axis", "op": "Const", "attr": {"value": {"tensor": {"dtype": "DT_INT32", "tensorShape": {}}}, "dtype": {"type": "DT_INT32"}}}, {"name": "StatefulPartitionedCall/MobileViT-v3_v2_0.75/MobileViTBlock-1/sequential_7/transformer/sequential_5/dense/Tensordot/Const_2", "op": "Const", "attr": {"dtype": {"type": "DT_INT32"}, "value": {"tensor": {"dtype": "DT_INT32", "tensorShape": {"dim": [{"size": "1"}]}}}}}, {"name": "StatefulPartitionedCall/MobileViT-v3_v2_0.75/MobileViTBlock-1/sequential_7/transformer/sequential_5/dense/Tensordot/concat_1/axis", "op": "Const", "attr": {"dtype": {"type": "DT_INT32"}, "value": {"tensor": {"dtype": "DT_INT32", "tensorShape": {}}}}}, {"name": "StatefulPartitionedCall/MobileViT-v3_v2_0.75/MobileViTBlock-1/sequential_7/transformer/sequential_5/dense/BiasAdd/Cast", "op": "Const", "attr": {"value": {"tensor": {"dtype": "DT_HALF", "tensorShape": {"dim": [{"size": "192"}]}}}, "dtype": {"type": "DT_HALF"}}}, {"name": "StatefulPartitionedCall/MobileViT-v3_v2_0.75/MobileViTBlock-1/sequential_7/transformer/sequential_5/dense_1/Tensordot/free", "op": "Const", "attr": {"value": {"tensor": {"dtype": "DT_INT32", "tensorShape": {"dim": [{"size": "3"}]}}}, "dtype": {"type": "DT_INT32"}}}, {"name": "StatefulPartitionedCall/MobileViT-v3_v2_0.75/MobileViTBlock-1/sequential_7/transformer/sequential_5/dense_1/Tensordot/GatherV2/axis", "op": "Const", "attr": {"dtype": {"type": "DT_INT32"}, "value": {"tensor": {"dtype": "DT_INT32", "tensorShape": {}}}}}, {"name": "StatefulPartitionedCall/MobileViT-v3_v2_0.75/MobileViTBlock-1/sequential_7/transformer/sequential_5/dense_1/Tensordot/Const_2", "op": "Const", "attr": {"value": {"tensor": {"dtype": "DT_INT32", "tensorShape": {"dim": [{"size": "1"}]}}}, "dtype": {"type": "DT_INT32"}}}, {"name": "StatefulPartitionedCall/MobileViT-v3_v2_0.75/MobileViTBlock-1/sequential_7/transformer/sequential_5/dense_1/Tensordot/concat_1/axis", "op": "Const", "attr": {"dtype": {"type": "DT_INT32"}, "value": {"tensor": {"dtype": "DT_INT32", "tensorShape": {}}}}}, {"name": "StatefulPartitionedCall/MobileViT-v3_v2_0.75/MobileViTBlock-1/sequential_7/transformer/sequential_5/dense_1/BiasAdd/Cast", "op": "Const", "attr": {"value": {"tensor": {"dtype": "DT_HALF", "tensorShape": {"dim": [{"size": "96"}]}}}, "dtype": {"type": "DT_HALF"}}}, {"name": "StatefulPartitionedCall/MobileViT-v3_v2_0.75/MobileViTBlock-1/sequential_7/transformer_1/layer_normalization_2/moments/mean/reduction_indices", "op": "Const", "attr": {"value": {"tensor": {"dtype": "DT_INT32", "tensorShape": {"dim": [{"size": "1"}]}}}, "dtype": {"type": "DT_INT32"}}}, {"name": "StatefulPartitionedCall/MobileViT-v3_v2_0.75/MobileViTBlock-1/sequential_7/transformer_1/layer_normalization_2/moments/variance/reduction_indices", "op": "Const", "attr": {"dtype": {"type": "DT_INT32"}, "value": {"tensor": {"dtype": "DT_INT32", "tensorShape": {"dim": [{"size": "1"}]}}}}}, {"name": "StatefulPartitionedCall/MobileViT-v3_v2_0.75/MobileViTBlock-1/sequential_7/transformer_1/layer_normalization_2/batchnorm/add/y", "op": "Const", "attr": {"dtype": {"type": "DT_FLOAT"}, "value": {"tensor": {"dtype": "DT_FLOAT", "tensorShape": {}}}}}, {"name": "StatefulPartitionedCall/MobileViT-v3_v2_0.75/MobileViTBlock-1/sequential_7/transformer_1/layer_normalization_2/batchnorm/mul/ReadVariableOp", "op": "Const", "attr": {"value": {"tensor": {"dtype": "DT_FLOAT", "tensorShape": {"dim": [{"size": "96"}]}}}, "dtype": {"type": "DT_FLOAT"}}}, {"name": "StatefulPartitionedCall/MobileViT-v3_v2_0.75/MobileViTBlock-1/sequential_7/transformer_1/linear_self_attention_1/einsum_dense_2/einsum/Einsum/Cast", "op": "Const", "attr": {"value": {"tensor": {"dtype": "DT_HALF", "tensorShape": {"dim": [{"size": "96"}, {"size": "193"}]}}}, "dtype": {"type": "DT_HALF"}}}, {"name": "StatefulPartitionedCall/MobileViT-v3_v2_0.75/MobileViTBlock-1/sequential_7/transformer_1/linear_self_attention_1/einsum_dense_2/add/Cast", "op": "Const", "attr": {"value": {"tensor": {"dtype": "DT_HALF", "tensorShape": {"dim": [{"size": "193"}]}}}, "dtype": {"type": "DT_HALF"}}}, {"name": "StatefulPartitionedCall/MobileViT-v3_v2_0.75/MobileViTBlock-1/sequential_7/transformer_1/linear_self_attention_1/Const", "op": "Const", "attr": {"dtype": {"type": "DT_INT32"}, "value": {"tensor": {"dtype": "DT_INT32", "tensorShape": {"dim": [{"size": "3"}]}}}}}, {"name": "StatefulPartitionedCall/MobileViT-v3_v2_0.75/MobileViTBlock-1/sequential_7/transformer_1/linear_self_attention_1/split/split_dim", "op": "Const", "attr": {"dtype": {"type": "DT_INT32"}, "value": {"tensor": {"dtype": "DT_INT32", "tensorShape": {}}}}}, {"name": "StatefulPartitionedCall/MobileViT-v3_v2_0.75/MobileViTBlock-1/sequential_7/transformer_1/linear_self_attention_1/concat", "op": "Const", "attr": {"dtype": {"type": "DT_INT32"}, "value": {"tensor": {"dtype": "DT_INT32", "tensorShape": {"dim": [{"size": "4"}]}}}}}, {"name": "StatefulPartitionedCall/MobileViT-v3_v2_0.75/MobileViTBlock-1/sequential_7/transformer_1/linear_self_attention_1/concat_1", "op": "Const", "attr": {"value": {"tensor": {"dtype": "DT_INT32", "tensorShape": {"dim": [{"size": "4"}]}}}, "dtype": {"type": "DT_INT32"}}}, {"name": "StatefulPartitionedCall/MobileViT-v3_v2_0.75/MobileViTBlock-1/sequential_7/transformer_1/linear_self_attention_1/Sum/reduction_indices", "op": "Const", "attr": {"value": {"tensor": {"dtype": "DT_INT32", "tensorShape": {}}}, "dtype": {"type": "DT_INT32"}}}, {"name": "StatefulPartitionedCall/MobileViT-v3_v2_0.75/MobileViTBlock-1/sequential_7/transformer_1/linear_self_attention_1/einsum_dense_3/einsum/Einsum/Cast", "op": "Const", "attr": {"dtype": {"type": "DT_HALF"}, "value": {"tensor": {"dtype": "DT_HALF", "tensorShape": {"dim": [{"size": "96"}, {"size": "96"}]}}}}}, {"name": "StatefulPartitionedCall/MobileViT-v3_v2_0.75/MobileViTBlock-1/sequential_7/transformer_1/layer_normalization_3/moments/mean/reduction_indices", "op": "Const", "attr": {"dtype": {"type": "DT_INT32"}, "value": {"tensor": {"dtype": "DT_INT32", "tensorShape": {"dim": [{"size": "1"}]}}}}}, {"name": "StatefulPartitionedCall/MobileViT-v3_v2_0.75/MobileViTBlock-1/sequential_7/transformer_1/layer_normalization_3/moments/variance/reduction_indices", "op": "Const", "attr": {"dtype": {"type": "DT_INT32"}, "value": {"tensor": {"dtype": "DT_INT32", "tensorShape": {"dim": [{"size": "1"}]}}}}}, {"name": "StatefulPartitionedCall/MobileViT-v3_v2_0.75/MobileViTBlock-1/sequential_7/transformer_1/layer_normalization_3/batchnorm/add/y", "op": "Const", "attr": {"dtype": {"type": "DT_FLOAT"}, "value": {"tensor": {"dtype": "DT_FLOAT", "tensorShape": {}}}}}, {"name": "StatefulPartitionedCall/MobileViT-v3_v2_0.75/MobileViTBlock-1/sequential_7/transformer_1/layer_normalization_3/batchnorm/mul/ReadVariableOp", "op": "Const", "attr": {"value": {"tensor": {"dtype": "DT_FLOAT", "tensorShape": {"dim": [{"size": "96"}]}}}, "dtype": {"type": "DT_FLOAT"}}}, {"name": "StatefulPartitionedCall/MobileViT-v3_v2_0.75/MobileViTBlock-1/sequential_7/transformer_1/sequential_6/dense_2/Tensordot/free", "op": "Const", "attr": {"dtype": {"type": "DT_INT32"}, "value": {"tensor": {"dtype": "DT_INT32", "tensorShape": {"dim": [{"size": "3"}]}}}}}, {"name": "StatefulPartitionedCall/MobileViT-v3_v2_0.75/MobileViTBlock-1/sequential_7/transformer_1/sequential_6/dense_2/Tensordot/GatherV2/axis", "op": "Const", "attr": {"dtype": {"type": "DT_INT32"}, "value": {"tensor": {"dtype": "DT_INT32", "tensorShape": {}}}}}, {"name": "StatefulPartitionedCall/MobileViT-v3_v2_0.75/MobileViTBlock-1/sequential_7/transformer_1/sequential_6/dense_2/Tensordot/Const_2", "op": "Const", "attr": {"dtype": {"type": "DT_INT32"}, "value": {"tensor": {"dtype": "DT_INT32", "tensorShape": {"dim": [{"size": "1"}]}}}}}, {"name": "StatefulPartitionedCall/MobileViT-v3_v2_0.75/MobileViTBlock-1/sequential_7/transformer_1/sequential_6/dense_2/Tensordot/concat_1/axis", "op": "Const", "attr": {"dtype": {"type": "DT_INT32"}, "value": {"tensor": {"dtype": "DT_INT32", "tensorShape": {}}}}}, {"name": "StatefulPartitionedCall/MobileViT-v3_v2_0.75/MobileViTBlock-1/sequential_7/transformer_1/sequential_6/dense_2/BiasAdd/Cast", "op": "Const", "attr": {"value": {"tensor": {"dtype": "DT_HALF", "tensorShape": {"dim": [{"size": "192"}]}}}, "dtype": {"type": "DT_HALF"}}}, {"name": "StatefulPartitionedCall/MobileViT-v3_v2_0.75/MobileViTBlock-1/sequential_7/transformer_1/sequential_6/dense_3/Tensordot/free", "op": "Const", "attr": {"dtype": {"type": "DT_INT32"}, "value": {"tensor": {"dtype": "DT_INT32", "tensorShape": {"dim": [{"size": "3"}]}}}}}, {"name": "StatefulPartitionedCall/MobileViT-v3_v2_0.75/MobileViTBlock-1/sequential_7/transformer_1/sequential_6/dense_3/Tensordot/GatherV2/axis", "op": "Const", "attr": {"value": {"tensor": {"dtype": "DT_INT32", "tensorShape": {}}}, "dtype": {"type": "DT_INT32"}}}, {"name": "StatefulPartitionedCall/MobileViT-v3_v2_0.75/MobileViTBlock-1/sequential_7/transformer_1/sequential_6/dense_3/Tensordot/Const_2", "op": "Const", "attr": {"dtype": {"type": "DT_INT32"}, "value": {"tensor": {"dtype": "DT_INT32", "tensorShape": {"dim": [{"size": "1"}]}}}}}, {"name": "StatefulPartitionedCall/MobileViT-v3_v2_0.75/MobileViTBlock-1/sequential_7/transformer_1/sequential_6/dense_3/Tensordot/concat_1/axis", "op": "Const", "attr": {"dtype": {"type": "DT_INT32"}, "value": {"tensor": {"dtype": "DT_INT32", "tensorShape": {}}}}}, {"name": "StatefulPartitionedCall/MobileViT-v3_v2_0.75/MobileViTBlock-1/sequential_7/transformer_1/sequential_6/dense_3/BiasAdd/Cast", "op": "Const", "attr": {"value": {"tensor": {"dtype": "DT_HALF", "tensorShape": {"dim": [{"size": "96"}]}}}, "dtype": {"type": "DT_HALF"}}}, {"name": "StatefulPartitionedCall/MobileViT-v3_v2_0.75/MobileViTBlock-1/sequential_7/layer_normalization_4/moments/mean/reduction_indices", "op": "Const", "attr": {"value": {"tensor": {"dtype": "DT_INT32", "tensorShape": {"dim": [{"size": "1"}]}}}, "dtype": {"type": "DT_INT32"}}}, {"name": "StatefulPartitionedCall/MobileViT-v3_v2_0.75/MobileViTBlock-1/sequential_7/layer_normalization_4/moments/variance/reduction_indices", "op": "Const", "attr": {"dtype": {"type": "DT_INT32"}, "value": {"tensor": {"dtype": "DT_INT32", "tensorShape": {"dim": [{"size": "1"}]}}}}}, {"name": "StatefulPartitionedCall/MobileViT-v3_v2_0.75/MobileViTBlock-1/sequential_7/layer_normalization_4/batchnorm/add/y", "op": "Const", "attr": {"value": {"tensor": {"dtype": "DT_FLOAT", "tensorShape": {}}}, "dtype": {"type": "DT_FLOAT"}}}, {"name": "StatefulPartitionedCall/MobileViT-v3_v2_0.75/MobileViTBlock-1/sequential_7/layer_normalization_4/batchnorm/mul/ReadVariableOp", "op": "Const", "attr": {"dtype": {"type": "DT_FLOAT"}, "value": {"tensor": {"dtype": "DT_FLOAT", "tensorShape": {"dim": [{"size": "96"}]}}}}}, {"name": "StatefulPartitionedCall/MobileViT-v3_v2_0.75/MobileViTBlock-1/transpose_2/perm", "op": "Const", "attr": {"dtype": {"type": "DT_INT32"}, "value": {"tensor": {"dtype": "DT_INT32", "tensorShape": {"dim": [{"size": "4"}]}}}}}, {"name": "StatefulPartitionedCall/MobileViT-v3_v2_0.75/MobileViTBlock-1/mul_5", "op": "Const", "attr": {"value": {"tensor": {"dtype": "DT_INT32", "tensorShape": {}}}, "dtype": {"type": "DT_INT32"}}}, {"name": "StatefulPartitionedCall/MobileViT-v3_v2_0.75/MobileViTBlock-1/transpose_3/perm", "op": "Const", "attr": {"value": {"tensor": {"dtype": "DT_INT32", "tensorShape": {"dim": [{"size": "4"}]}}}, "dtype": {"type": "DT_INT32"}}}, {"name": "StatefulPartitionedCall/MobileViT-v3_v2_0.75/MobileViTBlock-1/strided_slice/stack", "op": "Const", "attr": {"value": {"tensor": {"dtype": "DT_INT32", "tensorShape": {"dim": [{"size": "1"}]}}}, "dtype": {"type": "DT_INT32"}}}, {"name": "StatefulPartitionedCall/MobileViT-v3_v2_0.75/MobileViTBlock-1/strided_slice/stack_1", "op": "Const", "attr": {"dtype": {"type": "DT_INT32"}, "value": {"tensor": {"dtype": "DT_INT32", "tensorShape": {"dim": [{"size": "1"}]}}}}}, {"name": "StatefulPartitionedCall/MobileViT-v3_v2_0.75/MobileViTBlock-1/strided_slice/stack_2", "op": "Const", "attr": {"value": {"tensor": {"dtype": "DT_INT32", "tensorShape": {"dim": [{"size": "1"}]}}}, "dtype": {"type": "DT_INT32"}}}, {"name": "StatefulPartitionedCall/MobileViT-v3_v2_0.75/MobileViTBlock-1/strided_slice_1/stack", "op": "Const", "attr": {"value": {"tensor": {"dtype": "DT_INT32", "tensorShape": {"dim": [{"size": "1"}]}}}, "dtype": {"type": "DT_INT32"}}}, {"name": "StatefulPartitionedCall/MobileViT-v3_v2_0.75/MobileViTBlock-1/strided_slice_1/stack_1", "op": "Const", "attr": {"dtype": {"type": "DT_INT32"}, "value": {"tensor": {"dtype": "DT_INT32", "tensorShape": {"dim": [{"size": "1"}]}}}}}, {"name": "StatefulPartitionedCall/MobileViT-v3_v2_0.75/MobileViTBlock-1/strided_slice_1/stack_2", "op": "Const", "attr": {"value": {"tensor": {"dtype": "DT_INT32", "tensorShape": {"dim": [{"size": "1"}]}}}, "dtype": {"type": "DT_INT32"}}}, {"name": "unknown_70", "op": "Const", "attr": {"value": {"tensor": {"dtype": "DT_INT32", "tensorShape": {}}}, "dtype": {"type": "DT_INT32"}}}, {"name": "StatefulPartitionedCall/MobileViT-v3_v2_0.75/MobileViTBlock-1/strided_slice_2/stack", "op": "Const", "attr": {"value": {"tensor": {"dtype": "DT_INT32", "tensorShape": {"dim": [{"size": "1"}]}}}, "dtype": {"type": "DT_INT32"}}}, {"name": "StatefulPartitionedCall/MobileViT-v3_v2_0.75/MobileViTBlock-1/strided_slice_2/stack_1", "op": "Const", "attr": {"dtype": {"type": "DT_INT32"}, "value": {"tensor": {"dtype": "DT_INT32", "tensorShape": {"dim": [{"size": "1"}]}}}}}, {"name": "StatefulPartitionedCall/MobileViT-v3_v2_0.75/MobileViTBlock-1/strided_slice_2/stack_2", "op": "Const", "attr": {"dtype": {"type": "DT_INT32"}, "value": {"tensor": {"dtype": "DT_INT32", "tensorShape": {"dim": [{"size": "1"}]}}}}}, {"name": "unknown_71", "op": "Const", "attr": {"dtype": {"type": "DT_INT32"}, "value": {"tensor": {"dtype": "DT_INT32", "tensorShape": {}}}}}, {"name": "StatefulPartitionedCall/MobileViT-v3_v2_0.75/MobileViTBlock-1/Reshape_3/shape/3", "op": "Const", "attr": {"dtype": {"type": "DT_INT32"}, "value": {"tensor": {"dtype": "DT_INT32", "tensorShape": {}}}}}, {"name": "StatefulPartitionedCall/MobileViT-v3_v2_0.75/MobileViTBlock-1/sequential_4/conv_layer_8/Conv_layer/conv2d_9/Conv2D/Cast", "op": "Const", "attr": {"value": {"tensor": {"dtype": "DT_HALF", "tensorShape": {"dim": [{"size": "1"}, {"size": "1"}, {"size": "192"}, {"size": "96"}]}}}, "dtype": {"type": "DT_HALF"}}}, {"name": "StatefulPartitionedCall/MobileViT-v3_v2_0.75/MobileViTBlock-1/concatenate/concat/axis", "op": "Const", "attr": {"value": {"tensor": {"dtype": "DT_INT32", "tensorShape": {}}}, "dtype": {"type": "DT_INT32"}}}, {"name": "StatefulPartitionedCall/MobileViT-v3_v2_0.75/MobileViTBlock-2/sequential_9/conv_layer_12/Conv_layer/conv2d_13/Conv2D/Cast", "op": "Const", "attr": {"value": {"tensor": {"dtype": "DT_HALF", "tensorShape": {"dim": [{"size": "1"}, {"size": "1"}, {"size": "288"}, {"size": "144"}]}}}, "dtype": {"type": "DT_HALF"}}}, {"name": "StatefulPartitionedCall/MobileViT-v3_v2_0.75/MobileViTBlock-2/concatenate_1/concat/axis", "op": "Const", "attr": {"value": {"tensor": {"dtype": "DT_INT32", "tensorShape": {}}}, "dtype": {"type": "DT_INT32"}}}, {"name": "StatefulPartitionedCall/MobileViT-v3_v2_0.75/MobileViTBlock-3/sequential_16/conv_layer_16/Conv_layer/conv2d_17/Conv2D/Cast", "op": "Const", "attr": {"value": {"tensor": {"dtype": "DT_HALF", "tensorShape": {"dim": [{"size": "1"}, {"size": "1"}, {"size": "384"}, {"size": "192"}]}}}, "dtype": {"type": "DT_HALF"}}}, {"name": "StatefulPartitionedCall/MobileViT-v3_v2_0.75/MobileViTBlock-3/concatenate_2/concat/axis", "op": "Const", "attr": {"dtype": {"type": "DT_INT32"}, "value": {"tensor": {"dtype": "DT_INT32", "tensorShape": {}}}}}, {"name": "StatefulPartitionedCall/MobileViT-v3_v2_0.75/global_average_pooling2d/Mean/reduction_indices", "op": "Const", "attr": {"dtype": {"type": "DT_INT32"}, "value": {"tensor": {"dtype": "DT_INT32", "tensorShape": {"dim": [{"size": "2"}]}}}}}, {"name": "StatefulPartitionedCall/MobileViT-v3_v2_0.75/dense_18/MatMul/Cast", "op": "Const", "attr": {"value": {"tensor": {"dtype": "DT_HALF", "tensorShape": {"dim": [{"size": "384"}, {"size": "408"}]}}}, "dtype": {"type": "DT_HALF"}}}, {"name": "StatefulPartitionedCall/MobileViT-v3_v2_0.75/dense_18/BiasAdd/Cast", "op": "Const", "attr": {"dtype": {"type": "DT_HALF"}, "value": {"tensor": {"dtype": "DT_HALF", "tensorShape": {"dim": [{"size": "408"}]}}}}}, {"name": "input_1", "op": "Placeholder", "attr": {"dtype": {"type": "DT_FLOAT"}, "shape": {"shape": {"dim": [{"size": "-1"}, {"size": "256"}, {"size": "384"}, {"size": "1"}]}}}}, {"name": "StatefulPartitionedCall/MobileViT-v3_v2_0.75/block-1-Conv/Conv_layer/conv2d/Conv2D_weights", "op": "Const", "attr": {"dtype": {"type": "DT_HALF"}, "value": {"tensor": {"dtype": "DT_HALF", "tensorShape": {"dim": [{"size": "3"}, {"size": "3"}, {"size": "1"}, {"size": "24"}]}}}}}, {"name": "StatefulPartitionedCall/MobileViT-v3_v2_0.75/block-1-Conv/Conv_layer/conv2d/Conv2D_bn_offset", "op": "Const", "attr": {"value": {"tensor": {"dtype": "DT_FLOAT", "tensorShape": {"dim": [{"size": "24"}]}}}, "dtype": {"type": "DT_FLOAT"}}}, {"name": "StatefulPartitionedCall/MobileViT-v3_v2_0.75/block-1-IR2/sequential/conv_layer/Conv_layer/conv2d_1/Conv2D_weights", "op": "Const", "attr": {"dtype": {"type": "DT_HALF"}, "value": {"tensor": {"dtype": "DT_HALF", "tensorShape": {"dim": [{"size": "1"}, {"size": "1"}, {"size": "24"}, {"size": "48"}]}}}}}, {"name": "StatefulPartitionedCall/MobileViT-v3_v2_0.75/block-1-IR2/sequential/conv_layer/Conv_layer/conv2d_1/Conv2D_bn_offset", "op": "Const", "attr": {"dtype": {"type": "DT_FLOAT"}, "value": {"tensor": {"dtype": "DT_FLOAT", "tensorShape": {"dim": [{"size": "48"}]}}}}}, {"name": "StatefulPartitionedCall/MobileViT-v3_v2_0.75/block-1-IR2/sequential/depthwise_conv2d/depthwise_weights", "op": "Const", "attr": {"dtype": {"type": "DT_HALF"}, "value": {"tensor": {"dtype": "DT_HALF", "tensorShape": {"dim": [{"size": "3"}, {"size": "3"}, {"size": "48"}, {"size": "1"}]}}}}}, {"name": "StatefulPartitionedCall/MobileViT-v3_v2_0.75/block-1-IR2/sequential/depthwise_conv2d/depthwise_bn_offset", "op": "Const", "attr": {"dtype": {"type": "DT_FLOAT"}, "value": {"tensor": {"dtype": "DT_FLOAT", "tensorShape": {"dim": [{"size": "48"}]}}}}}, {"name": "StatefulPartitionedCall/MobileViT-v3_v2_0.75/block-1-IR2/sequential/conv_layer_1/Conv_layer/conv2d_2/Conv2D_weights", "op": "Const", "attr": {"value": {"tensor": {"dtype": "DT_HALF", "tensorShape": {"dim": [{"size": "1"}, {"size": "1"}, {"size": "48"}, {"size": "48"}]}}}, "dtype": {"type": "DT_HALF"}}}, {"name": "StatefulPartitionedCall/MobileViT-v3_v2_0.75/block-1-IR2/sequential/conv_layer_1/Conv_layer/conv2d_2/Conv2D_bn_offset", "op": "Const", "attr": {"value": {"tensor": {"dtype": "DT_FLOAT", "tensorShape": {"dim": [{"size": "48"}]}}}, "dtype": {"type": "DT_FLOAT"}}}, {"name": "StatefulPartitionedCall/MobileViT-v3_v2_0.75/block-2-IR1/sequential_1/conv_layer_2/Conv_layer/conv2d_3/Conv2D_weights", "op": "Const", "attr": {"dtype": {"type": "DT_HALF"}, "value": {"tensor": {"dtype": "DT_HALF", "tensorShape": {"dim": [{"size": "1"}, {"size": "1"}, {"size": "48"}, {"size": "96"}]}}}}}, {"name": "StatefulPartitionedCall/MobileViT-v3_v2_0.75/block-2-IR1/sequential_1/conv_layer_2/Conv_layer/conv2d_3/Conv2D_bn_offset", "op": "Const", "attr": {"dtype": {"type": "DT_FLOAT"}, "value": {"tensor": {"dtype": "DT_FLOAT", "tensorShape": {"dim": [{"size": "96"}]}}}}}, {"name": "StatefulPartitionedCall/MobileViT-v3_v2_0.75/block-2-IR1/sequential_1/depthwise_conv2d_1/depthwise_weights", "op": "Const", "attr": {"dtype": {"type": "DT_HALF"}, "value": {"tensor": {"dtype": "DT_HALF", "tensorShape": {"dim": [{"size": "3"}, {"size": "3"}, {"size": "96"}, {"size": "1"}]}}}}}, {"name": "StatefulPartitionedCall/MobileViT-v3_v2_0.75/block-2-IR1/sequential_1/depthwise_conv2d_1/depthwise_bn_offset", "op": "Const", "attr": {"value": {"tensor": {"dtype": "DT_FLOAT", "tensorShape": {"dim": [{"size": "96"}]}}}, "dtype": {"type": "DT_FLOAT"}}}, {"name": "StatefulPartitionedCall/MobileViT-v3_v2_0.75/block-2-IR1/sequential_1/conv_layer_3/Conv_layer/conv2d_4/Conv2D_weights", "op": "Const", "attr": {"dtype": {"type": "DT_HALF"}, "value": {"tensor": {"dtype": "DT_HALF", "tensorShape": {"dim": [{"size": "1"}, {"size": "1"}, {"size": "96"}, {"size": "96"}]}}}}}, {"name": "StatefulPartitionedCall/MobileViT-v3_v2_0.75/block-2-IR1/sequential_1/conv_layer_3/Conv_layer/conv2d_4/Conv2D_bn_offset", "op": "Const", "attr": {"value": {"tensor": {"dtype": "DT_FLOAT", "tensorShape": {"dim": [{"size": "96"}]}}}, "dtype": {"type": "DT_FLOAT"}}}, {"name": "StatefulPartitionedCall/MobileViT-v3_v2_0.75/block-2-IR2/sequential_2/conv_layer_4/Conv_layer/conv2d_5/Conv2D_weights", "op": "Const", "attr": {"value": {"tensor": {"dtype": "DT_HALF", "tensorShape": {"dim": [{"size": "1"}, {"size": "1"}, {"size": "96"}, {"size": "192"}]}}}, "dtype": {"type": "DT_HALF"}}}, {"name": "StatefulPartitionedCall/MobileViT-v3_v2_0.75/block-2-IR2/sequential_2/conv_layer_4/Conv_layer/conv2d_5/Conv2D_bn_offset", "op": "Const", "attr": {"dtype": {"type": "DT_FLOAT"}, "value": {"tensor": {"dtype": "DT_FLOAT", "tensorShape": {"dim": [{"size": "192"}]}}}}}, {"name": "StatefulPartitionedCall/MobileViT-v3_v2_0.75/block-2-IR2/sequential_2/depthwise_conv2d_2/depthwise_weights", "op": "Const", "attr": {"value": {"tensor": {"dtype": "DT_HALF", "tensorShape": {"dim": [{"size": "3"}, {"size": "3"}, {"size": "192"}, {"size": "1"}]}}}, "dtype": {"type": "DT_HALF"}}}, {"name": "StatefulPartitionedCall/MobileViT-v3_v2_0.75/block-2-IR2/sequential_2/depthwise_conv2d_2/depthwise_bn_offset", "op": "Const", "attr": {"dtype": {"type": "DT_FLOAT"}, "value": {"tensor": {"dtype": "DT_FLOAT", "tensorShape": {"dim": [{"size": "192"}]}}}}}, {"name": "StatefulPartitionedCall/MobileViT-v3_v2_0.75/block-2-IR2/sequential_2/conv_layer_5/Conv_layer/conv2d_6/Conv2D_weights", "op": "Const", "attr": {"value": {"tensor": {"dtype": "DT_HALF", "tensorShape": {"dim": [{"size": "1"}, {"size": "1"}, {"size": "192"}, {"size": "96"}]}}}, "dtype": {"type": "DT_HALF"}}}, {"name": "StatefulPartitionedCall/MobileViT-v3_v2_0.75/block-2-IR2/sequential_2/conv_layer_5/Conv_layer/conv2d_6/Conv2D_bn_offset", "op": "Const", "attr": {"value": {"tensor": {"dtype": "DT_FLOAT", "tensorShape": {"dim": [{"size": "96"}]}}}, "dtype": {"type": "DT_FLOAT"}}}, {"name": "StatefulPartitionedCall/MobileViT-v3_v2_0.75/block-3-IR1/sequential_3/conv_layer_6/Conv_layer/conv2d_7/Conv2D_weights", "op": "Const", "attr": {"dtype": {"type": "DT_HALF"}, "value": {"tensor": {"dtype": "DT_HALF", "tensorShape": {"dim": [{"size": "1"}, {"size": "1"}, {"size": "96"}, {"size": "192"}]}}}}}, {"name": "StatefulPartitionedCall/MobileViT-v3_v2_0.75/block-3-IR1/sequential_3/conv_layer_6/Conv_layer/conv2d_7/Conv2D_bn_offset", "op": "Const", "attr": {"dtype": {"type": "DT_FLOAT"}, "value": {"tensor": {"dtype": "DT_FLOAT", "tensorShape": {"dim": [{"size": "192"}]}}}}}, {"name": "StatefulPartitionedCall/MobileViT-v3_v2_0.75/block-3-IR1/sequential_3/depthwise_conv2d_3/depthwise_weights", "op": "Const", "attr": {"dtype": {"type": "DT_HALF"}, "value": {"tensor": {"dtype": "DT_HALF", "tensorShape": {"dim": [{"size": "3"}, {"size": "3"}, {"size": "192"}, {"size": "1"}]}}}}}, {"name": "StatefulPartitionedCall/MobileViT-v3_v2_0.75/block-3-IR1/sequential_3/depthwise_conv2d_3/depthwise_bn_offset", "op": "Const", "attr": {"value": {"tensor": {"dtype": "DT_FLOAT", "tensorShape": {"dim": [{"size": "192"}]}}}, "dtype": {"type": "DT_FLOAT"}}}, {"name": "StatefulPartitionedCall/MobileViT-v3_v2_0.75/block-3-IR1/sequential_3/conv_layer_7/Conv_layer/conv2d_8/Conv2D_weights", "op": "Const", "attr": {"dtype": {"type": "DT_HALF"}, "value": {"tensor": {"dtype": "DT_HALF", "tensorShape": {"dim": [{"size": "1"}, {"size": "1"}, {"size": "192"}, {"size": "192"}]}}}}}, {"name": "StatefulPartitionedCall/MobileViT-v3_v2_0.75/block-3-IR1/sequential_3/conv_layer_7/Conv_layer/conv2d_8/Conv2D_bn_offset", "op": "Const", "attr": {"value": {"tensor": {"dtype": "DT_FLOAT", "tensorShape": {"dim": [{"size": "192"}]}}}, "dtype": {"type": "DT_FLOAT"}}}, {"name": "StatefulPartitionedCall/MobileViT-v3_v2_0.75/MobileViTBlock-1/sequential_4/depthwise_conv2d_4/depthwise_weights", "op": "Const", "attr": {"dtype": {"type": "DT_HALF"}, "value": {"tensor": {"dtype": "DT_HALF", "tensorShape": {"dim": [{"size": "3"}, {"size": "3"}, {"size": "192"}, {"size": "1"}]}}}}}, {"name": "StatefulPartitionedCall/MobileViT-v3_v2_0.75/MobileViTBlock-1/sequential_4/depthwise_conv2d_4/depthwise_bn_offset", "op": "Const", "attr": {"dtype": {"type": "DT_FLOAT"}, "value": {"tensor": {"dtype": "DT_FLOAT", "tensorShape": {"dim": [{"size": "192"}]}}}}}, {"name": "StatefulPartitionedCall/MobileViT-v3_v2_0.75/MobileViTBlock-1/conv_layer_9/Conv_layer/conv2d_10/Conv2D_weights", "op": "Const", "attr": {"value": {"tensor": {"dtype": "DT_HALF", "tensorShape": {"dim": [{"size": "1"}, {"size": "1"}, {"size": "192"}, {"size": "192"}]}}}, "dtype": {"type": "DT_HALF"}}}, {"name": "StatefulPartitionedCall/MobileViT-v3_v2_0.75/MobileViTBlock-1/conv_layer_9/Conv_layer/conv2d_10/Conv2D_bn_offset", "op": "Const", "attr": {"value": {"tensor": {"dtype": "DT_FLOAT", "tensorShape": {"dim": [{"size": "192"}]}}}, "dtype": {"type": "DT_FLOAT"}}}, {"name": "StatefulPartitionedCall/MobileViT-v3_v2_0.75/block-4-IR1/sequential_8/conv_layer_10/Conv_layer/conv2d_11/Conv2D_weights", "op": "Const", "attr": {"value": {"tensor": {"dtype": "DT_HALF", "tensorShape": {"dim": [{"size": "1"}, {"size": "1"}, {"size": "192"}, {"size": "384"}]}}}, "dtype": {"type": "DT_HALF"}}}, {"name": "StatefulPartitionedCall/MobileViT-v3_v2_0.75/block-4-IR1/sequential_8/conv_layer_10/Conv_layer/conv2d_11/Conv2D_bn_offset", "op": "Const", "attr": {"dtype": {"type": "DT_FLOAT"}, "value": {"tensor": {"dtype": "DT_FLOAT", "tensorShape": {"dim": [{"size": "384"}]}}}}}, {"name": "StatefulPartitionedCall/MobileViT-v3_v2_0.75/block-4-IR1/sequential_8/depthwise_conv2d_5/depthwise_weights", "op": "Const", "attr": {"dtype": {"type": "DT_HALF"}, "value": {"tensor": {"dtype": "DT_HALF", "tensorShape": {"dim": [{"size": "3"}, {"size": "3"}, {"size": "384"}, {"size": "1"}]}}}}}, {"name": "StatefulPartitionedCall/MobileViT-v3_v2_0.75/block-4-IR1/sequential_8/depthwise_conv2d_5/depthwise_bn_offset", "op": "Const", "attr": {"dtype": {"type": "DT_FLOAT"}, "value": {"tensor": {"dtype": "DT_FLOAT", "tensorShape": {"dim": [{"size": "384"}]}}}}}, {"name": "StatefulPartitionedCall/MobileViT-v3_v2_0.75/block-4-IR1/sequential_8/conv_layer_11/Conv_layer/conv2d_12/Conv2D_weights", "op": "Const", "attr": {"dtype": {"type": "DT_HALF"}, "value": {"tensor": {"dtype": "DT_HALF", "tensorShape": {"dim": [{"size": "1"}, {"size": "1"}, {"size": "384"}, {"size": "288"}]}}}}}, {"name": "StatefulPartitionedCall/MobileViT-v3_v2_0.75/block-4-IR1/sequential_8/conv_layer_11/Conv_layer/conv2d_12/Conv2D_bn_offset", "op": "Const", "attr": {"value": {"tensor": {"dtype": "DT_FLOAT", "tensorShape": {"dim": [{"size": "288"}]}}}, "dtype": {"type": "DT_FLOAT"}}}, {"name": "StatefulPartitionedCall/MobileViT-v3_v2_0.75/MobileViTBlock-2/sequential_9/depthwise_conv2d_6/depthwise_weights", "op": "Const", "attr": {"value": {"tensor": {"dtype": "DT_HALF", "tensorShape": {"dim": [{"size": "3"}, {"size": "3"}, {"size": "288"}, {"size": "1"}]}}}, "dtype": {"type": "DT_HALF"}}}, {"name": "StatefulPartitionedCall/MobileViT-v3_v2_0.75/MobileViTBlock-2/sequential_9/depthwise_conv2d_6/depthwise_bn_offset", "op": "Const", "attr": {"value": {"tensor": {"dtype": "DT_FLOAT", "tensorShape": {"dim": [{"size": "288"}]}}}, "dtype": {"type": "DT_FLOAT"}}}, {"name": "StatefulPartitionedCall/MobileViT-v3_v2_0.75/MobileViTBlock-2/conv_layer_13/Conv_layer/conv2d_14/Conv2D_weights", "op": "Const", "attr": {"dtype": {"type": "DT_HALF"}, "value": {"tensor": {"dtype": "DT_HALF", "tensorShape": {"dim": [{"size": "1"}, {"size": "1"}, {"size": "288"}, {"size": "288"}]}}}}}, {"name": "StatefulPartitionedCall/MobileViT-v3_v2_0.75/MobileViTBlock-2/conv_layer_13/Conv_layer/conv2d_14/Conv2D_bn_offset", "op": "Const", "attr": {"value": {"tensor": {"dtype": "DT_FLOAT", "tensorShape": {"dim": [{"size": "288"}]}}}, "dtype": {"type": "DT_FLOAT"}}}, {"name": "StatefulPartitionedCall/MobileViT-v3_v2_0.75/block-5-IR1/sequential_15/conv_layer_14/Conv_layer/conv2d_15/Conv2D_weights", "op": "Const", "attr": {"dtype": {"type": "DT_HALF"}, "value": {"tensor": {"dtype": "DT_HALF", "tensorShape": {"dim": [{"size": "1"}, {"size": "1"}, {"size": "288"}, {"size": "576"}]}}}}}, {"name": "StatefulPartitionedCall/MobileViT-v3_v2_0.75/block-5-IR1/sequential_15/conv_layer_14/Conv_layer/conv2d_15/Conv2D_bn_offset", "op": "Const", "attr": {"dtype": {"type": "DT_FLOAT"}, "value": {"tensor": {"dtype": "DT_FLOAT", "tensorShape": {"dim": [{"size": "576"}]}}}}}, {"name": "StatefulPartitionedCall/MobileViT-v3_v2_0.75/block-5-IR1/sequential_15/depthwise_conv2d_7/depthwise_weights", "op": "Const", "attr": {"dtype": {"type": "DT_HALF"}, "value": {"tensor": {"dtype": "DT_HALF", "tensorShape": {"dim": [{"size": "3"}, {"size": "3"}, {"size": "576"}, {"size": "1"}]}}}}}, {"name": "StatefulPartitionedCall/MobileViT-v3_v2_0.75/block-5-IR1/sequential_15/depthwise_conv2d_7/depthwise_bn_offset", "op": "Const", "attr": {"value": {"tensor": {"dtype": "DT_FLOAT", "tensorShape": {"dim": [{"size": "576"}]}}}, "dtype": {"type": "DT_FLOAT"}}}, {"name": "StatefulPartitionedCall/MobileViT-v3_v2_0.75/block-5-IR1/sequential_15/conv_layer_15/Conv_layer/conv2d_16/Conv2D_weights", "op": "Const", "attr": {"value": {"tensor": {"dtype": "DT_HALF", "tensorShape": {"dim": [{"size": "1"}, {"size": "1"}, {"size": "576"}, {"size": "384"}]}}}, "dtype": {"type": "DT_HALF"}}}, {"name": "StatefulPartitionedCall/MobileViT-v3_v2_0.75/block-5-IR1/sequential_15/conv_layer_15/Conv_layer/conv2d_16/Conv2D_bn_offset", "op": "Const", "attr": {"value": {"tensor": {"dtype": "DT_FLOAT", "tensorShape": {"dim": [{"size": "384"}]}}}, "dtype": {"type": "DT_FLOAT"}}}, {"name": "StatefulPartitionedCall/MobileViT-v3_v2_0.75/MobileViTBlock-3/sequential_16/depthwise_conv2d_8/depthwise_weights", "op": "Const", "attr": {"dtype": {"type": "DT_HALF"}, "value": {"tensor": {"dtype": "DT_HALF", "tensorShape": {"dim": [{"size": "3"}, {"size": "3"}, {"size": "384"}, {"size": "1"}]}}}}}, {"name": "StatefulPartitionedCall/MobileViT-v3_v2_0.75/MobileViTBlock-3/sequential_16/depthwise_conv2d_8/depthwise_bn_offset", "op": "Const", "attr": {"dtype": {"type": "DT_FLOAT"}, "value": {"tensor": {"dtype": "DT_FLOAT", "tensorShape": {"dim": [{"size": "384"}]}}}}}, {"name": "StatefulPartitionedCall/MobileViT-v3_v2_0.75/MobileViTBlock-3/conv_layer_17/Conv_layer/conv2d_18/Conv2D_weights", "op": "Const", "attr": {"value": {"tensor": {"dtype": "DT_HALF", "tensorShape": {"dim": [{"size": "1"}, {"size": "1"}, {"size": "384"}, {"size": "384"}]}}}, "dtype": {"type": "DT_HALF"}}}, {"name": "StatefulPartitionedCall/MobileViT-v3_v2_0.75/MobileViTBlock-3/conv_layer_17/Conv_layer/conv2d_18/Conv2D_bn_offset", "op": "Const", "attr": {"value": {"tensor": {"dtype": "DT_FLOAT", "tensorShape": {"dim": [{"size": "384"}]}}}, "dtype": {"type": "DT_FLOAT"}}}, {"name": "StatefulPartitionedCall/MobileViT-v3_v2_0.75/block-1-Conv/Cast", "op": "Cast", "input": ["input_1"], "attr": {"SrcT": {"type": "DT_FLOAT"}, "DstT": {"type": "DT_HALF"}, "Truncate": {"b": false}}}, {"name": "StatefulPartitionedCall/MobileViT-v3_v2_0.75/block-1-Conv/Conv_layer/conv2d/Conv2D", "op": "Conv2D", "input": ["StatefulPartitionedCall/MobileViT-v3_v2_0.75/block-1-Conv/Cast", "StatefulPartitionedCall/MobileViT-v3_v2_0.75/block-1-Conv/Conv_layer/conv2d/Conv2D_weights"], "device": "/device:CPU:0", "attr": {"padding": {"s": "U0FNRQ=="}, "explicit_paddings": {"list": {}}, "strides": {"list": {"i": ["1", "2", "2", "1"]}}, "data_format": {"s": "TkhXQw=="}, "dilations": {"list": {"i": ["1", "1", "1", "1"]}}, "T": {"type": "DT_HALF"}, "use_cudnn_on_gpu": {"b": true}}}, {"name": "StatefulPartitionedCall/MobileViT-v3_v2_0.75/block-1-Conv/Conv_layer/batch_normalization/FusedBatchNormV3", "op": "BiasAdd", "input": ["StatefulPartitionedCall/MobileViT-v3_v2_0.75/block-1-Conv/Conv_layer/conv2d/Conv2D", "StatefulPartitionedCall/MobileViT-v3_v2_0.75/block-1-Conv/Conv_layer/conv2d/Conv2D_bn_offset"], "attr": {"data_format": {"s": "TkhXQw=="}, "T": {"type": "DT_HALF"}}}, {"name": "StatefulPartitionedCall/MobileViT-v3_v2_0.75/block-1-Conv/Conv_layer/activation/Sigmoid", "op": "Sigmoid", "input": ["StatefulPartitionedCall/MobileViT-v3_v2_0.75/block-1-Conv/Conv_layer/batch_normalization/FusedBatchNormV3"], "attr": {"T": {"type": "DT_HALF"}}}, {"name": "StatefulPartitionedCall/MobileViT-v3_v2_0.75/block-1-Conv/Conv_layer/activation/mul_1", "op": "Mul", "input": ["StatefulPartitionedCall/MobileViT-v3_v2_0.75/block-1-Conv/Conv_layer/batch_normalization/FusedBatchNormV3", "StatefulPartitionedCall/MobileViT-v3_v2_0.75/block-1-Conv/Conv_layer/activation/Sigmoid"], "attr": {"T": {"type": "DT_HALF"}}}, {"name": "StatefulPartitionedCall/MobileViT-v3_v2_0.75/block-1-IR2/sequential/conv_layer/Conv_layer/conv2d_1/Conv2D", "op": "Conv2D", "input": ["StatefulPartitionedCall/MobileViT-v3_v2_0.75/block-1-Conv/Conv_layer/activation/mul_1", "StatefulPartitionedCall/MobileViT-v3_v2_0.75/block-1-IR2/sequential/conv_layer/Conv_layer/conv2d_1/Conv2D_weights"], "device": "/device:CPU:0", "attr": {"padding": {"s": "U0FNRQ=="}, "dilations": {"list": {"i": ["1", "1", "1", "1"]}}, "explicit_paddings": {"list": {}}, "use_cudnn_on_gpu": {"b": true}, "T": {"type": "DT_HALF"}, "strides": {"list": {"i": ["1", "1", "1", "1"]}}, "data_format": {"s": "TkhXQw=="}}}, {"name": "StatefulPartitionedCall/MobileViT-v3_v2_0.75/block-1-IR2/sequential/conv_layer/Conv_layer/batch_normalization_1/FusedBatchNormV3", "op": "BiasAdd", "input": ["StatefulPartitionedCall/MobileViT-v3_v2_0.75/block-1-IR2/sequential/conv_layer/Conv_layer/conv2d_1/Conv2D", "StatefulPartitionedCall/MobileViT-v3_v2_0.75/block-1-IR2/sequential/conv_layer/Conv_layer/conv2d_1/Conv2D_bn_offset"], "attr": {"data_format": {"s": "TkhXQw=="}, "T": {"type": "DT_HALF"}}}, {"name": "StatefulPartitionedCall/MobileViT-v3_v2_0.75/block-1-IR2/sequential/conv_layer/Conv_layer/activation_1/Sigmoid", "op": "Sigmoid", "input": ["StatefulPartitionedCall/MobileViT-v3_v2_0.75/block-1-IR2/sequential/conv_layer/Conv_layer/batch_normalization_1/FusedBatchNormV3"], "attr": {"T": {"type": "DT_HALF"}}}, {"name": "StatefulPartitionedCall/MobileViT-v3_v2_0.75/block-1-IR2/sequential/conv_layer/Conv_layer/activation_1/mul_1", "op": "Mul", "input": ["StatefulPartitionedCall/MobileViT-v3_v2_0.75/block-1-IR2/sequential/conv_layer/Conv_layer/batch_normalization_1/FusedBatchNormV3", "StatefulPartitionedCall/MobileViT-v3_v2_0.75/block-1-IR2/sequential/conv_layer/Conv_layer/activation_1/Sigmoid"], "attr": {"T": {"type": "DT_HALF"}}}, {"name": "StatefulPartitionedCall/MobileViT-v3_v2_0.75/block-1-IR2/sequential/depthwise_conv2d/depthwise", "op": "FusedDepthwiseConv2dNative", "input": ["StatefulPartitionedCall/MobileViT-v3_v2_0.75/block-1-IR2/sequential/conv_layer/Conv_layer/activation_1/mul_1", "StatefulPartitionedCall/MobileViT-v3_v2_0.75/block-1-IR2/sequential/depthwise_conv2d/depthwise_weights", "StatefulPartitionedCall/MobileViT-v3_v2_0.75/block-1-IR2/sequential/depthwise_conv2d/depthwise_bn_offset"], "attr": {"T": {"type": "DT_HALF"}, "dilations": {"list": {"i": ["1", "1", "1", "1"]}}, "num_args": {"i": "1"}, "data_format": {"s": "TkhXQw=="}, "fused_ops": {"list": {"s": ["Qmlhc0FkZA=="]}}, "explicit_paddings": {"list": {}}, "strides": {"list": {"i": ["1", "1", "1", "1"]}}, "padding": {"s": "U0FNRQ=="}}}, {"name": "StatefulPartitionedCall/MobileViT-v3_v2_0.75/block-1-IR2/sequential/activation_2/Sigmoid", "op": "Sigmoid", "input": ["StatefulPartitionedCall/MobileViT-v3_v2_0.75/block-1-IR2/sequential/depthwise_conv2d/depthwise"], "attr": {"T": {"type": "DT_HALF"}}}, {"name": "StatefulPartitionedCall/MobileViT-v3_v2_0.75/block-1-IR2/sequential/activation_2/mul_1", "op": "Mul", "input": ["StatefulPartitionedCall/MobileViT-v3_v2_0.75/block-1-IR2/sequential/depthwise_conv2d/depthwise", "StatefulPartitionedCall/MobileViT-v3_v2_0.75/block-1-IR2/sequential/activation_2/Sigmoid"], "attr": {"T": {"type": "DT_HALF"}}}, {"name": "StatefulPartitionedCall/MobileViT-v3_v2_0.75/block-1-IR2/sequential/conv_layer_1/Conv_layer/conv2d_2/Conv2D", "op": "Conv2D", "input": ["StatefulPartitionedCall/MobileViT-v3_v2_0.75/block-1-IR2/sequential/activation_2/mul_1", "StatefulPartitionedCall/MobileViT-v3_v2_0.75/block-1-IR2/sequential/conv_layer_1/Conv_layer/conv2d_2/Conv2D_weights"], "device": "/device:CPU:0", "attr": {"T": {"type": "DT_HALF"}, "explicit_paddings": {"list": {}}, "strides": {"list": {"i": ["1", "1", "1", "1"]}}, "padding": {"s": "U0FNRQ=="}, "dilations": {"list": {"i": ["1", "1", "1", "1"]}}, "data_format": {"s": "TkhXQw=="}, "use_cudnn_on_gpu": {"b": true}}}, {"name": "StatefulPartitionedCall/MobileViT-v3_v2_0.75/block-1-IR2/sequential/conv_layer_1/Conv_layer/batch_normalization_3/FusedBatchNormV3", "op": "BiasAdd", "input": ["StatefulPartitionedCall/MobileViT-v3_v2_0.75/block-1-IR2/sequential/conv_layer_1/Conv_layer/conv2d_2/Conv2D", "StatefulPartitionedCall/MobileViT-v3_v2_0.75/block-1-IR2/sequential/conv_layer_1/Conv_layer/conv2d_2/Conv2D_bn_offset"], "attr": {"data_format": {"s": "TkhXQw=="}, "T": {"type": "DT_HALF"}}}, {"name": "StatefulPartitionedCall/MobileViT-v3_v2_0.75/block-2-IR1/sequential_1/conv_layer_2/Conv_layer/conv2d_3/Conv2D", "op": "Conv2D", "input": ["StatefulPartitionedCall/MobileViT-v3_v2_0.75/block-1-IR2/sequential/conv_layer_1/Conv_layer/batch_normalization_3/FusedBatchNormV3", "StatefulPartitionedCall/MobileViT-v3_v2_0.75/block-2-IR1/sequential_1/conv_layer_2/Conv_layer/conv2d_3/Conv2D_weights"], "device": "/device:CPU:0", "attr": {"data_format": {"s": "TkhXQw=="}, "dilations": {"list": {"i": ["1", "1", "1", "1"]}}, "use_cudnn_on_gpu": {"b": true}, "strides": {"list": {"i": ["1", "1", "1", "1"]}}, "T": {"type": "DT_HALF"}, "explicit_paddings": {"list": {}}, "padding": {"s": "U0FNRQ=="}}}, {"name": "StatefulPartitionedCall/MobileViT-v3_v2_0.75/block-2-IR1/sequential_1/conv_layer_2/Conv_layer/batch_normalization_4/FusedBatchNormV3", "op": "BiasAdd", "input": ["StatefulPartitionedCall/MobileViT-v3_v2_0.75/block-2-IR1/sequential_1/conv_layer_2/Conv_layer/conv2d_3/Conv2D", "StatefulPartitionedCall/MobileViT-v3_v2_0.75/block-2-IR1/sequential_1/conv_layer_2/Conv_layer/conv2d_3/Conv2D_bn_offset"], "attr": {"T": {"type": "DT_HALF"}, "data_format": {"s": "TkhXQw=="}}}, {"name": "StatefulPartitionedCall/MobileViT-v3_v2_0.75/block-2-IR1/sequential_1/conv_layer_2/Conv_layer/activation_3/Sigmoid", "op": "Sigmoid", "input": ["StatefulPartitionedCall/MobileViT-v3_v2_0.75/block-2-IR1/sequential_1/conv_layer_2/Conv_layer/batch_normalization_4/FusedBatchNormV3"], "attr": {"T": {"type": "DT_HALF"}}}, {"name": "StatefulPartitionedCall/MobileViT-v3_v2_0.75/block-2-IR1/sequential_1/conv_layer_2/Conv_layer/activation_3/mul_1", "op": "Mul", "input": ["StatefulPartitionedCall/MobileViT-v3_v2_0.75/block-2-IR1/sequential_1/conv_layer_2/Conv_layer/batch_normalization_4/FusedBatchNormV3", "StatefulPartitionedCall/MobileViT-v3_v2_0.75/block-2-IR1/sequential_1/conv_layer_2/Conv_layer/activation_3/Sigmoid"], "attr": {"T": {"type": "DT_HALF"}}}, {"name": "StatefulPartitionedCall/MobileViT-v3_v2_0.75/block-2-IR1/sequential_1/depthwise_conv2d_1/depthwise", "op": "FusedDepthwiseConv2dNative", "input": ["StatefulPartitionedCall/MobileViT-v3_v2_0.75/block-2-IR1/sequential_1/conv_layer_2/Conv_layer/activation_3/mul_1", "StatefulPartitionedCall/MobileViT-v3_v2_0.75/block-2-IR1/sequential_1/depthwise_conv2d_1/depthwise_weights", "StatefulPartitionedCall/MobileViT-v3_v2_0.75/block-2-IR1/sequential_1/depthwise_conv2d_1/depthwise_bn_offset"], "attr": {"data_format": {"s": "TkhXQw=="}, "padding": {"s": "U0FNRQ=="}, "T": {"type": "DT_HALF"}, "explicit_paddings": {"list": {}}, "num_args": {"i": "1"}, "fused_ops": {"list": {"s": ["Qmlhc0FkZA=="]}}, "dilations": {"list": {"i": ["1", "1", "1", "1"]}}, "strides": {"list": {"i": ["1", "2", "2", "1"]}}}}, {"name": "StatefulPartitionedCall/MobileViT-v3_v2_0.75/block-2-IR1/sequential_1/activation_4/Sigmoid", "op": "Sigmoid", "input": ["StatefulPartitionedCall/MobileViT-v3_v2_0.75/block-2-IR1/sequential_1/depthwise_conv2d_1/depthwise"], "attr": {"T": {"type": "DT_HALF"}}}, {"name": "StatefulPartitionedCall/MobileViT-v3_v2_0.75/block-2-IR1/sequential_1/activation_4/mul_1", "op": "Mul", "input": ["StatefulPartitionedCall/MobileViT-v3_v2_0.75/block-2-IR1/sequential_1/depthwise_conv2d_1/depthwise", "StatefulPartitionedCall/MobileViT-v3_v2_0.75/block-2-IR1/sequential_1/activation_4/Sigmoid"], "attr": {"T": {"type": "DT_HALF"}}}, {"name": "StatefulPartitionedCall/MobileViT-v3_v2_0.75/block-2-IR1/sequential_1/conv_layer_3/Conv_layer/conv2d_4/Conv2D", "op": "Conv2D", "input": ["StatefulPartitionedCall/MobileViT-v3_v2_0.75/block-2-IR1/sequential_1/activation_4/mul_1", "StatefulPartitionedCall/MobileViT-v3_v2_0.75/block-2-IR1/sequential_1/conv_layer_3/Conv_layer/conv2d_4/Conv2D_weights"], "device": "/device:CPU:0", "attr": {"use_cudnn_on_gpu": {"b": true}, "data_format": {"s": "TkhXQw=="}, "strides": {"list": {"i": ["1", "1", "1", "1"]}}, "padding": {"s": "U0FNRQ=="}, "dilations": {"list": {"i": ["1", "1", "1", "1"]}}, "T": {"type": "DT_HALF"}, "explicit_paddings": {"list": {}}}}, {"name": "StatefulPartitionedCall/MobileViT-v3_v2_0.75/block-2-IR1/sequential_1/conv_layer_3/Conv_layer/batch_normalization_6/FusedBatchNormV3", "op": "BiasAdd", "input": ["StatefulPartitionedCall/MobileViT-v3_v2_0.75/block-2-IR1/sequential_1/conv_layer_3/Conv_layer/conv2d_4/Conv2D", "StatefulPartitionedCall/MobileViT-v3_v2_0.75/block-2-IR1/sequential_1/conv_layer_3/Conv_layer/conv2d_4/Conv2D_bn_offset"], "attr": {"data_format": {"s": "TkhXQw=="}, "T": {"type": "DT_HALF"}}}, {"name": "StatefulPartitionedCall/MobileViT-v3_v2_0.75/block-2-IR2/sequential_2/conv_layer_4/Conv_layer/conv2d_5/Conv2D", "op": "Conv2D", "input": ["StatefulPartitionedCall/MobileViT-v3_v2_0.75/block-2-IR1/sequential_1/conv_layer_3/Conv_layer/batch_normalization_6/FusedBatchNormV3", "StatefulPartitionedCall/MobileViT-v3_v2_0.75/block-2-IR2/sequential_2/conv_layer_4/Conv_layer/conv2d_5/Conv2D_weights"], "device": "/device:CPU:0", "attr": {"explicit_paddings": {"list": {}}, "dilations": {"list": {"i": ["1", "1", "1", "1"]}}, "use_cudnn_on_gpu": {"b": true}, "padding": {"s": "U0FNRQ=="}, "T": {"type": "DT_HALF"}, "strides": {"list": {"i": ["1", "1", "1", "1"]}}, "data_format": {"s": "TkhXQw=="}}}, {"name": "StatefulPartitionedCall/MobileViT-v3_v2_0.75/block-2-IR2/sequential_2/conv_layer_4/Conv_layer/batch_normalization_7/FusedBatchNormV3", "op": "BiasAdd", "input": ["StatefulPartitionedCall/MobileViT-v3_v2_0.75/block-2-IR2/sequential_2/conv_layer_4/Conv_layer/conv2d_5/Conv2D", "StatefulPartitionedCall/MobileViT-v3_v2_0.75/block-2-IR2/sequential_2/conv_layer_4/Conv_layer/conv2d_5/Conv2D_bn_offset"], "attr": {"T": {"type": "DT_HALF"}, "data_format": {"s": "TkhXQw=="}}}, {"name": "StatefulPartitionedCall/MobileViT-v3_v2_0.75/block-2-IR2/sequential_2/conv_layer_4/Conv_layer/activation_5/Sigmoid", "op": "Sigmoid", "input": ["StatefulPartitionedCall/MobileViT-v3_v2_0.75/block-2-IR2/sequential_2/conv_layer_4/Conv_layer/batch_normalization_7/FusedBatchNormV3"], "attr": {"T": {"type": "DT_HALF"}}}, {"name": "StatefulPartitionedCall/MobileViT-v3_v2_0.75/block-2-IR2/sequential_2/conv_layer_4/Conv_layer/activation_5/mul_1", "op": "Mul", "input": ["StatefulPartitionedCall/MobileViT-v3_v2_0.75/block-2-IR2/sequential_2/conv_layer_4/Conv_layer/batch_normalization_7/FusedBatchNormV3", "StatefulPartitionedCall/MobileViT-v3_v2_0.75/block-2-IR2/sequential_2/conv_layer_4/Conv_layer/activation_5/Sigmoid"], "attr": {"T": {"type": "DT_HALF"}}}, {"name": "StatefulPartitionedCall/MobileViT-v3_v2_0.75/block-2-IR2/sequential_2/depthwise_conv2d_2/depthwise", "op": "FusedDepthwiseConv2dNative", "input": ["StatefulPartitionedCall/MobileViT-v3_v2_0.75/block-2-IR2/sequential_2/conv_layer_4/Conv_layer/activation_5/mul_1", "StatefulPartitionedCall/MobileViT-v3_v2_0.75/block-2-IR2/sequential_2/depthwise_conv2d_2/depthwise_weights", "StatefulPartitionedCall/MobileViT-v3_v2_0.75/block-2-IR2/sequential_2/depthwise_conv2d_2/depthwise_bn_offset"], "attr": {"num_args": {"i": "1"}, "dilations": {"list": {"i": ["1", "1", "1", "1"]}}, "data_format": {"s": "TkhXQw=="}, "T": {"type": "DT_HALF"}, "explicit_paddings": {"list": {}}, "strides": {"list": {"i": ["1", "1", "1", "1"]}}, "fused_ops": {"list": {"s": ["Qmlhc0FkZA=="]}}, "padding": {"s": "U0FNRQ=="}}}, {"name": "StatefulPartitionedCall/MobileViT-v3_v2_0.75/block-2-IR2/sequential_2/activation_6/Sigmoid", "op": "Sigmoid", "input": ["StatefulPartitionedCall/MobileViT-v3_v2_0.75/block-2-IR2/sequential_2/depthwise_conv2d_2/depthwise"], "attr": {"T": {"type": "DT_HALF"}}}, {"name": "StatefulPartitionedCall/MobileViT-v3_v2_0.75/block-2-IR2/sequential_2/activation_6/mul_1", "op": "Mul", "input": ["StatefulPartitionedCall/MobileViT-v3_v2_0.75/block-2-IR2/sequential_2/depthwise_conv2d_2/depthwise", "StatefulPartitionedCall/MobileViT-v3_v2_0.75/block-2-IR2/sequential_2/activation_6/Sigmoid"], "attr": {"T": {"type": "DT_HALF"}}}, {"name": "StatefulPartitionedCall/MobileViT-v3_v2_0.75/block-2-IR2/sequential_2/conv_layer_5/Conv_layer/conv2d_6/Conv2D", "op": "Conv2D", "input": ["StatefulPartitionedCall/MobileViT-v3_v2_0.75/block-2-IR2/sequential_2/activation_6/mul_1", "StatefulPartitionedCall/MobileViT-v3_v2_0.75/block-2-IR2/sequential_2/conv_layer_5/Conv_layer/conv2d_6/Conv2D_weights"], "device": "/device:CPU:0", "attr": {"use_cudnn_on_gpu": {"b": true}, "dilations": {"list": {"i": ["1", "1", "1", "1"]}}, "padding": {"s": "U0FNRQ=="}, "data_format": {"s": "TkhXQw=="}, "strides": {"list": {"i": ["1", "1", "1", "1"]}}, "T": {"type": "DT_HALF"}, "explicit_paddings": {"list": {}}}}, {"name": "StatefulPartitionedCall/MobileViT-v3_v2_0.75/block-2-IR2/sequential_2/conv_layer_5/Conv_layer/batch_normalization_9/FusedBatchNormV3", "op": "BiasAdd", "input": ["StatefulPartitionedCall/MobileViT-v3_v2_0.75/block-2-IR2/sequential_2/conv_layer_5/Conv_layer/conv2d_6/Conv2D", "StatefulPartitionedCall/MobileViT-v3_v2_0.75/block-2-IR2/sequential_2/conv_layer_5/Conv_layer/conv2d_6/Conv2D_bn_offset"], "attr": {"data_format": {"s": "TkhXQw=="}, "T": {"type": "DT_HALF"}}}, {"name": "StatefulPartitionedCall/MobileViT-v3_v2_0.75/tf.__operators__.add/ArithmeticOptimizer/AddOpsRewrite_AddV2", "op": "AddN", "input": ["StatefulPartitionedCall/MobileViT-v3_v2_0.75/block-2-IR1/sequential_1/conv_layer_3/Conv_layer/batch_normalization_6/FusedBatchNormV3", "StatefulPartitionedCall/MobileViT-v3_v2_0.75/block-2-IR2/sequential_2/conv_layer_5/Conv_layer/batch_normalization_9/FusedBatchNormV3", "StatefulPartitionedCall/MobileViT-v3_v2_0.75/block-2-…
shape": [288, 144], "dtype": "float32"}, {"name": "StatefulPartitionedCall/MobileViT-v3_v2_0.75/MobileViTBlock-2/sequential_14/transformer_2/sequential_10/dense_4/Tensordot/Const", "shape": [1], "dtype": "int32"}, {"name": "StatefulPartitionedCall/MobileViT-v3_v2_0.75/MobileViTBlock-2/sequential_14/transformer_2/sequential_10/dense_4/Tensordot/axes", "shape": [1], "dtype": "int32"}, {"name": "StatefulPartitionedCall/MobileViT-v3_v2_0.75/MobileViTBlock-2/sequential_14/transformer_2/sequential_10/dense_4/Tensordot/GatherV2_1/axis", "shape": [], "dtype": "int32"}, {"name": "StatefulPartitionedCall/MobileViT-v3_v2_0.75/MobileViTBlock-2/sequential_14/transformer_2/sequential_10/dense_4/Tensordot/Const_1", "shape": [1], "dtype": "int32"}, {"name": "StatefulPartitionedCall/MobileViT-v3_v2_0.75/MobileViTBlock-2/sequential_14/transformer_2/sequential_10/dense_4/Tensordot/Cast", "shape": [144, 288], "dtype": "float32"}, {"name": "StatefulPartitionedCall/MobileViT-v3_v2_0.75/MobileViTBlock-2/sequential_14/transformer_2/layer_normalization_6/batchnorm/ReadVariableOp", "shape": [144], "dtype": "float32"}, {"name": "StatefulPartitionedCall/MobileViT-v3_v2_0.75/MobileViTBlock-2/sequential_14/transformer_2/linear_self_attention_2/einsum_dense_5/add/Cast", "shape": [144], "dtype": "float32"}, {"name": "StatefulPartitionedCall/MobileViT-v3_v2_0.75/MobileViTBlock-2/sequential_14/transformer_2/layer_normalization_5/batchnorm/ReadVariableOp", "shape": [144], "dtype": "float32"}, {"name": "StatefulPartitionedCall/MobileViT-v3_v2_0.75/MobileViTBlock-2/mul_1", "shape": [], "dtype": "int32"}, {"name": "StatefulPartitionedCall/MobileViT-v3_v2_0.75/MobileViTBlock-2/transpose/perm", "shape": [4], "dtype": "int32"}, {"name": "StatefulPartitionedCall/MobileViT-v3_v2_0.75/MobileViTBlock-2/mul_3", "shape": [], "dtype": "int32"}, {"name": "StatefulPartitionedCall/MobileViT-v3_v2_0.75/MobileViTBlock-2/Reshape_1/shape/3", "shape": [], "dtype": "int32"}, {"name": "StatefulPartitionedCall/MobileViT-v3_v2_0.75/MobileViTBlock-2/transpose_1/perm", "shape": [4], "dtype": "int32"}, {"name": "StatefulPartitionedCall/MobileViT-v3_v2_0.75/MobileViTBlock-2/sequential_14/transformer_2/layer_normalization_5/moments/mean/reduction_indices", "shape": [1], "dtype": "int32"}, {"name": "StatefulPartitionedCall/MobileViT-v3_v2_0.75/MobileViTBlock-2/sequential_14/transformer_2/layer_normalization_5/moments/variance/reduction_indices", "shape": [1], "dtype": "int32"}, {"name": "StatefulPartitionedCall/MobileViT-v3_v2_0.75/MobileViTBlock-2/sequential_14/transformer_2/layer_normalization_5/batchnorm/add/y", "shape": [], "dtype": "float32"}, {"name": "StatefulPartitionedCall/MobileViT-v3_v2_0.75/MobileViTBlock-2/sequential_14/transformer_2/layer_normalization_5/batchnorm/mul/ReadVariableOp", "shape": [144], "dtype": "float32"}, {"name": "StatefulPartitionedCall/MobileViT-v3_v2_0.75/MobileViTBlock-2/sequential_14/transformer_2/linear_self_attention_2/einsum_dense_4/einsum/Einsum/Cast", "shape": [144, 289], "dtype": "float32"}, {"name": "StatefulPartitionedCall/MobileViT-v3_v2_0.75/MobileViTBlock-2/sequential_14/transformer_2/linear_self_attention_2/einsum_dense_4/add/Cast", "shape": [289], "dtype": "float32"}, {"name": "StatefulPartitionedCall/MobileViT-v3_v2_0.75/MobileViTBlock-2/sequential_14/transformer_2/linear_self_attention_2/Const", "shape": [3], "dtype": "int32"}, {"name": "StatefulPartitionedCall/MobileViT-v3_v2_0.75/MobileViTBlock-2/sequential_14/transformer_2/linear_self_attention_2/split/split_dim", "shape": [], "dtype": "int32"}, {"name": "StatefulPartitionedCall/MobileViT-v3_v2_0.75/MobileViTBlock-2/sequential_14/transformer_2/linear_self_attention_2/concat", "shape": [4], "dtype": "int32"}, {"name": "StatefulPartitionedCall/MobileViT-v3_v2_0.75/MobileViTBlock-2/sequential_14/transformer_2/linear_self_attention_2/concat_1", "shape": [4], "dtype": "int32"}, {"name": "StatefulPartitionedCall/MobileViT-v3_v2_0.75/MobileViTBlock-2/sequential_14/transformer_2/linear_self_attention_2/Sum/reduction_indices", "shape": [], "dtype": "int32"}, {"name": "StatefulPartitionedCall/MobileViT-v3_v2_0.75/MobileViTBlock-2/sequential_14/transformer_2/linear_self_attention_2/einsum_dense_5/einsum/Einsum/Cast", "shape": [144, 144], "dtype": "float32"}, {"name": "StatefulPartitionedCall/MobileViT-v3_v2_0.75/MobileViTBlock-2/sequential_14/transformer_2/layer_normalization_6/moments/mean/reduction_indices", "shape": [1], "dtype": "int32"}, {"name": "StatefulPartitionedCall/MobileViT-v3_v2_0.75/MobileViTBlock-2/sequential_14/transformer_2/layer_normalization_6/moments/variance/reduction_indices", "shape": [1], "dtype": "int32"}, {"name": "StatefulPartitionedCall/MobileViT-v3_v2_0.75/MobileViTBlock-2/sequential_14/transformer_2/layer_normalization_6/batchnorm/add/y", "shape": [], "dtype": "float32"}, {"name": "StatefulPartitionedCall/MobileViT-v3_v2_0.75/MobileViTBlock-2/sequential_14/transformer_2/layer_normalization_6/batchnorm/mul/ReadVariableOp", "shape": [144], "dtype": "float32"}, {"name": "StatefulPartitionedCall/MobileViT-v3_v2_0.75/MobileViTBlock-2/sequential_14/transformer_2/sequential_10/dense_4/Tensordot/free", "shape": [3], "dtype": "int32"}, {"name": "StatefulPartitionedCall/MobileViT-v3_v2_0.75/MobileViTBlock-2/sequential_14/transformer_2/sequential_10/dense_4/Tensordot/GatherV2/axis", "shape": [], "dtype": "int32"}, {"name": "StatefulPartitionedCall/MobileViT-v3_v2_0.75/MobileViTBlock-2/sequential_14/transformer_2/sequential_10/dense_4/Tensordot/Const_2", "shape": [1], "dtype": "int32"}, {"name": "StatefulPartitionedCall/MobileViT-v3_v2_0.75/MobileViTBlock-2/sequential_14/transformer_2/sequential_10/dense_4/Tensordot/concat_1/axis", "shape": [], "dtype": "int32"}, {"name": "StatefulPartitionedCall/MobileViT-v3_v2_0.75/MobileViTBlock-2/sequential_14/transformer_2/sequential_10/dense_4/BiasAdd/Cast", "shape": [288], "dtype": "float32"}, {"name": "StatefulPartitionedCall/MobileViT-v3_v2_0.75/MobileViTBlock-2/sequential_14/transformer_2/sequential_10/dense_5/Tensordot/free", "shape": [3], "dtype": "int32"}, {"name": "StatefulPartitionedCall/MobileViT-v3_v2_0.75/MobileViTBlock-2/sequential_14/transformer_2/sequential_10/dense_5/Tensordot/GatherV2/axis", "shape": [], "dtype": "int32"}, {"name": "StatefulPartitionedCall/MobileViT-v3_v2_0.75/MobileViTBlock-2/sequential_14/transformer_2/sequential_10/dense_5/Tensordot/Const_2", "shape": [1], "dtype": "int32"}, {"name": "StatefulPartitionedCall/MobileViT-v3_v2_0.75/MobileViTBlock-2/sequential_14/transformer_2/sequential_10/dense_5/Tensordot/concat_1/axis", "shape": [], "dtype": "int32"}, {"name": "StatefulPartitionedCall/MobileViT-v3_v2_0.75/MobileViTBlock-2/sequential_14/transformer_2/sequential_10/dense_5/BiasAdd/Cast", "shape": [144], "dtype": "float32"}, {"name": "StatefulPartitionedCall/MobileViT-v3_v2_0.75/MobileViTBlock-2/sequential_14/transformer_3/layer_normalization_7/moments/mean/reduction_indices", "shape": [1], "dtype": "int32"}, {"name": "StatefulPartitionedCall/MobileViT-v3_v2_0.75/MobileViTBlock-2/sequential_14/transformer_3/layer_normalization_7/moments/variance/reduction_indices", "shape": [1], "dtype": "int32"}, {"name": "StatefulPartitionedCall/MobileViT-v3_v2_0.75/MobileViTBlock-2/sequential_14/transformer_3/layer_normalization_7/batchnorm/add/y", "shape": [], "dtype": "float32"}, {"name": "StatefulPartitionedCall/MobileViT-v3_v2_0.75/MobileViTBlock-2/sequential_14/transformer_3/layer_normalization_7/batchnorm/mul/ReadVariableOp", "shape": [144], "dtype": "float32"}, {"name": "StatefulPartitionedCall/MobileViT-v3_v2_0.75/MobileViTBlock-2/sequential_14/transformer_3/linear_self_attention_3/einsum_dense_6/einsum/Einsum/Cast", "shape": [144, 289], "dtype": "float32"}, {"name": "StatefulPartitionedCall/MobileViT-v3_v2_0.75/MobileViTBlock-2/sequential_14/transformer_3/linear_self_attention_3/einsum_dense_6/add/Cast", "shape": [289], "dtype": "float32"}, {"name": "StatefulPartitionedCall/MobileViT-v3_v2_0.75/MobileViTBlock-2/sequential_14/transformer_3/linear_self_attention_3/Const", "shape": [3], "dtype": "int32"}, {"name": "StatefulPartitionedCall/MobileViT-v3_v2_0.75/MobileViTBlock-2/sequential_14/transformer_3/linear_self_attention_3/split/split_dim", "shape": [], "dtype": "int32"}, {"name": "StatefulPartitionedCall/MobileViT-v3_v2_0.75/MobileViTBlock-2/sequential_14/transformer_3/linear_self_attention_3/concat", "shape": [4], "dtype": "int32"}, {"name": "StatefulPartitionedCall/MobileViT-v3_v2_0.75/MobileViTBlock-2/sequential_14/transformer_3/linear_self_attention_3/concat_1", "shape": [4], "dtype": "int32"}, {"name": "StatefulPartitionedCall/MobileViT-v3_v2_0.75/MobileViTBlock-2/sequential_14/transformer_3/linear_self_attention_3/Sum/reduction_indices", "shape": [], "dtype": "int32"}, {"name": "StatefulPartitionedCall/MobileViT-v3_v2_0.75/MobileViTBlock-2/sequential_14/transformer_3/linear_self_attention_3/einsum_dense_7/einsum/Einsum/Cast", "shape": [144, 144], "dtype": "float32"}, {"name": "StatefulPartitionedCall/MobileViT-v3_v2_0.75/MobileViTBlock-2/sequential_14/transformer_3/layer_normalization_8/moments/mean/reduction_indices", "shape": [1], "dtype": "int32"}, {"name": "StatefulPartitionedCall/MobileViT-v3_v2_0.75/MobileViTBlock-2/sequential_14/transformer_3/layer_normalization_8/moments/variance/reduction_indices", "shape": [1], "dtype": "int32"}, {"name": "StatefulPartitionedCall/MobileViT-v3_v2_0.75/MobileViTBlock-2/sequential_14/transformer_3/layer_normalization_8/batchnorm/add/y", "shape": [], "dtype": "float32"}, {"name": "StatefulPartitionedCall/MobileViT-v3_v2_0.75/MobileViTBlock-2/sequential_14/transformer_3/layer_normalization_8/batchnorm/mul/ReadVariableOp", "shape": [144], "dtype": "float32"}, {"name": "StatefulPartitionedCall/MobileViT-v3_v2_0.75/MobileViTBlock-2/sequential_14/transformer_3/sequential_11/dense_6/Tensordot/free", "shape": [3], "dtype": "int32"}, {"name": "StatefulPartitionedCall/MobileViT-v3_v2_0.75/MobileViTBlock-2/sequential_14/transformer_3/sequential_11/dense_6/Tensordot/GatherV2/axis", "shape": [], "dtype": "int32"}, {"name": "StatefulPartitionedCall/MobileViT-v3_v2_0.75/MobileViTBlock-2/sequential_14/transformer_3/sequential_11/dense_6/Tensordot/Const_2", "shape": [1], "dtype": "int32"}, {"name": "StatefulPartitionedCall/MobileViT-v3_v2_0.75/MobileViTBlock-2/sequential_14/transformer_3/sequential_11/dense_6/Tensordot/concat_1/axis", "shape": [], "dtype": "int32"}, {"name": "StatefulPartitionedCall/MobileViT-v3_v2_0.75/MobileViTBlock-2/sequential_14/transformer_3/sequential_11/dense_6/BiasAdd/Cast", "shape": [288], "dtype": "float32"}, {"name": "StatefulPartitionedCall/MobileViT-v3_v2_0.75/MobileViTBlock-2/sequential_14/transformer_3/sequential_11/dense_7/Tensordot/free", "shape": [3], "dtype": "int32"}, {"name": "StatefulPartitionedCall/MobileViT-v3_v2_0.75/MobileViTBlock-2/sequential_14/transformer_3/sequential_11/dense_7/Tensordot/GatherV2/axis", "shape": [], "dtype": "int32"}, {"name": "StatefulPartitionedCall/MobileViT-v3_v2_0.75/MobileViTBlock-2/sequential_14/transformer_3/sequential_11/dense_7/Tensordot/Const_2", "shape": [1], "dtype": "int32"}, {"name": "StatefulPartitionedCall/MobileViT-v3_v2_0.75/MobileViTBlock-2/sequential_14/transformer_3/sequential_11/dense_7/Tensordot/concat_1/axis", "shape": [], "dtype": "int32"}, {"name": "StatefulPartitionedCall/MobileViT-v3_v2_0.75/MobileViTBlock-2/sequential_14/transformer_3/sequential_11/dense_7/BiasAdd/Cast", "shape": [144], "dtype": "float32"}, {"name": "StatefulPartitionedCall/MobileViT-v3_v2_0.75/MobileViTBlock-2/sequential_14/transformer_4/layer_normalization_9/moments/mean/reduction_indices", "shape": [1], "dtype": "int32"}, {"name": "StatefulPartitionedCall/MobileViT-v3_v2_0.75/MobileViTBlock-2/sequential_14/transformer_4/layer_normalization_9/moments/variance/reduction_indices", "shape": [1], "dtype": "int32"}, {"name": "StatefulPartitionedCall/MobileViT-v3_v2_0.75/MobileViTBlock-2/sequential_14/transformer_4/layer_normalization_9/batchnorm/add/y", "shape": [], "dtype": "float32"}, {"name": "StatefulPartitionedCall/MobileViT-v3_v2_0.75/MobileViTBlock-2/sequential_14/transformer_4/layer_normalization_9/batchnorm/mul/ReadVariableOp", "shape": [144], "dtype": "float32"}, {"name": "StatefulPartitionedCall/MobileViT-v3_v2_0.75/MobileViTBlock-2/sequential_14/transformer_4/linear_self_attention_4/einsum_dense_8/einsum/Einsum/Cast", "shape": [144, 289], "dtype": "float32"}, {"name": "StatefulPartitionedCall/MobileViT-v3_v2_0.75/MobileViTBlock-2/sequential_14/transformer_4/linear_self_attention_4/einsum_dense_8/add/Cast", "shape": [289], "dtype": "float32"}, {"name": "StatefulPartitionedCall/MobileViT-v3_v2_0.75/MobileViTBlock-2/sequential_14/transformer_4/linear_self_attention_4/Const", "shape": [3], "dtype": "int32"}, {"name": "StatefulPartitionedCall/MobileViT-v3_v2_0.75/MobileViTBlock-2/sequential_14/transformer_4/linear_self_attention_4/split/split_dim", "shape": [], "dtype": "int32"}, {"name": "StatefulPartitionedCall/MobileViT-v3_v2_0.75/MobileViTBlock-2/sequential_14/transformer_4/linear_self_attention_4/concat", "shape": [4], "dtype": "int32"}, {"name": "StatefulPartitionedCall/MobileViT-v3_v2_0.75/MobileViTBlock-2/sequential_14/transformer_4/linear_self_attention_4/concat_1", "shape": [4], "dtype": "int32"}, {"name": "StatefulPartitionedCall/MobileViT-v3_v2_0.75/MobileViTBlock-2/sequential_14/transformer_4/linear_self_attention_4/Sum/reduction_indices", "shape": [], "dtype": "int32"}, {"name": "StatefulPartitionedCall/MobileViT-v3_v2_0.75/MobileViTBlock-2/sequential_14/transformer_4/linear_self_attention_4/einsum_dense_9/einsum/Einsum/Cast", "shape": [144, 144], "dtype": "float32"}, {"name": "StatefulPartitionedCall/MobileViT-v3_v2_0.75/MobileViTBlock-2/sequential_14/transformer_4/layer_normalization_10/moments/mean/reduction_indices", "shape": [1], "dtype": "int32"}, {"name": "StatefulPartitionedCall/MobileViT-v3_v2_0.75/MobileViTBlock-2/sequential_14/transformer_4/layer_normalization_10/moments/variance/reduction_indices", "shape": [1], "dtype": "int32"}, {"name": "StatefulPartitionedCall/MobileViT-v3_v2_0.75/MobileViTBlock-2/sequential_14/transformer_4/layer_normalization_10/batchnorm/add/y", "shape": [], "dtype": "float32"}, {"name": "StatefulPartitionedCall/MobileViT-v3_v2_0.75/MobileViTBlock-2/sequential_14/transformer_4/layer_normalization_10/batchnorm/mul/ReadVariableOp", "shape": [144], "dtype": "float32"}, {"name": "StatefulPartitionedCall/MobileViT-v3_v2_0.75/MobileViTBlock-2/sequential_14/transformer_4/sequential_12/dense_8/Tensordot/free", "shape": [3], "dtype": "int32"}, {"name": "StatefulPartitionedCall/MobileViT-v3_v2_0.75/MobileViTBlock-2/sequential_14/transformer_4/sequential_12/dense_8/Tensordot/GatherV2/axis", "shape": [], "dtype": "int32"}, {"name": "StatefulPartitionedCall/MobileViT-v3_v2_0.75/MobileViTBlock-2/sequential_14/transformer_4/sequential_12/dense_8/Tensordot/Const_2", "shape": [1], "dtype": "int32"}, {"name": "StatefulPartitionedCall/MobileViT-v3_v2_0.75/MobileViTBlock-2/sequential_14/transformer_4/sequential_12/dense_8/Tensordot/concat_1/axis", "shape": [], "dtype": "int32"}, {"name": "StatefulPartitionedCall/MobileViT-v3_v2_0.75/MobileViTBlock-2/sequential_14/transformer_4/sequential_12/dense_8/BiasAdd/Cast", "shape": [288], "dtype": "float32"}, {"name": "StatefulPartitionedCall/MobileViT-v3_v2_0.75/MobileViTBlock-2/sequential_14/transformer_4/sequential_12/dense_9/Tensordot/free", "shape": [3], "dtype": "int32"}, {"name": "StatefulPartitionedCall/MobileViT-v3_v2_0.75/MobileViTBlock-2/sequential_14/transformer_4/sequential_12/dense_9/Tensordot/GatherV2/axis", "shape": [], "dtype": "int32"}, {"name": "StatefulPartitionedCall/MobileViT-v3_v2_0.75/MobileViTBlock-2/sequential_14/transformer_4/sequential_12/dense_9/Tensordot/Const_2", "shape": [1], "dtype": "int32"}, {"name": "StatefulPartitionedCall/MobileViT-v3_v2_0.75/MobileViTBlock-2/sequential_14/transformer_4/sequential_12/dense_9/Tensordot/concat_1/axis", "shape": [], "dtype": "int32"}, {"name": "StatefulPartitionedCall/MobileViT-v3_v2_0.75/MobileViTBlock-2/sequential_14/transformer_4/sequential_12/dense_9/BiasAdd/Cast", "shape": [144], "dtype": "float32"}, {"name": "StatefulPartitionedCall/MobileViT-v3_v2_0.75/MobileViTBlock-2/sequential_14/transformer_5/layer_normalization_11/moments/mean/reduction_indices", "shape": [1], "dtype": "int32"}, {"name": "StatefulPartitionedCall/MobileViT-v3_v2_0.75/MobileViTBlock-2/sequential_14/transformer_5/layer_normalization_11/moments/variance/reduction_indices", "shape": [1], "dtype": "int32"}, {"name": "StatefulPartitionedCall/MobileViT-v3_v2_0.75/MobileViTBlock-2/sequential_14/transformer_5/layer_normalization_11/batchnorm/add/y", "shape": [], "dtype": "float32"}, {"name": "StatefulPartitionedCall/MobileViT-v3_v2_0.75/MobileViTBlock-2/sequential_14/transformer_5/layer_normalization_11/batchnorm/mul/ReadVariableOp", "shape": [144], "dtype": "float32"}, {"name": "StatefulPartitionedCall/MobileViT-v3_v2_0.75/MobileViTBlock-2/sequential_14/transformer_5/linear_self_attention_5/einsum_dense_10/einsum/Einsum/Cast", "shape": [144, 289], "dtype": "float32"}, {"name": "StatefulPartitionedCall/MobileViT-v3_v2_0.75/MobileViTBlock-2/sequential_14/transformer_5/linear_self_attention_5/einsum_dense_10/add/Cast", "shape": [289], "dtype": "float32"}, {"name": "StatefulPartitionedCall/MobileViT-v3_v2_0.75/MobileViTBlock-2/sequential_14/transformer_5/linear_self_attention_5/Const", "shape": [3], "dtype": "int32"}, {"name": "StatefulPartitionedCall/MobileViT-v3_v2_0.75/MobileViTBlock-2/sequential_14/transformer_5/linear_self_attention_5/split/split_dim", "shape": [], "dtype": "int32"}, {"name": "StatefulPartitionedCall/MobileViT-v3_v2_0.75/MobileViTBlock-2/sequential_14/transformer_5/linear_self_attention_5/concat", "shape": [4], "dtype": "int32"}, {"name": "StatefulPartitionedCall/MobileViT-v3_v2_0.75/MobileViTBlock-2/sequential_14/transformer_5/linear_self_attention_5/concat_1", "shape": [4], "dtype": "int32"}, {"name": "StatefulPartitionedCall/MobileViT-v3_v2_0.75/MobileViTBlock-2/sequential_14/transformer_5/linear_self_attention_5/Sum/reduction_indices", "shape": [], "dtype": "int32"}, {"name": "StatefulPartitionedCall/MobileViT-v3_v2_0.75/MobileViTBlock-2/sequential_14/transformer_5/linear_self_attention_5/einsum_dense_11/einsum/Einsum/Cast", "shape": [144, 144], "dtype": "float32"}, {"name": "StatefulPartitionedCall/MobileViT-v3_v2_0.75/MobileViTBlock-2/sequential_14/transformer_5/layer_normalization_12/moments/mean/reduction_indices", "shape": [1], "dtype": "int32"}, {"name": "StatefulPartitionedCall/MobileViT-v3_v2_0.75/MobileViTBlock-2/sequential_14/transformer_5/layer_normalization_12/moments/variance/reduction_indices", "shape": [1], "dtype": "int32"}, {"name": "StatefulPartitionedCall/MobileViT-v3_v2_0.75/MobileViTBlock-2/sequential_14/transformer_5/layer_normalization_12/batchnorm/add/y", "shape": [], "dtype": "float32"}, {"name": "StatefulPartitionedCall/MobileViT-v3_v2_0.75/MobileViTBlock-2/sequential_14/transformer_5/layer_normalization_12/batchnorm/mul/ReadVariableOp", "shape": [144], "dtype": "float32"}, {"name": "StatefulPartitionedCall/MobileViT-v3_v2_0.75/MobileViTBlock-2/sequential_14/transformer_5/sequential_13/dense_10/Tensordot/free", "shape": [3], "dtype": "int32"}, {"name": "StatefulPartitionedCall/MobileViT-v3_v2_0.75/MobileViTBlock-2/sequential_14/transformer_5/sequential_13/dense_10/Tensordot/GatherV2/axis", "shape": [], "dtype": "int32"}, {"name": "StatefulPartitionedCall/MobileViT-v3_v2_0.75/MobileViTBlock-2/sequential_14/transformer_5/sequential_13/dense_10/Tensordot/Const_2", "shape": [1], "dtype": "int32"}, {"name": "StatefulPartitionedCall/MobileViT-v3_v2_0.75/MobileViTBlock-2/sequential_14/transformer_5/sequential_13/dense_10/Tensordot/concat_1/axis", "shape": [], "dtype": "int32"}, {"name": "StatefulPartitionedCall/MobileViT-v3_v2_0.75/MobileViTBlock-2/sequential_14/transformer_5/sequential_13/dense_10/BiasAdd/Cast", "shape": [288], "dtype": "float32"}, {"name": "StatefulPartitionedCall/MobileViT-v3_v2_0.75/MobileViTBlock-2/sequential_14/transformer_5/sequential_13/dense_11/Tensordot/free", "shape": [3], "dtype": "int32"}, {"name": "StatefulPartitionedCall/MobileViT-v3_v2_0.75/MobileViTBlock-2/sequential_14/transformer_5/sequential_13/dense_11/Tensordot/GatherV2/axis", "shape": [], "dtype": "int32"}, {"name": "StatefulPartitionedCall/MobileViT-v3_v2_0.75/MobileViTBlock-2/sequential_14/transformer_5/sequential_13/dense_11/Tensordot/Const_2", "shape": [1], "dtype": "int32"}, {"name": "StatefulPartitionedCall/MobileViT-v3_v2_0.75/MobileViTBlock-2/sequential_14/transformer_5/sequential_13/dense_11/Tensordot/concat_1/axis", "shape": [], "dtype": "int32"}, {"name": "StatefulPartitionedCall/MobileViT-v3_v2_0.75/MobileViTBlock-2/sequential_14/transformer_5/sequential_13/dense_11/BiasAdd/Cast", "shape": [144], "dtype": "float32"}, {"name": "StatefulPartitionedCall/MobileViT-v3_v2_0.75/MobileViTBlock-2/sequential_14/layer_normalization_13/moments/mean/reduction_indices", "shape": [1], "dtype": "int32"}, {"name": "StatefulPartitionedCall/MobileViT-v3_v2_0.75/MobileViTBlock-2/sequential_14/layer_normalization_13/moments/variance/reduction_indices", "shape": [1], "dtype": "int32"}, {"name": "StatefulPartitionedCall/MobileViT-v3_v2_0.75/MobileViTBlock-2/sequential_14/layer_normalization_13/batchnorm/add/y", "shape": [], "dtype": "float32"}, {"name": "StatefulPartitionedCall/MobileViT-v3_v2_0.75/MobileViTBlock-2/sequential_14/layer_normalization_13/batchnorm/mul/ReadVariableOp", "shape": [144], "dtype": "float32"}, {"name": "StatefulPartitionedCall/MobileViT-v3_v2_0.75/MobileViTBlock-2/transpose_2/perm", "shape": [4], "dtype": "int32"}, {"name": "StatefulPartitionedCall/MobileViT-v3_v2_0.75/MobileViTBlock-2/mul_5", "shape": [], "dtype": "int32"}, {"name": "StatefulPartitionedCall/MobileViT-v3_v2_0.75/MobileViTBlock-2/transpose_3/perm", "shape": [4], "dtype": "int32"}, {"name": "StatefulPartitionedCall/MobileViT-v3_v2_0.75/MobileViTBlock-2/strided_slice/stack", "shape": [1], "dtype": "int32"}, {"name": "StatefulPartitionedCall/MobileViT-v3_v2_0.75/MobileViTBlock-2/strided_slice/stack_1", "shape": [1], "dtype": "int32"}, {"name": "StatefulPartitionedCall/MobileViT-v3_v2_0.75/MobileViTBlock-2/strided_slice/stack_2", "shape": [1], "dtype": "int32"}, {"name": "StatefulPartitionedCall/MobileViT-v3_v2_0.75/MobileViTBlock-2/strided_slice_1/stack", "shape": [1], "dtype": "int32"}, {"name": "StatefulPartitionedCall/MobileViT-v3_v2_0.75/MobileViTBlock-2/strided_slice_1/stack_1", "shape": [1], "dtype": "int32"}, {"name": "StatefulPartitionedCall/MobileViT-v3_v2_0.75/MobileViTBlock-2/strided_slice_1/stack_2", "shape": [1], "dtype": "int32"}, {"name": "unknown_124", "shape": [], "dtype": "int32"}, {"name": "StatefulPartitionedCall/MobileViT-v3_v2_0.75/MobileViTBlock-2/strided_slice_2/stack", "shape": [1], "dtype": "int32"}, {"name": "StatefulPartitionedCall/MobileViT-v3_v2_0.75/MobileViTBlock-2/strided_slice_2/stack_1", "shape": [1], "dtype": "int32"}, {"name": "StatefulPartitionedCall/MobileViT-v3_v2_0.75/MobileViTBlock-2/strided_slice_2/stack_2", "shape": [1], "dtype": "int32"}, {"name": "unknown_125", "shape": [], "dtype": "int32"}, {"name": "StatefulPartitionedCall/MobileViT-v3_v2_0.75/MobileViTBlock-2/Reshape_3/shape/3", "shape": [], "dtype": "int32"}, {"name": "StatefulPartitionedCall/MobileViT-v3_v2_0.75/MobileViTBlock-1/sequential_7/layer_normalization_4/batchnorm/ReadVariableOp", "shape": [96], "dtype": "float32"}, {"name": "StatefulPartitionedCall/MobileViT-v3_v2_0.75/MobileViTBlock-1/sequential_7/transformer_1/sequential_6/dense_3/Tensordot/Const", "shape": [1], "dtype": "int32"}, {"name": "StatefulPartitionedCall/MobileViT-v3_v2_0.75/MobileViTBlock-1/sequential_7/transformer_1/sequential_6/dense_3/Tensordot/axes", "shape": [1], "dtype": "int32"}, {"name": "StatefulPartitionedCall/MobileViT-v3_v2_0.75/MobileViTBlock-1/sequential_7/transformer_1/sequential_6/dense_3/Tensordot/GatherV2_1/axis", "shape": [], "dtype": "int32"}, {"name": "StatefulPartitionedCall/MobileViT-v3_v2_0.75/MobileViTBlock-1/sequential_7/transformer_1/sequential_6/dense_3/Tensordot/Const_1", "shape": [1], "dtype": "int32"}, {"name": "StatefulPartitionedCall/MobileViT-v3_v2_0.75/MobileViTBlock-1/sequential_7/transformer_1/sequential_6/dense_3/Tensordot/Cast", "shape": [192, 96], "dtype": "float32"}, {"name": "StatefulPartitionedCall/MobileViT-v3_v2_0.75/MobileViTBlock-1/sequential_7/transformer_1/sequential_6/dense_2/Tensordot/Const", "shape": [1], "dtype": "int32"}, {"name": "StatefulPartitionedCall/MobileViT-v3_v2_0.75/MobileViTBlock-1/sequential_7/transformer_1/sequential_6/dense_2/Tensordot/axes", "shape": [1], "dtype": "int32"}, {"name": "StatefulPartitionedCall/MobileViT-v3_v2_0.75/MobileViTBlock-1/sequential_7/transformer_1/sequential_6/dense_2/Tensordot/GatherV2_1/axis", "shape": [], "dtype": "int32"}, {"name": "StatefulPartitionedCall/MobileViT-v3_v2_0.75/MobileViTBlock-1/sequential_7/transformer_1/sequential_6/dense_2/Tensordot/Const_1", "shape": [1], "dtype": "int32"}, {"name": "StatefulPartitionedCall/MobileViT-v3_v2_0.75/MobileViTBlock-1/sequential_7/transformer_1/sequential_6/dense_2/Tensordot/Cast", "shape": [96, 192], "dtype": "float32"}, {"name": "StatefulPartitionedCall/MobileViT-v3_v2_0.75/MobileViTBlock-1/sequential_7/transformer_1/layer_normalization_3/batchnorm/ReadVariableOp", "shape": [96], "dtype": "float32"}, {"name": "StatefulPartitionedCall/MobileViT-v3_v2_0.75/MobileViTBlock-1/sequential_7/transformer_1/linear_self_attention_1/einsum_dense_3/add/Cast", "shape": [96], "dtype": "float32"}, {"name": "StatefulPartitionedCall/MobileViT-v3_v2_0.75/MobileViTBlock-1/sequential_7/transformer_1/layer_normalization_2/batchnorm/ReadVariableOp", "shape": [96], "dtype": "float32"}, {"name": "StatefulPartitionedCall/MobileViT-v3_v2_0.75/MobileViTBlock-1/sequential_7/transformer/sequential_5/dense_1/Tensordot/Const", "shape": [1], "dtype": "int32"}, {"name": "StatefulPartitionedCall/MobileViT-v3_v2_0.75/MobileViTBlock-1/sequential_7/transformer/sequential_5/dense_1/Tensordot/axes", "shape": [1], "dtype": "int32"}, {"name": "StatefulPartitionedCall/MobileViT-v3_v2_0.75/MobileViTBlock-1/sequential_7/transformer/sequential_5/dense_1/Tensordot/GatherV2_1/axis", "shape": [], "dtype": "int32"}, {"name": "StatefulPartitionedCall/MobileViT-v3_v2_0.75/MobileViTBlock-1/sequential_7/transformer/sequential_5/dense_1/Tensordot/Const_1", "shape": [1], "dtype": "int32"}, {"name": "StatefulPartitionedCall/MobileViT-v3_v2_0.75/MobileViTBlock-1/sequential_7/transformer/sequential_5/dense_1/Tensordot/Cast", "shape": [192, 96], "dtype": "float32"}, {"name": "StatefulPartitionedCall/MobileViT-v3_v2_0.75/MobileViTBlock-1/sequential_7/transformer/sequential_5/dense/Tensordot/Const", "shape": [1], "dtype": "int32"}, {"name": "StatefulPartitionedCall/MobileViT-v3_v2_0.75/MobileViTBlock-1/sequential_7/transformer/sequential_5/dense/Tensordot/axes", "shape": [1], "dtype": "int32"}, {"name": "StatefulPartitionedCall/MobileViT-v3_v2_0.75/MobileViTBlock-1/sequential_7/transformer/sequential_5/dense/Tensordot/GatherV2_1/axis", "shape": [], "dtype": "int32"}, {"name": "StatefulPartitionedCall/MobileViT-v3_v2_0.75/MobileViTBlock-1/sequential_7/transformer/sequential_5/dense/Tensordot/Const_1", "shape": [1], "dtype": "int32"}, {"name": "StatefulPartitionedCall/MobileViT-v3_v2_0.75/MobileViTBlock-1/sequential_7/transformer/sequential_5/dense/Tensordot/Cast", "shape": [96, 192], "dtype": "float32"}, {"name": "StatefulPartitionedCall/MobileViT-v3_v2_0.75/MobileViTBlock-1/sequential_7/transformer/layer_normalization_1/batchnorm/ReadVariableOp", "shape": [96], "dtype": "float32"}, {"name": "StatefulPartitionedCall/MobileViT-v3_v2_0.75/MobileViTBlock-1/sequential_7/transformer/linear_self_attention/einsum_dense_1/add/Cast", "shape": [96], "dtype": "float32"}, {"name": "StatefulPartitionedCall/MobileViT-v3_v2_0.75/MobileViTBlock-1/sequential_7/transformer/layer_normalization/batchnorm/ReadVariableOp", "shape": [96], "dtype": "float32"}, {"name": "StatefulPartitionedCall/MobileViT-v3_v2_0.75/MobileViTBlock-1/mul_1", "shape": [], "dtype": "int32"}, {"name": "StatefulPartitionedCall/MobileViT-v3_v2_0.75/MobileViTBlock-1/transpose/perm", "shape": [4], "dtype": "int32"}, {"name": "StatefulPartitionedCall/MobileViT-v3_v2_0.75/MobileViTBlock-1/mul_3", "shape": [], "dtype": "int32"}, {"name": "StatefulPartitionedCall/MobileViT-v3_v2_0.75/MobileViTBlock-1/Reshape_1/shape/3", "shape": [], "dtype": "int32"}, {"name": "StatefulPartitionedCall/MobileViT-v3_v2_0.75/MobileViTBlock-1/transpose_1/perm", "shape": [4], "dtype": "int32"}, {"name": "StatefulPartitionedCall/MobileViT-v3_v2_0.75/MobileViTBlock-1/sequential_7/transformer/layer_normalization/moments/mean/reduction_indices", "shape": [1], "dtype": "int32"}, {"name": "StatefulPartitionedCall/MobileViT-v3_v2_0.75/MobileViTBlock-1/sequential_7/transformer/layer_normalization/moments/variance/reduction_indices", "shape": [1], "dtype": "int32"}, {"name": "StatefulPartitionedCall/MobileViT-v3_v2_0.75/MobileViTBlock-1/sequential_7/transformer/layer_normalization/batchnorm/add/y", "shape": [], "dtype": "float32"}, {"name": "StatefulPartitionedCall/MobileViT-v3_v2_0.75/MobileViTBlock-1/sequential_7/transformer/layer_normalization/batchnorm/mul/ReadVariableOp", "shape": [96], "dtype": "float32"}, {"name": "StatefulPartitionedCall/MobileViT-v3_v2_0.75/MobileViTBlock-1/sequential_7/transformer/linear_self_attention/einsum_dense/einsum/Einsum/Cast", "shape": [96, 193], "dtype": "float32"}, {"name": "StatefulPartitionedCall/MobileViT-v3_v2_0.75/MobileViTBlock-1/sequential_7/transformer/linear_self_attention/einsum_dense/add/Cast", "shape": [193], "dtype": "float32"}, {"name": "StatefulPartitionedCall/MobileViT-v3_v2_0.75/MobileViTBlock-1/sequential_7/transformer/linear_self_attention/Const", "shape": [3], "dtype": "int32"}, {"name": "StatefulPartitionedCall/MobileViT-v3_v2_0.75/MobileViTBlock-1/sequential_7/transformer/linear_self_attention/split/split_dim", "shape": [], "dtype": "int32"}, {"name": "StatefulPartitionedCall/MobileViT-v3_v2_0.75/MobileViTBlock-1/sequential_7/transformer/linear_self_attention/concat", "shape": [4], "dtype": "int32"}, {"name": "StatefulPartitionedCall/MobileViT-v3_v2_0.75/MobileViTBlock-1/sequential_7/transformer/linear_self_attention/concat_1", "shape": [4], "dtype": "int32"}, {"name": "StatefulPartitionedCall/MobileViT-v3_v2_0.75/MobileViTBlock-1/sequential_7/transformer/linear_self_attention/Sum/reduction_indices", "shape": [], "dtype": "int32"}, {"name": "StatefulPartitionedCall/MobileViT-v3_v2_0.75/MobileViTBlock-1/sequential_7/transformer/linear_self_attention/einsum_dense_1/einsum/Einsum/Cast", "shape": [96, 96], "dtype": "float32"}, {"name": "StatefulPartitionedCall/MobileViT-v3_v2_0.75/MobileViTBlock-1/sequential_7/transformer/layer_normalization_1/moments/mean/reduction_indices", "shape": [1], "dtype": "int32"}, {"name": "StatefulPartitionedCall/MobileViT-v3_v2_0.75/MobileViTBlock-1/sequential_7/transformer/layer_normalization_1/moments/variance/reduction_indices", "shape": [1], "dtype": "int32"}, {"name": "StatefulPartitionedCall/MobileViT-v3_v2_0.75/MobileViTBlock-1/sequential_7/transformer/layer_normalization_1/batchnorm/add/y", "shape": [], "dtype": "float32"}, {"name": "StatefulPartitionedCall/MobileViT-v3_v2_0.75/MobileViTBlock-1/sequential_7/transformer/layer_normalization_1/batchnorm/mul/ReadVariableOp", "shape": [96], "dtype": "float32"}, {"name": "StatefulPartitionedCall/MobileViT-v3_v2_0.75/MobileViTBlock-1/sequential_7/transformer/sequential_5/dense/Tensordot/free", "shape": [3], "dtype": "int32"}, {"name": "StatefulPartitionedCall/MobileViT-v3_v2_0.75/MobileViTBlock-1/sequential_7/transformer/sequential_5/dense/Tensordot/GatherV2/axis", "shape": [], "dtype": "int32"}, {"name": "StatefulPartitionedCall/MobileViT-v3_v2_0.75/MobileViTBlock-1/sequential_7/transformer/sequential_5/dense/Tensordot/Const_2", "shape": [1], "dtype": "int32"}, {"name": "StatefulPartitionedCall/MobileViT-v3_v2_0.75/MobileViTBlock-1/sequential_7/transformer/sequential_5/dense/Tensordot/concat_1/axis", "shape": [], "dtype": "int32"}, {"name": "StatefulPartitionedCall/MobileViT-v3_v2_0.75/MobileViTBlock-1/sequential_7/transformer/sequential_5/dense/BiasAdd/Cast", "shape": [192], "dtype": "float32"}, {"name": "StatefulPartitionedCall/MobileViT-v3_v2_0.75/MobileViTBlock-1/sequential_7/transformer/sequential_5/dense_1/Tensordot/free", "shape": [3], "dtype": "int32"}, {"name": "StatefulPartitionedCall/MobileViT-v3_v2_0.75/MobileViTBlock-1/sequential_7/transformer/sequential_5/dense_1/Tensordot/GatherV2/axis", "shape": [], "dtype": "int32"}, {"name": "StatefulPartitionedCall/MobileViT-v3_v2_0.75/MobileViTBlock-1/sequential_7/transformer/sequential_5/dense_1/Tensordot/Const_2", "shape": [1], "dtype": "int32"}, {"name": "StatefulPartitionedCall/MobileViT-v3_v2_0.75/MobileViTBlock-1/sequential_7/transformer/sequential_5/dense_1/Tensordot/concat_1/axis", "shape": [], "dtype": "int32"}, {"name": "StatefulPartitionedCall/MobileViT-v3_v2_0.75/MobileViTBlock-1/sequential_7/transformer/sequential_5/dense_1/BiasAdd/Cast", "shape": [96], "dtype": "float32"}, {"name": "StatefulPartitionedCall/MobileViT-v3_v2_0.75/MobileViTBlock-1/sequential_7/transformer_1/layer_normalization_2/moments/mean/reduction_indices", "shape": [1], "dtype": "int32"}, {"name": "StatefulPartitionedCall/MobileViT-v3_v2_0.75/MobileViTBlock-1/sequential_7/transformer_1/layer_normalization_2/moments/variance/reduction_indices", "shape": [1], "dtype": "int32"}, {"name": "StatefulPartitionedCall/MobileViT-v3_v2_0.75/MobileViTBlock-1/sequential_7/transformer_1/layer_normalization_2/batchnorm/add/y", "shape": [], "dtype": "float32"}, {"name": "StatefulPartitionedCall/MobileViT-v3_v2_0.75/MobileViTBlock-1/sequential_7/transformer_1/layer_normalization_2/batchnorm/mul/ReadVariableOp", "shape": [96], "dtype": "float32"}, {"name": "StatefulPartitionedCall/MobileViT-v3_v2_0.75/MobileViTBlock-1/sequential_7/transformer_1/linear_self_attention_1/einsum_dense_2/einsum/Einsum/Cast", "shape": [96, 193], "dtype": "float32"}, {"name": "StatefulPartitionedCall/MobileViT-v3_v2_0.75/MobileViTBlock-1/sequential_7/transformer_1/linear_self_attention_1/einsum_dense_2/add/Cast", "shape": [193], "dtype": "float32"}, {"name": "StatefulPartitionedCall/MobileViT-v3_v2_0.75/MobileViTBlock-1/sequential_7/transformer_1/linear_self_attention_1/Const", "shape": [3], "dtype": "int32"}, {"name": "StatefulPartitionedCall/MobileViT-v3_v2_0.75/MobileViTBlock-1/sequential_7/transformer_1/linear_self_attention_1/split/split_dim", "shape": [], "dtype": "int32"}, {"name": "StatefulPartitionedCall/MobileViT-v3_v2_0.75/MobileViTBlock-1/sequential_7/transformer_1/linear_self_attention_1/concat", "shape": [4], "dtype": "int32"}, {"name": "StatefulPartitionedCall/MobileViT-v3_v2_0.75/MobileViTBlock-1/sequential_7/transformer_1/linear_self_attention_1/concat_1", "shape": [4], "dtype": "int32"}, {"name": "StatefulPartitionedCall/MobileViT-v3_v2_0.75/MobileViTBlock-1/sequential_7/transformer_1/linear_self_attention_1/Sum/reduction_indices", "shape": [], "dtype": "int32"}, {"name": "StatefulPartitionedCall/MobileViT-v3_v2_0.75/MobileViTBlock-1/sequential_7/transformer_1/linear_self_attention_1/einsum_dense_3/einsum/Einsum/Cast", "shape": [96, 96], "dtype": "float32"}, {"name": "StatefulPartitionedCall/MobileViT-v3_v2_0.75/MobileViTBlock-1/sequential_7/transformer_1/layer_normalization_3/moments/mean/reduction_indices", "shape": [1], "dtype": "int32"}, {"name": "StatefulPartitionedCall/MobileViT-v3_v2_0.75/MobileViTBlock-1/sequential_7/transformer_1/layer_normalization_3/moments/variance/reduction_indices", "shape": [1], "dtype": "int32"}, {"name": "StatefulPartitionedCall/MobileViT-v3_v2_0.75/MobileViTBlock-1/sequential_7/transformer_1/layer_normalization_3/batchnorm/add/y", "shape": [], "dtype": "float32"}, {"name": "StatefulPartitionedCall/MobileViT-v3_v2_0.75/MobileViTBlock-1/sequential_7/transformer_1/layer_normalization_3/batchnorm/mul/ReadVariableOp", "shape": [96], "dtype": "float32"}, {"name": "StatefulPartitionedCall/MobileViT-v3_v2_0.75/MobileViTBlock-1/sequential_7/transformer_1/sequential_6/dense_2/Tensordot/free", "shape": [3], "dtype": "int32"}, {"name": "StatefulPartitionedCall/MobileViT-v3_v2_0.75/MobileViTBlock-1/sequential_7/transformer_1/sequential_6/dense_2/Tensordot/GatherV2/axis", "shape": [], "dtype": "int32"}, {"name": "StatefulPartitionedCall/MobileViT-v3_v2_0.75/MobileViTBlock-1/sequential_7/transformer_1/sequential_6/dense_2/Tensordot/Const_2", "shape": [1], "dtype": "int32"}, {"name": "StatefulPartitionedCall/MobileViT-v3_v2_0.75/MobileViTBlock-1/sequential_7/transformer_1/sequential_6/dense_2/Tensordot/concat_1/axis", "shape": [], "dtype": "int32"}, {"name": "StatefulPartitionedCall/MobileViT-v3_v2_0.75/MobileViTBlock-1/sequential_7/transformer_1/sequential_6/dense_2/BiasAdd/Cast", "shape": [192], "dtype": "float32"}, {"name": "StatefulPartitionedCall/MobileViT-v3_v2_0.75/MobileViTBlock-1/sequential_7/transformer_1/sequential_6/dense_3/Tensordot/free", "shape": [3], "dtype": "int32"}, {"name": "StatefulPartitionedCall/MobileViT-v3_v2_0.75/MobileViTBlock-1/sequential_7/transformer_1/sequential_6/dense_3/Tensordot/GatherV2/axis", "shape": [], "dtype": "int32"}, {"name": "StatefulPartitionedCall/MobileViT-v3_v2_0.75/MobileViTBlock-1/sequential_7/transformer_1/sequential_6/dense_3/Tensordot/Const_2", "shape": [1], "dtype": "int32"}, {"name": "StatefulPartitionedCall/MobileViT-v3_v2_0.75/MobileViTBlock-1/sequential_7/transformer_1/sequential_6/dense_3/Tensordot/concat_1/axis", "shape": [], "dtype": "int32"}, {"name": "StatefulPartitionedCall/MobileViT-v3_v2_0.75/MobileViTBlock-1/sequential_7/transformer_1/sequential_6/dense_3/BiasAdd/Cast", "shape": [96], "dtype": "float32"}, {"name": "StatefulPartitionedCall/MobileViT-v3_v2_0.75/MobileViTBlock-1/sequential_7/layer_normalization_4/moments/mean/reduction_indices", "shape": [1], "dtype": "int32"}, {"name": "StatefulPartitionedCall/MobileViT-v3_v2_0.75/MobileViTBlock-1/sequential_7/layer_normalization_4/moments/variance/reduction_indices", "shape": [1], "dtype": "int32"}, {"name": "StatefulPartitionedCall/MobileViT-v3_v2_0.75/MobileViTBlock-1/sequential_7/layer_normalization_4/batchnorm/add/y", "shape": [], "dtype": "float32"}, {"name": "StatefulPartitionedCall/MobileViT-v3_v2_0.75/MobileViTBlock-1/sequential_7/layer_normalization_4/batchnorm/mul/ReadVariableOp", "shape": [96], "dtype": "float32"}, {"name": "StatefulPartitionedCall/MobileViT-v3_v2_0.75/MobileViTBlock-1/transpose_2/perm", "shape": [4], "dtype": "int32"}, {"name": "StatefulPartitionedCall/MobileViT-v3_v2_0.75/MobileViTBlock-1/mul_5", "shape": [], "dtype": "int32"}, {"name": "StatefulPartitionedCall/MobileViT-v3_v2_0.75/MobileViTBlock-1/transpose_3/perm", "shape": [4], "dtype": "int32"}, {"name": "StatefulPartitionedCall/MobileViT-v3_v2_0.75/MobileViTBlock-1/strided_slice/stack", "shape": [1], "dtype": "int32"}, {"name": "StatefulPartitionedCall/MobileViT-v3_v2_0.75/MobileViTBlock-1/strided_slice/stack_1", "shape": [1], "dtype": "int32"}, {"name": "StatefulPartitionedCall/MobileViT-v3_v2_0.75/MobileViTBlock-1/strided_slice/stack_2", "shape": [1], "dtype": "int32"}, {"name": "StatefulPartitionedCall/MobileViT-v3_v2_0.75/MobileViTBlock-1/strided_slice_1/stack", "shape": [1], "dtype": "int32"}, {"name": "StatefulPartitionedCall/MobileViT-v3_v2_0.75/MobileViTBlock-1/strided_slice_1/stack_1", "shape": [1], "dtype": "int32"}, {"name": "StatefulPartitionedCall/MobileViT-v3_v2_0.75/MobileViTBlock-1/strided_slice_1/stack_2", "shape": [1], "dtype": "int32"}, {"name": "unknown_70", "shape": [], "dtype": "int32"}, {"name": "StatefulPartitionedCall/MobileViT-v3_v2_0.75/MobileViTBlock-1/strided_slice_2/stack", "shape": [1], "dtype": "int32"}, {"name": "StatefulPartitionedCall/MobileViT-v3_v2_0.75/MobileViTBlock-1/strided_slice_2/stack_1", "shape": [1], "dtype": "int32"}, {"name": "StatefulPartitionedCall/MobileViT-v3_v2_0.75/MobileViTBlock-1/strided_slice_2/stack_2", "shape": [1], "dtype": "int32"}, {"name": "unknown_71", "shape": [], "dtype": "int32"}, {"name": "StatefulPartitionedCall/MobileViT-v3_v2_0.75/MobileViTBlock-1/Reshape_3/shape/3", "shape": [], "dtype": "int32"}, {"name": "StatefulPartitionedCall/MobileViT-v3_v2_0.75/MobileViTBlock-1/sequential_4/conv_layer_8/Conv_layer/conv2d_9/Conv2D/Cast", "shape": [1, 1, 192, 96], "dtype": "float32"}, {"name": "StatefulPartitionedCall/MobileViT-v3_v2_0.75/MobileViTBlock-1/concatenate/concat/axis", "shape": [], "dtype": "int32"}, {"name": "StatefulPartitionedCall/MobileViT-v3_v2_0.75/MobileViTBlock-2/sequential_9/conv_layer_12/Conv_layer/conv2d_13/Conv2D/Cast", "shape": [1, 1, 288, 144], "dtype": "float32"}, {"name": "StatefulPartitionedCall/MobileViT-v3_v2_0.75/MobileViTBlock-2/concatenate_1/concat/axis", "shape": [], "dtype": "int32"}, {"name": "StatefulPartitionedCall/MobileViT-v3_v2_0.75/MobileViTBlock-3/sequential_16/conv_layer_16/Conv_layer/conv2d_17/Conv2D/Cast", "shape": [1, 1, 384, 192], "dtype": "float32"}, {"name": "StatefulPartitionedCall/MobileViT-v3_v2_0.75/MobileViTBlock-3/concatenate_2/concat/axis", "shape": [], "dtype": "int32"}, {"name": "StatefulPartitionedCall/MobileViT-v3_v2_0.75/global_average_pooling2d/Mean/reduction_indices", "shape": [2], "dtype": "int32"}, {"name": "StatefulPartitionedCall/MobileViT-v3_v2_0.75/dense_18/MatMul/Cast", "shape": [384, 408], "dtype": "float32"}, {"name": "StatefulPartitionedCall/MobileViT-v3_v2_0.75/dense_18/BiasAdd/Cast", "shape": [408], "dtype": "float32"}, {"name": "StatefulPartitionedCall/MobileViT-v3_v2_0.75/block-1-Conv/Conv_layer/conv2d/Conv2D_weights", "shape": [3, 3, 1, 24], "dtype": "float32"}, {"name": "StatefulPartitionedCall/MobileViT-v3_v2_0.75/block-1-Conv/Conv_layer/conv2d/Conv2D_bn_offset", "shape": [24], "dtype": "float32"}, {"name": "StatefulPartitionedCall/MobileViT-v3_v2_0.75/block-1-IR2/sequential/conv_layer/Conv_layer/conv2d_1/Conv2D_weights", "shape": [1, 1, 24, 48], "dtype": "float32"}, {"name": "StatefulPartitionedCall/MobileViT-v3_v2_0.75/block-1-IR2/sequential/conv_layer/Conv_layer/conv2d_1/Conv2D_bn_offset", "shape": [48], "dtype": "float32"}, {"name": "StatefulPartitionedCall/MobileViT-v3_v2_0.75/block-1-IR2/sequential/depthwise_conv2d/depthwise_weights", "shape": [3, 3, 48, 1], "dtype": "float32"}, {"name": "StatefulPartitionedCall/MobileViT-v3_v2_0.75/block-1-IR2/sequential/depthwise_conv2d/depthwise_bn_offset", "shape": [48], "dtype": "float32"}, {"name": "StatefulPartitionedCall/MobileViT-v3_v2_0.75/block-1-IR2/sequential/conv_layer_1/Conv_layer/conv2d_2/Conv2D_weights", "shape": [1, 1, 48, 48], "dtype": "float32"}, {"name": "StatefulPartitionedCall/MobileViT-v3_v2_0.75/block-1-IR2/sequential/conv_layer_1/Conv_layer/conv2d_2/Conv2D_bn_offset", "shape": [48], "dtype": "float32"}, {"name": "StatefulPartitionedCall/MobileViT-v3_v2_0.75/block-2-IR1/sequential_1/conv_layer_2/Conv_layer/conv2d_3/Conv2D_weights", "shape": [1, 1, 48, 96], "dtype": "float32"}, {"name": "StatefulPartitionedCall/MobileViT-v3_v2_0.75/block-2-IR1/sequential_1/conv_layer_2/Conv_layer/conv2d_3/Conv2D_bn_offset", "shape": [96], "dtype": "float32"}, {"name": "StatefulPartitionedCall/MobileViT-v3_v2_0.75/block-2-IR1/sequential_1/depthwise_conv2d_1/depthwise_weights", "shape": [3, 3, 96, 1], "dtype": "float32"}, {"name": "StatefulPartitionedCall/MobileViT-v3_v2_0.75/block-2-IR1/sequential_1/depthwise_conv2d_1/depthwise_bn_offset", "shape": [96], "dtype": "float32"}, {"name": "StatefulPartitionedCall/MobileViT-v3_v2_0.75/block-2-IR1/sequential_1/conv_layer_3/Conv_layer/conv2d_4/Conv2D_weights", "shape": [1, 1, 96, 96], "dtype": "float32"}, {"name": "StatefulPartitionedCall/MobileViT-v3_v2_0.75/block-2-IR1/sequential_1/conv_layer_3/Conv_layer/conv2d_4/Conv2D_bn_offset", "shape": [96], "dtype": "float32"}, {"name": "StatefulPartitionedCall/MobileViT-v3_v2_0.75/block-2-IR2/sequential_2/conv_layer_4/Conv_layer/conv2d_5/Conv2D_weights", "shape": [1, 1, 96, 192], "dtype": "float32"}, {"name": "StatefulPartitionedCall/MobileViT-v3_v2_0.75/block-2-IR2/sequential_2/conv_layer_4/Conv_layer/conv2d_5/Conv2D_bn_offset", "shape": [192], "dtype": "float32"}, {"name": "StatefulPartitionedCall/MobileViT-v3_v2_0.75/block-2-IR2/sequential_2/depthwise_conv2d_2/depthwise_weights", "shape": [3, 3, 192, 1], "dtype": "float32"}, {"name": "StatefulPartitionedCall/MobileViT-v3_v2_0.75/block-2-IR2/sequential_2/depthwise_conv2d_2/depthwise_bn_offset", "shape": [192], "dtype": "float32"}, {"name": "StatefulPartitionedCall/MobileViT-v3_v2_0.75/block-2-IR2/sequential_2/conv_layer_5/Conv_layer/conv2d_6/Conv2D_weights", "shape": [1, 1, 192, 96], "dtype": "float32"}, {"name": "StatefulPartitionedCall/MobileViT-v3_v2_0.75/block-2-IR2/sequential_2/conv_layer_5/Conv_layer/conv2d_6/Conv2D_bn_offset", "shape": [96], "dtype": "float32"}, {"name": "StatefulPartitionedCall/MobileViT-v3_v2_0.75/block-3-IR1/sequential_3/conv_layer_6/Conv_layer/conv2d_7/Conv2D_weights", "shape": [1, 1, 96, 192], "dtype": "float32"}, {"name": "StatefulPartitionedCall/MobileViT-v3_v2_0.75/block-3-IR1/sequential_3/conv_layer_6/Conv_layer/conv2d_7/Conv2D_bn_offset", "shape": [192], "dtype": "float32"}, {"name": "StatefulPartitionedCall/MobileViT-v3_v2_0.75/block-3-IR1/sequential_3/depthwise_conv2d_3/depthwise_weights", "shape": [3, 3, 192, 1], "dtype": "float32"}, {"name": "StatefulPartitionedCall/MobileViT-v3_v2_0.75/block-3-IR1/sequential_3/depthwise_conv2d_3/depthwise_bn_offset", "shape": [192], "dtype": "float32"}, {"name": "StatefulPartitionedCall/MobileViT-v3_v2_0.75/block-3-IR1/sequential_3/conv_layer_7/Conv_layer/conv2d_8/Conv2D_weights", "shape": [1, 1, 192, 192], "dtype": "float32"}, {"name": "StatefulPartitionedCall/MobileViT-v3_v2_0.75/block-3-IR1/sequential_3/conv_layer_7/Conv_layer/conv2d_8/Conv2D_bn_offset", "shape": [192], "dtype": "float32"}, {"name": "StatefulPartitionedCall/MobileViT-v3_v2_0.75/MobileViTBlock-1/sequential_4/depthwise_conv2d_4/depthwise_weights", "shape": [3, 3, 192, 1], "dtype": "float32"}, {"name": "StatefulPartitionedCall/MobileViT-v3_v2_0.75/MobileViTBlock-1/sequential_4/depthwise_conv2d_4/depthwise_bn_offset", "shape": [192], "dtype": "float32"}, {"name": "StatefulPartitionedCall/MobileViT-v3_v2_0.75/MobileViTBlock-1/conv_layer_9/Conv_layer/conv2d_10/Conv2D_weights", "shape": [1, 1, 192, 192], "dtype": "float32"}, {"name": "StatefulPartitionedCall/MobileViT-v3_v2_0.75/MobileViTBlock-1/conv_layer_9/Conv_layer/conv2d_10/Conv2D_bn_offset", "shape": [192], "dtype": "float32"}, {"name": "StatefulPartitionedCall/MobileViT-v3_v2_0.75/block-4-IR1/sequential_8/conv_layer_10/Conv_layer/conv2d_11/Conv2D_weights", "shape": [1, 1, 192, 384], "dtype": "float32"}, {"name": "StatefulPartitionedCall/MobileViT-v3_v2_0.75/block-4-IR1/sequential_8/conv_layer_10/Conv_layer/conv2d_11/Conv2D_bn_offset", "shape": [384], "dtype": "float32"}, {"name": "StatefulPartitionedCall/MobileViT-v3_v2_0.75/block-4-IR1/sequential_8/depthwise_conv2d_5/depthwise_weights", "shape": [3, 3, 384, 1], "dtype": "float32"}, {"name": "StatefulPartitionedCall/MobileViT-v3_v2_0.75/block-4-IR1/sequential_8/depthwise_conv2d_5/depthwise_bn_offset", "shape": [384], "dtype": "float32"}, {"name": "StatefulPartitionedCall/MobileViT-v3_v2_0.75/block-4-IR1/sequential_8/conv_layer_11/Conv_layer/conv2d_12/Conv2D_weights", "shape": [1, 1, 384, 288], "dtype": "float32"}, {"name": "StatefulPartitionedCall/MobileViT-v3_v2_0.75/block-4-IR1/sequential_8/conv_layer_11/Conv_layer/conv2d_12/Conv2D_bn_offset", "shape": [288], "dtype": "float32"}, {"name": "StatefulPartitionedCall/MobileViT-v3_v2_0.75/MobileViTBlock-2/sequential_9/depthwise_conv2d_6/depthwise_weights", "shape": [3, 3, 288, 1], "dtype": "float32"}, {"name": "StatefulPartitionedCall/MobileViT-v3_v2_0.75/MobileViTBlock-2/sequential_9/depthwise_conv2d_6/depthwise_bn_offset", "shape": [288], "dtype": "float32"}, {"name": "StatefulPartitionedCall/MobileViT-v3_v2_0.75/MobileViTBlock-2/conv_layer_13/Conv_layer/conv2d_14/Conv2D_weights", "shape": [1, 1, 288, 288], "dtype": "float32"}, {"name": "StatefulPartitionedCall/MobileViT-v3_v2_0.75/MobileViTBlock-2/conv_layer_13/Conv_layer/conv2d_14/Conv2D_bn_offset", "shape": [288], "dtype": "float32"}, {"name": "StatefulPartitionedCall/MobileViT-v3_v2_0.75/block-5-IR1/sequential_15/conv_layer_14/Conv_layer/conv2d_15/Conv2D_weights", "shape": [1, 1, 288, 576], "dtype": "float32"}, {"name": "StatefulPartitionedCall/MobileViT-v3_v2_0.75/block-5-IR1/sequential_15/conv_layer_14/Conv_layer/conv2d_15/Conv2D_bn_offset", "shape": [576], "dtype": "float32"}, {"name": "StatefulPartitionedCall/MobileViT-v3_v2_0.75/block-5-IR1/sequential_15/depthwise_conv2d_7/depthwise_weights", "shape": [3, 3, 576, 1], "dtype": "float32"}, {"name": "StatefulPartitionedCall/MobileViT-v3_v2_0.75/block-5-IR1/sequential_15/depthwise_conv2d_7/depthwise_bn_offset", "shape": [576], "dtype": "float32"}, {"name": "StatefulPartitionedCall/MobileViT-v3_v2_0.75/block-5-IR1/sequential_15/conv_layer_15/Conv_layer/conv2d_16/Conv2D_weights", "shape": [1, 1, 576, 384], "dtype": "float32"}, {"name": "StatefulPartitionedCall/MobileViT-v3_v2_0.75/block-5-IR1/sequential_15/conv_layer_15/Conv_layer/conv2d_16/Conv2D_bn_offset", "shape": [384], "dtype": "float32"}, {"name": "StatefulPartitionedCall/MobileViT-v3_v2_0.75/MobileViTBlock-3/sequential_16/depthwise_conv2d_8/depthwise_weights", "shape": [3, 3, 384, 1], "dtype": "float32"}, {"name": "StatefulPartitionedCall/MobileViT-v3_v2_0.75/MobileViTBlock-3/sequential_16/depthwise_conv2d_8/depthwise_bn_offset", "shape": [384], "dtype": "float32"}, {"name": "StatefulPartitionedCall/MobileViT-v3_v2_0.75/MobileViTBlock-3/conv_layer_17/Conv_layer/conv2d_18/Conv2D_weights", "shape": [1, 1, 384, 384], "dtype": "float32"}, {"name": "StatefulPartitionedCall/MobileViT-v3_v2_0.75/MobileViTBlock-3/conv_layer_17/Conv_layer/conv2d_18/Conv2D_bn_offset", "shape": [384], "dtype": "float32"}]}]}