{"format": "graph-model", "generatedBy": "2.7.0", "convertedBy": "TensorFlow.js Converter v3.13.0", "signature": {"inputs": {"input": {"name": "input:0", "dtype": "DT_FLOAT", "tensorShape": {"dim": [{"size": "-1"}, {"size": "256"}, {"size": "384"}, {"size": "1"}]}}}, "outputs": {"dense": {"name": "Identity:0", "dtype": "DT_FLOAT", "tensorShape": {"dim": [{"size": "-1"}, {"size": "309"}]}}}}, "modelTopology": {"node": [{"name": "StatefulPartitionedCall/model/zero_padding2d/Pad/paddings", "op": "Const", "attr": {"value": {"tensor": {"dtype": "DT_INT32", "tensorShape": {"dim": [{"size": "4"}, {"size": "2"}]}}}, "dtype": {"type": "DT_INT32"}}}, {"name": "StatefulPartitionedCall/model/zero_padding2d_1/Pad/paddings", "op": "Const", "attr": {"dtype": {"type": "DT_INT32"}, "value": {"tensor": {"dtype": "DT_INT32", "tensorShape": {"dim": [{"size": "4"}, {"size": "2"}]}}}}}, {"name": "StatefulPartitionedCall/model/conv2_block1_0_bn/ReadVariableOp", "op": "Const", "attr": {"value": {"tensor": {"dtype": "DT_FLOAT", "tensorShape": {"dim": [{"size": "64"}]}}}, "dtype": {"type": "DT_FLOAT"}}}, {"name": "StatefulPartitionedCall/model/conv2_block1_0_bn/ReadVariableOp_1", "op": "Const", "attr": {"dtype": {"type": "DT_FLOAT"}, "value": {"tensor": {"dtype": "DT_FLOAT", "tensorShape": {"dim": [{"size": "64"}]}}}}}, {"name": "StatefulPartitionedCall/model/conv2_block1_0_bn/FusedBatchNormV3/ReadVariableOp", "op": "Const", "attr": {"value": {"tensor": {"dtype": "DT_FLOAT", "tensorShape": {"dim": [{"size": "64"}]}}}, "dtype": {"type": "DT_FLOAT"}}}, {"name": "StatefulPartitionedCall/model/conv2_block1_0_bn/FusedBatchNormV3/ReadVariableOp_1", "op": "Const", "attr": {"dtype": {"type": "DT_FLOAT"}, "value": {"tensor": {"dtype": "DT_FLOAT", "tensorShape": {"dim": [{"size": "64"}]}}}}}, {"name": "StatefulPartitionedCall/model/conv2_block1_2_conv/Conv2D/Cast", "op": "Const", "attr": {"value": {"tensor": {"dtype": "DT_HALF", "tensorShape": {"dim": [{"size": "3"}, {"size": "3"}, {"size": "128"}, {"size": "32"}]}}}, "dtype": {"type": "DT_HALF"}}}, {"name": "StatefulPartitionedCall/model/conv2_block1_concat/concat/axis", "op": "Const", "attr": {"dtype": {"type": "DT_INT32"}, "value": {"tensor": {"dtype": "DT_INT32", "tensorShape": {}}}}}, {"name": "StatefulPartitionedCall/model/conv2_block2_0_bn/ReadVariableOp", "op": "Const", "attr": {"value": {"tensor": {"dtype": "DT_FLOAT", "tensorShape": {"dim": [{"size": "96"}]}}}, "dtype": {"type": "DT_FLOAT"}}}, {"name": "StatefulPartitionedCall/model/conv2_block2_0_bn/ReadVariableOp_1", "op": "Const", "attr": {"value": {"tensor": {"dtype": "DT_FLOAT", "tensorShape": {"dim": [{"size": "96"}]}}}, "dtype": {"type": "DT_FLOAT"}}}, {"name": "StatefulPartitionedCall/model/conv2_block2_0_bn/FusedBatchNormV3/ReadVariableOp", "op": "Const", "attr": {"value": {"tensor": {"dtype": "DT_FLOAT", "tensorShape": {"dim": [{"size": "96"}]}}}, "dtype": {"type": "DT_FLOAT"}}}, {"name": "StatefulPartitionedCall/model/conv2_block2_0_bn/FusedBatchNormV3/ReadVariableOp_1", "op": "Const", "attr": {"dtype": {"type": "DT_FLOAT"}, "value": {"tensor": {"dtype": "DT_FLOAT", "tensorShape": {"dim": [{"size": "96"}]}}}}}, {"name": "StatefulPartitionedCall/model/conv2_block2_2_conv/Conv2D/Cast", "op": "Const", "attr": {"dtype": {"type": "DT_HALF"}, "value": {"tensor": {"dtype": "DT_HALF", "tensorShape": {"dim": [{"size": "3"}, {"size": "3"}, {"size": "128"}, {"size": "32"}]}}}}}, {"name": "StatefulPartitionedCall/model/conv2_block2_concat/concat/axis", "op": "Const", "attr": {"dtype": {"type": "DT_INT32"}, "value": {"tensor": {"dtype": "DT_INT32", "tensorShape": {}}}}}, {"name": "StatefulPartitionedCall/model/conv2_block3_0_bn/ReadVariableOp", "op": "Const", "attr": {"value": {"tensor": {"dtype": "DT_FLOAT", "tensorShape": {"dim": [{"size": "128"}]}}}, "dtype": {"type": "DT_FLOAT"}}}, {"name": "StatefulPartitionedCall/model/conv2_block3_0_bn/ReadVariableOp_1", "op": "Const", "attr": {"value": {"tensor": {"dtype": "DT_FLOAT", "tensorShape": {"dim": [{"size": "128"}]}}}, "dtype": {"type": "DT_FLOAT"}}}, {"name": "StatefulPartitionedCall/model/conv2_block3_0_bn/FusedBatchNormV3/ReadVariableOp", "op": "Const", "attr": {"dtype": {"type": "DT_FLOAT"}, "value": {"tensor": {"dtype": "DT_FLOAT", "tensorShape": {"dim": [{"size": "128"}]}}}}}, {"name": "StatefulPartitionedCall/model/conv2_block3_0_bn/FusedBatchNormV3/ReadVariableOp_1", "op": "Const", "attr": {"dtype": {"type": "DT_FLOAT"}, "value": {"tensor": {"dtype": "DT_FLOAT", "tensorShape": {"dim": [{"size": "128"}]}}}}}, {"name": "StatefulPartitionedCall/model/conv2_block3_2_conv/Conv2D/Cast", "op": "Const", "attr": {"dtype": {"type": "DT_HALF"}, "value": {"tensor": {"dtype": "DT_HALF", "tensorShape": {"dim": [{"size": "3"}, {"size": "3"}, {"size": "128"}, {"size": "32"}]}}}}}, {"name": "StatefulPartitionedCall/model/conv2_block3_concat/concat/axis", "op": "Const", "attr": {"dtype": {"type": "DT_INT32"}, "value": {"tensor": {"dtype": "DT_INT32", "tensorShape": {}}}}}, {"name": "StatefulPartitionedCall/model/conv2_block4_0_bn/ReadVariableOp", "op": "Const", "attr": {"dtype": {"type": "DT_FLOAT"}, "value": {"tensor": {"dtype": "DT_FLOAT", "tensorShape": {"dim": [{"size": "160"}]}}}}}, {"name": "StatefulPartitionedCall/model/conv2_block4_0_bn/ReadVariableOp_1", "op": "Const", "attr": {"dtype": {"type": "DT_FLOAT"}, "value": {"tensor": {"dtype": "DT_FLOAT", "tensorShape": {"dim": [{"size": "160"}]}}}}}, {"name": "StatefulPartitionedCall/model/conv2_block4_0_bn/FusedBatchNormV3/ReadVariableOp", "op": "Const", "attr": {"dtype": {"type": "DT_FLOAT"}, "value": {"tensor": {"dtype": "DT_FLOAT", "tensorShape": {"dim": [{"size": "160"}]}}}}}, {"name": "StatefulPartitionedCall/model/conv2_block4_0_bn/FusedBatchNormV3/ReadVariableOp_1", "op": "Const", "attr": {"value": {"tensor": {"dtype": "DT_FLOAT", "tensorShape": {"dim": [{"size": "160"}]}}}, "dtype": {"type": "DT_FLOAT"}}}, {"name": "StatefulPartitionedCall/model/conv2_block4_2_conv/Conv2D/Cast", "op": "Const", "attr": {"dtype": {"type": "DT_HALF"}, "value": {"tensor": {"dtype": "DT_HALF", "tensorShape": {"dim": [{"size": "3"}, {"size": "3"}, {"size": "128"}, {"size": "32"}]}}}}}, {"name": "StatefulPartitionedCall/model/conv2_block4_concat/concat/axis", "op": "Const", "attr": {"dtype": {"type": "DT_INT32"}, "value": {"tensor": {"dtype": "DT_INT32", "tensorShape": {}}}}}, {"name": "StatefulPartitionedCall/model/conv2_block5_0_bn/ReadVariableOp", "op": "Const", "attr": {"dtype": {"type": "DT_FLOAT"}, "value": {"tensor": {"dtype": "DT_FLOAT", "tensorShape": {"dim": [{"size": "192"}]}}}}}, {"name": "StatefulPartitionedCall/model/conv2_block5_0_bn/ReadVariableOp_1", "op": "Const", "attr": {"value": {"tensor": {"dtype": "DT_FLOAT", "tensorShape": {"dim": [{"size": "192"}]}}}, "dtype": {"type": "DT_FLOAT"}}}, {"name": "StatefulPartitionedCall/model/conv2_block5_0_bn/FusedBatchNormV3/ReadVariableOp", "op": "Const", "attr": {"value": {"tensor": {"dtype": "DT_FLOAT", "tensorShape": {"dim": [{"size": "192"}]}}}, "dtype": {"type": "DT_FLOAT"}}}, {"name": "StatefulPartitionedCall/model/conv2_block5_0_bn/FusedBatchNormV3/ReadVariableOp_1", "op": "Const", "attr": {"dtype": {"type": "DT_FLOAT"}, "value": {"tensor": {"dtype": "DT_FLOAT", "tensorShape": {"dim": [{"size": "192"}]}}}}}, {"name": "StatefulPartitionedCall/model/conv2_block5_2_conv/Conv2D/Cast", "op": "Const", "attr": {"dtype": {"type": "DT_HALF"}, "value": {"tensor": {"dtype": "DT_HALF", "tensorShape": {"dim": [{"size": "3"}, {"size": "3"}, {"size": "128"}, {"size": "32"}]}}}}}, {"name": "StatefulPartitionedCall/model/conv2_block5_concat/concat/axis", "op": "Const", "attr": {"value": {"tensor": {"dtype": "DT_INT32", "tensorShape": {}}}, "dtype": {"type": "DT_INT32"}}}, {"name": "StatefulPartitionedCall/model/conv2_block6_0_bn/ReadVariableOp", "op": "Const", "attr": {"value": {"tensor": {"dtype": "DT_FLOAT", "tensorShape": {"dim": [{"size": "224"}]}}}, "dtype": {"type": "DT_FLOAT"}}}, {"name": "StatefulPartitionedCall/model/conv2_block6_0_bn/ReadVariableOp_1", "op": "Const", "attr": {"dtype": {"type": "DT_FLOAT"}, "value": {"tensor": {"dtype": "DT_FLOAT", "tensorShape": {"dim": [{"size": "224"}]}}}}}, {"name": "StatefulPartitionedCall/model/conv2_block6_0_bn/FusedBatchNormV3/ReadVariableOp", "op": "Const", "attr": {"value": {"tensor": {"dtype": "DT_FLOAT", "tensorShape": {"dim": [{"size": "224"}]}}}, "dtype": {"type": "DT_FLOAT"}}}, {"name": "StatefulPartitionedCall/model/conv2_block6_0_bn/FusedBatchNormV3/ReadVariableOp_1", "op": "Const", "attr": {"dtype": {"type": "DT_FLOAT"}, "value": {"tensor": {"dtype": "DT_FLOAT", "tensorShape": {"dim": [{"size": "224"}]}}}}}, {"name": "StatefulPartitionedCall/model/conv2_block6_2_conv/Conv2D/Cast", "op": "Const", "attr": {"dtype": {"type": "DT_HALF"}, "value": {"tensor": {"dtype": "DT_HALF", "tensorShape": {"dim": [{"size": "3"}, {"size": "3"}, {"size": "128"}, {"size": "32"}]}}}}}, {"name": "StatefulPartitionedCall/model/conv2_block6_concat/concat/axis", "op": "Const", "attr": {"dtype": {"type": "DT_INT32"}, "value": {"tensor": {"dtype": "DT_INT32", "tensorShape": {}}}}}, {"name": "StatefulPartitionedCall/model/pool2_bn/ReadVariableOp", "op": "Const", "attr": {"dtype": {"type": "DT_FLOAT"}, "value": {"tensor": {"dtype": "DT_FLOAT", "tensorShape": {"dim": [{"size": "256"}]}}}}}, {"name": "StatefulPartitionedCall/model/pool2_bn/ReadVariableOp_1", "op": "Const", "attr": {"dtype": {"type": "DT_FLOAT"}, "value": {"tensor": {"dtype": "DT_FLOAT", "tensorShape": {"dim": [{"size": "256"}]}}}}}, {"name": "StatefulPartitionedCall/model/pool2_bn/FusedBatchNormV3/ReadVariableOp", "op": "Const", "attr": {"value": {"tensor": {"dtype": "DT_FLOAT", "tensorShape": {"dim": [{"size": "256"}]}}}, "dtype": {"type": "DT_FLOAT"}}}, {"name": "StatefulPartitionedCall/model/pool2_bn/FusedBatchNormV3/ReadVariableOp_1", "op": "Const", "attr": {"dtype": {"type": "DT_FLOAT"}, "value": {"tensor": {"dtype": "DT_FLOAT", "tensorShape": {"dim": [{"size": "256"}]}}}}}, {"name": "StatefulPartitionedCall/model/pool2_conv/Conv2D/Cast", "op": "Const", "attr": {"value": {"tensor": {"dtype": "DT_HALF", "tensorShape": {"dim": [{"size": "1"}, {"size": "1"}, {"size": "256"}, {"size": "128"}]}}}, "dtype": {"type": "DT_HALF"}}}, {"name": "StatefulPartitionedCall/model/conv3_block1_0_bn/ReadVariableOp", "op": "Const", "attr": {"dtype": {"type": "DT_FLOAT"}, "value": {"tensor": {"dtype": "DT_FLOAT", "tensorShape": {"dim": [{"size": "128"}]}}}}}, {"name": "StatefulPartitionedCall/model/conv3_block1_0_bn/ReadVariableOp_1", "op": "Const", "attr": {"value": {"tensor": {"dtype": "DT_FLOAT", "tensorShape": {"dim": [{"size": "128"}]}}}, "dtype": {"type": "DT_FLOAT"}}}, {"name": "StatefulPartitionedCall/model/conv3_block1_0_bn/FusedBatchNormV3/ReadVariableOp", "op": "Const", "attr": {"value": {"tensor": {"dtype": "DT_FLOAT", "tensorShape": {"dim": [{"size": "128"}]}}}, "dtype": {"type": "DT_FLOAT"}}}, {"name": "StatefulPartitionedCall/model/conv3_block1_0_bn/FusedBatchNormV3/ReadVariableOp_1", "op": "Const", "attr": {"value": {"tensor": {"dtype": "DT_FLOAT", "tensorShape": {"dim": [{"size": "128"}]}}}, "dtype": {"type": "DT_FLOAT"}}}, {"name": "StatefulPartitionedCall/model/conv3_block1_2_conv/Conv2D/Cast", "op": "Const", "attr": {"value": {"tensor": {"dtype": "DT_HALF", "tensorShape": {"dim": [{"size": "3"}, {"size": "3"}, {"size": "128"}, {"size": "32"}]}}}, "dtype": {"type": "DT_HALF"}}}, {"name": "StatefulPartitionedCall/model/conv3_block1_concat/concat/axis", "op": "Const", "attr": {"value": {"tensor": {"dtype": "DT_INT32", "tensorShape": {}}}, "dtype": {"type": "DT_INT32"}}}, {"name": "StatefulPartitionedCall/model/conv3_block2_0_bn/ReadVariableOp", "op": "Const", "attr": {"value": {"tensor": {"dtype": "DT_FLOAT", "tensorShape": {"dim": [{"size": "160"}]}}}, "dtype": {"type": "DT_FLOAT"}}}, {"name": "StatefulPartitionedCall/model/conv3_block2_0_bn/ReadVariableOp_1", "op": "Const", "attr": {"dtype": {"type": "DT_FLOAT"}, "value": {"tensor": {"dtype": "DT_FLOAT", "tensorShape": {"dim": [{"size": "160"}]}}}}}, {"name": "StatefulPartitionedCall/model/conv3_block2_0_bn/FusedBatchNormV3/ReadVariableOp", "op": "Const", "attr": {"dtype": {"type": "DT_FLOAT"}, "value": {"tensor": {"dtype": "DT_FLOAT", "tensorShape": {"dim": [{"size": "160"}]}}}}}, {"name": "StatefulPartitionedCall/model/conv3_block2_0_bn/FusedBatchNormV3/ReadVariableOp_1", "op": "Const", "attr": {"dtype": {"type": "DT_FLOAT"}, "value": {"tensor": {"dtype": "DT_FLOAT", "tensorShape": {"dim": [{"size": "160"}]}}}}}, {"name": "StatefulPartitionedCall/model/conv3_block2_2_conv/Conv2D/Cast", "op": "Const", "attr": {"value": {"tensor": {"dtype": "DT_HALF", "tensorShape": {"dim": [{"size": "3"}, {"size": "3"}, {"size": "128"}, {"size": "32"}]}}}, "dtype": {"type": "DT_HALF"}}}, {"name": "StatefulPartitionedCall/model/conv3_block2_concat/concat/axis", "op": "Const", "attr": {"value": {"tensor": {"dtype": "DT_INT32", "tensorShape": {}}}, "dtype": {"type": "DT_INT32"}}}, {"name": "StatefulPartitionedCall/model/conv3_block3_0_bn/ReadVariableOp", "op": "Const", "attr": {"value": {"tensor": {"dtype": "DT_FLOAT", "tensorShape": {"dim": [{"size": "192"}]}}}, "dtype": {"type": "DT_FLOAT"}}}, {"name": "StatefulPartitionedCall/model/conv3_block3_0_bn/ReadVariableOp_1", "op": "Const", "attr": {"dtype": {"type": "DT_FLOAT"}, "value": {"tensor": {"dtype": "DT_FLOAT", "tensorShape": {"dim": [{"size": "192"}]}}}}}, {"name": "StatefulPartitionedCall/model/conv3_block3_0_bn/FusedBatchNormV3/ReadVariableOp", "op": "Const", "attr": {"dtype": {"type": "DT_FLOAT"}, "value": {"tensor": {"dtype": "DT_FLOAT", "tensorShape": {"dim": [{"size": "192"}]}}}}}, {"name": "StatefulPartitionedCall/model/conv3_block3_0_bn/FusedBatchNormV3/ReadVariableOp_1", "op": "Const", "attr": {"value": {"tensor": {"dtype": "DT_FLOAT", "tensorShape": {"dim": [{"size": "192"}]}}}, "dtype": {"type": "DT_FLOAT"}}}, {"name": "StatefulPartitionedCall/model/conv3_block3_2_conv/Conv2D/Cast", "op": "Const", "attr": {"dtype": {"type": "DT_HALF"}, "value": {"tensor": {"dtype": "DT_HALF", "tensorShape": {"dim": [{"size": "3"}, {"size": "3"}, {"size": "128"}, {"size": "32"}]}}}}}, {"name": "StatefulPartitionedCall/model/conv3_block3_concat/concat/axis", "op": "Const", "attr": {"dtype": {"type": "DT_INT32"}, "value": {"tensor": {"dtype": "DT_INT32", "tensorShape": {}}}}}, {"name": "StatefulPartitionedCall/model/conv3_block4_0_bn/ReadVariableOp", "op": "Const", "attr": {"value": {"tensor": {"dtype": "DT_FLOAT", "tensorShape": {"dim": [{"size": "224"}]}}}, "dtype": {"type": "DT_FLOAT"}}}, {"name": "StatefulPartitionedCall/model/conv3_block4_0_bn/ReadVariableOp_1", "op": "Const", "attr": {"value": {"tensor": {"dtype": "DT_FLOAT", "tensorShape": {"dim": [{"size": "224"}]}}}, "dtype": {"type": "DT_FLOAT"}}}, {"name": "StatefulPartitionedCall/model/conv3_block4_0_bn/FusedBatchNormV3/ReadVariableOp", "op": "Const", "attr": {"dtype": {"type": "DT_FLOAT"}, "value": {"tensor": {"dtype": "DT_FLOAT", "tensorShape": {"dim": [{"size": "224"}]}}}}}, {"name": "StatefulPartitionedCall/model/conv3_block4_0_bn/FusedBatchNormV3/ReadVariableOp_1", "op": "Const", "attr": {"dtype": {"type": "DT_FLOAT"}, "value": {"tensor": {"dtype": "DT_FLOAT", "tensorShape": {"dim": [{"size": "224"}]}}}}}, {"name": "StatefulPartitionedCall/model/conv3_block4_2_conv/Conv2D/Cast", "op": "Const", "attr": {"dtype": {"type": "DT_HALF"}, "value": {"tensor": {"dtype": "DT_HALF", "tensorShape": {"dim": [{"size": "3"}, {"size": "3"}, {"size": "128"}, {"size": "32"}]}}}}}, {"name": "StatefulPartitionedCall/model/conv3_block4_concat/concat/axis", "op": "Const", "attr": {"dtype": {"type": "DT_INT32"}, "value": {"tensor": {"dtype": "DT_INT32", "tensorShape": {}}}}}, {"name": "StatefulPartitionedCall/model/conv3_block5_0_bn/ReadVariableOp", "op": "Const", "attr": {"dtype": {"type": "DT_FLOAT"}, "value": {"tensor": {"dtype": "DT_FLOAT", "tensorShape": {"dim": [{"size": "256"}]}}}}}, {"name": "StatefulPartitionedCall/model/conv3_block5_0_bn/ReadVariableOp_1", "op": "Const", "attr": {"value": {"tensor": {"dtype": "DT_FLOAT", "tensorShape": {"dim": [{"size": "256"}]}}}, "dtype": {"type": "DT_FLOAT"}}}, {"name": "StatefulPartitionedCall/model/conv3_block5_0_bn/FusedBatchNormV3/ReadVariableOp", "op": "Const", "attr": {"dtype": {"type": "DT_FLOAT"}, "value": {"tensor": {"dtype": "DT_FLOAT", "tensorShape": {"dim": [{"size": "256"}]}}}}}, {"name": "StatefulPartitionedCall/model/conv3_block5_0_bn/FusedBatchNormV3/ReadVariableOp_1", "op": "Const", "attr": {"dtype": {"type": "DT_FLOAT"}, "value": {"tensor": {"dtype": "DT_FLOAT", "tensorShape": {"dim": [{"size": "256"}]}}}}}, {"name": "StatefulPartitionedCall/model/conv3_block5_2_conv/Conv2D/Cast", "op": "Const", "attr": {"dtype": {"type": "DT_HALF"}, "value": {"tensor": {"dtype": "DT_HALF", "tensorShape": {"dim": [{"size": "3"}, {"size": "3"}, {"size": "128"}, {"size": "32"}]}}}}}, {"name": "StatefulPartitionedCall/model/conv3_block5_concat/concat/axis", "op": "Const", "attr": {"value": {"tensor": {"dtype": "DT_INT32", "tensorShape": {}}}, "dtype": {"type": "DT_INT32"}}}, {"name": "StatefulPartitionedCall/model/conv3_block6_0_bn/ReadVariableOp", "op": "Const", "attr": {"value": {"tensor": {"dtype": "DT_FLOAT", "tensorShape": {"dim": [{"size": "288"}]}}}, "dtype": {"type": "DT_FLOAT"}}}, {"name": "StatefulPartitionedCall/model/conv3_block6_0_bn/ReadVariableOp_1", "op": "Const", "attr": {"dtype": {"type": "DT_FLOAT"}, "value": {"tensor": {"dtype": "DT_FLOAT", "tensorShape": {"dim": [{"size": "288"}]}}}}}, {"name": "StatefulPartitionedCall/model/conv3_block6_0_bn/FusedBatchNormV3/ReadVariableOp", "op": "Const", "attr": {"value": {"tensor": {"dtype": "DT_FLOAT", "tensorShape": {"dim": [{"size": "288"}]}}}, "dtype": {"type": "DT_FLOAT"}}}, {"name": "StatefulPartitionedCall/model/conv3_block6_0_bn/FusedBatchNormV3/ReadVariableOp_1", "op": "Const", "attr": {"dtype": {"type": "DT_FLOAT"}, "value": {"tensor": {"dtype": "DT_FLOAT", "tensorShape": {"dim": [{"size": "288"}]}}}}}, {"name": "StatefulPartitionedCall/model/conv3_block6_2_conv/Conv2D/Cast", "op": "Const", "attr": {"value": {"tensor": {"dtype": "DT_HALF", "tensorShape": {"dim": [{"size": "3"}, {"size": "3"}, {"size": "128"}, {"size": "32"}]}}}, "dtype": {"type": "DT_HALF"}}}, {"name": "StatefulPartitionedCall/model/conv3_block6_concat/concat/axis", "op": "Const", "attr": {"dtype": {"type": "DT_INT32"}, "value": {"tensor": {"dtype": "DT_INT32", "tensorShape": {}}}}}, {"name": "StatefulPartitionedCall/model/conv3_block7_0_bn/ReadVariableOp", "op": "Const", "attr": {"dtype": {"type": "DT_FLOAT"}, "value": {"tensor": {"dtype": "DT_FLOAT", "tensorShape": {"dim": [{"size": "320"}]}}}}}, {"name": "StatefulPartitionedCall/model/conv3_block7_0_bn/ReadVariableOp_1", "op": "Const", "attr": {"dtype": {"type": "DT_FLOAT"}, "value": {"tensor": {"dtype": "DT_FLOAT", "tensorShape": {"dim": [{"size": "320"}]}}}}}, {"name": "StatefulPartitionedCall/model/conv3_block7_0_bn/FusedBatchNormV3/ReadVariableOp", "op": "Const", "attr": {"dtype": {"type": "DT_FLOAT"}, "value": {"tensor": {"dtype": "DT_FLOAT", "tensorShape": {"dim": [{"size": "320"}]}}}}}, {"name": "StatefulPartitionedCall/model/conv3_block7_0_bn/FusedBatchNormV3/ReadVariableOp_1", "op": "Const", "attr": {"value": {"tensor": {"dtype": "DT_FLOAT", "tensorShape": {"dim": [{"size": "320"}]}}}, "dtype": {"type": "DT_FLOAT"}}}, {"name": "StatefulPartitionedCall/model/conv3_block7_2_conv/Conv2D/Cast", "op": "Const", "attr": {"dtype": {"type": "DT_HALF"}, "value": {"tensor": {"dtype": "DT_HALF", "tensorShape": {"dim": [{"size": "3"}, {"size": "3"}, {"size": "128"}, {"size": "32"}]}}}}}, {"name": "StatefulPartitionedCall/model/conv3_block7_concat/concat/axis", "op": "Const", "attr": {"value": {"tensor": {"dtype": "DT_INT32", "tensorShape": {}}}, "dtype": {"type": "DT_INT32"}}}, {"name": "StatefulPartitionedCall/model/conv3_block8_0_bn/ReadVariableOp", "op": "Const", "attr": {"dtype": {"type": "DT_FLOAT"}, "value": {"tensor": {"dtype": "DT_FLOAT", "tensorShape": {"dim": [{"size": "352"}]}}}}}, {"name": "StatefulPartitionedCall/model/conv3_block8_0_bn/ReadVariableOp_1", "op": "Const", "attr": {"value": {"tensor": {"dtype": "DT_FLOAT", "tensorShape": {"dim": [{"size": "352"}]}}}, "dtype": {"type": "DT_FLOAT"}}}, {"name": "StatefulPartitionedCall/model/conv3_block8_0_bn/FusedBatchNormV3/ReadVariableOp", "op": "Const", "attr": {"value": {"tensor": {"dtype": "DT_FLOAT", "tensorShape": {"dim": [{"size": "352"}]}}}, "dtype": {"type": "DT_FLOAT"}}}, {"name": "StatefulPartitionedCall/model/conv3_block8_0_bn/FusedBatchNormV3/ReadVariableOp_1", "op": "Const", "attr": {"dtype": {"type": "DT_FLOAT"}, "value": {"tensor": {"dtype": "DT_FLOAT", "tensorShape": {"dim": [{"size": "352"}]}}}}}, {"name": "StatefulPartitionedCall/model/conv3_block8_2_conv/Conv2D/Cast", "op": "Const", "attr": {"value": {"tensor": {"dtype": "DT_HALF", "tensorShape": {"dim": [{"size": "3"}, {"size": "3"}, {"size": "128"}, {"size": "32"}]}}}, "dtype": {"type": "DT_HALF"}}}, {"name": "StatefulPartitionedCall/model/conv3_block8_concat/concat/axis", "op": "Const", "attr": {"value": {"tensor": {"dtype": "DT_INT32", "tensorShape": {}}}, "dtype": {"type": "DT_INT32"}}}, {"name": "StatefulPartitionedCall/model/conv3_block9_0_bn/ReadVariableOp", "op": "Const", "attr": {"dtype": {"type": "DT_FLOAT"}, "value": {"tensor": {"dtype": "DT_FLOAT", "tensorShape": {"dim": [{"size": "384"}]}}}}}, {"name": "StatefulPartitionedCall/model/conv3_block9_0_bn/ReadVariableOp_1", "op": "Const", "attr": {"dtype": {"type": "DT_FLOAT"}, "value": {"tensor": {"dtype": "DT_FLOAT", "tensorShape": {"dim": [{"size": "384"}]}}}}}, {"name": "StatefulPartitionedCall/model/conv3_block9_0_bn/FusedBatchNormV3/ReadVariableOp", "op": "Const", "attr": {"dtype": {"type": "DT_FLOAT"}, "value": {"tensor": {"dtype": "DT_FLOAT", "tensorShape": {"dim": [{"size": "384"}]}}}}}, {"name": "StatefulPartitionedCall/model/conv3_block9_0_bn/FusedBatchNormV3/ReadVariableOp_1", "op": "Const", "attr": {"value": {"tensor": {"dtype": "DT_FLOAT", "tensorShape": {"dim": [{"size": "384"}]}}}, "dtype": {"type": "DT_FLOAT"}}}, {"name": "StatefulPartitionedCall/model/conv3_block9_2_conv/Conv2D/Cast", "op": "Const", "attr": {"value": {"tensor": {"dtype": "DT_HALF", "tensorShape": {"dim": [{"size": "3"}, {"size": "3"}, {"size": "128"}, {"size": "32"}]}}}, "dtype": {"type": "DT_HALF"}}}, {"name": "StatefulPartitionedCall/model/conv3_block9_concat/concat/axis", "op": "Const", "attr": {"value": {"tensor": {"dtype": "DT_INT32", "tensorShape": {}}}, "dtype": {"type": "DT_INT32"}}}, {"name": "StatefulPartitionedCall/model/conv3_block10_0_bn/ReadVariableOp", "op": "Const", "attr": {"value": {"tensor": {"dtype": "DT_FLOAT", "tensorShape": {"dim": [{"size": "416"}]}}}, "dtype": {"type": "DT_FLOAT"}}}, {"name": "StatefulPartitionedCall/model/conv3_block10_0_bn/ReadVariableOp_1", "op": "Const", "attr": {"value": {"tensor": {"dtype": "DT_FLOAT", "tensorShape": {"dim": [{"size": "416"}]}}}, "dtype": {"type": "DT_FLOAT"}}}, {"name": "StatefulPartitionedCall/model/conv3_block10_0_bn/FusedBatchNormV3/ReadVariableOp", "op": "Const", "attr": {"value": {"tensor": {"dtype": "DT_FLOAT", "tensorShape": {"dim": [{"size": "416"}]}}}, "dtype": {"type": "DT_FLOAT"}}}, {"name": "StatefulPartitionedCall/model/conv3_block10_0_bn/FusedBatchNormV3/ReadVariableOp_1", "op": "Const", "attr": {"value": {"tensor": {"dtype": "DT_FLOAT", "tensorShape": {"dim": [{"size": "416"}]}}}, "dtype": {"type": "DT_FLOAT"}}}, {"name": "StatefulPartitionedCall/model/conv3_block10_2_conv/Conv2D/Cast", "op": "Const", "attr": {"dtype": {"type": "DT_HALF"}, "value": {"tensor": {"dtype": "DT_HALF", "tensorShape": {"dim": [{"size": "3"}, {"size": "3"}, {"size": "128"}, {"size": "32"}]}}}}}, {"name": "StatefulPartitionedCall/model/conv3_block10_concat/concat/axis", "op": "Const", "attr": {"dtype": {"type": "DT_INT32"}, "value": {"tensor": {"dtype": "DT_INT32", "tensorShape": {}}}}}, {"name": "StatefulPartitionedCall/model/conv3_block11_0_bn/ReadVariableOp", "op": "Const", "attr": {"dtype": {"type": "DT_FLOAT"}, "value": {"tensor": {"dtype": "DT_FLOAT", "tensorShape": {"dim": [{"size": "448"}]}}}}}, {"name": "StatefulPartitionedCall/model/conv3_block11_0_bn/ReadVariableOp_1", "op": "Const", "attr": {"value": {"tensor": {"dtype": "DT_FLOAT", "tensorShape": {"dim": [{"size": "448"}]}}}, "dtype": {"type": "DT_FLOAT"}}}, {"name": "StatefulPartitionedCall/model/conv3_block11_0_bn/FusedBatchNormV3/ReadVariableOp", "op": "Const", "attr": {"value": {"tensor": {"dtype": "DT_FLOAT", "tensorShape": {"dim": [{"size": "448"}]}}}, "dtype": {"type": "DT_FLOAT"}}}, {"name": "StatefulPartitionedCall/model/conv3_block11_0_bn/FusedBatchNormV3/ReadVariableOp_1", "op": "Const", "attr": {"value": {"tensor": {"dtype": "DT_FLOAT", "tensorShape": {"dim": [{"size": "448"}]}}}, "dtype": {"type": "DT_FLOAT"}}}, {"name": "StatefulPartitionedCall/model/conv3_block11_2_conv/Conv2D/Cast", "op": "Const", "attr": {"value": {"tensor": {"dtype": "DT_HALF", "tensorShape": {"dim": [{"size": "3"}, {"size": "3"}, {"size": "128"}, {"size": "32"}]}}}, "dtype": {"type": "DT_HALF"}}}, {"name": "StatefulPartitionedCall/model/conv3_block11_concat/concat/axis", "op": "Const", "attr": {"value": {"tensor": {"dtype": "DT_INT32", "tensorShape": {}}}, "dtype": {"type": "DT_INT32"}}}, {"name": "StatefulPartitionedCall/model/conv3_block12_0_bn/ReadVariableOp", "op": "Const", "attr": {"dtype": {"type": "DT_FLOAT"}, "value": {"tensor": {"dtype": "DT_FLOAT", "tensorShape": {"dim": [{"size": "480"}]}}}}}, {"name": "StatefulPartitionedCall/model/conv3_block12_0_bn/ReadVariableOp_1", "op": "Const", "attr": {"dtype": {"type": "DT_FLOAT"}, "value": {"tensor": {"dtype": "DT_FLOAT", "tensorShape": {"dim": [{"size": "480"}]}}}}}, {"name": "StatefulPartitionedCall/model/conv3_block12_0_bn/FusedBatchNormV3/ReadVariableOp", "op": "Const", "attr": {"value": {"tensor": {"dtype": "DT_FLOAT", "tensorShape": {"dim": [{"size": "480"}]}}}, "dtype": {"type": "DT_FLOAT"}}}, {"name": "StatefulPartitionedCall/model/conv3_block12_0_bn/FusedBatchNormV3/ReadVariableOp_1", "op": "Const", "attr": {"dtype": {"type": "DT_FLOAT"}, "value": {"tensor": {"dtype": "DT_FLOAT", "tensorShape": {"dim": [{"size": "480"}]}}}}}, {"name": "StatefulPartitionedCall/model/conv3_block12_2_conv/Conv2D/Cast", "op": "Const", "attr": {"dtype": {"type": "DT_HALF"}, "value": {"tensor": {"dtype": "DT_HALF", "tensorShape": {"dim": [{"size": "3"}, {"size": "3"}, {"size": "128"}, {"size": "32"}]}}}}}, {"name": "StatefulPartitionedCall/model/conv3_block12_concat/concat/axis", "op": "Const", "attr": {"dtype": {"type": "DT_INT32"}, "value": {"tensor": {"dtype": "DT_INT32", "tensorShape": {}}}}}, {"name": "StatefulPartitionedCall/model/pool3_bn/ReadVariableOp", "op": "Const", "attr": {"value": {"tensor": {"dtype": "DT_FLOAT", "tensorShape": {"dim": [{"size": "512"}]}}}, "dtype": {"type": "DT_FLOAT"}}}, {"name": "StatefulPartitionedCall/model/pool3_bn/ReadVariableOp_1", "op": "Const", "attr": {"dtype": {"type": "DT_FLOAT"}, "value": {"tensor": {"dtype": "DT_FLOAT", "tensorShape": {"dim": [{"size": "512"}]}}}}}, {"name": "StatefulPartitionedCall/model/pool3_bn/FusedBatchNormV3/ReadVariableOp", "op": "Const", "attr": {"dtype": {"type": "DT_FLOAT"}, "value": {"tensor": {"dtype": "DT_FLOAT", "tensorShape": {"dim": [{"size": "512"}]}}}}}, {"name": "StatefulPartitionedCall/model/pool3_bn/FusedBatchNormV3/ReadVariableOp_1", "op": "Const", "attr": {"value": {"tensor": {"dtype": "DT_FLOAT", "tensorShape": {"dim": [{"size": "512"}]}}}, "dtype": {"type": "DT_FLOAT"}}}, {"name": "StatefulPartitionedCall/model/pool3_conv/Conv2D/Cast", "op": "Const", "attr": {"value": {"tensor": {"dtype": "DT_HALF", "tensorShape": {"dim": [{"size": "1"}, {"size": "1"}, {"size": "512"}, {"size": "256"}]}}}, "dtype": {"type": "DT_HALF"}}}, {"name": "StatefulPartitionedCall/model/conv4_block1_0_bn/ReadVariableOp", "op": "Const", "attr": {"value": {"tensor": {"dtype": "DT_FLOAT", "tensorShape": {"dim": [{"size": "256"}]}}}, "dtype": {"type": "DT_FLOAT"}}}, {"name": "StatefulPartitionedCall/model/conv4_block1_0_bn/ReadVariableOp_1", "op": "Const", "attr": {"dtype": {"type": "DT_FLOAT"}, "value": {"tensor": {"dtype": "DT_FLOAT", "tensorShape": {"dim": [{"size": "256"}]}}}}}, {"name": "StatefulPartitionedCall/model/conv4_block1_0_bn/FusedBatchNormV3/ReadVariableOp", "op": "Const", "attr": {"value": {"tensor": {"dtype": "DT_FLOAT", "tensorShape": {"dim": [{"size": "256"}]}}}, "dtype": {"type": "DT_FLOAT"}}}, {"name": "StatefulPartitionedCall/model/conv4_block1_0_bn/FusedBatchNormV3/ReadVariableOp_1", "op": "Const", "attr": {"value": {"tensor": {"dtype": "DT_FLOAT", "tensorShape": {"dim": [{"size": "256"}]}}}, "dtype": {"type": "DT_FLOAT"}}}, {"name": "StatefulPartitionedCall/model/conv4_block1_2_conv/Conv2D/Cast", "op": "Const", "attr": {"value": {"tensor": {"dtype": "DT_HALF", "tensorShape": {"dim": [{"size": "3"}, {"size": "3"}, {"size": "128"}, {"size": "32"}]}}}, "dtype": {"type": "DT_HALF"}}}, {"name": "StatefulPartitionedCall/model/conv4_block1_concat/concat/axis", "op": "Const", "attr": {"dtype": {"type": "DT_INT32"}, "value": {"tensor": {"dtype": "DT_INT32", "tensorShape": {}}}}}, {"name": "StatefulPartitionedCall/model/conv4_block2_0_bn/ReadVariableOp", "op": "Const", "attr": {"dtype": {"type": "DT_FLOAT"}, "value": {"tensor": {"dtype": "DT_FLOAT", "tensorShape": {"dim": [{"size": "288"}]}}}}}, {"name": "StatefulPartitionedCall/model/conv4_block2_0_bn/ReadVariableOp_1", "op": "Const", "attr": {"value": {"tensor": {"dtype": "DT_FLOAT", "tensorShape": {"dim": [{"size": "288"}]}}}, "dtype": {"type": "DT_FLOAT"}}}, {"name": "StatefulPartitionedCall/model/conv4_block2_0_bn/FusedBatchNormV3/ReadVariableOp", "op": "Const", "attr": {"dtype": {"type": "DT_FLOAT"}, "value": {"tensor": {"dtype": "DT_FLOAT", "tensorShape": {"dim": [{"size": "288"}]}}}}}, {"name": "StatefulPartitionedCall/model/conv4_block2_0_bn/FusedBatchNormV3/ReadVariableOp_1", "op": "Const", "attr": {"value": {"tensor": {"dtype": "DT_FLOAT", "tensorShape": {"dim": [{"size": "288"}]}}}, "dtype": {"type": "DT_FLOAT"}}}, {"name": "StatefulPartitionedCall/model/conv4_block2_2_conv/Conv2D/Cast", "op": "Const", "attr": {"value": {"tensor": {"dtype": "DT_HALF", "tensorShape": {"dim": [{"size": "3"}, {"size": "3"}, {"size": "128"}, {"size": "32"}]}}}, "dtype": {"type": "DT_HALF"}}}, {"name": "StatefulPartitionedCall/model/conv4_block2_concat/concat/axis", "op": "Const", "attr": {"value": {"tensor": {"dtype": "DT_INT32", "tensorShape": {}}}, "dtype": {"type": "DT_INT32"}}}, {"name": "StatefulPartitionedCall/model/conv4_block3_0_bn/ReadVariableOp", "op": "Const", "attr": {"dtype": {"type": "DT_FLOAT"}, "value": {"tensor": {"dtype": "DT_FLOAT", "tensorShape": {"dim": [{"size": "320"}]}}}}}, {"name": "StatefulPartitionedCall/model/conv4_block3_0_bn/ReadVariableOp_1", "op": "Const", "attr": {"dtype": {"type": "DT_FLOAT"}, "value": {"tensor": {"dtype": "DT_FLOAT", "tensorShape": {"dim": [{"size": "320"}]}}}}}, {"name": "StatefulPartitionedCall/model/conv4_block3_0_bn/FusedBatchNormV3/ReadVariableOp", "op": "Const", "attr": {"dtype": {"type": "DT_FLOAT"}, "value": {"tensor": {"dtype": "DT_FLOAT", "tensorShape": {"dim": [{"size": "320"}]}}}}}, {"name": "StatefulPartitionedCall/model/conv4_block3_0_bn/FusedBatchNormV3/ReadVariableOp_1", "op": "Const", "attr": {"value": {"tensor": {"dtype": "DT_FLOAT", "tensorShape": {"dim": [{"size": "320"}]}}}, "dtype": {"type": "DT_FLOAT"}}}, {"name": "StatefulPartitionedCall/model/conv4_block3_2_conv/Conv2D/Cast", "op": "Const", "attr": {"value": {"tensor": {"dtype": "DT_HALF", "tensorShape": {"dim": [{"size": "3"}, {"size": "3"}, {"size": "128"}, {"size": "32"}]}}}, "dtype": {"type": "DT_HALF"}}}, {"name": "StatefulPartitionedCall/model/conv4_block3_concat/concat/axis", "op": "Const", "attr": {"dtype": {"type": "DT_INT32"}, "value": {"tensor": {"dtype": "DT_INT32", "tensorShape": {}}}}}, {"name": "StatefulPartitionedCall/model/conv4_block4_0_bn/ReadVariableOp", "op": "Const", "attr": {"dtype": {"type": "DT_FLOAT"}, "value": {"tensor": {"dtype": "DT_FLOAT", "tensorShape": {"dim": [{"size": "352"}]}}}}}, {"name": "StatefulPartitionedCall/model/conv4_block4_0_bn/ReadVariableOp_1", "op": "Const", "attr": {"value": {"tensor": {"dtype": "DT_FLOAT", "tensorShape": {"dim": [{"size": "352"}]}}}, "dtype": {"type": "DT_FLOAT"}}}, {"name": "StatefulPartitionedCall/model/conv4_block4_0_bn/FusedBatchNormV3/ReadVariableOp", "op": "Const", "attr": {"value": {"tensor": {"dtype": "DT_FLOAT", "tensorShape": {"dim": [{"size": "352"}]}}}, "dtype": {"type": "DT_FLOAT"}}}, {"name": "StatefulPartitionedCall/model/conv4_block4_0_bn/FusedBatchNormV3/ReadVariableOp_1", "op": "Const", "attr": {"value": {"tensor": {"dtype": "DT_FLOAT", "tensorShape": {"dim": [{"size": "352"}]}}}, "dtype": {"type": "DT_FLOAT"}}}, {"name": "StatefulPartitionedCall/model/conv4_block4_2_conv/Conv2D/Cast", "op": "Const", "attr": {"value": {"tensor": {"dtype": "DT_HALF", "tensorShape": {"dim": [{"size": "3"}, {"size": "3"}, {"size": "128"}, {"size": "32"}]}}}, "dtype": {"type": "DT_HALF"}}}, {"name": "StatefulPartitionedCall/model/conv4_block4_concat/concat/axis", "op": "Const", "attr": {"value": {"tensor": {"dtype": "DT_INT32", "tensorShape": {}}}, "dtype": {"type": "DT_INT32"}}}, {"name": "StatefulPartitionedCall/model/conv4_block5_0_bn/ReadVariableOp", "op": "Const", "attr": {"value": {"tensor": {"dtype": "DT_FLOAT", "tensorShape": {"dim": [{"size": "384"}]}}}, "dtype": {"type": "DT_FLOAT"}}}, {"name": "StatefulPartitionedCall/model/conv4_block5_0_bn/ReadVariableOp_1", "op": "Const", "attr": {"value": {"tensor": {"dtype": "DT_FLOAT", "tensorShape": {"dim": [{"size": "384"}]}}}, "dtype": {"type": "DT_FLOAT"}}}, {"name": "StatefulPartitionedCall/model/conv4_block5_0_bn/FusedBatchNormV3/ReadVariableOp", "op": "Const", "attr": {"value": {"tensor": {"dtype": "DT_FLOAT", "tensorShape": {"dim": [{"size": "384"}]}}}, "dtype": {"type": "DT_FLOAT"}}}, {"name": "StatefulPartitionedCall/model/conv4_block5_0_bn/FusedBatchNormV3/ReadVariableOp_1", "op": "Const", "attr": {"dtype": {"type": "DT_FLOAT"}, "value": {"tensor": {"dtype": "DT_FLOAT", "tensorShape": {"dim": [{"size": "384"}]}}}}}, {"name": "StatefulPartitionedCall/model/conv4_block5_2_conv/Conv2D/Cast", "op": "Const", "attr": {"dtype": {"type": "DT_HALF"}, "value": {"tensor": {"dtype": "DT_HALF", "tensorShape": {"dim": [{"size": "3"}, {"size": "3"}, {"size": "128"}, {"size": "32"}]}}}}}, {"name": "StatefulPartitionedCall/model/conv4_block5_concat/concat/axis", "op": "Const", "attr": {"dtype": {"type": "DT_INT32"}, "value": {"tensor": {"dtype": "DT_INT32", "tensorShape": {}}}}}, {"name": "StatefulPartitionedCall/model/conv4_block6_0_bn/ReadVariableOp", "op": "Const", "attr": {"value": {"tensor": {"dtype": "DT_FLOAT", "tensorShape": {"dim": [{"size": "416"}]}}}, "dtype": {"type": "DT_FLOAT"}}}, {"name": "StatefulPartitionedCall/model/conv4_block6_0_bn/ReadVariableOp_1", "op": "Const", "attr": {"dtype": {"type": "DT_FLOAT"}, "value": {"tensor": {"dtype": "DT_FLOAT", "tensorShape": {"dim": [{"size": "416"}]}}}}}, {"name": "StatefulPartitionedCall/model/conv4_block6_0_bn/FusedBatchNormV3/ReadVariableOp", "op": "Const", "attr": {"dtype": {"type": "DT_FLOAT"}, "value": {"tensor": {"dtype": "DT_FLOAT", "tensorShape": {"dim": [{"size": "416"}]}}}}}, {"name": "StatefulPartitionedCall/model/conv4_block6_0_bn/FusedBatchNormV3/ReadVariableOp_1", "op": "Const", "attr": {"value": {"tensor": {"dtype": "DT_FLOAT", "tensorShape": {"dim": [{"size": "416"}]}}}, "dtype": {"type": "DT_FLOAT"}}}, {"name": "StatefulPartitionedCall/model/conv4_block6_2_conv/Conv2D/Cast", "op": "Const", "attr": {"value": {"tensor": {"dtype": "DT_HALF", "tensorShape": {"dim": [{"size": "3"}, {"size": "3"}, {"size": "128"}, {"size": "32"}]}}}, "dtype": {"type": "DT_HALF"}}}, {"name": "StatefulPartitionedCall/model/conv4_block6_concat/concat/axis", "op": "Const", "attr": {"dtype": {"type": "DT_INT32"}, "value": {"tensor": {"dtype": "DT_INT32", "tensorShape": {}}}}}, {"name": "StatefulPartitionedCall/model/conv4_block7_0_bn/ReadVariableOp", "op": "Const", "attr": {"dtype": {"type": "DT_FLOAT"}, "value": {"tensor": {"dtype": "DT_FLOAT", "tensorShape": {"dim": [{"size": "448"}]}}}}}, {"name": "StatefulPartitionedCall/model/conv4_block7_0_bn/ReadVariableOp_1", "op": "Const", "attr": {"value": {"tensor": {"dtype": "DT_FLOAT", "tensorShape": {"dim": [{"size": "448"}]}}}, "dtype": {"type": "DT_FLOAT"}}}, {"name": "StatefulPartitionedCall/model/conv4_block7_0_bn/FusedBatchNormV3/ReadVariableOp", "op": "Const", "attr": {"dtype": {"type": "DT_FLOAT"}, "value": {"tensor": {"dtype": "DT_FLOAT", "tensorShape": {"dim": [{"size": "448"}]}}}}}, {"name": "StatefulPartitionedCall/model/conv4_block7_0_bn/FusedBatchNormV3/ReadVariableOp_1", "op": "Const", "attr": {"dtype": {"type": "DT_FLOAT"}, "value": {"tensor": {"dtype": "DT_FLOAT", "tensorShape": {"dim": [{"size": "448"}]}}}}}, {"name": "StatefulPartitionedCall/model/conv4_block7_2_conv/Conv2D/Cast", "op": "Const", "attr": {"dtype": {"type": "DT_HALF"}, "value": {"tensor": {"dtype": "DT_HALF", "tensorShape": {"dim": [{"size": "3"}, {"size": "3"}, {"size": "128"}, {"size": "32"}]}}}}}, {"name": "StatefulPartitionedCall/model/conv4_block7_concat/concat/axis", "op": "Const", "attr": {"dtype": {"type": "DT_INT32"}, "value": {"tensor": {"dtype": "DT_INT32", "tensorShape": {}}}}}, {"name": "StatefulPartitionedCall/model/conv4_block8_0_bn/ReadVariableOp", "op": "Const", "attr": {"value": {"tensor": {"dtype": "DT_FLOAT", "tensorShape": {"dim": [{"size": "480"}]}}}, "dtype": {"type": "DT_FLOAT"}}}, {"name": "StatefulPartitionedCall/model/conv4_block8_0_bn/ReadVariableOp_1", "op": "Const", "attr": {"value": {"tensor": {"dtype": "DT_FLOAT", "tensorShape": {"dim": [{"size": "480"}]}}}, "dtype": {"type": "DT_FLOAT"}}}, {"name": "StatefulPartitionedCall/model/conv4_block8_0_bn/FusedBatchNormV3/ReadVariableOp", "op": "Const", "attr": {"value": {"tensor": {"dtype": "DT_FLOAT", "tensorShape": {"dim": [{"size": "480"}]}}}, "dtype": {"type": "DT_FLOAT"}}}, {"name": "StatefulPartitionedCall/model/conv4_block8_0_bn/FusedBatchNormV3/ReadVariableOp_1", "op": "Const", "attr": {"value": {"tensor": {"dtype": "DT_FLOAT", "tensorShape": {"dim": [{"size": "480"}]}}}, "dtype": {"type": "DT_FLOAT"}}}, {"name": "StatefulPartitionedCall/model/conv4_block8_2_conv/Conv2D/Cast", "op": "Const", "attr": {"value": {"tensor": {"dtype": "DT_HALF", "tensorShape": {"dim": [{"size": "3"}, {"size": "3"}, {"size": "128"}, {"size": "32"}]}}}, "dtype": {"type": "DT_HALF"}}}, {"name": "StatefulPartitionedCall/model/conv4_block8_concat/concat/axis", "op": "Const", "attr": {"value": {"tensor": {"dtype": "DT_INT32", "tensorShape": {}}}, "dtype": {"type": "DT_INT32"}}}, {"name": "StatefulPartitionedCall/model/conv4_block9_0_bn/ReadVariableOp", "op": "Const", "attr": {"value": {"tensor": {"dtype": "DT_FLOAT", "tensorShape": {"dim": [{"size": "512"}]}}}, "dtype": {"type": "DT_FLOAT"}}}, {"name": "StatefulPartitionedCall/model/conv4_block9_0_bn/ReadVariableOp_1", "op": "Const", "attr": {"dtype": {"type": "DT_FLOAT"}, "value": {"tensor": {"dtype": "DT_FLOAT", "tensorShape": {"dim": [{"size": "512"}]}}}}}, {"name": "StatefulPartitionedCall/model/conv4_block9_0_bn/FusedBatchNormV3/ReadVariableOp", "op": "Const", "attr": {"value": {"tensor": {"dtype": "DT_FLOAT", "tensorShape": {"dim": [{"size": "512"}]}}}, "dtype": {"type": "DT_FLOAT"}}}, {"name": "StatefulPartitionedCall/model/conv4_block9_0_bn/FusedBatchNormV3/ReadVariableOp_1", "op": "Const", "attr": {"dtype": {"type": "DT_FLOAT"}, "value": {"tensor": {"dtype": "DT_FLOAT", "tensorShape": {"dim": [{"size": "512"}]}}}}}, {"name": "StatefulPartitionedCall/model/conv4_block9_2_conv/Conv2D/Cast", "op": "Const", "attr": {"dtype": {"type": "DT_HALF"}, "value": {"tensor": {"dtype": "DT_HALF", "tensorShape": {"dim": [{"size": "3"}, {"size": "3"}, {"size": "128"}, {"size": "32"}]}}}}}, {"name": "StatefulPartitionedCall/model/conv4_block9_concat/concat/axis", "op": "Const", "attr": {"dtype": {"type": "DT_INT32"}, "value": {"tensor": {"dtype": "DT_INT32", "tensorShape": {}}}}}, {"name": "StatefulPartitionedCall/model/conv4_block10_0_bn/ReadVariableOp", "op": "Const", "attr": {"value": {"tensor": {"dtype": "DT_FLOAT", "tensorShape": {"dim": [{"size": "544"}]}}}, "dtype": {"type": "DT_FLOAT"}}}, {"name": "StatefulPartitionedCall/model/conv4_block10_0_bn/ReadVariableOp_1", "op": "Const", "attr": {"value": {"tensor": {"dtype": "DT_FLOAT", "tensorShape": {"dim": [{"size": "544"}]}}}, "dtype": {"type": "DT_FLOAT"}}}, {"name": "StatefulPartitionedCall/model/conv4_block10_0_bn/FusedBatchNormV3/ReadVariableOp", "op": "Const", "attr": {"dtype": {"type": "DT_FLOAT"}, "value": {"tensor": {"dtype": "DT_FLOAT", "tensorShape": {"dim": [{"size": "544"}]}}}}}, {"name": "StatefulPartitionedCall/model/conv4_block10_0_bn/FusedBatchNormV3/ReadVariableOp_1", "op": "Const", "attr": {"value": {"tensor": {"dtype": "DT_FLOAT", "tensorShape": {"dim": [{"size": "544"}]}}}, "dtype": {"type": "DT_FLOAT"}}}, {"name": "StatefulPartitionedCall/model/conv4_block10_2_conv/Conv2D/Cast", "op": "Const", "attr": {"dtype": {"type": "DT_HALF"}, "value": {"tensor": {"dtype": "DT_HALF", "tensorShape": {"dim": [{"size": "3"}, {"size": "3"}, {"size": "128"}, {"size": "32"}]}}}}}, {"name": "StatefulPartitionedCall/model/conv4_block10_concat/concat/axis", "op": "Const", "attr": {"value": {"tensor": {"dtype": "DT_INT32", "tensorShape": {}}}, "dtype": {"type": "DT_INT32"}}}, {"name": "StatefulPartitionedCall/model/conv4_block11_0_bn/ReadVariableOp", "op": "Const", "attr": {"value": {"tensor": {"dtype": "DT_FLOAT", "tensorShape": {"dim": [{"size": "576"}]}}}, "dtype": {"type": "DT_FLOAT"}}}, {"name": "StatefulPartitionedCall/model/conv4_block11_0_bn/ReadVariableOp_1", "op": "Const", "attr": {"dtype": {"type": "DT_FLOAT"}, "value": {"tensor": {"dtype": "DT_FLOAT", "tensorShape": {"dim": [{"size": "576"}]}}}}}, {"name": "StatefulPartitionedCall/model/conv4_block11_0_bn/FusedBatchNormV3/ReadVariableOp", "op": "Const", "attr": {"dtype": {"type": "DT_FLOAT"}, "value": {"tensor": {"dtype": "DT_FLOAT", "tensorShape": {"dim": [{"size": "576"}]}}}}}, {"name": "StatefulPartitionedCall/model/conv4_block11_0_bn/FusedBatchNormV3/ReadVariableOp_1", "op": "Const", "attr": {"dtype": {"type": "DT_FLOAT"}, "value": {"tensor": {"dtype": "DT_FLOAT", "tensorShape": {"dim": [{"size": "576"}]}}}}}, {"name": "StatefulPartitionedCall/model/conv4_block11_2_conv/Conv2D/Cast", "op": "Const", "attr": {"value": {"tensor": {"dtype": "DT_HALF", "tensorShape": {"dim": [{"size": "3"}, {"size": "3"}, {"size": "128"}, {"size": "32"}]}}}, "dtype": {"type": "DT_HALF"}}}, {"name": "StatefulPartitionedCall/model/conv4_block11_concat/concat/axis", "op": "Const", "attr": {"dtype": {"type": "DT_INT32"}, "value": {"tensor": {"dtype": "DT_INT32", "tensorShape": {}}}}}, {"name": "StatefulPartitionedCall/model/conv4_block12_0_bn/ReadVariableOp", "op": "Const", "attr": {"dtype": {"type": "DT_FLOAT"}, "value": {"tensor": {"dtype": "DT_FLOAT", "tensorShape": {"dim": [{"size": "608"}]}}}}}, {"name": "StatefulPartitionedCall/model/conv4_block12_0_bn/ReadVariableOp_1", "op": "Const", "attr": {"value": {"tensor": {"dtype": "DT_FLOAT", "tensorShape": {"dim": [{"size": "608"}]}}}, "dtype": {"type": "DT_FLOAT"}}}, {"name": "StatefulPartitionedCall/model/conv4_block12_0_bn/FusedBatchNormV3/ReadVariableOp", "op": "Const", "attr": {"value": {"tensor": {"dtype": "DT_FLOAT", "tensorShape": {"dim": [{"size": "608"}]}}}, "dtype": {"type": "DT_FLOAT"}}}, {"name": "StatefulPartitionedCall/model/conv4_block12_0_bn/FusedBatchNormV3/ReadVariableOp_1", "op": "Const", "attr": {"dtype": {"type": "DT_FLOAT"}, "value": {"tensor": {"dtype": "DT_FLOAT", "tensorShape": {"dim": [{"size": "608"}]}}}}}, {"name": "StatefulPartitionedCall/model/conv4_block12_2_conv/Conv2D/Cast", "op": "Const", "attr": {"dtype": {"type": "DT_HALF"}, "value": {"tensor": {"dtype": "DT_HALF", "tensorShape": {"dim": [{"size": "3"}, {"size": "3"}, {"size": "128"}, {"size": "32"}]}}}}}, {"name": "StatefulPartitionedCall/model/conv4_block12_concat/concat/axis", "op": "Const", "attr": {"value": {"tensor": {"dtype": "DT_INT32", "tensorShape": {}}}, "dtype": {"type": "DT_INT32"}}}, {"name": "StatefulPartitionedCall/model/conv4_block13_0_bn/ReadVariableOp", "op": "Const", "attr": {"value": {"tensor": {"dtype": "DT_FLOAT", "tensorShape": {"dim": [{"size": "640"}]}}}, "dtype": {"type": "DT_FLOAT"}}}, {"name": "StatefulPartitionedCall/model/conv4_block13_0_bn/ReadVariableOp_1", "op": "Const", "attr": {"dtype": {"type": "DT_FLOAT"}, "value": {"tensor": {"dtype": "DT_FLOAT", "tensorShape": {"dim": [{"size": "640"}]}}}}}, {"name": "StatefulPartitionedCall/model/conv4_block13_0_bn/FusedBatchNormV3/ReadVariableOp", "op": "Const", "attr": {"dtype": {"type": "DT_FLOAT"}, "value": {"tensor": {"dtype": "DT_FLOAT", "tensorShape": {"dim": [{"size": "640"}]}}}}}, {"name": "StatefulPartitionedCall/model/conv4_block13_0_bn/FusedBatchNormV3/ReadVariableOp_1", "op": "Const", "attr": {"value": {"tensor": {"dtype": "DT_FLOAT", "tensorShape": {"dim": [{"size": "640"}]}}}, "dtype": {"type": "DT_FLOAT"}}}, {"name": "StatefulPartitionedCall/model/conv4_block13_2_conv/Conv2D/Cast", "op": "Const", "attr": {"dtype": {"type": "DT_HALF"}, "value": {"tensor": {"dtype": "DT_HALF", "tensorShape": {"dim": [{"size": "3"}, {"size": "3"}, {"size": "128"}, {"size": "32"}]}}}}}, {"name": "StatefulPartitionedCall/model/conv4_block13_concat/concat/axis", "op": "Const", "attr": {"dtype": {"type": "DT_INT32"}, "value": {"tensor": {"dtype": "DT_INT32", "tensorShape": {}}}}}, {"name": "StatefulPartitionedCall/model/conv4_block14_0_bn/ReadVariableOp", "op": "Const", "attr": {"value": {"tensor": {"dtype": "DT_FLOAT", "tensorShape": {"dim": [{"size": "672"}]}}}, "dtype": {"type": "DT_FLOAT"}}}, {"name": "StatefulPartitionedCall/model/conv4_block14_0_bn/ReadVariableOp_1", "op": "Const", "attr": {"value": {"tensor": {"dtype": "DT_FLOAT", "tensorShape": {"dim": [{"size": "672"}]}}}, "dtype": {"type": "DT_FLOAT"}}}, {"name": "StatefulPartitionedCall/model/conv4_block14_0_bn/FusedBatchNormV3/ReadVariableOp", "op": "Const", "attr": {"dtype": {"type": "DT_FLOAT"}, "value": {"tensor": {"dtype": "DT_FLOAT", "tensorShape": {"dim": [{"size": "672"}]}}}}}, {"name": "StatefulPartitionedCall/model/conv4_block14_0_bn/FusedBatchNormV3/ReadVariableOp_1", "op": "Const", "attr": {"value": {"tensor": {"dtype": "DT_FLOAT", "tensorShape": {"dim": [{"size": "672"}]}}}, "dtype": {"type": "DT_FLOAT"}}}, {"name": "StatefulPartitionedCall/model/conv4_block14_2_conv/Conv2D/Cast", "op": "Const", "attr": {"dtype": {"type": "DT_HALF"}, "value": {"tensor": {"dtype": "DT_HALF", "tensorShape": {"dim": [{"size": "3"}, {"size": "3"}, {"size": "128"}, {"size": "32"}]}}}}}, {"name": "StatefulPartitionedCall/model/conv4_block14_concat/concat/axis", "op": "Const", "attr": {"value": {"tensor": {"dtype": "DT_INT32", "tensorShape": {}}}, "dtype": {"type": "DT_INT32"}}}, {"name": "StatefulPartitionedCall/model/conv4_block15_0_bn/ReadVariableOp", "op": "Const", "attr": {"value": {"tensor": {"dtype": "DT_FLOAT", "tensorShape": {"dim": [{"size": "704"}]}}}, "dtype": {"type": "DT_FLOAT"}}}, {"name": "StatefulPartitionedCall/model/conv4_block15_0_bn/ReadVariableOp_1", "op": "Const", "attr": {"value": {"tensor": {"dtype": "DT_FLOAT", "tensorShape": {"dim": [{"size": "704"}]}}}, "dtype": {"type": "DT_FLOAT"}}}, {"name": "StatefulPartitionedCall/model/conv4_block15_0_bn/FusedBatchNormV3/ReadVariableOp", "op": "Const", "attr": {"value": {"tensor": {"dtype": "DT_FLOAT", "tensorShape": {"dim": [{"size": "704"}]}}}, "dtype": {"type": "DT_FLOAT"}}}, {"name": "StatefulPartitionedCall/model/conv4_block15_0_bn/FusedBatchNormV3/ReadVariableOp_1", "op": "Const", "attr": {"dtype": {"type": "DT_FLOAT"}, "value": {"tensor": {"dtype": "DT_FLOAT", "tensorShape": {"dim": [{"size": "704"}]}}}}}, {"name": "StatefulPartitionedCall/model/conv4_block15_2_conv/Conv2D/Cast", "op": "Const", "attr": {"dtype": {"type": "DT_HALF"}, "value": {"tensor": {"dtype": "DT_HALF", "tensorShape": {"dim": [{"size": "3"}, {"size": "3"}, {"size": "128"}, {"size": "32"}]}}}}}, {"name": "StatefulPartitionedCall/model/conv4_block15_concat/concat/axis", "op": "Const", "attr": {"value": {"tensor": {"dtype": "DT_INT32", "tensorShape": {}}}, "dtype": {"type": "DT_INT32"}}}, {"name": "StatefulPartitionedCall/model/conv4_block16_0_bn/ReadVariableOp", "op": "Const", "attr": {"dtype": {"type": "DT_FLOAT"}, "value": {"tensor": {"dtype": "DT_FLOAT", "tensorShape": {"dim": [{"size": "736"}]}}}}}, {"name": "StatefulPartitionedCall/model/conv4_block16_0_bn/ReadVariableOp_1", "op": "Const", "attr": {"dtype": {"type": "DT_FLOAT"}, "value": {"tensor": {"dtype": "DT_FLOAT", "tensorShape": {"dim": [{"size": "736"}]}}}}}, {"name": "StatefulPartitionedCall/model/conv4_block16_0_bn/FusedBatchNormV3/ReadVariableOp", "op": "Const", "attr": {"value": {"tensor": {"dtype": "DT_FLOAT", "tensorShape": {"dim": [{"size": "736"}]}}}, "dtype": {"type": "DT_FLOAT"}}}, {"name": "StatefulPartitionedCall/model/conv4_block16_0_bn/FusedBatchNormV3/ReadVariableOp_1", "op": "Const", "attr": {"dtype": {"type": "DT_FLOAT"}, "value": {"tensor": {"dtype": "DT_FLOAT", "tensorShape": {"dim": [{"size": "736"}]}}}}}, {"name": "StatefulPartitionedCall/model/conv4_block16_2_conv/Conv2D/Cast", "op": "Const", "attr": {"value": {"tensor": {"dtype": "DT_HALF", "tensorShape": {"dim": [{"size": "3"}, {"size": "3"}, {"size": "128"}, {"size": "32"}]}}}, "dtype": {"type": "DT_HALF"}}}, {"name": "StatefulPartitionedCall/model/conv4_block16_concat/concat/axis", "op": "Const", "attr": {"dtype": {"type": "DT_INT32"}, "value": {"tensor": {"dtype": "DT_INT32", "tensorShape": {}}}}}, {"name": "StatefulPartitionedCall/model/conv4_block17_0_bn/ReadVariableOp", "op": "Const", "attr": {"value": {"tensor": {"dtype": "DT_FLOAT", "tensorShape": {"dim": [{"size": "768"}]}}}, "dtype": {"type": "DT_FLOAT"}}}, {"name": "StatefulPartitionedCall/model/conv4_block17_0_bn/ReadVariableOp_1", "op": "Const", "attr": {"dtype": {"type": "DT_FLOAT"}, "value": {"tensor": {"dtype": "DT_FLOAT", "tensorShape": {"dim": [{"size": "768"}]}}}}}, {"name": "StatefulPartitionedCall/model/conv4_block17_0_bn/FusedBatchNormV3/ReadVariableOp", "op": "Const", "attr": {"value": {"tensor": {"dtype": "DT_FLOAT", "tensorShape": {"dim": [{"size": "768"}]}}}, "dtype": {"type": "DT_FLOAT"}}}, {"name": "StatefulPartitionedCall/model/conv4_block17_0_bn/FusedBatchNormV3/ReadVariableOp_1", "op": "Const", "attr": {"dtype": {"type": "DT_FLOAT"}, "value": {"tensor": {"dtype": "DT_FLOAT", "tensorShape": {"dim": [{"size": "768"}]}}}}}, {"name": "StatefulPartitionedCall/model/conv4_block17_2_conv/Conv2D/Cast", "op": "Const", "attr": {"dtype": {"type": "DT_HALF"}, "value": {"tensor": {"dtype": "DT_HALF", "tensorShape": {"dim": [{"size": "3"}, {"size": "3"}, {"size": "128"}, {"size": "32"}]}}}}}, {"name": "StatefulPartitionedCall/model/conv4_block17_concat/concat/axis", "op": "Const", "attr": {"value": {"tensor": {"dtype": "DT_INT32", "tensorShape": {}}}, "dtype": {"type": "DT_INT32"}}}, {"name": "StatefulPartitionedCall/model/conv4_block18_0_bn/ReadVariableOp", "op": "Const", "attr": {"value": {"tensor": {"dtype": "DT_FLOAT", "tensorShape": {"dim": [{"size": "800"}]}}}, "dtype": {"type": "DT_FLOAT"}}}, {"name": "StatefulPartitionedCall/model/conv4_block18_0_bn/ReadVariableOp_1", "op": "Const", "attr": {"dtype": {"type": "DT_FLOAT"}, "value": {"tensor": {"dtype": "DT_FLOAT", "tensorShape": {"dim": [{"size": "800"}]}}}}}, {"name": "StatefulPartitionedCall/model/conv4_block18_0_bn/FusedBatchNormV3/ReadVariableOp", "op": "Const", "attr": {"value": {"tensor": {"dtype": "DT_FLOAT", "tensorShape": {"dim": [{"size": "800"}]}}}, "dtype": {"type": "DT_FLOAT"}}}, {"name": "StatefulPartitionedCall/model/conv4_block18_0_bn/FusedBatchNormV3/ReadVariableOp_1", "op": "Const", "attr": {"dtype": {"type": "DT_FLOAT"}, "value": {"tensor": {"dtype": "DT_FLOAT", "tensorShape": {"dim": [{"size": "800"}]}}}}}, {"name": "StatefulPartitionedCall/model/conv4_block18_2_conv/Conv2D/Cast", "op": "Const", "attr": {"value": {"tensor": {"dtype": "DT_HALF", "tensorShape": {"dim": [{"size": "3"}, {"size": "3"}, {"size": "128"}, {"size": "32"}]}}}, "dtype": {"type": "DT_HALF"}}}, {"name": "StatefulPartitionedCall/model/conv4_block18_concat/concat/axis", "op": "Const", "attr": {"dtype": {"type": "DT_INT32"}, "value": {"tensor": {"dtype": "DT_INT32", "tensorShape": {}}}}}, {"name": "StatefulPartitionedCall/model/conv4_block19_0_bn/ReadVariableOp", "op": "Const", "attr": {"value": {"tensor": {"dtype": "DT_FLOAT", "tensorShape": {"dim": [{"size": "832"}]}}}, "dtype": {"type": "DT_FLOAT"}}}, {"name": "StatefulPartitionedCall/model/conv4_block19_0_bn/ReadVariableOp_1", "op": "Const", "attr": {"dtype": {"type": "DT_FLOAT"}, "value": {"tensor": {"dtype": "DT_FLOAT", "tensorShape": {"dim": [{"size": "832"}]}}}}}, {"name": "StatefulPartitionedCall/model/conv4_block19_0_bn/FusedBatchNormV3/ReadVariableOp", "op": "Const", "attr": {"value": {"tensor": {"dtype": "DT_FLOAT", "tensorShape": {"dim": [{"size": "832"}]}}}, "dtype": {"type": "DT_FLOAT"}}}, {"name": "StatefulPartitionedCall/model/conv4_block19_0_bn/FusedBatchNormV3/ReadVariableOp_1", "op": "Const", "attr": {"dtype": {"type": "DT_FLOAT"}, "value": {"tensor": {"dtype": "DT_FLOAT", "tensorShape": {"dim": [{"size": "832"}]}}}}}, {"name": "StatefulPartitionedCall/model/conv4_block19_2_conv/Conv2D/Cast", "op": "Const", "attr": {"dtype": {"type": "DT_HALF"}, "value": {"tensor": {"dtype": "DT_HALF", "tensorShape": {"dim": [{"size": "3"}, {"size": "3"}, {"size": "128"}, {"size": "32"}]}}}}}, {"name": "StatefulPartitionedCall/model/conv4_block19_concat/concat/axis", "op": "Const", "attr": {"value": {"tensor": {"dtype": "DT_INT32", "tensorShape": {}}}, "dtype": {"type": "DT_INT32"}}}, {"name": "StatefulPartitionedCall/model/conv4_block20_0_bn/ReadVariableOp", "op": "Const", "attr": {"dtype": {"type": "DT_FLOAT"}, "value": {"tensor": {"dtype": "DT_FLOAT", "tensorShape": {"dim": [{"size": "864"}]}}}}}, {"name": "StatefulPartitionedCall/model/conv4_block20_0_bn/ReadVariableOp_1", "op": "Const", "attr": {"value": {"tensor": {"dtype": "DT_FLOAT", "tensorShape": {"dim": [{"size": "864"}]}}}, "dtype": {"type": "DT_FLOAT"}}}, {"name": "StatefulPartitionedCall/model/conv4_block20_0_bn/FusedBatchNormV3/ReadVariableOp", "op": "Const", "attr": {"value": {"tensor": {"dtype": "DT_FLOAT", "tensorShape": {"dim": [{"size": "864"}]}}}, "dtype": {"type": "DT_FLOAT"}}}, {"name": "StatefulPartitionedCall/model/conv4_block20_0_bn/FusedBatchNormV3/ReadVariableOp_1", "op": "Const", "attr": {"dtype": {"type": "DT_FLOAT"}, "value": {"tensor": {"dtype": "DT_FLOAT", "tensorShape": {"dim": [{"size": "864"}]}}}}}, {"name": "StatefulPartitionedCall/model/conv4_block20_2_conv/Conv2D/Cast", "op": "Const", "attr": {"dtype": {"type": "DT_HALF"}, "value": {"tensor": {"dtype": "DT_HALF", "tensorShape": {"dim": [{"size": "3"}, {"size": "3"}, {"size": "128"}, {"size": "32"}]}}}}}, {"name": "StatefulPartitionedCall/model/conv4_block20_concat/concat/axis", "op": "Const", "attr": {"dtype": {"type": "DT_INT32"}, "value": {"tensor": {"dtype": "DT_INT32", "tensorShape": {}}}}}, {"name": "StatefulPartitionedCall/model/conv4_block21_0_bn/ReadVariableOp", "op": "Const", "attr": {"dtype": {"type": "DT_FLOAT"}, "value": {"tensor": {"dtype": "DT_FLOAT", "tensorShape": {"dim": [{"size": "896"}]}}}}}, {"name": "StatefulPartitionedCall/model/conv4_block21_0_bn/ReadVariableOp_1", "op": "Const", "attr": {"value": {"tensor": {"dtype": "DT_FLOAT", "tensorShape": {"dim": [{"size": "896"}]}}}, "dtype": {"type": "DT_FLOAT"}}}, {"name": "StatefulPartitionedCall/model/conv4_block21_0_bn/FusedBatchNormV3/ReadVariableOp", "op": "Const", "attr": {"dtype": {"type": "DT_FLOAT"}, "value": {"tensor": {"dtype": "DT_FLOAT", "tensorShape": {"dim": [{"size": "896"}]}}}}}, {"name": "StatefulPartitionedCall/model/conv4_block21_0_bn/FusedBatchNormV3/ReadVariableOp_1", "op": "Const", "attr": {"value": {"tensor": {"dtype": "DT_FLOAT", "tensorShape": {"dim": [{"size": "896"}]}}}, "dtype": {"type": "DT_FLOAT"}}}, {"name": "StatefulPartitionedCall/model/conv4_block21_2_conv/Conv2D/Cast", "op": "Const", "attr": {"dtype": {"type": "DT_HALF"}, "value": {"tensor": {"dtype": "DT_HALF", "tensorShape": {"dim": [{"size": "3"}, {"size": "3"}, {"size": "128"}, {"size": "32"}]}}}}}, {"name": "StatefulPartitionedCall/model/conv4_block21_concat/concat/axis", "op": "Const", "attr": {"dtype": {"type": "DT_INT32"}, "value": {"tensor": {"dtype": "DT_INT32", "tensorShape": {}}}}}, {"name": "StatefulPartitionedCall/model/conv4_block22_0_bn/ReadVariableOp", "op": "Const", "attr": {"dtype": {"type": "DT_FLOAT"}, "value": {"tensor": {"dtype": "DT_FLOAT", "tensorShape": {"dim": [{"size": "928"}]}}}}}, {"name": "StatefulPartitionedCall/model/conv4_block22_0_bn/ReadVariableOp_1", "op": "Const", "attr": {"dtype": {"type": "DT_FLOAT"}, "value": {"tensor": {"dtype": "DT_FLOAT", "tensorShape": {"dim": [{"size": "928"}]}}}}}, {"name": "StatefulPartitionedCall/model/conv4_block22_0_bn/FusedBatchNormV3/ReadVariableOp", "op": "Const", "attr": {"dtype": {"type": "DT_FLOAT"}, "value": {"tensor": {"dtype": "DT_FLOAT", "tensorShape": {"dim": [{"size": "928"}]}}}}}, {"name": "StatefulPartitionedCall/model/conv4_block22_0_bn/FusedBatchNormV3/ReadVariableOp_1", "op": "Const", "attr": {"dtype": {"type": "DT_FLOAT"}, "value": {"tensor": {"dtype": "DT_FLOAT", "tensorShape": {"dim": [{"size": "928"}]}}}}}, {"name": "StatefulPartitionedCall/model/conv4_block22_2_conv/Conv2D/Cast", "op": "Const", "attr": {"dtype": {"type": "DT_HALF"}, "value": {"tensor": {"dtype": "DT_HALF", "tensorShape": {"dim": [{"size": "3"}, {"size": "3"}, {"size": "128"}, {"size": "32"}]}}}}}, {"name": "StatefulPartitionedCall/model/conv4_block22_concat/concat/axis", "op": "Const", "attr": {"value": {"tensor": {"dtype": "DT_INT32", "tensorShape": {}}}, "dtype": {"type": "DT_INT32"}}}, {"name": "StatefulPartitionedCall/model/conv4_block23_0_bn/ReadVariableOp", "op": "Const", "attr": {"dtype": {"type": "DT_FLOAT"}, "value": {"tensor": {"dtype": "DT_FLOAT", "tensorShape": {"dim": [{"size": "960"}]}}}}}, {"name": "StatefulPartitionedCall/model/conv4_block23_0_bn/ReadVariableOp_1", "op": "Const", "attr": {"dtype": {"type": "DT_FLOAT"}, "value": {"tensor": {"dtype": "DT_FLOAT", "tensorShape": {"dim": [{"size": "960"}]}}}}}, {"name": "StatefulPartitionedCall/model/conv4_block23_0_bn/FusedBatchNormV3/ReadVariableOp", "op": "Const", "attr": {"dtype": {"type": "DT_FLOAT"}, "value": {"tensor": {"dtype": "DT_FLOAT", "tensorShape": {"dim": [{"size": "960"}]}}}}}, {"name": "StatefulPartitionedCall/model/conv4_block23_0_bn/FusedBatchNormV3/ReadVariableOp_1", "op": "Const", "attr": {"dtype": {"type": "DT_FLOAT"}, "value": {"tensor": {"dtype": "DT_FLOAT", "tensorShape": {"dim": [{"size": "960"}]}}}}}, {"name": "StatefulPartitionedCall/model/conv4_block23_2_conv/Conv2D/Cast", "op": "Const", "attr": {"dtype": {"type": "DT_HALF"}, "value": {"tensor": {"dtype": "DT_HALF", "tensorShape": {"dim": [{"size": "3"}, {"size": "3"}, {"size": "128"}, {"size": "32"}]}}}}}, {"name": "StatefulPartitionedCall/model/conv4_block23_concat/concat/axis", "op": "Const", "attr": {"value": {"tensor": {"dtype": "DT_INT32", "tensorShape": {}}}, "dtype": {"type": "DT_INT32"}}}, {"name": "StatefulPartitionedCall/model/conv4_block24_0_bn/ReadVariableOp", "op": "Const", "attr": {"dtype": {"type": "DT_FLOAT"}, "value": {"tensor": {"dtype": "DT_FLOAT", "tensorShape": {"dim": [{"size": "992"}]}}}}}, {"name": "StatefulPartitionedCall/model/conv4_block24_0_bn/ReadVariableOp_1", "op": "Const", "attr": {"value": {"tensor": {"dtype": "DT_FLOAT", "tensorShape": {"dim": [{"size": "992"}]}}}, "dtype": {"type": "DT_FLOAT"}}}, {"name": "StatefulPartitionedCall/model/conv4_block24_0_bn/FusedBatchNormV3/ReadVariableOp", "op": "Const", "attr": {"dtype": {"type": "DT_FLOAT"}, "value": {"tensor": {"dtype": "DT_FLOAT", "tensorShape": {"dim": [{"size": "992"}]}}}}}, {"name": "StatefulPartitionedCall/model/conv4_block24_0_bn/FusedBatchNormV3/ReadVariableOp_1", "op": "Const", "attr": {"dtype": {"type": "DT_FLOAT"}, "value": {"tensor": {"dtype": "DT_FLOAT", "tensorShape": {"dim": [{"size": "992"}]}}}}}, {"name": "StatefulPartitionedCall/model/conv4_block24_2_conv/Conv2D/Cast", "op": "Const", "attr": {"value": {"tensor": {"dtype": "DT_HALF", "tensorShape": {"dim": [{"size": "3"}, {"size": "3"}, {"size": "128"}, {"size": "32"}]}}}, "dtype": {"type": "DT_HALF"}}}, {"name": "StatefulPartitionedCall/model/conv4_block24_concat/concat/axis", "op": "Const", "attr": {"value": {"tensor": {"dtype": "DT_INT32", "tensorShape": {}}}, "dtype": {"type": "DT_INT32"}}}, {"name": "StatefulPartitionedCall/model/pool4_bn/ReadVariableOp", "op": "Const", "attr": {"value": {"tensor": {"dtype": "DT_FLOAT", "tensorShape": {"dim": [{"size": "1024"}]}}}, "dtype": {"type": "DT_FLOAT"}}}, {"name": "StatefulPartitionedCall/model/pool4_bn/ReadVariableOp_1", "op": "Const", "attr": {"value": {"tensor": {"dtype": "DT_FLOAT", "tensorShape": {"dim": [{"size": "1024"}]}}}, "dtype": {"type": "DT_FLOAT"}}}, {"name": "StatefulPartitionedCall/model/pool4_bn/FusedBatchNormV3/ReadVariableOp", "op": "Const", "attr": {"value": {"tensor": {"dtype": "DT_FLOAT", "tensorShape": {"dim": [{"size": "1024"}]}}}, "dtype": {"type": "DT_FLOAT"}}}, {"name": "StatefulPartitionedCall/model/pool4_bn/FusedBatchNormV3/ReadVariableOp_1", "op": "Const", "attr": {"dtype": {"type": "DT_FLOAT"}, "value": {"tensor": {"dtype": "DT_FLOAT", "tensorShape": {"dim": [{"size": "1024"}]}}}}}, {"name": "StatefulPartitionedCall/model/pool4_conv/Conv2D/Cast", "op": "Const", "attr": {"value": {"tensor": {"dtype": "DT_HALF", "tensorShape": {"dim": [{"size": "1"}, {"size": "1"}, {"size": "1024"}, {"size": "512"}]}}}, "dtype": {"type": "DT_HALF"}}}, {"name": "StatefulPartitionedCall/model/conv5_block1_0_bn/ReadVariableOp", "op": "Const", "attr": {"dtype": {"type": "DT_FLOAT"}, "value": {"tensor": {"dtype": "DT_FLOAT", "tensorShape": {"dim": [{"size": "512"}]}}}}}, {"name": "StatefulPartitionedCall/model/conv5_block1_0_bn/ReadVariableOp_1", "op": "Const", "attr": {"dtype": {"type": "DT_FLOAT"}, "value": {"tensor": {"dtype": "DT_FLOAT", "tensorShape": {"dim": [{"size": "512"}]}}}}}, {"name": "StatefulPartitionedCall/model/conv5_block1_0_bn/FusedBatchNormV3/ReadVariableOp", "op": "Const", "attr": {"value": {"tensor": {"dtype": "DT_FLOAT", "tensorShape": {"dim": [{"size": "512"}]}}}, "dtype": {"type": "DT_FLOAT"}}}, {"name": "StatefulPartitionedCall/model/conv5_block1_0_bn/FusedBatchNormV3/ReadVariableOp_1", "op": "Const", "attr": {"dtype": {"type": "DT_FLOAT"}, "value": {"tensor": {"dtype": "DT_FLOAT", "tensorShape": {"dim": [{"size": "512"}]}}}}}, {"name": "StatefulPartitionedCall/model/conv5_block1_2_conv/Conv2D/Cast", "op": "Const", "attr": {"dtype": {"type": "DT_HALF"}, "value": {"tensor": {"dtype": "DT_HALF", "tensorShape": {"dim": [{"size": "3"}, {"size": "3"}, {"size": "128"}, {"size": "32"}]}}}}}, {"name": "StatefulPartitionedCall/model/conv5_block1_concat/concat/axis", "op": "Const", "attr": {"value": {"tensor": {"dtype": "DT_INT32", "tensorShape": {}}}, "dtype": {"type": "DT_INT32"}}}, {"name": "StatefulPartitionedCall/model/conv5_block2_0_bn/ReadVariableOp", "op": "Const", "attr": {"dtype": {"type": "DT_FLOAT"}, "value": {"tensor": {"dtype": "DT_FLOAT", "tensorShape": {"dim": [{"size": "544"}]}}}}}, {"name": "StatefulPartitionedCall/model/conv5_block2_0_bn/ReadVariableOp_1", "op": "Const", "attr": {"dtype": {"type": "DT_FLOAT"}, "value": {"tensor": {"dtype": "DT_FLOAT", "tensorShape": {"dim": [{"size": "544"}]}}}}}, {"name": "StatefulPartitionedCall/model/conv5_block2_0_bn/FusedBatchNormV3/ReadVariableOp", "op": "Const", "attr": {"dtype": {"type": "DT_FLOAT"}, "value": {"tensor": {"dtype": "DT_FLOAT", "tensorShape": {"dim": [{"size": "544"}]}}}}}, {"name": "StatefulPartitionedCall/model/conv5_block2_0_bn/FusedBatchNormV3/ReadVariableOp_1", "op": "Const", "attr": {"dtype": {"type": "DT_FLOAT"}, "value": {"tensor": {"dtype": "DT_FLOAT", "tensorShape": {"dim": [{"size": "544"}]}}}}}, {"name": "StatefulPartitionedCall/model/conv5_block2_2_conv/Conv2D/Cast", "op": "Const", "attr": {"dtype": {"type": "DT_HALF"}, "value": {"tensor": {"dtype": "DT_HALF", "tensorShape": {"dim": [{"size": "3"}, {"size": "3"}, {"size": "128"}, {"size": "32"}]}}}}}, {"name": "StatefulPartitionedCall/model/conv5_block2_concat/concat/axis", "op": "Const", "attr": {"dtype": {"type": "DT_INT32"}, "value": {"tensor": {"dtype": "DT_INT32", "tensorShape": {}}}}}, {"name": "StatefulPartitionedCall/model/conv5_block3_0_bn/ReadVariableOp", "op": "Const", "attr": {"value": {"tensor": {"dtype": "DT_FLOAT", "tensorShape": {"dim": [{"size": "576"}]}}}, "dtype": {"type": "DT_FLOAT"}}}, {"name": "StatefulPartitionedCall/model/conv5_block3_0_bn/ReadVariableOp_1", "op": "Const", "attr": {"value": {"tensor": {"dtype": "DT_FLOAT", "tensorShape": {"dim": [{"size": "576"}]}}}, "dtype": {"type": "DT_FLOAT"}}}, {"name": "StatefulPartitionedCall/model/conv5_block3_0_bn/FusedBatchNormV3/ReadVariableOp", "op": "Const", "attr": {"dtype": {"type": "DT_FLOAT"}, "value": {"tensor": {"dtype": "DT_FLOAT", "tensorShape": {"dim": [{"size": "576"}]}}}}}, {"name": "StatefulPartitionedCall/model/conv5_block3_0_bn/FusedBatchNormV3/ReadVariableOp_1", "op": "Const", "attr": {"dtype": {"type": "DT_FLOAT"}, "value": {"tensor": {"dtype": "DT_FLOAT", "tensorShape": {"dim": [{"size": "576"}]}}}}}, {"name": "StatefulPartitionedCall/model/conv5_block3_2_conv/Conv2D/Cast", "op": "Const", "attr": {"dtype": {"type": "DT_HALF"}, "value": {"tensor": {"dtype": "DT_HALF", "tensorShape": {"dim": [{"size": "3"}, {"size": "3"}, {"size": "128"}, {"size": "32"}]}}}}}, {"name": "StatefulPartitionedCall/model/conv5_block3_concat/concat/axis", "op": "Const", "attr": {"dtype": {"type": "DT_INT32"}, "value": {"tensor": {"dtype": "DT_INT32", "tensorShape": {}}}}}, {"name": "StatefulPartitionedCall/model/conv5_block4_0_bn/ReadVariableOp", "op": "Const", "attr": {"value": {"tensor": {"dtype": "DT_FLOAT", "tensorShape": {"dim": [{"size": "608"}]}}}, "dtype": {"type": "DT_FLOAT"}}}, {"name": "StatefulPartitionedCall/model/conv5_block4_0_bn/ReadVariableOp_1", "op": "Const", "attr": {"dtype": {"type": "DT_FLOAT"}, "value": {"tensor": {"dtype": "DT_FLOAT", "tensorShape": {"dim": [{"size": "608"}]}}}}}, {"name": "StatefulPartitionedCall/model/conv5_block4_0_bn/FusedBatchNormV3/ReadVariableOp", "op": "Const", "attr": {"dtype": {"type": "DT_FLOAT"}, "value": {"tensor": {"dtype": "DT_FLOAT", "tensorShape": {"dim": [{"size": "608"}]}}}}}, {"name": "StatefulPartitionedCall/model/conv5_block4_0_bn/FusedBatchNormV3/ReadVariableOp_1", "op": "Const", "attr": {"value": {"tensor": {"dtype": "DT_FLOAT", "tensorShape": {"dim": [{"size": "608"}]}}}, "dtype": {"type": "DT_FLOAT"}}}, {"name": "StatefulPartitionedCall/model/conv5_block4_2_conv/Conv2D/Cast", "op": "Const", "attr": {"dtype": {"type": "DT_HALF"}, "value": {"tensor": {"dtype": "DT_HALF", "tensorShape": {"dim": [{"size": "3"}, {"size": "3"}, {"size": "128"}, {"size": "32"}]}}}}}, {"name": "StatefulPartitionedCall/model/conv5_block4_concat/concat/axis", "op": "Const", "attr": {"value": {"tensor": {"dtype": "DT_INT32", "tensorShape": {}}}, "dtype": {"type": "DT_INT32"}}}, {"name": "StatefulPartitionedCall/model/conv5_block5_0_bn/ReadVariableOp", "op": "Const", "attr": {"value": {"tensor": {"dtype": "DT_FLOAT", "tensorShape": {"dim": [{"size": "640"}]}}}, "dtype": {"type": "DT_FLOAT"}}}, {"name": "StatefulPartitionedCall/model/conv5_block5_0_bn/ReadVariableOp_1", "op": "Const", "attr": {"dtype": {"type": "DT_FLOAT"}, "value": {"tensor": {"dtype": "DT_FLOAT", "tensorShape": {"dim": [{"size": "640"}]}}}}}, {"name": "StatefulPartitionedCall/model/conv5_block5_0_bn/FusedBatchNormV3/ReadVariableOp", "op": "Const", "attr": {"value": {"tensor": {"dtype": "DT_FLOAT", "tensorShape": {"dim": [{"size": "640"}]}}}, "dtype": {"type": "DT_FLOAT"}}}, {"name": "StatefulPartitionedCall/model/conv5_block5_0_bn/FusedBatchNormV3/ReadVariableOp_1", "op": "Const", "attr": {"value": {"tensor": {"dtype": "DT_FLOAT", "tensorShape": {"dim": [{"size": "640"}]}}}, "dtype": {"type": "DT_FLOAT"}}}, {"name": "StatefulPartitionedCall/model/conv5_block5_2_conv/Conv2D/Cast", "op": "Const", "attr": {"value": {"tensor": {"dtype": "DT_HALF", "tensorShape": {"dim": [{"size": "3"}, {"size": "3"}, {"size": "128"}, {"size": "32"}]}}}, "dtype": {"type": "DT_HALF"}}}, {"name": "StatefulPartitionedCall/model/conv5_block5_concat/concat/axis", "op": "Const", "attr": {"value": {"tensor": {"dtype": "DT_INT32", "tensorShape": {}}}, "dtype": {"type": "DT_INT32"}}}, {"name": "StatefulPartitionedCall/model/conv5_block6_0_bn/ReadVariableOp", "op": "Const", "attr": {"dtype": {"type": "DT_FLOAT"}, "value": {"tensor": {"dtype": "DT_FLOAT", "tensorShape": {"dim": [{"size": "672"}]}}}}}, {"name": "StatefulPartitionedCall/model/conv5_block6_0_bn/ReadVariableOp_1", "op": "Const", "attr": {"value": {"tensor": {"dtype": "DT_FLOAT", "tensorShape": {"dim": [{"size": "672"}]}}}, "dtype": {"type": "DT_FLOAT"}}}, {"name": "StatefulPartitionedCall/model/conv5_block6_0_bn/FusedBatchNormV3/ReadVariableOp", "op": "Const", "attr": {"dtype": {"type": "DT_FLOAT"}, "value": {"tensor": {"dtype": "DT_FLOAT", "tensorShape": {"dim": [{"size": "672"}]}}}}}, {"name": "StatefulPartitionedCall/model/conv5_block6_0_bn/FusedBatchNormV3/ReadVariableOp_1", "op": "Const", "attr": {"dtype": {"type": "DT_FLOAT"}, "value": {"tensor": {"dtype": "DT_FLOAT", "tensorShape": {"dim": [{"size": "672"}]}}}}}, {"name": "StatefulPartitionedCall/model/conv5_block6_2_conv/Conv2D/Cast", "op": "Const", "attr": {"dtype": {"type": "DT_HALF"}, "value": {"tensor": {"dtype": "DT_HALF", "tensorShape": {"dim": [{"size": "3"}, {"size": "3"}, {"size": "128"}, {"size": "32"}]}}}}}, {"name": "StatefulPartitionedCall/model/conv5_block6_concat/concat/axis", "op": "Const", "attr": {"dtype": {"type": "DT_INT32"}, "value": {"tensor": {"dtype": "DT_INT32", "tensorShape": {}}}}}, {"name": "StatefulPartitionedCall/model/conv5_block7_0_bn/ReadVariableOp", "op": "Const", "attr": {"dtype": {"type": "DT_FLOAT"}, "value": {"tensor": {"dtype": "DT_FLOAT", "tensorShape": {"dim": [{"size": "704"}]}}}}}, {"name": "StatefulPartitionedCall/model/conv5_block7_0_bn/ReadVariableOp_1", "op": "Const", "attr": {"value": {"tensor": {"dtype": "DT_FLOAT", "tensorShape": {"dim": [{"size": "704"}]}}}, "dtype": {"type": "DT_FLOAT"}}}, {"name": "StatefulPartitionedCall/model/conv5_block7_0_bn/FusedBatchNormV3/ReadVariableOp", "op": "Const", "attr": {"value": {"tensor": {"dtype": "DT_FLOAT", "tensorShape": {"dim": [{"size": "704"}]}}}, "dtype": {"type": "DT_FLOAT"}}}, {"name": "StatefulPartitionedCall/model/conv5_block7_0_bn/FusedBatchNormV3/ReadVariableOp_1", "op": "Const", "attr": {"dtype": {"type": "DT_FLOAT"}, "value": {"tensor": {"dtype": "DT_FLOAT", "tensorShape": {"dim": [{"size": "704"}]}}}}}, {"name": "StatefulPartitionedCall/model/conv5_block7_2_conv/Conv2D/Cast", "op": "Const", "attr": {"value": {"tensor": {"dtype": "DT_HALF", "tensorShape": {"dim": [{"size": "3"}, {"size": "3"}, {"size": "128"}, {"size": "32"}]}}}, "dtype": {"type": "DT_HALF"}}}, {"name": "StatefulPartitionedCall/model/conv5_block7_concat/concat/axis", "op": "Const", "attr": {"value": {"tensor": {"dtype": "DT_INT32", "tensorShape": {}}}, "dtype": {"type": "DT_INT32"}}}, {"name": "StatefulPartitionedCall/model/conv5_block8_0_bn/ReadVariableOp", "op": "Const", "attr": {"dtype": {"type": "DT_FLOAT"}, "value": {"tensor": {"dtype": "DT_FLOAT", "tensorShape": {"dim": [{"size": "736"}]}}}}}, {"name": "StatefulPartitionedCall/model/conv5_block8_0_bn/ReadVariableOp_1", "op": "Const", "attr": {"value": {"tensor": {"dtype": "DT_FLOAT", "tensorShape": {"dim": [{"size": "736"}]}}}, "dtype": {"type": "DT_FLOAT"}}}, {"name": "StatefulPartitionedCall/model/conv5_block8_0_bn/FusedBatchNormV3/ReadVariableOp", "op": "Const", "attr": {"dtype": {"type": "DT_FLOAT"}, "value": {"tensor": {"dtype": "DT_FLOAT", "tensorShape": {"dim": [{"size": "736"}]}}}}}, {"name": "StatefulPartitionedCall/model/conv5_block8_0_bn/FusedBatchNormV3/ReadVariableOp_1", "op": "Const", "attr": {"dtype": {"type": "DT_FLOAT"}, "value": {"tensor": {"dtype": "DT_FLOAT", "tensorShape": {"dim": [{"size": "736"}]}}}}}, {"name": "StatefulPartitionedCall/model/conv5_block8_2_conv/Conv2D/Cast", "op": "Const", "attr": {"value": {"tensor": {"dtype": "DT_HALF", "tensorShape": {"dim": [{"size": "3"}, {"size": "3"}, {"size": "128"}, {"size": "32"}]}}}, "dtype": {"type": "DT_HALF"}}}, {"name": "StatefulPartitionedCall/model/conv5_block8_concat/concat/axis", "op": "Const", "attr": {"dtype": {"type": "DT_INT32"}, "value": {"tensor": {"dtype": "DT_INT32", "tensorShape": {}}}}}, {"name": "StatefulPartitionedCall/model/conv5_block9_0_bn/ReadVariableOp", "op": "Const", "attr": {"dtype": {"type": "DT_FLOAT"}, "value": {"tensor": {"dtype": "DT_FLOAT", "tensorShape": {"dim": [{"size": "768"}]}}}}}, {"name": "StatefulPartitionedCall/model/conv5_block9_0_bn/ReadVariableOp_1", "op": "Const", "attr": {"dtype": {"type": "DT_FLOAT"}, "value": {"tensor": {"dtype": "DT_FLOAT", "tensorShape": {"dim": [{"size": "768"}]}}}}}, {"name": "StatefulPartitionedCall/model/conv5_block9_0_bn/FusedBatchNormV3/ReadVariableOp", "op": "Const", "attr": {"dtype": {"type": "DT_FLOAT"}, "value": {"tensor": {"dtype": "DT_FLOAT", "tensorShape": {"dim": [{"size": "768"}]}}}}}, {"name": "StatefulPartitionedCall/model/conv5_block9_0_bn/FusedBatchNormV3/ReadVariableOp_1", "op": "Const", "attr": {"value": {"tensor": {"dtype": "DT_FLOAT", "tensorShape": {"dim": [{"size": "768"}]}}}, "dtype": {"type": "DT_FLOAT"}}}, {"name": "StatefulPartitionedCall/model/conv5_block9_2_conv/Conv2D/Cast", "op": "Const", "attr": {"value": {"tensor": {"dtype": "DT_HALF", "tensorShape": {"dim": [{"size": "3"}, {"size": "3"}, {"size": "128"}, {"size": "32"}]}}}, "dtype": {"type": "DT_HALF"}}}, {"name": "StatefulPartitionedCall/model/conv5_block9_concat/concat/axis", "op": "Const", "attr": {"dtype": {"type": "DT_INT32"}, "value": {"tensor": {"dtype": "DT_INT32", "tensorShape": {}}}}}, {"name": "StatefulPartitionedCall/model/conv5_block10_0_bn/ReadVariableOp", "op": "Const", "attr": {"value": {"tensor": {"dtype": "DT_FLOAT", "tensorShape": {"dim": [{"size": "800"}]}}}, "dtype": {"type": "DT_FLOAT"}}}, {"name": "StatefulPartitionedCall/model/conv5_block10_0_bn/ReadVariableOp_1", "op": "Const", "attr": {"value": {"tensor": {"dtype": "DT_FLOAT", "tensorShape": {"dim": [{"size": "800"}]}}}, "dtype": {"type": "DT_FLOAT"}}}, {"name": "StatefulPartitionedCall/model/conv5_block10_0_bn/FusedBatchNormV3/ReadVariableOp", "op": "Const", "attr": {"dtype": {"type": "DT_FLOAT"}, "value": {"tensor": {"dtype": "DT_FLOAT", "tensorShape": {"dim": [{"size": "800"}]}}}}}, {"name": "StatefulPartitionedCall/model/conv5_block10_0_bn/FusedBatchNormV3/ReadVariableOp_1", "op": "Const", "attr": {"value": {"tensor": {"dtype": "DT_FLOAT", "tensorShape": {"dim": [{"size": "800"}]}}}, "dtype": {"type": "DT_FLOAT"}}}, {"name": "StatefulPartitionedCall/model/conv5_block10_2_conv/Conv2D/Cast", "op": "Const", "attr": {"value": {"tensor": {"dtype": "DT_HALF", "tensorShape": {"dim": [{"size": "3"}, {"size": "3"}, {"size": "128"}, {"size": "32"}]}}}, "dtype": {"type": "DT_HALF"}}}, {"name": "StatefulPartitionedCall/model/conv5_block10_concat/concat/axis", "op": "Const", "attr": {"value": {"tensor": {"dtype": "DT_INT32", "tensorShape": {}}}, "dtype": {"type": "DT_INT32"}}}, {"name": "StatefulPartitionedCall/model/conv5_block11_0_bn/ReadVariableOp", "op": "Const", "attr": {"dtype": {"type": "DT_FLOAT"}, "value": {"tensor": {"dtype": "DT_FLOAT", "tensorShape": {"dim": [{"size": "832"}]}}}}}, {"name": "StatefulPartitionedCall/model/conv5_block11_0_bn/ReadVariableOp_1", "op": "Const", "attr": {"dtype": {"type": "DT_FLOAT"}, "value": {"tensor": {"dtype": "DT_FLOAT", "tensorShape": {"dim": [{"size": "832"}]}}}}}, {"name": "StatefulPartitionedCall/model/conv5_block11_0_bn/FusedBatchNormV3/ReadVariableOp", "op": "Const", "attr": {"value": {"tensor": {"dtype": "DT_FLOAT", "tensorShape": {"dim": [{"size": "832"}]}}}, "dtype": {"type": "DT_FLOAT"}}}, {"name": "StatefulPartitionedCall/model/conv5_block11_0_bn/FusedBatchNormV3/ReadVariableOp_1", "op": "Const", "attr": {"value": {"tensor": {"dtype": "DT_FLOAT", "tensorShape": {"dim": [{"size": "832"}]}}}, "dtype": {"type": "DT_FLOAT"}}}, {"name": "StatefulPartitionedCall/model/conv5_block11_2_conv/Conv2D/Cast", "op": "Const", "attr": {"value": {"tensor": {"dtype": "DT_HALF", "tensorShape": {"dim": [{"size": "3"}, {"size": "3"}, {"size": "128"}, {"size": "32"}]}}}, "dtype": {"type": "DT_HALF"}}}, {"name": "StatefulPartitionedCall/model/conv5_block11_concat/concat/axis", "op": "Const", "attr": {"value": {"tensor": {"dtype": "DT_INT32", "tensorShape": {}}}, "dtype": {"type": "DT_INT32"}}}, {"name": "StatefulPartitionedCall/model/conv5_block12_0_bn/ReadVariableOp", "op": "Const", "attr": {"dtype": {"type": "DT_FLOAT"}, "value": {"tensor": {"dtype": "DT_FLOAT", "tensorShape": {"dim": [{"size": "864"}]}}}}}, {"name": "StatefulPartitionedCall/model/conv5_block12_0_bn/ReadVariableOp_1", "op": "Const", "attr": {"value": {"tensor": {"dtype": "DT_FLOAT", "tensorShape": {"dim": [{"size": "864"}]}}}, "dtype": {"type": "DT_FLOAT"}}}, {"name": "StatefulPartitionedCall/model/conv5_block12_0_bn/FusedBatchNormV3/ReadVariableOp", "op": "Const", "attr": {"value": {"tensor": {"dtype": "DT_FLOAT", "tensorShape": {"dim": [{"size": "864"}]}}}, "dtype": {"type": "DT_FLOAT"}}}, {"name": "StatefulPartitionedCall/model/conv5_block12_0_bn/FusedBatchNormV3/ReadVariableOp_1", "op": "Const", "attr": {"dtype": {"type": "DT_FLOAT"}, "value": {"tensor": {"dtype": "DT_FLOAT", "tensorShape": {"dim": [{"size": "864"}]}}}}}, {"name": "StatefulPartitionedCall/model/conv5_block12_2_conv/Conv2D/Cast", "op": "Const", "attr": {"value": {"tensor": {"dtype": "DT_HALF", "tensorShape": {"dim": [{"size": "3"}, {"size": "3"}, {"size": "128"}, {"size": "32"}]}}}, "dtype": {"type": "DT_HALF"}}}, {"name": "StatefulPartitionedCall/model/conv5_block12_concat/concat/axis", "op": "Const", "attr": {"dtype": {"type": "DT_INT32"}, "value": {"tensor": {"dtype": "DT_INT32", "tensorShape": {}}}}}, {"name": "StatefulPartitionedCall/model/conv5_block13_0_bn/ReadVariableOp", "op": "Const", "attr": {"value": {"tensor": {"dtype": "DT_FLOAT", "tensorShape": {"dim": [{"size": "896"}]}}}, "dtype": {"type": "DT_FLOAT"}}}, {"name": "StatefulPartitionedCall/model/conv5_block13_0_bn/ReadVariableOp_1", "op": "Const", "attr": {"dtype": {"type": "DT_FLOAT"}, "value": {"tensor": {"dtype": "DT_FLOAT", "tensorShape": {"dim": [{"size": "896"}]}}}}}, {"name": "StatefulPartitionedCall/model/conv5_block13_0_bn/FusedBatchNormV3/ReadVariableOp", "op": "Const", "attr": {"dtype": {"type": "DT_FLOAT"}, "value": {"tensor": {"dtype": "DT_FLOAT", "tensorShape": {"dim": [{"size": "896"}]}}}}}, {"name": "StatefulPartitionedCall/model/conv5_block13_0_bn/FusedBatchNormV3/ReadVariableOp_1", "op": "Const", "attr": {"value": {"tensor": {"dtype": "DT_FLOAT", "tensorShape": {"dim": [{"size": "896"}]}}}, "dtype": {"type": "DT_FLOAT"}}}, {"name": "StatefulPartitionedCall/model/conv5_block13_2_conv/Conv2D/Cast", "op": "Const", "attr": {"value": {"tensor": {"dtype": "DT_HALF", "tensorShape": {"dim": [{"size": "3"}, {"size": "3"}, {"size": "128"}, {"size": "32"}]}}}, "dtype": {"type": "DT_HALF"}}}, {"name": "StatefulPartitionedCall/model/conv5_block13_concat/concat/axis", "op": "Const", "attr": {"dtype": {"type": "DT_INT32"}, "value": {"tensor": {"dtype": "DT_INT32", "tensorShape": {}}}}}, {"name": "StatefulPartitionedCall/model/conv5_block14_0_bn/ReadVariableOp", "op": "Const", "attr": {"dtype": {"type": "DT_FLOAT"}, "value": {"tensor": {"dtype": "DT_FLOAT", "tensorShape": {"dim": [{"size": "928"}]}}}}}, {"name": "StatefulPartitionedCall/model/conv5_block14_0_bn/ReadVariableOp_1", "op": "Const", "attr": {"dtype": {"type": "DT_FLOAT"}, "value": {"tensor": {"dtype": "DT_FLOAT", "tensorShape": {"dim": [{"size": "928"}]}}}}}, {"name": "StatefulPartitionedCall/model/conv5_block14_0_bn/FusedBatchNormV3/ReadVariableOp", "op": "Const", "attr": {"value": {"tensor": {"dtype": "DT_FLOAT", "tensorShape": {"dim": [{"size": "928"}]}}}, "dtype": {"type": "DT_FLOAT"}}}, {"name": "StatefulPartitionedCall/model/conv5_block14_0_bn/FusedBatchNormV3/ReadVariableOp_1", "op": "Const", "attr": {"dtype": {"type": "DT_FLOAT"}, "value": {"tensor": {"dtype": "DT_FLOAT", "tensorShape": {"dim": [{"size": "928"}]}}}}}, {"name": "StatefulPartitionedCall/model/conv5_block14_2_conv/Conv2D/Cast", "op": "Const", "attr": {"dtype": {"type": "DT_HALF"}, "value": {"tensor": {"dtype": "DT_HALF", "tensorShape": {"dim": [{"size": "3"}, {"size": "3"}, {"size": "128"}, {"size": "32"}]}}}}}, {"name": "StatefulPartitionedCall/model/conv5_block14_concat/concat/axis", "op": "Const", "attr": {"value": {"tensor": {"dtype": "DT_INT32", "tensorShape": {}}}, "dtype": {"type": "DT_INT32"}}}, {"name": "StatefulPartitionedCall/model/conv5_block15_0_bn/ReadVariableOp", "op": "Const", "attr": {"dtype": {"type": "DT_FLOAT"}, "value": {"tensor": {"dtype": "DT_FLOAT", "tensorShape": {"dim": [{"size": "960"}]}}}}}, {"name": "StatefulPartitionedCall/model/conv5_block15_0_bn/ReadVariableOp_1", "op": "Const", "attr": {"value": {"tensor": {"dtype": "DT_FLOAT", "tensorShape": {"dim": [{"size": "960"}]}}}, "dtype": {"type": "DT_FLOAT"}}}, {"name": "StatefulPartitionedCall/model/conv5_block15_0_bn/FusedBatchNormV3/ReadVariableOp", "op": "Const", "attr": {"dtype": {"type": "DT_FLOAT"}, "value": {"tensor": {"dtype": "DT_FLOAT", "tensorShape": {"dim": [{"size": "960"}]}}}}}, {"name": "StatefulPartitionedCall/model/conv5_block15_0_bn/FusedBatchNormV3/ReadVariableOp_1", "op": "Const", "attr": {"dtype": {"type": "DT_FLOAT"}, "value": {"tensor": {"dtype": "DT_FLOAT", "tensorShape": {"dim": [{"size": "960"}]}}}}}, {"name": "StatefulPartitionedCall/model/conv5_block15_2_conv/Conv2D/Cast", "op": "Const", "attr": {"value": {"tensor": {"dtype": "DT_HALF", "tensorShape": {"dim": [{"size": "3"}, {"size": "3"}, {"size": "128"}, {"size": "32"}]}}}, "dtype": {"type": "DT_HALF"}}}, {"name": "StatefulPartitionedCall/model/conv5_block15_concat/concat/axis", "op": "Const", "attr": {"dtype": {"type": "DT_INT32"}, "value": {"tensor": {"dtype": "DT_INT32", "tensorShape": {}}}}}, {"name": "StatefulPartitionedCall/model/conv5_block16_0_bn/ReadVariableOp", "op": "Const", "attr": {"dtype": {"type": "DT_FLOAT"}, "value": {"tensor": {"dtype": "DT_FLOAT", "tensorShape": {"dim": [{"size": "992"}]}}}}}, {"name": "StatefulPartitionedCall/model/conv5_block16_0_bn/ReadVariableOp_1", "op": "Const", "attr": {"value": {"tensor": {"dtype": "DT_FLOAT", "tensorShape": {"dim": [{"size": "992"}]}}}, "dtype": {"type": "DT_FLOAT"}}}, {"name": "StatefulPartitionedCall/model/conv5_block16_0_bn/FusedBatchNormV3/ReadVariableOp", "op": "Const", "attr": {"dtype": {"type": "DT_FLOAT"}, "value": {"tensor": {"dtype": "DT_FLOAT", "tensorShape": {"dim": [{"size": "992"}]}}}}}, {"name": "StatefulPartitionedCall/model/conv5_block16_0_bn/FusedBatchNormV3/ReadVariableOp_1", "op": "Const", "attr": {"dtype": {"type": "DT_FLOAT"}, "value": {"tensor": {"dtype": "DT_FLOAT", "tensorShape": {"dim": [{"size": "992"}]}}}}}, {"name": "StatefulPartitionedCall/model/conv5_block16_2_conv/Conv2D/Cast", "op": "Const", "attr": {"dtype": {"type": "DT_HALF"}, "value": {"tensor": {"dtype": "DT_HALF", "tensorShape": {"dim": [{"size": "3"}, {"size": "3"}, {"size": "128"}, {"size": "32"}]}}}}}, {"name": "StatefulPartitionedCall/model/conv5_block16_concat/concat/axis", "op": "Const", "attr": {"dtype": {"type": "DT_INT32"}, "value": {"tensor": {"dtype": "DT_INT32", "tensorShape": {}}}}}, {"name": "StatefulPartitionedCall/model/bn/ReadVariableOp", "op": "Const", "attr": {"dtype": {"type": "DT_FLOAT"}, "value": {"tensor": {"dtype": "DT_FLOAT", "tensorShape": {"dim": [{"size": "1024"}]}}}}}, {"name": "StatefulPartitionedCall/model/bn/ReadVariableOp_1", "op": "Const", "attr": {"dtype": {"type": "DT_FLOAT"}, "value": {"tensor": {"dtype": "DT_FLOAT", "tensorShape": {"dim": [{"size": "1024"}]}}}}}, {"name": "StatefulPartitionedCall/model/bn/FusedBatchNormV3/ReadVariableOp", "op": "Const", "attr": {"dtype": {"type": "DT_FLOAT"}, "value": {"tensor": {"dtype": "DT_FLOAT", "tensorShape": {"dim": [{"size": "1024"}]}}}}}, {"name": "StatefulPartitionedCall/model/bn/FusedBatchNormV3/ReadVariableOp_1", "op": "Const", "attr": {"value": {"tensor": {"dtype": "DT_FLOAT", "tensorShape": {"dim": [{"size": "1024"}]}}}, "dtype": {"type": "DT_FLOAT"}}}, {"name": "StatefulPartitionedCall/model/global_average_pooling2d/Mean/reduction_indices", "op": "Const", "attr": {"value": {"tensor": {"dtype": "DT_INT32", "tensorShape": {"dim": [{"size": "2"}]}}}, "dtype": {"type": "DT_INT32"}}}, {"name": "StatefulPartitionedCall/model/dense/MatMul/ReadVariableOp", "op": "Const", "attr": {"value": {"tensor": {"dtype": "DT_FLOAT", "tensorShape": {"dim": [{"size": "1024"}, {"size": "309"}]}}}, "dtype": {"type": "DT_FLOAT"}}}, {"name": "StatefulPartitionedCall/model/dense/BiasAdd/ReadVariableOp", "op": "Const", "attr": {"value": {"tensor": {"dtype": "DT_FLOAT", "tensorShape": {"dim": [{"size": "309"}]}}}, "dtype": {"type": "DT_FLOAT"}}}, {"name": "input", "op": "Placeholder", "attr": {"shape": {"shape": {"dim": [{"size": "-1"}, {"size": "256"}, {"size": "384"}, {"size": "1"}]}}, "dtype": {"type": "DT_FLOAT"}}}, {"name": "StatefulPartitionedCall/model/conv1/conv/Conv2D_weights", "op": "Const", "attr": {"value": {"tensor": {"dtype": "DT_HALF", "tensorShape": {"dim": [{"size": "7"}, {"size": "7"}, {"size": "1"}, {"size": "64"}]}}}, "dtype": {"type": "DT_HALF"}}}, {"name": "StatefulPartitionedCall/model/conv1/conv/Conv2D_bn_offset", "op": "Const", "attr": {"value": {"tensor": {"dtype": "DT_FLOAT", "tensorShape": {"dim": [{"size": "64"}]}}}, "dtype": {"type": "DT_FLOAT"}}}, {"name": "StatefulPartitionedCall/model/conv2_block1_1_conv/Conv2D_weights", "op": "Const", "attr": {"dtype": {"type": "DT_HALF"}, "value": {"tensor": {"dtype": "DT_HALF", "tensorShape": {"dim": [{"size": "1"}, {"size": "1"}, {"size": "64"}, {"size": "128"}]}}}}}, {"name": "StatefulPartitionedCall/model/conv2_block1_1_conv/Conv2D_bn_offset", "op": "Const", "attr": {"value": {"tensor": {"dtype": "DT_FLOAT", "tensorShape": {"dim": [{"size": "128"}]}}}, "dtype": {"type": "DT_FLOAT"}}}, {"name": "StatefulPartitionedCall/model/conv2_block2_1_conv/Conv2D_weights", "op": "Const", "attr": {"dtype": {"type": "DT_HALF"}, "value": {"tensor": {"dtype": "DT_HALF", "tensorShape": {"dim": [{"size": "1"}, {"size": "1"}, {"size": "96"}, {"size": "128"}]}}}}}, {"name": "StatefulPartitionedCall/model/conv2_block2_1_conv/Conv2D_bn_offset", "op": "Const", "attr": {"value": {"tensor": {"dtype": "DT_FLOAT", "tensorShape": {"dim": [{"size": "128"}]}}}, "dtype": {"type": "DT_FLOAT"}}}, {"name": "StatefulPartitionedCall/model/conv2_block3_1_conv/Conv2D_weights", "op": "Const", "attr": {"dtype": {"type": "DT_HALF"}, "value": {"tensor": {"dtype": "DT_HALF", "tensorShape": {"dim": [{"size": "1"}, {"size": "1"}, {"size": "128"}, {"size": "128"}]}}}}}, {"name": "StatefulPartitionedCall/model/conv2_block3_1_conv/Conv2D_bn_offset", "op": "Const", "attr": {"value": {"tensor": {"dtype": "DT_FLOAT", "tensorShape": {"dim": [{"size": "128"}]}}}, "dtype": {"type": "DT_FLOAT"}}}, {"name": "StatefulPartitionedCall/model/conv2_block4_1_conv/Conv2D_weights", "op": "Const", "attr": {"value": {"tensor": {"dtype": "DT_HALF", "tensorShape": {"dim": [{"size": "1"}, {"size": "1"}, {"size": "160"}, {"size": "128"}]}}}, "dtype": {"type": "DT_HALF"}}}, {"name": "StatefulPartitionedCall/model/conv2_block4_1_conv/Conv2D_bn_offset", "op": "Const", "attr": {"value": {"tensor": {"dtype": "DT_FLOAT", "tensorShape": {"dim": [{"size": "128"}]}}}, "dtype": {"type": "DT_FLOAT"}}}, {"name": "StatefulPartitionedCall/model/conv2_block5_1_conv/Conv2D_weights", "op": "Const", "attr": {"dtype": {"type": "DT_HALF"}, "value": {"tensor": {"dtype": "DT_HALF", "tensorShape": {"dim": [{"size": "1"}, {"size": "1"}, {"size": "192"}, {"size": "128"}]}}}}}, {"name": "StatefulPartitionedCall/model/conv2_block5_1_conv/Conv2D_bn_offset", "op": "Const", "attr": {"value": {"tensor": {"dtype": "DT_FLOAT", "tensorShape": {"dim": [{"size": "128"}]}}}, "dtype": {"type": "DT_FLOAT"}}}, {"name": "StatefulPartitionedCall/model/conv2_block6_1_conv/Conv2D_weights", "op": "Const", "attr": {"value": {"tensor": {"dtype": "DT_HALF", "tensorShape": {"dim": [{"size": "1"}, {"size": "1"}, {"size": "224"}, {"size": "128"}]}}}, "dtype": {"type": "DT_HALF"}}}, {"name": "StatefulPartitionedCall/model/conv2_block6_1_conv/Conv2D_bn_offset", "op": "Const", "attr": {"value": {"tensor": {"dtype": "DT_FLOAT", "tensorShape": {"dim": [{"size": "128"}]}}}, "dtype": {"type": "DT_FLOAT"}}}, {"name": "StatefulPartitionedCall/model/conv3_block1_1_conv/Conv2D_weights", "op": "Const", "attr": {"dtype": {"type": "DT_HALF"}, "value": {"tensor": {"dtype": "DT_HALF", "tensorShape": {"dim": [{"size": "1"}, {"size": "1"}, {"size": "128"}, {"size": "128"}]}}}}}, {"name": "StatefulPartitionedCall/model/conv3_block1_1_conv/Conv2D_bn_offset", "op": "Const", "attr": {"dtype": {"type": "DT_FLOAT"}, "value": {"tensor": {"dtype": "DT_FLOAT", "tensorShape": {"dim": [{"size": "128"}]}}}}}, {"name": "StatefulPartitionedCall/model/conv3_block2_1_conv/Conv2D_weights", "op": "Const", "attr": {"value": {"tensor": {"dtype": "DT_HALF", "tensorShape": {"dim": [{"size": "1"}, {"size": "1"}, {"size": "160"}, {"size": "128"}]}}}, "dtype": {"type": "DT_HALF"}}}, {"name": "StatefulPartitionedCall/model/conv3_block2_1_conv/Conv2D_bn_offset", "op": "Const", "attr": {"dtype": {"type": "DT_FLOAT"}, "value": {"tensor": {"dtype": "DT_FLOAT", "tensorShape": {"dim": [{"size": "128"}]}}}}}, {"name": "StatefulPartitionedCall/model/conv3_block3_1_conv/Conv2D_weights", "op": "Const", "attr": {"value": {"tensor": {"dtype": "DT_HALF", "tensorShape": {"dim": [{"size": "1"}, {"size": "1"}, {"size": "192"}, {"size": "128"}]}}}, "dtype": {"type": "DT_HALF"}}}, {"name": "StatefulPartitionedCall/model/conv3_block3_1_conv/Conv2D_bn_offset", "op": "Const", "attr": {"value": {"tensor": {"dtype": "DT_FLOAT", "tensorShape": {"dim": [{"size": "128"}]}}}, "dtype": {"type": "DT_FLOAT"}}}, {"name": "StatefulPartitionedCall/model/conv3_block4_1_conv/Conv2D_weights", "op": "Const", "attr": {"value": {"tensor": {"dtype": "DT_HALF", "tensorShape": {"dim": [{"size": "1"}, {"size": "1"}, {"size": "224"}, {"size": "128"}]}}}, "dtype": {"type": "DT_HALF"}}}, {"name": "StatefulPartitionedCall/model/conv3_block4_1_conv/Conv2D_bn_offset", "op": "Const", "attr": {"value": {"tensor": {"dtype": "DT_FLOAT", "tensorShape": {"dim": [{"size": "128"}]}}}, "dtype": {"type": "DT_FLOAT"}}}, {"name": "StatefulPartitionedCall/model/conv3_block5_1_conv/Conv2D_weights", "op": "Const", "attr": {"dtype": {"type": "DT_HALF"}, "value": {"tensor": {"dtype": "DT_HALF", "tensorShape": {"dim": [{"size": "1"}, {"size": "1"}, {"size": "256"}, {"size": "128"}]}}}}}, {"name": "StatefulPartitionedCall/model/conv3_block5_1_conv/Conv2D_bn_offset", "op": "Const", "attr": {"dtype": {"type": "DT_FLOAT"}, "value": {"tensor": {"dtype": "DT_FLOAT", "tensorShape": {"dim": [{"size": "128"}]}}}}}, {"name": "StatefulPartitionedCall/model/conv3_block6_1_conv/Conv2D_weights", "op": "Const", "attr": {"dtype": {"type": "DT_HALF"}, "value": {"tensor": {"dtype": "DT_HALF", "tensorShape": {"dim": [{"size": "1"}, {"size": "1"}, {"size": "288"}, {"size": "128"}]}}}}}, {"name": "StatefulPartitionedCall/model/conv3_block6_1_conv/Conv2D_bn_offset", "op": "Const", "attr": {"value": {"tensor": {"dtype": "DT_FLOAT", "tensorShape": {"dim": [{"size": "128"}]}}}, "dtype": {"type": "DT_FLOAT"}}}, {"name": "StatefulPartitionedCall/model/conv3_block7_1_conv/Conv2D_weights", "op": "Const", "attr": {"value": {"tensor": {"dtype": "DT_HALF", "tensorShape": {"dim": [{"size": "1"}, {"size": "1"}, {"size": "320"}, {"size": "128"}]}}}, "dtype": {"type": "DT_HALF"}}}, {"name": "StatefulPartitionedCall/model/conv3_block7_1_conv/Conv2D_bn_offset", "op": "Const", "attr": {"value": {"tensor": {"dtype": "DT_FLOAT", "tensorShape": {"dim": [{"size": "128"}]}}}, "dtype": {"type": "DT_FLOAT"}}}, {"name": "StatefulPartitionedCall/model/conv3_block8_1_conv/Conv2D_weights", "op": "Const", "attr": {"dtype": {"type": "DT_HALF"}, "value": {"tensor": {"dtype": "DT_HALF", "tensorShape": {"dim": [{"size": "1"}, {"size": "1"}, {"size": "352"}, {"size": "128"}]}}}}}, {"name": "StatefulPartitionedCall/model/conv3_block8_1_conv/Conv2D_bn_offset", "op": "Const", "attr": {"value": {"tensor": {"dtype": "DT_FLOAT", "tensorShape": {"dim": [{"size": "128"}]}}}, "dtype": {"type": "DT_FLOAT"}}}, {"name": "StatefulPartitionedCall/model/conv3_block9_1_conv/Conv2D_weights", "op": "Const", "attr": {"dtype": {"type": "DT_HALF"}, "value": {"tensor": {"dtype": "DT_HALF", "tensorShape": {"dim": [{"size": "1"}, {"size": "1"}, {"size": "384"}, {"size": "128"}]}}}}}, {"name": "StatefulPartitionedCall/model/conv3_block9_1_conv/Conv2D_bn_offset", "op": "Const", "attr": {"value": {"tensor": {"dtype": "DT_FLOAT", "tensorShape": {"dim": [{"size": "128"}]}}}, "dtype": {"type": "DT_FLOAT"}}}, {"name": "StatefulPartitionedCall/model/conv3_block10_1_conv/Conv2D_weights", "op": "Const", "attr": {"value": {"tensor": {"dtype": "DT_HALF", "tensorShape": {"dim": [{"size": "1"}, {"size": "1"}, {"size": "416"}, {"size": "128"}]}}}, "dtype": {"type": "DT_HALF"}}}, {"name": "StatefulPartitionedCall/model/conv3_block10_1_conv/Conv2D_bn_offset", "op": "Const", "attr": {"value": {"tensor": {"dtype": "DT_FLOAT", "tensorShape": {"dim": [{"size": "128"}]}}}, "dtype": {"type": "DT_FLOAT"}}}, {"name": "StatefulPartitionedCall/model/conv3_block11_1_conv/Conv2D_weights", "op": "Const", "attr": {"value": {"tensor": {"dtype": "DT_HALF", "tensorShape": {"dim": [{"size": "1"}, {"size": "1"}, {"size": "448"}, {"size": "128"}]}}}, "dtype": {"type": "DT_HALF"}}}, {"name": "StatefulPartitionedCall/model/conv3_block11_1_conv/Conv2D_bn_offset", "op": "Const", "attr": {"dtype": {"type": "DT_FLOAT"}, "value": {"tensor": {"dtype": "DT_FLOAT", "tensorShape": {"dim": [{"size": "128"}]}}}}}, {"name": "StatefulPartitionedCall/model/conv3_block12_1_conv/Conv2D_weights", "op": "Const", "attr": {"dtype": {"type": "DT_HALF"}, "value": {"tensor": {"dtype": "DT_HALF", "tensorShape": {"dim": [{"size": "1"}, {"size": "1"}, {"size": "480"}, {"size": "128"}]}}}}}, {"name": "StatefulPartitionedCall/model/conv3_block12_1_conv/Conv2D_bn_offset", "op": "Const", "attr": {"dtype": {"type": "DT_FLOAT"}, "value": {"tensor": {"dtype": "DT_FLOAT", "tensorShape": {"dim": [{"size": "128"}]}}}}}, {"name": "StatefulPartitionedCall/model/conv4_block1_1_conv/Conv2D_weights", "op": "Const", "attr": {"value": {"tensor": {"dtype": "DT_HALF", "tensorShape": {"dim": [{"size": "1"}, {"size": "1"}, {"size": "256"}, {"size": "128"}]}}}, "dtype": {"type": "DT_HALF"}}}, {"name": "StatefulPartitionedCall/model/conv4_block1_1_conv/Conv2D_bn_offset", "op": "Const", "attr": {"dtype": {"type": "DT_FLOAT"}, "value": {"tensor": {"dtype": "DT_FLOAT", "tensorShape": {"dim": [{"size": "128"}]}}}}}, {"name": "StatefulPartitionedCall/model/conv4_block2_1_conv/Conv2D_weights", "op": "Const", "attr": {"dtype": {"type": "DT_HALF"}, "value": {"tensor": {"dtype": "DT_HALF", "tensorShape": {"dim": [{"size": "1"}, {"size": "1"}, {"size": "288"}, {"size": "128"}]}}}}}, {"name": "StatefulPartitionedCall/model/conv4_block2_1_conv/Conv2D_bn_offset", "op": "Const", "attr": {"value": {"tensor": {"dtype": "DT_FLOAT", "tensorShape": {"dim": [{"size": "128"}]}}}, "dtype": {"type": "DT_FLOAT"}}}, {"name": "StatefulPartitionedCall/model/conv4_block3_1_conv/Conv2D_weights", "op": "Const", "attr": {"dtype": {"type": "DT_HALF"}, "value": {"tensor": {"dtype": "DT_HALF", "tensorShape": {"dim": [{"size": "1"}, {"size": "1"}, {"size": "320"}, {"size": "128"}]}}}}}, {"name": "StatefulPartitionedCall/model/conv4_block3_1_conv/Conv2D_bn_offset", "op": "Const", "attr": {"value": {"tensor": {"dtype": "DT_FLOAT", "tensorShape": {"dim": [{"size": "128"}]}}}, "dtype": {"type": "DT_FLOAT"}}}, {"name": "StatefulPartitionedCall/model/conv4_block4_1_conv/Conv2D_weights", "op": "Const", "attr": {"dtype": {"type": "DT_HALF"}, "value": {"tensor": {"dtype": "DT_HALF", "tensorShape": {"dim": [{"size": "1"}, {"size": "1"}, {"size": "352"}, {"size": "128"}]}}}}}, {"name": "StatefulPartitionedCall/model/conv4_block4_1_conv/Conv2D_bn_offset", "op": "Const", "attr": {"dtype": {"type": "DT_FLOAT"}, "value": {"tensor": {"dtype": "DT_FLOAT", "tensorShape": {"dim": [{"size": "128"}]}}}}}, {"name": "StatefulPartitionedCall/model/conv4_block5_1_conv/Conv2D_weights", "op": "Const", "attr": {"value": {"tensor": {"dtype": "DT_HALF", "tensorShape": {"dim": [{"size": "1"}, {"size": "1"}, {"size": "384"}, {"size": "128"}]}}}, "dtype": {"type": "DT_HALF"}}}, {"name": "StatefulPartitionedCall/model/conv4_block5_1_conv/Conv2D_bn_offset", "op": "Const", "attr": {"value": {"tensor": {"dtype": "DT_FLOAT", "tensorShape": {"dim": [{"size": "128"}]}}}, "dtype": {"type": "DT_FLOAT"}}}, {"name": "StatefulPartitionedCall/model/conv4_block6_1_conv/Conv2D_weights", "op": "Const", "attr": {"dtype": {"type": "DT_HALF"}, "value": {"tensor": {"dtype": "DT_HALF", "tensorShape": {"dim": [{"size": "1"}, {"size": "1"}, {"size": "416"}, {"size": "128"}]}}}}}, {"name": "StatefulPartitionedCall/model/conv4_block6_1_conv/Conv2D_bn_offset", "op": "Const", "attr": {"value": {"tensor": {"dtype": "DT_FLOAT", "tensorShape": {"dim": [{"size": "128"}]}}}, "dtype": {"type": "DT_FLOAT"}}}, {"name": "StatefulPartitionedCall/model/conv4_block7_1_conv/Conv2D_weights", "op": "Const", "attr": {"value": {"tensor": {"dtype": "DT_HALF", "tensorShape": {"dim": [{"size": "1"}, {"size": "1"}, {"size": "448"}, {"size": "128"}]}}}, "dtype": {"type": "DT_HALF"}}}, {"name": "StatefulPartitionedCall/model/conv4_block7_1_conv/Conv2D_bn_offset", "op": "Const", "attr": {"dtype": {"type": "DT_FLOAT"}, "value": {"tensor": {"dtype": "DT_FLOAT", "tensorShape": {"dim": [{"size": "128"}]}}}}}, {"name": "StatefulPartitionedCall/model/conv4_block8_1_conv/Conv2D_weights", "op": "Const", "attr": {"dtype": {"type": "DT_HALF"}, "value": {"tensor": {"dtype": "DT_HALF", "tensorShape": {"dim": [{"size": "1"}, {"size": "1"}, {"size": "480"}, {"size": "128"}]}}}}}, {"name": "StatefulPartitionedCall/model/conv4_block8_1_conv/Conv2D_bn_offset", "op": "Const", "attr": {"value": {"tensor": {"dtype": "DT_FLOAT", "tensorShape": {"dim": [{"size": "128"}]}}}, "dtype": {"type": "DT_FLOAT"}}}, {"name": "StatefulPartitionedCall/model/conv4_block9_1_conv/Conv2D_weights", "op": "Const", "attr": {"value": {"tensor": {"dtype": "DT_HALF", "tensorShape": {"dim": [{"size": "1"}, {"size": "1"}, {"size": "512"}, {"size": "128"}]}}}, "dtype": {"type": "DT_HALF"}}}, {"name": "StatefulPartitionedCall/model/conv4_block9_1_conv/Conv2D_bn_offset", "op": "Const", "attr": {"dtype": {"type": "DT_FLOAT"}, "value": {"tensor": {"dtype": "DT_FLOAT", "tensorShape": {"dim": [{"size": "128"}]}}}}}, {"name": "StatefulPartitionedCall/model/conv4_block10_1_conv/Conv2D_weights", "op": "Const", "attr": {"dtype": {"type": "DT_HALF"}, "value": {"tensor": {"dtype": "DT_HALF", "tensorShape": {"dim": [{"size": "1"}, {"size": "1"}, {"size": "544"}, {"size": "128"}]}}}}}, {"name": "StatefulPartitionedCall/model/conv4_block10_1_conv/Conv2D_bn_offset", "op": "Const", "attr": {"dtype": {"type": "DT_FLOAT"}, "value": {"tensor": {"dtype": "DT_FLOAT", "tensorShape": {"dim": [{"size": "128"}]}}}}}, {"name": "StatefulPartitionedCall/model/conv4_block11_1_conv/Conv2D_weights", "op": "Const", "attr": {"dtype": {"type": "DT_HALF"}, "value": {"tensor": {"dtype": "DT_HALF", "tensorShape": {"dim": [{"size": "1"}, {"size": "1"}, {"size": "576"}, {"size": "128"}]}}}}}, {"name": "StatefulPartitionedCall/model/conv4_block11_1_conv/Conv2D_bn_offset", "op": "Const", "attr": {"value": {"tensor": {"dtype": "DT_FLOAT", "tensorShape": {"dim": [{"size": "128"}]}}}, "dtype": {"type": "DT_FLOAT"}}}, {"name": "StatefulPartitionedCall/model/conv4_block12_1_conv/Conv2D_weights", "op": "Const", "attr": {"dtype": {"type": "DT_HALF"}, "value": {"tensor": {"dtype": "DT_HALF", "tensorShape": {"dim": [{"size": "1"}, {"size": "1"}, {"size": "608"}, {"size": "128"}]}}}}}, {"name": "StatefulPartitionedCall/model/conv4_block12_1_conv/Conv2D_bn_offset", "op": "Const", "attr": {"dtype": {"type": "DT_FLOAT"}, "value": {"tensor": {"dtype": "DT_FLOAT", "tensorShape": {"dim": [{"size": "128"}]}}}}}, {"name": "StatefulPartitionedCall/model/conv4_block13_1_conv/Conv2D_weights", "op": "Const", "attr": {"value": {"tensor": {"dtype": "DT_HALF", "tensorShape": {"dim": [{"size": "1"}, {"size": "1"}, {"size": "640"}, {"size": "128"}]}}}, "dtype": {"type": "DT_HALF"}}}, {"name": "StatefulPartitionedCall/model/conv4_block13_1_conv/Conv2D_bn_offset", "op": "Const", "attr": {"value": {"tensor": {"dtype": "DT_FLOAT", "tensorShape": {"dim": [{"size": "128"}]}}}, "dtype": {"type": "DT_FLOAT"}}}, {"name": "StatefulPartitionedCall/model/conv4_block14_1_conv/Conv2D_weights", "op": "Const", "attr": {"value": {"tensor": {"dtype": "DT_HALF", "tensorShape": {"dim": [{"size": "1"}, {"size": "1"}, {"size": "672"}, {"size": "128"}]}}}, "dtype": {"type": "DT_HALF"}}}, {"name": "StatefulPartitionedCall/model/conv4_block14_1_conv/Conv2D_bn_offset", "op": "Const", "attr": {"value": {"tensor": {"dtype": "DT_FLOAT", "tensorShape": {"dim": [{"size": "128"}]}}}, "dtype": {"type": "DT_FLOAT"}}}, {"name": "StatefulPartitionedCall/model/conv4_block15_1_conv/Conv2D_weights", "op": "Const", "attr": {"value": {"tensor": {"dtype": "DT_HALF", "tensorShape": {"dim": [{"size": "1"}, {"size": "1"}, {"size": "704"}, {"size": "128"}]}}}, "dtype": {"type": "DT_HALF"}}}, {"name": "StatefulPartitionedCall/model/conv4_block15_1_conv/Conv2D_bn_offset", "op": "Const", "attr": {"value": {"tensor": {"dtype": "DT_FLOAT", "tensorShape": {"dim": [{"size": "128"}]}}}, "dtype": {"type": "DT_FLOAT"}}}, {"name": "StatefulPartitionedCall/model/conv4_block16_1_conv/Conv2D_weights", "op": "Const", "attr": {"dtype": {"type": "DT_HALF"}, "value": {"tensor": {"dtype": "DT_HALF", "tensorShape": {"dim": [{"size": "1"}, {"size": "1"}, {"size": "736"}, {"size": "128"}]}}}}}, {"name": "StatefulPartitionedCall/model/conv4_block16_1_conv/Conv2D_bn_offset", "op": "Const", "attr": {"value": {"tensor": {"dtype": "DT_FLOAT", "tensorShape": {"dim": [{"size": "128"}]}}}, "dtype": {"type": "DT_FLOAT"}}}, {"name": "StatefulPartitionedCall/model/conv4_block17_1_conv/Conv2D_weights", "op": "Const", "attr": {"value": {"tensor": {"dtype": "DT_HALF", "tensorShape": {"dim": [{"size": "1"}, {"size": "1"}, {"size": "768"}, {"size": "128"}]}}}, "dtype": {"type": "DT_HALF"}}}, {"name": "StatefulPartitionedCall/model/conv4_block17_1_conv/Conv2D_bn_offset", "op": "Const", "attr": {"dtype": {"type": "DT_FLOAT"}, "value": {"tensor": {"dtype": "DT_FLOAT", "tensorShape": {"dim": [{"size": "128"}]}}}}}, {"name": "StatefulPartitionedCall/model/conv4_block18_1_conv/Conv2D_weights", "op": "Const", "attr": {"dtype": {"type": "DT_HALF"}, "value": {"tensor": {"dtype": "DT_HALF", "tensorShape": {"dim": [{"size": "1"}, {"size": "1"}, {"size": "800"}, {"size": "128"}]}}}}}, {"name": "StatefulPartitionedCall/model/conv4_block18_1_conv/Conv2D_bn_offset", "op": "Const", "attr": {"dtype": {"type": "DT_FLOAT"}, "value": {"tensor": {"dtype": "DT_FLOAT", "tensorShape": {"dim": [{"size": "128"}]}}}}}, {"name": "StatefulPartitionedCall/model/conv4_block19_1_conv/Conv2D_weights", "op": "Const", "attr": {"value": {"tensor": {"dtype": "DT_HALF", "tensorShape": {"dim": [{"size": "1"}, {"size": "1"}, {"size": "832"}, {"size": "128"}]}}}, "dtype": {"type": "DT_HALF"}}}, {"name": "StatefulPartitionedCall/model/conv4_block19_1_conv/Conv2D_bn_offset", "op": "Const", "attr": {"value": {"tensor": {"dtype": "DT_FLOAT", "tensorShape": {"dim": [{"size": "128"}]}}}, "dtype": {"type": "DT_FLOAT"}}}, {"name": "StatefulPartitionedCall/model/conv4_block20_1_conv/Conv2D_weights", "op": "Const", "attr": {"dtype": {"type": "DT_HALF"}, "value": {"tensor": {"dtype": "DT_HALF", "tensorShape": {"dim": [{"size": "1"}, {"size": "1"}, {"size": "864"}, {"size": "128"}]}}}}}, {"name": "StatefulPartitionedCall/model/conv4_block20_1_conv/Conv2D_bn_offset", "op": "Const", "attr": {"dtype": {"type": "DT_FLOAT"}, "value": {"tensor": {"dtype": "DT_FLOAT", "tensorShape": {"dim": [{"size": "128"}]}}}}}, {"name": "StatefulPartitionedCall/model/conv4_block21_1_conv/Conv2D_weights", "op": "Const", "attr": {"dtype": {"type": "DT_HALF"}, "value": {"tensor": {"dtype": "DT_HALF", "tensorShape": {"dim": [{"size": "1"}, {"size": "1"}, {"size": "896"}, {"size": "128"}]}}}}}, {"name": "StatefulPartitionedCall/model/conv4_block21_1_conv/Conv2D_bn_offset", "op": "Const", "attr": {"dtype": {"type": "DT_FLOAT"}, "value": {"tensor": {"dtype": "DT_FLOAT", "tensorShape": {"dim": [{"size": "128"}]}}}}}, {"name": "StatefulPartitionedCall/model/conv4_block22_1_conv/Conv2D_weights", "op": "Const", "attr": {"dtype": {"type": "DT_HALF"}, "value": {"tensor": {"dtype": "DT_HALF", "tensorShape": {"dim": [{"size": "1"}, {"size": "1"}, {"size": "928"}, {"size": "128"}]}}}}}, {"name": "StatefulPartitionedCall/model/conv4_block22_1_conv/Conv2D_bn_offset", "op": "Const", "attr": {"value": {"tensor": {"dtype": "DT_FLOAT", "tensorShape": {"dim": [{"size": "128"}]}}}, "dtype": {"type": "DT_FLOAT"}}}, {"name": "StatefulPartitionedCall/model/conv4_block23_1_conv/Conv2D_weights", "op": "Const", "attr": {"dtype": {"type": "DT_HALF"}, "value": {"tensor": {"dtype": "DT_HALF", "tensorShape": {"dim": [{"size": "1"}, {"size": "1"}, {"size": "960"}, {"size": "128"}]}}}}}, {"name": "StatefulPartitionedCall/model/conv4_block23_1_conv/Conv2D_bn_offset", "op": "Const", "attr": {"dtype": {"type": "DT_FLOAT"}, "value": {"tensor": {"dtype": "DT_FLOAT", "tensorShape": {"dim": [{"size": "128"}]}}}}}, {"name": "StatefulPartitionedCall/model/conv4_block24_1_conv/Conv2D_weights", "op": "Const", "attr": {"dtype": {"type": "DT_HALF"}, "value": {"tensor": {"dtype": "DT_HALF", "tensorShape": {"dim": [{"size": "1"}, {"size": "1"}, {"size": "992"}, {"size": "128"}]}}}}}, {"name": "StatefulPartitionedCall/model/conv4_block24_1_conv/Conv2D_bn_offset", "op": "Const", "attr": {"value": {"tensor": {"dtype": "DT_FLOAT", "tensorShape": {"dim": [{"size": "128"}]}}}, "dtype": {"type": "DT_FLOAT"}}}, {"name": "StatefulPartitionedCall/model/conv5_block1_1_conv/Conv2D_weights", "op": "Const", "attr": {"dtype": {"type": "DT_HALF"}, "value": {"tensor": {"dtype": "DT_HALF", "tensorShape": {"dim": [{"size": "1"}, {"size": "1"}, {"size": "512"}, {"size": "128"}]}}}}}, {"name": "StatefulPartitionedCall/model/conv5_block1_1_conv/Conv2D_bn_offset", "op": "Const", "attr": {"dtype": {"type": "DT_FLOAT"}, "value": {"tensor": {"dtype": "DT_FLOAT", "tensorShape": {"dim": [{"size": "128"}]}}}}}, {"name": "StatefulPartitionedCall/model/conv5_block2_1_conv/Conv2D_weights", "op": "Const", "attr": {"value": {"tensor": {"dtype": "DT_HALF", "tensorShape": {"dim": [{"size": "1"}, {"size": "1"}, {"size": "544"}, {"size": "128"}]}}}, "dtype": {"type": "DT_HALF"}}}, {"name": "StatefulPartitionedCall/model/conv5_block2_1_conv/Conv2D_bn_offset", "op": "Const", "attr": {"dtype": {"type": "DT_FLOAT"}, "value": {"tensor": {"dtype": "DT_FLOAT", "tensorShape": {"dim": [{"size": "128"}]}}}}}, {"name": "StatefulPartitionedCall/model/conv5_block3_1_conv/Conv2D_weights", "op": "Const", "attr": {"dtype": {"type": "DT_HALF"}, "value": {"tensor": {"dtype": "DT_HALF", "tensorShape": {"dim": [{"size": "1"}, {"size": "1"}, {"size": "576"}, {"size": "128"}]}}}}}, {"name": "StatefulPartitionedCall/model/conv5_block3_1_conv/Conv2D_bn_offset", "op": "Const", "attr": {"value": {"tensor": {"dtype": "DT_FLOAT", "tensorShape": {"dim": [{"size": "128"}]}}}, "dtype": {"type": "DT_FLOAT"}}}, {"name": "StatefulPartitionedCall/model/conv5_block4_1_conv/Conv2D_weights", "op": "Const", "attr": {"dtype": {"type": "DT_HALF"}, "value": {"tensor": {"dtype": "DT_HALF", "tensorShape": {"dim": [{"size": "1"}, {"size": "1"}, {"size": "608"}, {"size": "128"}]}}}}}, {"name": "StatefulPartitionedCall/model/conv5_block4_1_conv/Conv2D_bn_offset", "op": "Const", "attr": {"dtype": {"type": "DT_FLOAT"}, "value": {"tensor": {"dtype": "DT_FLOAT", "tensorShape": {"dim": [{"size": "128"}]}}}}}, {"name": "StatefulPartitionedCall/model/conv5_block5_1_conv/Conv2D_weights", "op": "Const", "attr": {"dtype": {"type": "DT_HALF"}, "value": {"tensor": {"dtype": "DT_HALF", "tensorShape": {"dim": [{"size": "1"}, {"size": "1"}, {"size": "640"}, {"size": "128"}]}}}}}, {"name": "StatefulPartitionedCall/model/conv5_block5_1_conv/Conv2D_bn_offset", "op": "Const", "attr": {"value": {"tensor": {"dtype": "DT_FLOAT", "tensorShape": {"dim": [{"size": "128"}]}}}, "dtype": {"type": "DT_FLOAT"}}}, {"name": "StatefulPartitionedCall/model/conv5_block6_1_conv/Conv2D_weights", "op": "Const", "attr": {"dtype": {"type": "DT_HALF"}, "value": {"tensor": {"dtype": "DT_HALF", "tensorShape": {"dim": [{"size": "1"}, {"size": "1"}, {"size": "672"}, {"size": "128"}]}}}}}, {"name": "StatefulPartitionedCall/model/conv5_block6_1_conv/Conv2D_bn_offset", "op": "Const", "attr": {"dtype": {"type": "DT_FLOAT"}, "value": {"tensor": {"dtype": "DT_FLOAT", "tensorShape": {"dim": [{"size": "128"}]}}}}}, {"name": "StatefulPartitionedCall/model/conv5_block7_1_conv/Conv2D_weights", "op": "Const", "attr": {"dtype": {"type": "DT_HALF"}, "value": {"tensor": {"dtype": "DT_HALF", "tensorShape": {"dim": [{"size": "1"}, {"size": "1"}, {"size": "704"}, {"size": "128"}]}}}}}, {"name": "StatefulPartitionedCall/model/conv5_block7_1_conv/Conv2D_bn_offset", "op": "Const", "attr": {"dtype": {"type": "DT_FLOAT"}, "value": {"tensor": {"dtype": "DT_FLOAT", "tensorShape": {"dim": [{"size": "128"}]}}}}}, {"name": "StatefulPartitionedCall/model/conv5_block8_1_conv/Conv2D_weights", "op": "Const", "attr": {"dtype": {"type": "DT_HALF"}, "value": {"tensor": {"dtype": "DT_HALF", "tensorShape": {"dim": [{"size": "1"}, {"size": "1"}, {"size": "736"}, {"size": "128"}]}}}}}, {"name": "StatefulPartitionedCall/model/conv5_block8_1_conv/Conv2D_bn_offset", "op": "Const", "attr": {"value": {"tensor": {"dtype": "DT_FLOAT", "tensorShape": {"dim": [{"size": "128"}]}}}, "dtype": {"type": "DT_FLOAT"}}}, {"name": "StatefulPartitionedCall/model/conv5_block9_1_conv/Conv2D_weights", "op": "Const", "attr": {"dtype": {"type": "DT_HALF"}, "value": {"tensor": {"dtype": "DT_HALF", "tensorShape": {"dim": [{"size": "1"}, {"size": "1"}, {"size": "768"}, {"size": "128"}]}}}}}, {"name": "StatefulPartitionedCall/model/conv5_block9_1_conv/Conv2D_bn_offset", "op": "Const", "attr": {"dtype": {"type": "DT_FLOAT"}, "value": {"tensor": {"dtype": "DT_FLOAT", "tensorShape": {"dim": [{"size": "128"}]}}}}}, {"name": "StatefulPartitionedCall/model/conv5_block10_1_conv/Conv2D_weights", "op": "Const", "attr": {"value": {"tensor": {"dtype": "DT_HALF", "tensorShape": {"dim": [{"size": "1"}, {"size": "1"}, {"size": "800"}, {"size": "128"}]}}}, "dtype": {"type": "DT_HALF"}}}, {"name": "StatefulPartitionedCall/model/conv5_block10_1_conv/Conv2D_bn_offset", "op": "Const", "attr": {"value": {"tensor": {"dtype": "DT_FLOAT", "tensorShape": {"dim": [{"size": "128"}]}}}, "dtype": {"type": "DT_FLOAT"}}}, {"name": "StatefulPartitionedCall/model/conv5_block11_1_conv/Conv2D_weights", "op": "Const", "attr": {"dtype": {"type": "DT_HALF"}, "value": {"tensor": {"dtype": "DT_HALF", "tensorShape": {"dim": [{"size": "1"}, {"size": "1"}, {"size": "832"}, {"size": "128"}]}}}}}, {"name": "StatefulPartitionedCall/model/conv5_block11_1_conv/Conv2D_bn_offset", "op": "Const", "attr": {"value": {"tensor": {"dtype": "DT_FLOAT", "tensorShape": {"dim": [{"size": "128"}]}}}, "dtype": {"type": "DT_FLOAT"}}}, {"name": "StatefulPartitionedCall/model/conv5_block12_1_conv/Conv2D_weights", "op": "Const", "attr": {"value": {"tensor": {"dtype": "DT_HALF", "tensorShape": {"dim": [{"size": "1"}, {"size": "1"}, {"size": "864"}, {"size": "128"}]}}}, "dtype": {"type": "DT_HALF"}}}, {"name": "StatefulPartitionedCall/model/conv5_block12_1_conv/Conv2D_bn_offset", "op": "Const", "attr": {"value": {"tensor": {"dtype": "DT_FLOAT", "tensorShape": {"dim": [{"size": "128"}]}}}, "dtype": {"type": "DT_FLOAT"}}}, {"name": "StatefulPartitionedCall/model/conv5_block13_1_conv/Conv2D_weights", "op": "Const", "attr": {"dtype": {"type": "DT_HALF"}, "value": {"tensor": {"dtype": "DT_HALF", "tensorShape": {"dim": [{"size": "1"}, {"size": "1"}, {"size": "896"}, {"size": "128"}]}}}}}, {"name": "StatefulPartitionedCall/model/conv5_block13_1_conv/Conv2D_bn_offset", "op": "Const", "attr": {"dtype": {"type": "DT_FLOAT"}, "value": {"tensor": {"dtype": "DT_FLOAT", "tensorShape": {"dim": [{"size": "128"}]}}}}}, {"name": "StatefulPartitionedCall/model/conv5_block14_1_conv/Conv2D_weights", "op": "Const", "attr": {"dtype": {"type": "DT_HALF"}, "value": {"tensor": {"dtype": "DT_HALF", "tensorShape": {"dim": [{"size": "1"}, {"size": "1"}, {"size": "928"}, {"size": "128"}]}}}}}, {"name": "StatefulPartitionedCall/model/conv5_block14_1_conv/Conv2D_bn_offset", "op": "Const", "attr": {"dtype": {"type": "DT_FLOAT"}, "value": {"tensor": {"dtype": "DT_FLOAT", "tensorShape": {"dim": [{"size": "128"}]}}}}}, {"name": "StatefulPartitionedCall/model/conv5_block15_1_conv/Conv2D_weights", "op": "Const", "attr": {"dtype": {"type": "DT_HALF"}, "value": {"tensor": {"dtype": "DT_HALF", "tensorShape": {"dim": [{"size": "1"}, {"size": "1"}, {"size": "960"}, {"size": "128"}]}}}}}, {"name": "StatefulPartitionedCall/model/conv5_block15_1_conv/Conv2D_bn_offset", "op": "Const", "attr": {"value": {"tensor": {"dtype": "DT_FLOAT", "tensorShape": {"dim": [{"size": "128"}]}}}, "dtype": {"type": "DT_FLOAT"}}}, {"name": "StatefulPartitionedCall/model/conv5_block16_1_conv/Conv2D_weights", "op": "Const", "attr": {"dtype": {"type": "DT_HALF"}, "value": {"tensor": {"dtype": "DT_HALF", "tensorShape": {"dim": [{"size": "1"}, {"size": "1"}, {"size": "992"}, {"size": "128"}]}}}}}, {"name": "StatefulPartitionedCall/model/conv5_block16_1_conv/Conv2D_bn_offset", "op": "Const", "attr": {"dtype": {"type": "DT_FLOAT"}, "value": {"tensor": {"dtype": "DT_FLOAT", "tensorShape": {"dim": [{"size": "128"}]}}}}}, {"name": "StatefulPartitionedCall/model/zero_padding2d/Cast", "op": "Cast", "input": ["input"], "attr": {"SrcT": {"type": "DT_FLOAT"}, "Truncate": {"b": false}, "DstT": {"type": "DT_HALF"}}}, {"name": "StatefulPartitionedCall/model/zero_padding2d/Pad", "op": "Pad", "input": ["StatefulPartitionedCall/model/zero_padding2d/Cast", "StatefulPartitionedCall/model/zero_padding2d/Pad/paddings"], "attr": {"T": {"type": "DT_HALF"}, "Tpaddings": {"type": "DT_INT32"}}}, {"name": "StatefulPartitionedCall/model/conv1/conv/Conv2D", "op": "Conv2D", "input": ["StatefulPartitionedCall/model/zero_padding2d/Pad", "StatefulPartitionedCall/model/conv1/conv/Conv2D_weights"], "device": "/device:CPU:0", "attr": {"explicit_paddings": {"list": {}}, "use_cudnn_on_gpu": {"b": true}, "T": {"type": "DT_HALF"}, "strides": {"list": {"i": ["1", "2", "2", "1"]}}, "padding": {"s": "VkFMSUQ="}, "data_format": {"s": "TkhXQw=="}, "dilations": {"list": {"i": ["1", "1", "1", "1"]}}}}, {"name": "StatefulPartitionedCall/model/conv1/bn/FusedBatchNormV3", "op": "BiasAdd", "input": ["StatefulPartitionedCall/model/conv1/conv/Conv2D", "StatefulPartitionedCall/model/conv1/conv/Conv2D_bn_offset"], "attr": {"T": {"type": "DT_HALF"}, "data_format": {"s": "TkhXQw=="}}}, {"name": "StatefulPartitionedCall/model/conv1/relu/Relu", "op": "Relu", "input": ["StatefulPartitionedCall/model/conv1/bn/FusedBatchNormV3"], "attr": {"T": {"type": "DT_HALF"}}}, {"name": "StatefulPartitionedCall/model/zero_padding2d_1/Pad", "op": "Pad", "input": ["StatefulPartitionedCall/model/conv1/relu/Relu", "StatefulPartitionedCall/model/zero_padding2d_1/Pad/paddings"], "attr": {"T": {"type": "DT_HALF"}, "Tpaddings": {"type": "DT_INT32"}}}, {"name": "StatefulPartitionedCall/model/pool1/MaxPool", "op": "MaxPool", "input": ["StatefulPartitionedCall/model/zero_padding2d_1/Pad"], "attr": {"padding": {"s": "VkFMSUQ="}, "T": {"type": "DT_HALF"}, "data_format": {"s": "TkhXQw=="}, "explicit_paddings": {"list": {}}, "ksize": {"list": {"i": ["1", "3", "3", "1"]}}, "strides": {"list": {"i": ["1", "2", "2", "1"]}}}}, {"name": "StatefulPartitionedCall/model/conv2_block1_0_bn/FusedBatchNormV3", "op": "FusedBatchNormV3", "input": ["StatefulPartitionedCall/model/pool1/MaxPool", "StatefulPartitionedCall/model/conv2_block1_0_bn/ReadVariableOp", "StatefulPartitionedCall/model/conv2_block1_0_bn/ReadVariableOp_1", "StatefulPartitionedCall/model/conv2_block1_0_bn/FusedBatchNormV3/ReadVariableOp", "StatefulPartitionedCall/model/conv2_block1_0_bn/FusedBatchNormV3/ReadVariableOp_1"], "attr": {"is_training": {"b": false}, "T": {"type": "DT_HALF"}, "data_format": {"s": "TkhXQw=="}, "exponential_avg_factor": {"f": 1.0}, "epsilon": {"f": 1.001e-05}, "U": {"type": "DT_FLOAT"}}}, {"name": "StatefulPartitionedCall/model/conv2_block1_0_relu/Relu", "op": "Relu", "input": ["StatefulPartitionedCall/model/conv2_block1_0_bn/FusedBatchNormV3"], "attr": {"T": {"type": "DT_HALF"}}}, {"name": "StatefulPartitionedCall/model/conv2_block1_1_conv/Conv2D", "op": "Conv2D", "input": ["StatefulPartitionedCall/model/conv2_block1_0_relu/Relu", "StatefulPartitionedCall/model/conv2_block1_1_conv/Conv2D_weights"], "device": "/device:CPU:0", "attr": {"strides": {"list": {"i": ["1", "1", "1", "1"]}}, "T": {"type": "DT_HALF"}, "explicit_paddings": {"list": {}}, "padding": {"s": "VkFMSUQ="}, "data_format": {"s": "TkhXQw=="}, "dilations": {"list": {"i": ["1", "1", "1", "1"]}}, "use_cudnn_on_gpu": {"b": true}}}, {"name": "StatefulPartitionedCall/model/conv2_block1_1_bn/FusedBatchNormV3", "op": "BiasAdd", "input": ["StatefulPartitionedCall/model/conv2_block1_1_conv/Conv2D", "StatefulPartitionedCall/model/conv2_block1_1_conv/Conv2D_bn_offset"], "attr": {"data_format": {"s": "TkhXQw=="}, "T": {"type": "DT_HALF"}}}, {"name": "StatefulPartitionedCall/model/conv2_block1_1_relu/Relu", "op": "Relu", "input": ["StatefulPartitionedCall/model/conv2_block1_1_bn/FusedBatchNormV3"], "attr": {"T": {"type": "DT_HALF"}}}, {"name": "StatefulPartitionedCall/model/conv2_block1_2_conv/Conv2D", "op": "Conv2D", "input": ["StatefulPartitionedCall/model/conv2_block1_1_relu/Relu", "StatefulPartitionedCall/model/conv2_block1_2_conv/Conv2D/Cast"], "device": "/device:CPU:0", "attr": {"dilations": {"list": {"i": ["1", "1", "1", "1"]}}, "explicit_paddings": {"list": {}}, "use_cudnn_on_gpu": {"b": true}, "padding": {"s": "U0FNRQ=="}, "strides": {"list": {"i": ["1", "1", "1", "1"]}}, "T": {"type": "DT_HALF"}, "data_format": {"s": "TkhXQw=="}}}, {"name": "StatefulPartitionedCall/model/conv2_block1_concat/concat", "op": "ConcatV2", "input": ["StatefulPartitionedCall/model/pool1/MaxPool", "StatefulPartitionedCall/model/conv2_block1_2_conv/Conv2D", "StatefulPartitionedCall/model/conv2_block1_concat/concat/axis"], "attr": {"N": {"i": "2"}, "T": {"type": "DT_HALF"}, "Tidx": {"type": "DT_INT32"}}}, {"name": "StatefulPartitionedCall/model/conv2_block2_0_bn/FusedBatchNormV3", "op": "FusedBatchNormV3", "input": ["StatefulPartitionedCall/model/conv2_block1_concat/concat", "StatefulPartitionedCall/model/conv2_block2_0_bn/ReadVariableOp", "StatefulPartitionedCall/model/conv2_block2_0_bn/ReadVariableOp_1", "StatefulPartitionedCall/model/conv2_block2_0_bn/FusedBatchNormV3/ReadVariableOp", "StatefulPartitionedCall/model/conv2_block2_0_bn/FusedBatchNormV3/ReadVariableOp_1"], "attr": {"U": {"type": "DT_FLOAT"}, "data_format": {"s": "TkhXQw=="}, "is_training": {"b": false}, "exponential_avg_factor": {"f": 1.0}, "T": {"type": "DT_HALF"}, "epsilon": {"f": 1.001e-05}}}, {"name": "StatefulPartitionedCall/model/conv2_block2_0_relu/Relu", "op": "Relu", "input": ["StatefulPartitionedCall/model/conv2_block2_0_bn/FusedBatchNormV3"], "attr": {"T": {"type": "DT_HALF"}}}, {"name": "StatefulPartitionedCall/model/conv2_block2_1_conv/Conv2D", "op": "Conv2D", "input": ["StatefulPartitionedCall/model/conv2_block2_0_relu/Relu", "StatefulPartitionedCall/model/conv2_block2_1_conv/Conv2D_weights"], "device": "/device:CPU:0", "attr": {"strides": {"list": {"i": ["1", "1", "1", "1"]}}, "explicit_paddings": {"list": {}}, "T": {"type": "DT_HALF"}, "dilations": {"list": {"i": ["1", "1", "1", "1"]}}, "padding": {"s": "VkFMSUQ="}, "use_cudnn_on_gpu": {"b": true}, "data_format": {"s": "TkhXQw=="}}}, {"name": "StatefulPartitionedCall/model/conv2_block2_1_bn/FusedBatchNormV3", "op": "BiasAdd", "input": ["StatefulPartitionedCall/model/conv2_block2_1_conv/Conv2D", "StatefulPartitionedCall/model/conv2_block2_1_conv/Conv2D_bn_offset"], "attr": {"T": {"type": "DT_HALF"}, "data_format": {"s": "TkhXQw=="}}}, {"name": "StatefulPartitionedCall/model/conv2_block2_1_relu/Relu", "op": "Relu", "input": ["StatefulPartitionedCall/model/conv2_block2_1_bn/FusedBatchNormV3"], "attr": {"T": {"type": "DT_HALF"}}}, {"name": "StatefulPartitionedCall/model/conv2_block2_2_conv/Conv2D", "op": "Conv2D", "input": ["StatefulPartitionedCall/model/conv2_block2_1_relu/Relu", "StatefulPartitionedCall/model/conv2_block2_2_conv/Conv2D/Cast"], "device": "/device:CPU:0", "attr": {"use_cudnn_on_gpu": {"b": true}, "data_format": {"s": "TkhXQw=="}, "padding": {"s": "U0FNRQ=="}, "strides": {"list": {"i": ["1", "1", "1", "1"]}}, "explicit_paddings": {"list": {}}, "T": {"type": "DT_HALF"}, "dilations": {"list": {"i": ["1", "1", "1", "1"]}}}}, {"name": "StatefulPartitionedCall/model/conv2_block2_concat/concat", "op": "ConcatV2", "input": ["StatefulPartitionedCall/model/conv2_block1_concat/concat", "StatefulPartitionedCall/model/conv2_block2_2_conv/Conv2D", "StatefulPartitionedCall/model/conv2_block2_concat/concat/axis"], "attr": {"T": {"type": "DT_HALF"}, "Tidx": {"type": "DT_INT32"}, "N": {"i": "2"}}}, {"name": "StatefulPartitionedCall/model/conv2_block3_0_bn/FusedBatchNormV3", "op": "FusedBatchNormV3", "input": ["StatefulPartitionedCall/model/conv2_block2_concat/concat", "StatefulPartitionedCall/model/conv2_block3_0_bn/ReadVariableOp", "StatefulPartitionedCall/model/conv2_block3_0_bn/ReadVariableOp_1", "StatefulPartitionedCall/model/conv2_block3_0_bn/FusedBatchNormV3/ReadVariableOp", "StatefulPartitionedCall/model/conv2_block3_0_bn/FusedBatchNormV3/ReadVariableOp_1"], "attr": {"T": {"type": "DT_HALF"}, "U": {"type": "DT_FLOAT"}, "data_format": {"s": "TkhXQw=="}, "exponential_avg_factor": {"f": 1.0}, "is_training": {"b": false}, "epsilon": {"f": 1.001e-05}}}, {"name": "StatefulPartitionedCall/model/conv2_block3_0_relu/Relu", "op": "Relu", "input": ["StatefulPartitionedCall/model/conv2_block3_0_bn/FusedBatchNormV3"], "attr": {"T": {"type": "DT_HALF"}}}, {"name": "StatefulPartitionedCall/model/conv2_block3_1_conv/Conv2D", "op": "Conv2D", "input": ["StatefulPartitionedCall/model/conv2_block3_0_relu/Relu", "StatefulPartitionedCall/model/conv2_block3_1_conv/Conv2D_weights"], "device": "/device:CPU:0", "attr": {"data_format": {"s": "TkhXQw=="}, "padding": {"s": "VkFMSUQ="}, "explicit_paddings": {"list": {}}, "strides": {"list": {"i": ["1", "1", "1", "1"]}}, "T": {"type": "DT_HALF"}, "dilations": {"list": {"i": ["1", "1", "1", "1"]}}, "use_cudnn_on_gpu": {"b": true}}}, {"name": "StatefulPartitionedCall/model/conv2_block3_1_bn/FusedBatchNormV3", "op": "BiasAdd", "input": ["StatefulPartitionedCall/model/conv2_block3_1_conv/Conv2D", "StatefulPartitionedCall/model/conv2_block3_1_conv/Conv2D_bn_offset"], "attr": {"data_format": {"s": "TkhXQw=="}, "T": {"type": "DT_HALF"}}}, {"name": "StatefulPartitionedCall/model/conv2_block3_1_relu/Relu", "op": "Relu", "input": ["StatefulPartitionedCall/model/conv2_block3_1_bn/FusedBatchNormV3"], "attr": {"T": {"type": "DT_HALF"}}}, {"name": "StatefulPartitionedCall/model/conv2_block3_2_conv/Conv2D", "op": "Conv2D", "input": ["StatefulPartitionedCall/model/conv2_block3_1_relu/Relu", "StatefulPartitionedCall/model/conv2_block3_2_conv/Conv2D/Cast"], "device": "/device:CPU:0", "attr": {"data_format": {"s": "TkhXQw=="}, "T": {"type": "DT_HALF"}, "strides": {"list": {"i": ["1", "1", "1", "1"]}}, "dilations": {"list": {"i": ["1", "1", "1", "1"]}}, "padding": {"s": "U0FNRQ=="}, "explicit_paddings": {"list": {}}, "use_cudnn_on_gpu": {"b": true}}}, {"name": "StatefulPartitionedCall/model/conv2_block3_concat/concat", "op": "ConcatV2", "input": ["StatefulPartitionedCall/model/conv2_block2_concat/concat", "StatefulPartitionedCall/model/conv2_block3_2_conv/Conv2D", "StatefulPartitionedCall/model/conv2_block3_concat/concat/axis"], "attr": {"N": {"i": "2"}, "Tidx": {"type": "DT_INT32"}, "T": {"type": "DT_HALF"}}}, {"name": "StatefulPartitionedCall/model/conv2_block4_0_bn/FusedBatchNormV3", "op": "FusedBatchNormV3", "input": ["StatefulPartitionedCall/model/conv2_block3_concat/concat", "StatefulPartitionedCall/model/conv2_block4_0_bn/ReadVariableOp", "StatefulPartitionedCall/model/conv2_block4_0_bn/ReadVariableOp_1", "StatefulPartitionedCall/model/conv2_block4_0_bn/FusedBatchNormV3/ReadVariableOp", "StatefulPartitionedCall/model/conv2_block4_0_bn/FusedBatchNormV3/ReadVariableOp_1"], "attr": {"epsilon": {"f": 1.001e-05}, "U": {"type": "DT_FLOAT"}, "exponential_avg_factor": {"f": 1.0}, "data_format": {"s": "TkhXQw=="}, "T": {"type": "DT_HALF"}, "is_training": {"b": false}}}, {"name": "StatefulPartitionedCall/model/conv2_block4_0_relu/Relu", "op": "Relu", "input": ["StatefulPartitionedCall/model/conv2_block4_0_bn/FusedBatchNormV3"], "attr": {"T": {"type": "DT_HALF"}}}, {"name": "StatefulPartitionedCall/model/conv2_block4_1_conv/Conv2D", "op": "Conv2D", "input": ["StatefulPartitionedCall/model/conv2_block4_0_relu/Relu", "StatefulPartitionedCall/model/conv2_block4_1_conv/Conv2D_weights"], "device": "/device:CPU:0", "attr": {"explicit_paddings": {"list": {}}, "use_cudnn_on_gpu": {"b": true}, "strides": {"list": {"i": ["1", "1", "1", "1"]}}, "data_format": {"s": "TkhXQw=="}, "dilations": {"list": {"i": ["1", "1", "1", "1"]}}, "padding": {"s": "VkFMSUQ="}, "T": {"type": "DT_HALF"}}}, {"name": "StatefulPartitionedCall/model/conv2_block4_1_bn/FusedBatchNormV3", "op": "BiasAdd", "input": ["StatefulPartitionedCall/model/conv2_block4_1_conv/Conv2D", "StatefulPartitionedCall/model/conv2_block4_1_conv/Conv2D_bn_offset"], "attr": {"T": {"type": "DT_HALF"}, "data_format": {"s": "TkhXQw=="}}}, {"name": "StatefulPartitionedCall/model/conv2_block4_1_relu/Relu", "op": "Relu", "input": ["StatefulPartitionedCall/model/conv2_block4_1_bn/FusedBatchNormV3"], "attr": {"T": {"type": "DT_HALF"}}}, {"name": "StatefulPartitionedCall/model/conv2_block4_2_conv/Conv2D", "op": "Conv2D", "input": ["StatefulPartitionedCall/model/conv2_block4_1_relu/Relu", "StatefulPartitionedCall/model/conv2_block4_2_conv/Conv2D/Cast"], "device": "/device:CPU:0", "attr": {"use_cudnn_on_gpu": {"b": true}, "dilations": {"list": {"i": ["1", "1", "1", "1"]}}, "padding": {"s": "U0FNRQ=="}, "data_format": {"s": "TkhXQw=="}, "explicit_paddings": {"list": {}}, "strides": {"list": {"i": ["1", "1", "1", "1"]}}, "T": {"type": "DT_HALF"}}}, {"name": "StatefulPartitionedCall/model/conv2_block4_concat/concat", "op": "ConcatV2", "input": ["StatefulPartitionedCall/model/conv2_block3_concat/concat", "StatefulPartitionedCall/model/conv2_block4_2_conv/Conv2D", "StatefulPartitionedCall/model/conv2_block4_concat/concat/axis"], "attr": {"N": {"i": "2"}, "T": {"type": "DT_HALF"}, "Tidx": {"type": "DT_INT32"}}}, {"name": "StatefulPartitionedCall/model/conv2_block5_0_bn/FusedBatchNormV3", "op": "FusedBatchNormV3", "input": ["StatefulPartitionedCall/model/conv2_block4_concat/concat", "StatefulPartitionedCall/model/conv2_block5_0_bn/ReadVariableOp", "StatefulPartitionedCall/model/conv2_block5_0_bn/ReadVariableOp_1", "StatefulPartitionedCall/model/conv2_block5_0_bn/FusedBatchNormV3/ReadVariableOp", "StatefulPartitionedCall/model/conv2_block5_0_bn/FusedBatchNormV3/ReadVariableOp_1"], "attr": {"U": {"type": "DT_FLOAT"}, "T": {"type": "DT_HALF"}, "is_training": {"b": false}, "epsilon": {"f": 1.001e-05}, "exponential_avg_factor": {"f": 1.0}, "data_format": {"s": "TkhXQw=="}}}, {"name": "StatefulPartitionedCall/model/conv2_block5_0_relu/Relu", "op": "Relu", "input": ["StatefulPartitionedCall/model/conv2_block5_0_bn/FusedBatchNormV3"], "attr": {"T": {"type": "DT_HALF"}}}, {"name": "StatefulPartitionedCall/model/conv2_block5_1_conv/Conv2D", "op": "Conv2D", "input": ["StatefulPartitionedCall/model/conv2_block5_0_relu/Relu", "StatefulPartitionedCall/model/conv2_block5_1_conv/Conv2D_weights"], "device": "/device:CPU:0", "attr": {"data_format": {"s": "TkhXQw=="}, "dilations": {"list": {"i": ["1", "1", "1", "1"]}}, "strides": {"list": {"i": ["1", "1", "1", "1"]}}, "padding": {"s": "VkFMSUQ="}, "use_cudnn_on_gpu": {"b": true}, "T": {"type": "DT_HALF"}, "explicit_paddings": {"list": {}}}}, {"name": "StatefulPartitionedCall/model/conv2_block5_1_bn/FusedBatchNormV3", "op": "BiasAdd", "input": ["StatefulPartitionedCall/model/conv2_block5_1_conv/Conv2D", "StatefulPartitionedCall/model/conv2_block5_1_conv/Conv2D_bn_offset"], "attr": {"data_format": {"s": "TkhXQw=="}, "T": {"type": "DT_HALF"}}}, {"name": "StatefulPartitionedCall/model/conv2_block5_1_relu/Relu", "op": "Relu", "input": ["StatefulPartitionedCall/model/conv2_block5_1_bn/FusedBatchNormV3"], "attr": {"T": {"type": "DT_HALF"}}}, {"name": "StatefulPartitionedCall/model/conv2_block5_2_conv/Conv2D", "op": "Conv2D", "input": ["StatefulPartitionedCall/model/conv2_block5_1_relu/Relu", "StatefulPartitionedCall/model/conv2_block5_2_conv/Conv2D/Cast"], "device": "/device:CPU:0", "attr": {"explicit_paddings": {"list": {}}, "use_cudnn_on_gpu": {"b": true}, "dilations": {"list": {"i": ["1", "1", "1", "1"]}}, "strides": {"list": {"i": ["1", "1", "1", "1"]}}, "T": {"type": "DT_HALF"}, "padding": {"s": "U0FNRQ=="}, "data_format": {"s": "TkhXQw=="}}}, {"name": "StatefulPartitionedCall/model/conv2_block5_concat/concat", "op": "ConcatV2", "input": ["StatefulPartitionedCall/model/conv2_block4_concat/concat", "StatefulPartitionedCall/model/conv2_block5_2_conv/Conv2D", "StatefulPartitionedCall/model/conv2_block5_concat/concat/axis"], "attr": {"T": {"type": "DT_HALF"}, "N": {"i": "2"}, "Tidx": {"type": "DT_INT32"}}}, {"name": "StatefulPartitionedCall/model/conv2_block6_0_bn/FusedBatchNormV3", "op": "FusedBatchNormV3", "input": ["StatefulPartitionedCall/model/conv2_block5_concat/concat", "StatefulPartitionedCall/model/conv2_block6_0_bn/ReadVariableOp", "StatefulPartitionedCall/model/conv2_block6_0_bn/ReadVariableOp_1", "StatefulPartitionedCall/model/conv2_block6_0_bn/FusedBatchNormV3/ReadVariableOp", "StatefulPartitionedCall/model/conv2_block6_0_bn/FusedBatchNormV3/ReadVariableOp_1"], "attr": {"is_training": {"b": false}, "U": {"type": "DT_FLOAT"}, "exponential_avg_factor": {"f": 1.0}, "T": {"type": "DT_HALF"}, "data_format": {"s": "TkhXQw=="}, "epsilon": {"f": 1.001e-05}}}, {"name": "StatefulPartitionedCall/model/conv2_block6_0_relu/Relu", "op": "Relu", "input": ["StatefulPartitionedCall/model/conv2_block6_0_bn/FusedBatchNormV3"], "attr": {"T": {"type": "DT_HALF"}}}, {"name": "StatefulPartitionedCall/model/conv2_block6_1_conv/Conv2D", "op": "Conv2D", "input": ["StatefulPartitionedCall/model/conv2_block6_0_relu/Relu", "StatefulPartitionedCall/model/conv2_block6_1_conv/Conv2D_weights"], "device": "/device:CPU:0", "attr": {"strides": {"list": {"i": ["1", "1", "1", "1"]}}, "dilations": {"list": {"i": ["1", "1", "1", "1"]}}, "use_cudnn_on_gpu": {"b": true}, "padding": {"s": "VkFMSUQ="}, "T": {"type": "DT_HALF"}, "explicit_paddings": {"list": {}}, "data_format": {"s": "TkhXQw=="}}}, {"name": "StatefulPartitionedCall/model/conv2_block6_1_bn/FusedBatchNormV3", "op": "BiasAdd", "input": ["StatefulPartitionedCall/model/conv2_block6_1_conv/Conv2D", "StatefulPartitionedCall/model/conv2_block6_1_conv/Conv2D_bn_offset"], "attr": {"data_format": {"s": "TkhXQw=="}, "T": {"type": "DT_HALF"}}}, {"name": "StatefulPartitionedCall/model/conv2_block6_1_relu/Relu", "op": "Relu", "input": ["StatefulPartitionedCall/model/conv2_block6_1_bn/FusedBatchNormV3"], "attr": {"T": {"type": "DT_HALF"}}}, {"name": "StatefulPartitionedCall/model/conv2_block6_2_conv/Conv2D", "op": "Conv2D", "input": ["StatefulPartitionedCall/model/conv2_block6_1_relu/Relu", "StatefulPartitionedCall/model/conv2_block6_2_conv/Conv2D/Cast"], "device": "/device:CPU:0", "attr": {"data_format": {"s": "TkhXQw=="}, "strides": {"list": {"i": ["1", "1", "1", "1"]}}, "explicit_paddings": {"list": {}}, "T": {"type": "DT_HALF"}, "dilations": {"list": {"i": ["1", "1", "1", "1"]}}, "padding": {"s": "U0FNRQ=="}, "use_cudnn_on_gpu": {"b": true}}}, {"name": "StatefulPartitionedCall/model/conv2_block6_concat/concat", "op": "ConcatV2", "input": ["StatefulPartitionedCall/model/conv2_block5_concat/concat", "StatefulPartitionedCall/model/conv2_block6_2_conv/Conv2D", "StatefulPartitionedCall/model/conv2_block6_concat/concat/axis"], "attr": {"Tidx": {"type": "DT_INT32"}, "T": {"type": "DT_HALF"}, "N": {"i": "2"}}}, {"name": "StatefulPartitionedCall/model/pool2_bn/FusedBatchNormV3", "op": "FusedBatchNormV3", "input": ["StatefulPartitionedCall/model/conv2_block6_concat/concat", "StatefulPartitionedCall/model/pool2_bn/ReadVariableOp", "StatefulPartitionedCall/model/pool2_bn/ReadVariableOp_1", "StatefulPartitionedCall/model/pool2_bn/FusedBatchNormV3/ReadVariableOp", "StatefulPartitionedCall/model/pool2_bn/FusedBatchNormV3/ReadVariableOp_1"], "attr": {"U": {"type": "DT_FLOAT"}, "is_training": {"b": false}, "T": {"type": "DT_HALF"}, "exponential_avg_factor": {"f": 1.0}, "data_format": {"s": "TkhXQw=="}, "epsilon": {"f": 1.001e-05}}}, {"name": "StatefulPartitionedCall/model/pool2_relu/Relu", "op": "Relu", "input": ["StatefulPartitionedCall/model/pool2_bn/FusedBatchNormV3"], "attr": {"T": {"type": "DT_HALF"}}}, {"name": "StatefulPartitionedCall/model/pool2_conv/Conv2D", "op": "Conv2D", "input": ["StatefulPartitionedCall/model/pool2_relu/Relu", "StatefulPartitionedCall/model/pool2_conv/Conv2D/Cast"], "device": "/device:CPU:0", "attr": {"T": {"type": "DT_HALF"}, "dilations": {"list": {"i": ["1", "1", "1", "1"]}}, "padding": {"s": "VkFMSUQ="}, "explicit_paddings": {"list": {}}, "strides": {"list": {"i": ["1", "1", "1", "1"]}}, "use_cudnn_on_gpu": {"b": true}, "data_format": {"s": "TkhXQw=="}}}, {"name": "StatefulPartitionedCall/model/pool2_pool/AvgPool", "op": "AvgPool", "input": ["StatefulPartitionedCall/model/pool2_conv/Conv2D"], "attr": {"T": {"type": "DT_HALF"}, "strides": {"list": {"i": ["1", "2", "2", "1"]}}, "ksize": {"list": {"i": ["1", "2", "2", "1"]}}, "padding": {"s": "VkFMSUQ="}, "data_format": {"s": "TkhXQw=="}}}, {"name": "StatefulPartitionedCall/model/conv3_block1_0_bn/FusedBatchNormV3", "op": "FusedBatchNormV3", "input": ["StatefulPartitionedCall/model/pool2_pool/AvgPool", "StatefulPartitionedCall/model/conv3_block1_0_bn/ReadVariableOp", "StatefulPartitionedCall/model/conv3_block1_0_bn/ReadVariableOp_1", "StatefulPartitionedCall/model/conv3_block1_0_bn/FusedBatchNormV3/ReadVariableOp", "StatefulPartitionedCall/model/conv3_block1_0_bn/FusedBatchNormV3/ReadVariableOp_1"], "attr": {"T": {"type": "DT_HALF"}, "data_format": {"s": "TkhXQw=="}, "exponential_avg_factor": {"f": 1.0}, "is_training": {"b": false}, "epsilon": {"f": 1.001e-05}, "U": {"type": "DT_FLOAT"}}}, {"name": "StatefulPartitionedCall/model/conv3_block1_0_relu/Relu", "op": "Relu", "input": ["StatefulPartitionedCall/model/conv3_block1_0_bn/FusedBatchNormV3"], "attr": {"T": {"type": "DT_HALF"}}}, {"name": "StatefulPartitionedCall/model/conv3_block1_1_conv/Conv2D", "op": "Conv2D", "input": ["StatefulPartitionedCall/model/conv3_block1_0_relu/Relu", "StatefulPartitionedCall/model/conv3_block1_1_conv/Conv2D_weights"], "device": "/device:CPU:0", "attr": {"dilations": {"list": {"i": ["1", "1", "1", "1"]}}, "strides": {"list": {"i": ["1", "1", "1", "1"]}}, "data_format": {"s": "TkhXQw=="}, "padding": {"s": "VkFMSUQ="}, "T": {"type": "DT_HALF"}, "explicit_paddings": {"list": {}}, "use_cudnn_on_gpu": {"b": true}}}, {"name": "StatefulPartitionedCall/model/conv3_block1_1_bn/FusedBatchNormV3", "op": "BiasAdd", "input": ["StatefulPartitionedCall/model/conv3_block1_1_conv/Conv2D", "StatefulPartitionedCall/model/conv3_block1_1_conv/Conv2D_bn_offset"], "attr": {"T": {"type": "DT_HALF"}, "data_format": {"s": "TkhXQw=="}}}, {"name": "StatefulPartitionedCall/model/conv3_block1_1_relu/Relu", "op": "Relu", "input": ["StatefulPartitionedCall/model/conv3_block1_1_bn/FusedBatchNormV3"], "attr": {"T": {"type": "DT_HALF"}}}, {"name": "StatefulPartitionedCall/model/conv3_block1_2_conv/Conv2D", "op": "Conv2D", "input": ["StatefulPartitionedCall/model/conv3_block1_1_relu/Relu", "StatefulPartitionedCall/model/conv3_block1_2_conv/Conv2D/Cast"], "device": "/device:CPU:0", "attr": {"padding": {"s": "U0FNRQ=="}, "T": {"type": "DT_HALF"}, "explicit_paddings": {"list": {}}, "data_format": {"s": "TkhXQw=="}, "strides": {"list": {"i": ["1", "1", "1", "1"]}}, "use_cudnn_on_gpu": {"b": true}, "dilations": {"list": {"i": ["1", "1", "1", "1"]}}}}, {"name": "StatefulPartitionedCall/model/conv3_block1_concat/concat", "op": "ConcatV2", "input": ["StatefulPartitionedCall/model/pool2_pool/AvgPool", "StatefulPartitionedCall/model/conv3_block1_2_conv/Conv2D", "StatefulPartitionedCall/model/conv3_block1_concat/concat/axis"], "attr": {"Tidx": {"type": "DT_INT32"}, "N": {"i": "2"}, "T": {"type": "DT_HALF"}}}, {"name": "StatefulPartitionedCall/model/conv3_block2_0_bn/FusedBatchNormV3", "op": "FusedBatchNormV3", "input": ["StatefulPartitionedCall/model/conv3_block1_concat/concat", "StatefulPartitionedCall/model/conv3_block2_0_bn/ReadVariableOp", "StatefulPartitionedCall/model/conv3_block2_0_bn/ReadVariableOp_1", "StatefulPartitionedCall/model/conv3_block2_0_bn/FusedBatchNormV3/ReadVariableOp", "StatefulPartitionedCall/model/conv3_block2_0_bn/FusedBatchNormV3/ReadVariableOp_1"], "attr": {"is_training": {"b": false}, "epsilon": {"f": 1.001e-05}, "data_format": {"s": "TkhXQw=="}, "exponential_avg_factor": {"f": 1.0}, "T": {"type": "DT_HALF"}, "U": {"type": "DT_FLOAT"}}}, {"name": "StatefulPartitionedCall/model/conv3_block2_0_relu/Relu", "op": "Relu", "input": ["StatefulPartitionedCall/model/conv3_block2_0_bn/FusedBatchNormV3"], "attr": {"T": {"type": "DT_HALF"}}}, {"name": "StatefulPartitionedCall/model/conv3_block2_1_conv/Conv2D", "op": "Conv2D", "input": ["StatefulPartitionedCall/model/conv3_block2_0_relu/Relu", "StatefulPartitionedCall/model/conv3_block2_1_conv/Conv2D_weights"], "device": "/device:CPU:0", "attr": {"T": {"type": "DT_HALF"}, "strides": {"list": {"i": ["1", "1", "1", "1"]}}, "use_cudnn_on_gpu": {"b": true}, "data_format": {"s": "TkhXQw=="}, "dilations": {"list": {"i": ["1", "1", "1", "1"]}}, "explicit_paddings": {"list": {}}, "padding": {"s": "VkFMSUQ="}}}, {"name": "StatefulPartitionedCall/model/conv3_block2_1_bn/FusedBatchNormV3", "op": "BiasAdd", "input": ["StatefulPartitionedCall/model/conv3_block2_1_conv/Conv2D", "StatefulPartitionedCall/model/conv3_block2_1_conv/Conv2D_bn_offset"], "attr": {"data_format": {"s": "TkhXQw=="}, "T": {"type": "DT_HALF"}}}, {"name": "StatefulPartitionedCall/model/conv3_block2_1_relu/Relu", "op": "Relu", "input": ["StatefulPartitionedCall/model/conv3_block2_1_bn/FusedBatchNormV3"], "attr": {"T": {"type": "DT_HALF"}}}, {"name": "StatefulPartitionedCall/model/conv3_block2_2_conv/Conv2D", "op": "Conv2D", "input": ["StatefulPartitionedCall/model/conv3_block2_1_relu/Relu", "StatefulPartitionedCall/model/conv3_block2_2_conv/Conv2D/Cast"], "device": "/device:CPU:0", "attr": {"data_format": {"s": "TkhXQw=="}, "explicit_paddings": {"list": {}}, "dilations": {"list": {"i": ["1", "1", "1", "1"]}}, "padding": {"s": "U0FNRQ=="}, "T": {"type": "DT_HALF"}, "use_cudnn_on_gpu": {"b": true}, "strides": {"list": {"i": ["1", "1", "1", "1"]}}}}, {"name": "StatefulPartitionedCall/model/conv3_block2_concat/concat", "op": "ConcatV2", "input": ["StatefulPartitionedCall/model/conv3_block1_concat/concat", "StatefulPartitionedCall/model/conv3_block2_2_conv/Conv2D", "StatefulPartitionedCall/model/conv3_block2_concat/concat/axis"], "attr": {"T": {"type": "DT_HALF"}, "N": {"i": "2"}, "Tidx": {"type": "DT_INT32"}}}, {"name": "StatefulPartitionedCall/model/conv3_block3_0_bn/FusedBatchNormV3", "op": "FusedBatchNormV3", "input": ["StatefulPartitionedCall/model/conv3_block2_concat/concat", "StatefulPartitionedCall/model/conv3_block3_0_bn/ReadVariableOp", "StatefulPartitionedCall/model/conv3_block3_0_bn/ReadVariableOp_1", "StatefulPartitionedCall/model/conv3_block3_0_bn/FusedBatchNormV3/ReadVariableOp", "StatefulPartitionedCall/model/conv3_block3_0_bn/FusedBatchNormV3/ReadVariableOp_1"], "attr": {"exponential_avg_factor": {"f": 1.0}, "epsilon": {"f": 1.001e-05}, "U": {"type": "DT_FLOAT"}, "T": {"type": "DT_HALF"}, "is_training": {"b": false}, "data_format": {"s": "TkhXQw=="}}}, {"name": "StatefulPartitionedCall/model/conv3_block3_0_relu/Relu", "op": "Relu", "input": ["StatefulPartitionedCall/model/conv3_block3_0_bn/FusedBatchNormV3"], "attr": {"T": {"type": "DT_HALF"}}}, {"name": "StatefulPartitionedCall/model/conv3_block3_1_conv/Conv2D", "op": "Conv2D", "input": ["StatefulPartitionedCall/model/conv3_block3_0_relu/Relu", "StatefulPartitionedCall/model/conv3_block3_1_conv/Conv2D_weights"], "device": "/device:CPU:0", "attr": {"data_format": {"s": "TkhXQw=="}, "T": {"type": "DT_HALF"}, "strides": {"list": {"i": ["1", "1", "1", "1"]}}, "use_cudnn_on_gpu": {"b": true}, "padding": {"s": "VkFMSUQ="}, "dilations": {"list": {"i": ["1", "1", "1", "1"]}}, "explicit_paddings": {"list": {}}}}, {"name": "StatefulPartitionedCall/model/conv3_block3_1_bn/FusedBatchNormV3", "op": "BiasAdd", "input": ["StatefulPartitionedCall/model/conv3_block3_1_conv/Conv2D", "StatefulPartitionedCall/model/conv3_block3_1_conv/Conv2D_bn_offset"], "attr": {"T": {"type": "DT_HALF"}, "data_format": {"s": "TkhXQw=="}}}, {"name": "StatefulPartitionedCall/model/conv3_block3_1_relu/Relu", "op": "Relu", "input": ["StatefulPartitionedCall/model/conv3_block3_1_bn/FusedBatchNormV3"], "attr": {"T": {"type": "DT_HALF"}}}, {"name": "StatefulPartitionedCall/model/conv3_block3_2_conv/Conv2D", "op": "Conv2D", "input": ["StatefulPartitionedCall/model/conv3_block3_1_relu/Relu", "StatefulPartitionedCall/model/conv3_block3_2_conv/Conv2D/Cast"], "device": "/device:CPU:0", "attr": {"dilations": {"list": {"i": ["1", "1", "1", "1"]}}, "padding": {"s": "U0FNRQ=="}, "strides": {"list": {"i": ["1", "1", "1", "1"]}}, "use_cudnn_on_gpu": {"b": true}, "explicit_paddings": {"list": {}}, "data_format": {"s": "TkhXQw=="}, "T": {"type": "DT_HALF"}}}, {"name": "StatefulPartitionedCall/model/conv3_block3_concat/concat", "op": "ConcatV2", "input": ["StatefulPartitionedCall/model/conv3_block2_concat/concat", "StatefulPartitionedCall/model/conv3_block3_2_conv/Conv2D", "StatefulPartitionedCall/model/conv3_block3_concat/concat/axis"], "attr": {"Tidx": {"type": "DT_INT32"}, "T": {"type": "DT_HALF"}, "N": {"i": "2"}}}, {"name": "StatefulPartitionedCall/model/conv3_block4_0_bn/FusedBatchNormV3", "op": "FusedBatchNormV3", "input": ["StatefulPartitionedCall/model/conv3_block3_concat/concat", "StatefulPartitionedCall/model/conv3_block4_0_bn/ReadVariableOp", "StatefulPartitionedCall/model/conv3_block4_0_bn/ReadVariableOp_1", "StatefulPartitionedCall/model/conv3_block4_0_bn/FusedBatchNormV3/ReadVariableOp", "StatefulPartitionedCall/model/conv3_block4_0_bn/FusedBatchNormV3/ReadVariableOp_1"], "attr": {"data_format": {"s": "TkhXQw=="}, "is_training": {"b": false}, "epsilon": {"f": 1.001e-05}, "exponential_avg_factor": {"f": 1.0}, "U": {"type": "DT_FLOAT"}, "T": {"type": "DT_HALF"}}}, {"name": "StatefulPartitionedCall/model/conv3_block4_0_relu/Relu", "op": "Relu", "input": ["StatefulPartitionedCall/model/conv3_block4_0_bn/FusedBatchNormV3"], "attr": {"T": {"type": "DT_HALF"}}}, {"name": "StatefulPartitionedCall/model/conv3_block4_1_conv/Conv2D", "op": "Conv2D", "input": ["StatefulPartitionedCall/model/conv3_block4_0_relu/Relu", "StatefulPartitionedCall/model/conv3_block4_1_conv/Conv2D_weights"], "device": "/device:CPU:0", "attr": {"padding": {"s": "VkFMSUQ="}, "dilations": {"list": {"i": ["1", "1", "1", "1"]}}, "strides": {"list": {"i": ["1", "1", "1", "1"]}}, "explicit_paddings": {"list": {}}, "data_format": {"s": "TkhXQw=="}, "use_cudnn_on_gpu": {"b": true}, "T": {"type": "DT_HALF"}}}, {"name": "StatefulPartitionedCall/model/conv3_block4_1_bn/FusedBatchNormV3", "op": "BiasAdd", "input": ["StatefulPartitionedCall/model/conv3_block4_1_conv/Conv2D", "StatefulPartitionedCall/model/conv3_block4_1_conv/Conv2D_bn_offset"], "attr": {"data_format": {"s": "TkhXQw=="}, "T": {"type": "DT_HALF"}}}, {"name": "StatefulPartitionedCall/model/conv3_block4_1_relu/Relu", "op": "Relu", "input": ["StatefulPartitionedCall/model/conv3_block4_1_bn/FusedBatchNormV3"], "attr": {"T": {"type": "DT_HALF"}}}, {"name": "StatefulPartitionedCall/model/conv3_block4_2_conv/Conv2D", "op": "Conv2D", "input": ["StatefulPartitionedCall/model/conv3_block4_1_relu/Relu", "StatefulPartitionedCall/model/conv3_block4_2_conv/Conv2D/Cast"], "device": "/device:CPU:0", "attr": {"dilations": {"list": {"i": ["1", "1", "1", "1"]}}, "explicit_paddings": {"list": {}}, "padding": {"s": "U0FNRQ=="}, "T": {"type": "DT_HALF"}, "strides": {"list": {"i": ["1", "1", "1", "1"]}}, "data_format": {"s": "TkhXQw=="}, "use_cudnn_on_gpu": {"b": true}}}, {"name": "StatefulPartitionedCall/model/conv3_block4_concat/concat", "op": "ConcatV2", "input": ["StatefulPartitionedCall/model/conv3_block3_concat/concat", "StatefulPartitionedCall/model/conv3_block4_2_conv/Conv2D", "StatefulPartitionedCall/model/conv3_block4_concat/concat/axis"], "attr": {"T": {"type": "DT_HALF"}, "Tidx": {"type": "DT_INT32"}, "N": {"i": "2"}}}, {"name": "StatefulPartitionedCall/model/conv3_block5_0_bn/FusedBatchNormV3", "op": "FusedBatchNormV3", "input": ["StatefulPartitionedCall/model/conv3_block4_concat/concat", "StatefulPartitionedCall/model/conv3_block5_0_bn/ReadVariableOp", "StatefulPartitionedCall/model/conv3_block5_0_bn/ReadVariableOp_1", "StatefulPartitionedCall/model/conv3_block5_0_bn/FusedBatchNormV3/ReadVariableOp", "StatefulPartitionedCall/model/conv3_block5_0_bn/FusedBatchNormV3/ReadVariableOp_1"], "attr": {"exponential_avg_factor": {"f": 1.0}, "epsilon": {"f": 1.001e-05}, "data_format": {"s": "TkhXQw=="}, "U": {"type": "DT_FLOAT"}, "is_training": {"b": false}, "T": {"type": "DT_HALF"}}}, {"name": "StatefulPartitionedCall/model/conv3_block5_0_relu/Relu", "op": "Relu", "input": ["StatefulPartitionedCall/model/conv3_block5_0_bn/FusedBatchNormV3"], "attr": {"T": {"type": "DT_HALF"}}}, {"name": "StatefulPartitionedCall/model/conv3_block5_1_conv/Conv2D", "op": "Conv2D", "input": ["StatefulPartitionedCall/model/conv3_block5_0_relu/Relu", "StatefulPartitionedCall/model/conv3_block5_1_conv/Conv2D_weights"], "device": "/device:CPU:0", "attr": {"strides": {"list": {"i": ["1", "1", "1", "1"]}}, "use_cudnn_on_gpu": {"b": true}, "data_format": {"s": "TkhXQw=="}, "padding": {"s": "VkFMSUQ="}, "dilations": {"list": {"i": ["1", "1", "1", "1"]}}, "explicit_paddings": {"list": {}}, "T": {"type": "DT_HALF"}}}, {"name": "StatefulPartitionedCall/model/conv3_block5_1_bn/FusedBatchNormV3", "op": "BiasAdd", "input": ["StatefulPartitionedCall/model/conv3_block5_1_conv/Conv2D", "StatefulPartitionedCall/model/conv3_block5_1_conv/Conv2D_bn_offset"], "attr": {"T": {"type": "DT_HALF"}, "data_format": {"s": "TkhXQw=="}}}, {"name": "StatefulPartitionedCall/model/conv3_block5_1_relu/Relu", "op": "Relu", "input": ["StatefulPartitionedCall/model/conv3_block5_1_bn/FusedBatchNormV3"], "attr": {"T": {"type": "DT_HALF"}}}, {"name": "StatefulPartitionedCall/model/conv3_block5_2_conv/Conv2D", "op": "Conv2D", "input": ["StatefulPartitionedCall/model/conv3_block5_1_relu/Relu", "StatefulPartitionedCall/model/conv3_block5_2_conv/Conv2D/Cast"], "device": "/device:CPU:0", "attr": {"strides": {"list": {"i": ["1", "1", "1", "1"]}}, "dilations": {"list": {"i": ["1", "1", "1", "1"]}}, "explicit_paddings": {"list": {}}, "padding": {"s": "U0FNRQ=="}, "data_format": {"s": "TkhXQw=="}, "use_cudnn_on_gpu": {"b": true}, "T": {"type": "DT_HALF"}}}, {"name": "StatefulPartitionedCall/model/conv3_block5_concat/concat", "op": "ConcatV2", "input": ["StatefulPartitionedCall/model/conv3_block4_concat/concat", "StatefulPartitionedCall/model/conv3_block5_2_conv/Conv2D", "StatefulPartitionedCall/model/conv3_block5_concat/concat/axis"], "attr": {"N": {"i": "2"}, "Tidx": {"type": "DT_INT32"}, "T": {"type": "DT_HALF"}}}, {"name": "StatefulPartitionedCall/model/conv3_block6_0_bn/FusedBatchNormV3", "op": "FusedBatchNormV3", "input": ["StatefulPartitionedCall/model/conv3_block5_concat/concat", "StatefulPartitionedCall/model/conv3_block6_0_bn/ReadVariableOp", "StatefulPartitionedCall/model/conv3_block6_0_bn/ReadVariableOp_1", "StatefulPartitionedCall/model/conv3_block6_0_bn/FusedBatchNormV3/ReadVariableOp", "StatefulPartitionedCall/model/conv3_block6_0_bn/FusedBatchNormV3/ReadVariableOp_1"], "attr": {"data_format": {"s": "TkhXQw=="}, "is_training": {"b": false}, "exponential_avg_factor": {"f": 1.0}, "epsilon": {"f": 1.001e-05}, "T": {"type": "DT_HALF"}, "U": {"type": "DT_FLOAT"}}}, {"name": "StatefulPartitionedCall/model/conv3_block6_0_relu/Relu", "op": "Relu", "input": ["StatefulPartitionedCall/model/conv3_block6_0_bn/FusedBatchNormV3"], "attr": {"T": {"type": "DT_HALF"}}}, {"name": "StatefulPartitionedCall/model/conv3_block6_1_conv/Conv2D", "op": "Conv2D", "input": ["StatefulPartitionedCall/model/conv3_block6_0_relu/Relu", "StatefulPartitionedCall/model/conv3_block6_1_conv/Conv2D_weights"], "device": "/device:CPU:0", "attr": {"padding": {"s": "VkFMSUQ="}, "dilations": {"list": {"i": ["1", "1", "1", "1"]}}, "use_cudnn_on_gpu": {"b": true}, "data_format": {"s": "TkhXQw=="}, "explicit_paddings": {"list": {}}, "strides": {"list": {"i": ["1", "1", "1", "1"]}}, "T":…
p_1", "shape": [544], "dtype": "float32", "quantization": {"dtype": "uint8", "min": -0.9175781754886402, "scale": 0.00849609421748741, "original_dtype": "float32"}}, {"name": "StatefulPartitionedCall/model/conv5_block2_0_bn/FusedBatchNormV3/ReadVariableOp", "shape": [544], "dtype": "float32", "quantization": {"dtype": "uint8", "min": -25.30220410403083, "scale": 0.11245424046235926, "original_dtype": "float32"}}, {"name": "StatefulPartitionedCall/model/conv5_block2_0_bn/FusedBatchNormV3/ReadVariableOp_1", "shape": [544], "dtype": "float32", "quantization": {"dtype": "uint8", "min": 11.810907363891602, "scale": 0.5915697509167241, "original_dtype": "float32"}}, {"name": "StatefulPartitionedCall/model/conv5_block2_2_conv/Conv2D/Cast", "shape": [3, 3, 128, 32], "dtype": "float32", "quantization": {"dtype": "uint8", "min": -2.1467907475490193, "scale": 0.014805453431372548, "original_dtype": "float32"}}, {"name": "StatefulPartitionedCall/model/conv5_block2_concat/concat/axis", "shape": [], "dtype": "int32"}, {"name": "StatefulPartitionedCall/model/conv5_block3_0_bn/ReadVariableOp", "shape": [576], "dtype": "float32", "quantization": {"dtype": "uint8", "min": 0.45534178614616394, "scale": 0.0072473788962644685, "original_dtype": "float32"}}, {"name": "StatefulPartitionedCall/model/conv5_block3_0_bn/ReadVariableOp_1", "shape": [576], "dtype": "float32", "quantization": {"dtype": "uint8", "min": -1.1411792904722924, "scale": 0.010189100807788325, "original_dtype": "float32"}}, {"name": "StatefulPartitionedCall/model/conv5_block3_0_bn/FusedBatchNormV3/ReadVariableOp", "shape": [576], "dtype": "float32", "quantization": {"dtype": "uint8", "min": -25.30220410403083, "scale": 0.11245424046235926, "original_dtype": "float32"}}, {"name": "StatefulPartitionedCall/model/conv5_block3_0_bn/FusedBatchNormV3/ReadVariableOp_1", "shape": [576], "dtype": "float32", "quantization": {"dtype": "uint8", "min": 11.810907363891602, "scale": 0.5961634841619753, "original_dtype": "float32"}}, {"name": "StatefulPartitionedCall/model/conv5_block3_2_conv/Conv2D/Cast", "shape": [3, 3, 128, 32], "dtype": "float32", "quantization": {"dtype": "uint8", "min": -1.6826056985294118, "scale": 0.013354013480392156, "original_dtype": "float32"}}, {"name": "StatefulPartitionedCall/model/conv5_block3_concat/concat/axis", "shape": [], "dtype": "int32"}, {"name": "StatefulPartitionedCall/model/conv5_block4_0_bn/ReadVariableOp", "shape": [608], "dtype": "float32", "quantization": {"dtype": "uint8", "min": 0.4545595347881317, "scale": 0.006284533411848779, "original_dtype": "float32"}}, {"name": "StatefulPartitionedCall/model/conv5_block4_0_bn/ReadVariableOp_1", "shape": [608], "dtype": "float32", "quantization": {"dtype": "uint8", "min": -1.060381253560384, "scale": 0.007796920982061648, "original_dtype": "float32"}}, {"name": "StatefulPartitionedCall/model/conv5_block4_0_bn/FusedBatchNormV3/ReadVariableOp", "shape": [608], "dtype": "float32", "quantization": {"dtype": "uint8", "min": -25.37857469109928, "scale": 0.12501760931576, "original_dtype": "float32"}}, {"name": "StatefulPartitionedCall/model/conv5_block4_0_bn/FusedBatchNormV3/ReadVariableOp_1", "shape": [608], "dtype": "float32", "quantization": {"dtype": "uint8", "min": 11.810907363891602, "scale": 0.5961634841619753, "original_dtype": "float32"}}, {"name": "StatefulPartitionedCall/model/conv5_block4_2_conv/Conv2D/Cast", "shape": [3, 3, 128, 32], "dtype": "float32", "quantization": {"dtype": "uint8", "min": -1.6778799019607844, "scale": 0.01207107843137255, "original_dtype": "float32"}}, {"name": "StatefulPartitionedCall/model/conv5_block4_concat/concat/axis", "shape": [], "dtype": "int32"}, {"name": "StatefulPartitionedCall/model/conv5_block5_0_bn/ReadVariableOp", "shape": [640], "dtype": "float32", "quantization": {"dtype": "uint8", "min": 0.4571529030799866, "scale": 0.007525392373402913, "original_dtype": "float32"}}, {"name": "StatefulPartitionedCall/model/conv5_block5_0_bn/ReadVariableOp_1", "shape": [640], "dtype": "float32", "quantization": {"dtype": "uint8", "min": -1.0116262078285216, "scale": 0.006611935998879227, "original_dtype": "float32"}}, {"name": "StatefulPartitionedCall/model/conv5_block5_0_bn/FusedBatchNormV3/ReadVariableOp", "shape": [640], "dtype": "float32", "quantization": {"dtype": "uint8", "min": -25.37857469109928, "scale": 0.12501760931576, "original_dtype": "float32"}}, {"name": "StatefulPartitionedCall/model/conv5_block5_0_bn/FusedBatchNormV3/ReadVariableOp_1", "shape": [640], "dtype": "float32", "quantization": {"dtype": "uint8", "min": 11.810907363891602, "scale": 0.5961634841619753, "original_dtype": "float32"}}, {"name": "StatefulPartitionedCall/model/conv5_block5_2_conv/Conv2D/Cast", "shape": [3, 3, 128, 32], "dtype": "float32", "quantization": {"dtype": "uint8", "min": -1.590579044117647, "scale": 0.011443014705882352, "original_dtype": "float32"}}, {"name": "StatefulPartitionedCall/model/conv5_block5_concat/concat/axis", "shape": [], "dtype": "int32"}, {"name": "StatefulPartitionedCall/model/conv5_block6_0_bn/ReadVariableOp", "shape": [672], "dtype": "float32", "quantization": {"dtype": "uint8", "min": 0.4309707283973694, "scale": 0.0058555567965788, "original_dtype": "float32"}}, {"name": "StatefulPartitionedCall/model/conv5_block6_0_bn/ReadVariableOp_1", "shape": [672], "dtype": "float32", "quantization": {"dtype": "uint8", "min": -1.0538049270124996, "scale": 0.007805962422314812, "original_dtype": "float32"}}, {"name": "StatefulPartitionedCall/model/conv5_block6_0_bn/FusedBatchNormV3/ReadVariableOp", "shape": [672], "dtype": "float32", "quantization": {"dtype": "uint8", "min": -25.37857469109928, "scale": 0.12501760931576, "original_dtype": "float32"}}, {"name": "StatefulPartitionedCall/model/conv5_block6_0_bn/FusedBatchNormV3/ReadVariableOp_1", "shape": [672], "dtype": "float32", "quantization": {"dtype": "uint8", "min": 11.810907363891602, "scale": 0.5961634841619753, "original_dtype": "float32"}}, {"name": "StatefulPartitionedCall/model/conv5_block6_2_conv/Conv2D/Cast", "shape": [3, 3, 128, 32], "dtype": "float32", "quantization": {"dtype": "uint8", "min": -1.4163602941176472, "scale": 0.010569852941176471, "original_dtype": "float32"}}, {"name": "StatefulPartitionedCall/model/conv5_block6_concat/concat/axis", "shape": [], "dtype": "int32"}, {"name": "StatefulPartitionedCall/model/conv5_block7_0_bn/ReadVariableOp", "shape": [704], "dtype": "float32", "quantization": {"dtype": "uint8", "min": 0.4221310317516327, "scale": 0.006375728985842537, "original_dtype": "float32"}}, {"name": "StatefulPartitionedCall/model/conv5_block7_0_bn/ReadVariableOp_1", "shape": [704], "dtype": "float32", "quantization": {"dtype": "uint8", "min": -1.051668152622148, "scale": 0.0060790066625557694, "original_dtype": "float32"}}, {"name": "StatefulPartitionedCall/model/conv5_block7_0_bn/FusedBatchNormV3/ReadVariableOp", "shape": [704], "dtype": "float32", "quantization": {"dtype": "uint8", "min": -25.37857469109928, "scale": 0.12501760931576, "original_dtype": "float32"}}, {"name": "StatefulPartitionedCall/model/conv5_block7_0_bn/FusedBatchNormV3/ReadVariableOp_1", "shape": [704], "dtype": "float32", "quantization": {"dtype": "uint8", "min": 11.810907363891602, "scale": 0.5961634841619753, "original_dtype": "float32"}}, {"name": "StatefulPartitionedCall/model/conv5_block7_2_conv/Conv2D/Cast", "shape": [3, 3, 128, 32], "dtype": "float32", "quantization": {"dtype": "uint8", "min": -1.3068704044117647, "scale": 0.010454963235294117, "original_dtype": "float32"}}, {"name": "StatefulPartitionedCall/model/conv5_block7_concat/concat/axis", "shape": [], "dtype": "int32"}, {"name": "StatefulPartitionedCall/model/conv5_block8_0_bn/ReadVariableOp", "shape": [736], "dtype": "float32", "quantization": {"dtype": "uint8", "min": 0.35695886611938477, "scale": 0.006317366805731081, "original_dtype": "float32"}}, {"name": "StatefulPartitionedCall/model/conv5_block8_0_bn/ReadVariableOp_1", "shape": [736], "dtype": "float32", "quantization": {"dtype": "uint8", "min": -1.1044956554384793, "scale": 0.0062400884488049676, "original_dtype": "float32"}}, {"name": "StatefulPartitionedCall/model/conv5_block8_0_bn/FusedBatchNormV3/ReadVariableOp", "shape": [736], "dtype": "float32", "quantization": {"dtype": "uint8", "min": -25.37857469109928, "scale": 0.12501760931576, "original_dtype": "float32"}}, {"name": "StatefulPartitionedCall/model/conv5_block8_0_bn/FusedBatchNormV3/ReadVariableOp_1", "shape": [736], "dtype": "float32", "quantization": {"dtype": "uint8", "min": 11.810907363891602, "scale": 0.5961634841619753, "original_dtype": "float32"}}, {"name": "StatefulPartitionedCall/model/conv5_block8_2_conv/Conv2D/Cast", "shape": [3, 3, 128, 32], "dtype": "float32", "quantization": {"dtype": "uint8", "min": -1.5400735294117647, "scale": 0.010845588235294117, "original_dtype": "float32"}}, {"name": "StatefulPartitionedCall/model/conv5_block8_concat/concat/axis", "shape": [], "dtype": "int32"}, {"name": "StatefulPartitionedCall/model/conv5_block9_0_bn/ReadVariableOp", "shape": [768], "dtype": "float32", "quantization": {"dtype": "uint8", "min": 0.4051169455051422, "scale": 0.006237282355626424, "original_dtype": "float32"}}, {"name": "StatefulPartitionedCall/model/conv5_block9_0_bn/ReadVariableOp_1", "shape": [768], "dtype": "float32", "quantization": {"dtype": "uint8", "min": -1.048973614328048, "scale": 0.007335479820475859, "original_dtype": "float32"}}, {"name": "StatefulPartitionedCall/model/conv5_block9_0_bn/FusedBatchNormV3/ReadVariableOp", "shape": [768], "dtype": "float32", "quantization": {"dtype": "uint8", "min": -25.37857469109928, "scale": 0.12501760931576, "original_dtype": "float32"}}, {"name": "StatefulPartitionedCall/model/conv5_block9_0_bn/FusedBatchNormV3/ReadVariableOp_1", "shape": [768], "dtype": "float32", "quantization": {"dtype": "uint8", "min": 11.810907363891602, "scale": 0.5961634841619753, "original_dtype": "float32"}}, {"name": "StatefulPartitionedCall/model/conv5_block9_2_conv/Conv2D/Cast", "shape": [3, 3, 128, 32], "dtype": "float32", "quantization": {"dtype": "uint8", "min": -1.3924670649509803, "scale": 0.010964307598039215, "original_dtype": "float32"}}, {"name": "StatefulPartitionedCall/model/conv5_block9_concat/concat/axis", "shape": [], "dtype": "int32"}, {"name": "StatefulPartitionedCall/model/conv5_block10_0_bn/ReadVariableOp", "shape": [800], "dtype": "float32", "quantization": {"dtype": "uint8", "min": 0.37381553649902344, "scale": 0.006301439977159687, "original_dtype": "float32"}}, {"name": "StatefulPartitionedCall/model/conv5_block10_0_bn/ReadVariableOp_1", "shape": [800], "dtype": "float32", "quantization": {"dtype": "uint8", "min": -1.0637469291687012, "scale": 0.0098495086034139, "original_dtype": "float32"}}, {"name": "StatefulPartitionedCall/model/conv5_block10_0_bn/FusedBatchNormV3/ReadVariableOp", "shape": [800], "dtype": "float32", "quantization": {"dtype": "uint8", "min": -25.37857469109928, "scale": 0.12501760931576, "original_dtype": "float32"}}, {"name": "StatefulPartitionedCall/model/conv5_block10_0_bn/FusedBatchNormV3/ReadVariableOp_1", "shape": [800], "dtype": "float32", "quantization": {"dtype": "uint8", "min": 11.810907363891602, "scale": 0.5961634841619753, "original_dtype": "float32"}}, {"name": "StatefulPartitionedCall/model/conv5_block10_2_conv/Conv2D/Cast", "shape": [3, 3, 128, 32], "dtype": "float32", "quantization": {"dtype": "uint8", "min": -1.2919117647058824, "scale": 0.011534926470588236, "original_dtype": "float32"}}, {"name": "StatefulPartitionedCall/model/conv5_block10_concat/concat/axis", "shape": [], "dtype": "int32"}, {"name": "StatefulPartitionedCall/model/conv5_block11_0_bn/ReadVariableOp", "shape": [832], "dtype": "float32", "quantization": {"dtype": "uint8", "min": 0.4442611038684845, "scale": 0.006235291794234631, "original_dtype": "float32"}}, {"name": "StatefulPartitionedCall/model/conv5_block11_0_bn/ReadVariableOp_1", "shape": [832], "dtype": "float32", "quantization": {"dtype": "uint8", "min": -1.1595098065394982, "scale": 0.008653058257757449, "original_dtype": "float32"}}, {"name": "StatefulPartitionedCall/model/conv5_block11_0_bn/FusedBatchNormV3/ReadVariableOp", "shape": [832], "dtype": "float32", "quantization": {"dtype": "uint8", "min": -25.37857469109928, "scale": 0.12501760931576, "original_dtype": "float32"}}, {"name": "StatefulPartitionedCall/model/conv5_block11_0_bn/FusedBatchNormV3/ReadVariableOp_1", "shape": [832], "dtype": "float32", "quantization": {"dtype": "uint8", "min": 11.810907363891602, "scale": 0.5961634841619753, "original_dtype": "float32"}}, {"name": "StatefulPartitionedCall/model/conv5_block11_2_conv/Conv2D/Cast", "shape": [3, 3, 128, 32], "dtype": "float32", "quantization": {"dtype": "uint8", "min": -1.392156862745098, "scale": 0.010876225490196078, "original_dtype": "float32"}}, {"name": "StatefulPartitionedCall/model/conv5_block11_concat/concat/axis", "shape": [], "dtype": "int32"}, {"name": "StatefulPartitionedCall/model/conv5_block12_0_bn/ReadVariableOp", "shape": [864], "dtype": "float32", "quantization": {"dtype": "uint8", "min": 0.38144630193710327, "scale": 0.007295244114071715, "original_dtype": "float32"}}, {"name": "StatefulPartitionedCall/model/conv5_block12_0_bn/ReadVariableOp_1", "shape": [864], "dtype": "float32", "quantization": {"dtype": "uint8", "min": -1.0604241876041187, "scale": 0.008551807964549345, "original_dtype": "float32"}}, {"name": "StatefulPartitionedCall/model/conv5_block12_0_bn/FusedBatchNormV3/ReadVariableOp", "shape": [864], "dtype": "float32", "quantization": {"dtype": "uint8", "min": -25.37857469109928, "scale": 0.12501760931576, "original_dtype": "float32"}}, {"name": "StatefulPartitionedCall/model/conv5_block12_0_bn/FusedBatchNormV3/ReadVariableOp_1", "shape": [864], "dtype": "float32", "quantization": {"dtype": "uint8", "min": 11.810907363891602, "scale": 0.5961634841619753, "original_dtype": "float32"}}, {"name": "StatefulPartitionedCall/model/conv5_block12_2_conv/Conv2D/Cast", "shape": [3, 3, 128, 32], "dtype": "float32", "quantization": {"dtype": "uint8", "min": -1.4381012561274509, "scale": 0.010497089460784313, "original_dtype": "float32"}}, {"name": "StatefulPartitionedCall/model/conv5_block12_concat/concat/axis", "shape": [], "dtype": "int32"}, {"name": "StatefulPartitionedCall/model/conv5_block13_0_bn/ReadVariableOp", "shape": [896], "dtype": "float32", "quantization": {"dtype": "uint8", "min": 0.3118661940097809, "scale": 0.006921303856606577, "original_dtype": "float32"}}, {"name": "StatefulPartitionedCall/model/conv5_block13_0_bn/ReadVariableOp_1", "shape": [896], "dtype": "float32", "quantization": {"dtype": "uint8", "min": -1.0564352367438523, "scale": 0.008451481893950818, "original_dtype": "float32"}}, {"name": "StatefulPartitionedCall/model/conv5_block13_0_bn/FusedBatchNormV3/ReadVariableOp", "shape": [896], "dtype": "float32", "quantization": {"dtype": "uint8", "min": -25.37857469109928, "scale": 0.12501760931576, "original_dtype": "float32"}}, {"name": "StatefulPartitionedCall/model/conv5_block13_0_bn/FusedBatchNormV3/ReadVariableOp_1", "shape": [896], "dtype": "float32", "quantization": {"dtype": "uint8", "min": 11.810907363891602, "scale": 0.5961634841619753, "original_dtype": "float32"}}, {"name": "StatefulPartitionedCall/model/conv5_block13_2_conv/Conv2D/Cast", "shape": [3, 3, 128, 32], "dtype": "float32", "quantization": {"dtype": "uint8", "min": -1.3936810661764707, "scale": 0.010638786764705883, "original_dtype": "float32"}}, {"name": "StatefulPartitionedCall/model/conv5_block13_concat/concat/axis", "shape": [], "dtype": "int32"}, {"name": "StatefulPartitionedCall/model/conv5_block14_0_bn/ReadVariableOp", "shape": [928], "dtype": "float32", "quantization": {"dtype": "uint8", "min": 0.3822108209133148, "scale": 0.006888012441934324, "original_dtype": "float32"}}, {"name": "StatefulPartitionedCall/model/conv5_block14_0_bn/ReadVariableOp_1", "shape": [928], "dtype": "float32", "quantization": {"dtype": "uint8", "min": -1.1859242383171529, "scale": 0.010684002147001378, "original_dtype": "float32"}}, {"name": "StatefulPartitionedCall/model/conv5_block14_0_bn/FusedBatchNormV3/ReadVariableOp", "shape": [928], "dtype": "float32", "quantization": {"dtype": "uint8", "min": -25.37857469109928, "scale": 0.12501760931576, "original_dtype": "float32"}}, {"name": "StatefulPartitionedCall/model/conv5_block14_0_bn/FusedBatchNormV3/ReadVariableOp_1", "shape": [928], "dtype": "float32", "quantization": {"dtype": "uint8", "min": 11.810907363891602, "scale": 0.5961634841619753, "original_dtype": "float32"}}, {"name": "StatefulPartitionedCall/model/conv5_block14_2_conv/Conv2D/Cast", "shape": [3, 3, 128, 32], "dtype": "float32", "quantization": {"dtype": "uint8", "min": -1.4920113357843137, "scale": 0.011389399509803921, "original_dtype": "float32"}}, {"name": "StatefulPartitionedCall/model/conv5_block14_concat/concat/axis", "shape": [], "dtype": "int32"}, {"name": "StatefulPartitionedCall/model/conv5_block15_0_bn/ReadVariableOp", "shape": [960], "dtype": "float32", "quantization": {"dtype": "uint8", "min": 0.3622463643550873, "scale": 0.006449150221020568, "original_dtype": "float32"}}, {"name": "StatefulPartitionedCall/model/conv5_block15_0_bn/ReadVariableOp_1", "shape": [960], "dtype": "float32", "quantization": {"dtype": "uint8", "min": -1.292357204474655, "scale": 0.01254715732499665, "original_dtype": "float32"}}, {"name": "StatefulPartitionedCall/model/conv5_block15_0_bn/FusedBatchNormV3/ReadVariableOp", "shape": [960], "dtype": "float32", "quantization": {"dtype": "uint8", "min": -25.37857469109928, "scale": 0.12501760931576, "original_dtype": "float32"}}, {"name": "StatefulPartitionedCall/model/conv5_block15_0_bn/FusedBatchNormV3/ReadVariableOp_1", "shape": [960], "dtype": "float32", "quantization": {"dtype": "uint8", "min": 11.810907363891602, "scale": 0.5961634841619753, "original_dtype": "float32"}}, {"name": "StatefulPartitionedCall/model/conv5_block15_2_conv/Conv2D/Cast", "shape": [3, 3, 128, 32], "dtype": "float32", "quantization": {"dtype": "uint8", "min": -1.9100413602941175, "scale": 0.01273360906862745, "original_dtype": "float32"}}, {"name": "StatefulPartitionedCall/model/conv5_block15_concat/concat/axis", "shape": [], "dtype": "int32"}, {"name": "StatefulPartitionedCall/model/conv5_block16_0_bn/ReadVariableOp", "shape": [992], "dtype": "float32", "quantization": {"dtype": "uint8", "min": 0.42919960618019104, "scale": 0.00967600707914315, "original_dtype": "float32"}}, {"name": "StatefulPartitionedCall/model/conv5_block16_0_bn/ReadVariableOp_1", "shape": [992], "dtype": "float32", "quantization": {"dtype": "uint8", "min": -1.5259082588494994, "scale": 0.012305711764915317, "original_dtype": "float32"}}, {"name": "StatefulPartitionedCall/model/conv5_block16_0_bn/FusedBatchNormV3/ReadVariableOp", "shape": [992], "dtype": "float32", "quantization": {"dtype": "uint8", "min": -25.37857469109928, "scale": 0.12501760931576, "original_dtype": "float32"}}, {"name": "StatefulPartitionedCall/model/conv5_block16_0_bn/FusedBatchNormV3/ReadVariableOp_1", "shape": [992], "dtype": "float32", "quantization": {"dtype": "uint8", "min": 11.810907363891602, "scale": 0.5961634841619753, "original_dtype": "float32"}}, {"name": "StatefulPartitionedCall/model/conv5_block16_2_conv/Conv2D/Cast", "shape": [3, 3, 128, 32], "dtype": "float32", "quantization": {"dtype": "uint8", "min": -1.3954963235294118, "scale": 0.011075367647058824, "original_dtype": "float32"}}, {"name": "StatefulPartitionedCall/model/conv5_block16_concat/concat/axis", "shape": [], "dtype": "int32"}, {"name": "StatefulPartitionedCall/model/bn/ReadVariableOp", "shape": [1024], "dtype": "float32", "quantization": {"dtype": "uint8", "min": 0.08132483810186386, "scale": 0.005658493702318154, "original_dtype": "float32"}}, {"name": "StatefulPartitionedCall/model/bn/ReadVariableOp_1", "shape": [1024], "dtype": "float32", "quantization": {"dtype": "uint8", "min": -1.4747500454678255, "scale": 0.005994918884015551, "original_dtype": "float32"}}, {"name": "StatefulPartitionedCall/model/bn/FusedBatchNormV3/ReadVariableOp", "shape": [1024], "dtype": "float32", "quantization": {"dtype": "uint8", "min": -25.37857469109928, "scale": 0.12501760931576, "original_dtype": "float32"}}, {"name": "StatefulPartitionedCall/model/bn/FusedBatchNormV3/ReadVariableOp_1", "shape": [1024], "dtype": "float32", "quantization": {"dtype": "uint8", "min": 11.810907363891602, "scale": 0.5961634841619753, "original_dtype": "float32"}}, {"name": "StatefulPartitionedCall/model/global_average_pooling2d/Mean/reduction_indices", "shape": [2], "dtype": "int32"}, {"name": "StatefulPartitionedCall/model/dense/MatMul/ReadVariableOp", "shape": [1024, 309], "dtype": "float32", "quantization": {"dtype": "uint8", "min": -3.605444038615507, "scale": 0.022255827398861155, "original_dtype": "float32"}}, {"name": "StatefulPartitionedCall/model/dense/BiasAdd/ReadVariableOp", "shape": [309], "dtype": "float32", "quantization": {"dtype": "uint8", "min": -0.29602670646181295, "scale": 0.003326142769233853, "original_dtype": "float32"}}, {"name": "StatefulPartitionedCall/model/conv1/conv/Conv2D_weights", "shape": [7, 7, 1, 64], "dtype": "float32", "quantization": {"dtype": "uint8", "min": -0.30143229166666663, "scale": 0.0022164139093137254, "original_dtype": "float32"}}, {"name": "StatefulPartitionedCall/model/conv1/conv/Conv2D_bn_offset", "shape": [64], "dtype": "float32", "quantization": {"dtype": "uint8", "min": -0.9746318751690435, "scale": 0.009462445389990713, "original_dtype": "float32"}}, {"name": "StatefulPartitionedCall/model/conv2_block1_1_conv/Conv2D_weights", "shape": [1, 1, 64, 128], "dtype": "float32", "quantization": {"dtype": "uint8", "min": -1.3755974264705881, "scale": 0.009294577205882353, "original_dtype": "float32"}}, {"name": "StatefulPartitionedCall/model/conv2_block1_1_conv/Conv2D_bn_offset", "shape": [128], "dtype": "float32", "quantization": {"dtype": "uint8", "min": -2.1030811197617476, "scale": 0.02503667999716366, "original_dtype": "float32"}}, {"name": "StatefulPartitionedCall/model/conv2_block2_1_conv/Conv2D_weights", "shape": [1, 1, 96, 128], "dtype": "float32", "quantization": {"dtype": "uint8", "min": -0.6669538909313725, "scale": 0.005466835171568627, "original_dtype": "float32"}}, {"name": "StatefulPartitionedCall/model/conv2_block2_1_conv/Conv2D_bn_offset", "shape": [128], "dtype": "float32", "quantization": {"dtype": "uint8", "min": -2.198001619413787, "scale": 0.01677863831613578, "original_dtype": "float32"}}, {"name": "StatefulPartitionedCall/model/conv2_block3_1_conv/Conv2D_weights", "shape": [1, 1, 128, 128], "dtype": "float32", "quantization": {"dtype": "uint8", "min": -0.6905254289215687, "scale": 0.004542930453431373, "original_dtype": "float32"}}, {"name": "StatefulPartitionedCall/model/conv2_block3_1_conv/Conv2D_bn_offset", "shape": [128], "dtype": "float32", "quantization": {"dtype": "uint8", "min": -2.739638883927289, "scale": 0.023415716956643497, "original_dtype": "float32"}}, {"name": "StatefulPartitionedCall/model/conv2_block4_1_conv/Conv2D_weights", "shape": [1, 1, 160, 128], "dtype": "float32", "quantization": {"dtype": "uint8", "min": -0.569778262867647, "scale": 0.004486443014705882, "original_dtype": "float32"}}, {"name": "StatefulPartitionedCall/model/conv2_block4_1_conv/Conv2D_bn_offset", "shape": [128], "dtype": "float32", "quantization": {"dtype": "uint8", "min": -1.8086418264052448, "scale": 0.015865279178993375, "original_dtype": "float32"}}, {"name": "StatefulPartitionedCall/model/conv2_block5_1_conv/Conv2D_weights", "shape": [1, 1, 192, 128], "dtype": "float32", "quantization": {"dtype": "uint8", "min": -0.3711511948529412, "scale": 0.0028550091911764704, "original_dtype": "float32"}}, {"name": "StatefulPartitionedCall/model/conv2_block5_1_conv/Conv2D_bn_offset", "shape": [128], "dtype": "float32", "quantization": {"dtype": "uint8", "min": -1.6727251305299646, "scale": 0.018585834783666273, "original_dtype": "float32"}}, {"name": "StatefulPartitionedCall/model/conv2_block6_1_conv/Conv2D_weights", "shape": [1, 1, 224, 128], "dtype": "float32", "quantization": {"dtype": "uint8", "min": -0.37900965073529413, "scale": 0.0028712852328431375, "original_dtype": "float32"}}, {"name": "StatefulPartitionedCall/model/conv2_block6_1_conv/Conv2D_bn_offset", "shape": [128], "dtype": "float32", "quantization": {"dtype": "uint8", "min": -3.5953934015012257, "scale": 0.026831294041053923, "original_dtype": "float32"}}, {"name": "StatefulPartitionedCall/model/conv3_block1_1_conv/Conv2D_weights", "shape": [1, 1, 128, 128], "dtype": "float32", "quantization": {"dtype": "uint8", "min": -0.6205767463235294, "scale": 0.004773667279411765, "original_dtype": "float32"}}, {"name": "StatefulPartitionedCall/model/conv3_block1_1_conv/Conv2D_bn_offset", "shape": [128], "dtype": "float32", "quantization": {"dtype": "uint8", "min": -3.0547814200906194, "scale": 0.02610924290675743, "original_dtype": "float32"}}, {"name": "StatefulPartitionedCall/model/conv3_block2_1_conv/Conv2D_weights", "shape": [1, 1, 160, 128], "dtype": "float32", "quantization": {"dtype": "uint8", "min": -0.6406776577818627, "scale": 0.004418466605392157, "original_dtype": "float32"}}, {"name": "StatefulPartitionedCall/model/conv3_block2_1_conv/Conv2D_bn_offset", "shape": [128], "dtype": "float32", "quantization": {"dtype": "uint8", "min": -2.745887006497851, "scale": 0.01933723244012571, "original_dtype": "float32"}}, {"name": "StatefulPartitionedCall/model/conv3_block3_1_conv/Conv2D_weights", "shape": [1, 1, 192, 128], "dtype": "float32", "quantization": {"dtype": "uint8", "min": -0.5529670266544118, "scale": 0.0037616804534313726, "original_dtype": "float32"}}, {"name": "StatefulPartitionedCall/model/conv3_block3_1_conv/Conv2D_bn_offset", "shape": [128], "dtype": "float32", "quantization": {"dtype": "uint8", "min": -1.9227293556811764, "scale": 0.0186672752978755, "original_dtype": "float32"}}, {"name": "StatefulPartitionedCall/model/conv3_block4_1_conv/Conv2D_weights", "shape": [1, 1, 224, 128], "dtype": "float32", "quantization": {"dtype": "uint8", "min": -0.4885684742647059, "scale": 0.003619025735294118, "original_dtype": "float32"}}, {"name": "StatefulPartitionedCall/model/conv3_block4_1_conv/Conv2D_bn_offset", "shape": [128], "dtype": "float32", "quantization": {"dtype": "uint8", "min": -2.05429515838623, "scale": 0.02014014861162971, "original_dtype": "float32"}}, {"name": "StatefulPartitionedCall/model/conv3_block5_1_conv/Conv2D_weights", "shape": [1, 1, 256, 128], "dtype": "float32", "quantization": {"dtype": "uint8", "min": -0.3926834405637255, "scale": 0.003020641850490196, "original_dtype": "float32"}}, {"name": "StatefulPartitionedCall/model/conv3_block5_1_conv/Conv2D_bn_offset", "shape": [128], "dtype": "float32", "quantization": {"dtype": "uint8", "min": -4.278616428375244, "scale": 0.025168331931619083, "original_dtype": "float32"}}, {"name": "StatefulPartitionedCall/model/conv3_block6_1_conv/Conv2D_weights", "shape": [1, 1, 288, 128], "dtype": "float32", "quantization": {"dtype": "uint8", "min": -0.3650735294117647, "scale": 0.0028521369485294116, "original_dtype": "float32"}}, {"name": "StatefulPartitionedCall/model/conv3_block6_1_conv/Conv2D_bn_offset", "shape": [128], "dtype": "float32", "quantization": {"dtype": "uint8", "min": -2.5049916379591997, "scale": 0.01704075944189932, "original_dtype": "float32"}}, {"name": "StatefulPartitionedCall/model/conv3_block7_1_conv/Conv2D_weights", "shape": [1, 1, 320, 128], "dtype": "float32", "quantization": {"dtype": "uint8", "min": -0.36847043504901966, "scale": 0.002631931678921569, "original_dtype": "float32"}}, {"name": "StatefulPartitionedCall/model/conv3_block7_1_conv/Conv2D_bn_offset", "shape": [128], "dtype": "float32", "quantization": {"dtype": "uint8", "min": -2.5181950447606107, "scale": 0.01773376792084937, "original_dtype": "float32"}}, {"name": "StatefulPartitionedCall/model/conv3_block8_1_conv/Conv2D_weights", "shape": [1, 1, 352, 128], "dtype": "float32", "quantization": {"dtype": "uint8", "min": -0.3020929074754902, "scale": 0.0021733302696078432, "original_dtype": "float32"}}, {"name": "StatefulPartitionedCall/model/conv3_block8_1_conv/Conv2D_bn_offset", "shape": [128], "dtype": "float32", "quantization": {"dtype": "uint8", "min": -2.0498705611509433, "scale": 0.01366580374100629, "original_dtype": "float32"}}, {"name": "StatefulPartitionedCall/model/conv3_block9_1_conv/Conv2D_weights", "shape": [1, 1, 384, 128], "dtype": "float32", "quantization": {"dtype": "uint8", "min": -0.49089499080882354, "scale": 0.003030215992647059, "original_dtype": "float32"}}, {"name": "StatefulPartitionedCall/model/conv3_block9_1_conv/Conv2D_bn_offset", "shape": [128], "dtype": "float32", "quantization": {"dtype": "uint8", "min": -2.374038288640041, "scale": 0.019620151145785462, "original_dtype": "float32"}}, {"name": "StatefulPartitionedCall/model/conv3_block10_1_conv/Conv2D_weights", "shape": [1, 1, 416, 128], "dtype": "float32", "quantization": {"dtype": "uint8", "min": -0.27319623161764706, "scale": 0.002117800245098039, "original_dtype": "float32"}}, {"name": "StatefulPartitionedCall/model/conv3_block10_1_conv/Conv2D_bn_offset", "shape": [128], "dtype": "float32", "quantization": {"dtype": "uint8", "min": -2.155698714536779, "scale": 0.017108719956641105, "original_dtype": "float32"}}, {"name": "StatefulPartitionedCall/model/conv3_block11_1_conv/Conv2D_weights", "shape": [1, 1, 448, 128], "dtype": "float32", "quantization": {"dtype": "uint8", "min": -0.3156307444852941, "scale": 0.0021326401654411763, "original_dtype": "float32"}}, {"name": "StatefulPartitionedCall/model/conv3_block11_1_conv/Conv2D_bn_offset", "shape": [128], "dtype": "float32", "quantization": {"dtype": "uint8", "min": -2.5421702590643194, "scale": 0.01672480433594947, "original_dtype": "float32"}}, {"name": "StatefulPartitionedCall/model/conv3_block12_1_conv/Conv2D_weights", "shape": [1, 1, 480, 128], "dtype": "float32", "quantization": {"dtype": "uint8", "min": -0.29558823529411765, "scale": 0.0022058823529411764, "original_dtype": "float32"}}, {"name": "StatefulPartitionedCall/model/conv3_block12_1_conv/Conv2D_bn_offset", "shape": [128], "dtype": "float32", "quantization": {"dtype": "uint8", "min": -2.5143312706666836, "scale": 0.016762208471111224, "original_dtype": "float32"}}, {"name": "StatefulPartitionedCall/model/conv4_block1_1_conv/Conv2D_weights", "shape": [1, 1, 256, 128], "dtype": "float32", "quantization": {"dtype": "uint8", "min": -0.3265854779411765, "scale": 0.0026769301470588236, "original_dtype": "float32"}}, {"name": "StatefulPartitionedCall/model/conv4_block1_1_conv/Conv2D_bn_offset", "shape": [128], "dtype": "float32", "quantization": {"dtype": "uint8", "min": -1.9690195939120125, "scale": 0.015263717782263663, "original_dtype": "float32"}}, {"name": "StatefulPartitionedCall/model/conv4_block2_1_conv/Conv2D_weights", "shape": [1, 1, 288, 128], "dtype": "float32", "quantization": {"dtype": "uint8", "min": -0.4459443933823529, "scale": 0.0031853170955882353, "original_dtype": "float32"}}, {"name": "StatefulPartitionedCall/model/conv4_block2_1_conv/Conv2D_bn_offset", "shape": [128], "dtype": "float32", "quantization": {"dtype": "uint8", "min": -2.431841629626704, "scale": 0.019611626045376647, "original_dtype": "float32"}}, {"name": "StatefulPartitionedCall/model/conv4_block3_1_conv/Conv2D_weights", "shape": [1, 1, 320, 128], "dtype": "float32", "quantization": {"dtype": "uint8", "min": -0.4139705882352941, "scale": 0.003234145220588235, "original_dtype": "float32"}}, {"name": "StatefulPartitionedCall/model/conv4_block3_1_conv/Conv2D_bn_offset", "shape": [128], "dtype": "float32", "quantization": {"dtype": "uint8", "min": -2.3235594899046657, "scale": 0.01920297099094765, "original_dtype": "float32"}}, {"name": "StatefulPartitionedCall/model/conv4_block4_1_conv/Conv2D_weights", "shape": [1, 1, 352, 128], "dtype": "float32", "quantization": {"dtype": "uint8", "min": -0.3876340379901961, "scale": 0.003052236519607843, "original_dtype": "float32"}}, {"name": "StatefulPartitionedCall/model/conv4_block4_1_conv/Conv2D_bn_offset", "shape": [128], "dtype": "float32", "quantization": {"dtype": "uint8", "min": -2.1163996528176696, "scale": 0.017636663773480582, "original_dtype": "float32"}}, {"name": "StatefulPartitionedCall/model/conv4_block5_1_conv/Conv2D_weights", "shape": [1, 1, 384, 128], "dtype": "float32", "quantization": {"dtype": "uint8", "min": -0.35281671262254904, "scale": 0.0041025199142156864, "original_dtype": "float32"}}, {"name": "StatefulPartitionedCall/model/conv4_block5_1_conv/Conv2D_bn_offset", "shape": [128], "dtype": "float32", "quantization": {"dtype": "uint8", "min": -2.6389348647173714, "scale": 0.01999193079331342, "original_dtype": "float32"}}, {"name": "StatefulPartitionedCall/model/conv4_block6_1_conv/Conv2D_weights", "shape": [1, 1, 416, 128], "dtype": "float32", "quantization": {"dtype": "uint8", "min": -0.3698299632352941, "scale": 0.0030819163602941175, "original_dtype": "float32"}}, {"name": "StatefulPartitionedCall/model/conv4_block6_1_conv/Conv2D_bn_offset", "shape": [128], "dtype": "float32", "quantization": {"dtype": "uint8", "min": -2.2729022736642874, "scale": 0.01748386364357144, "original_dtype": "float32"}}, {"name": "StatefulPartitionedCall/model/conv4_block7_1_conv/Conv2D_weights", "shape": [1, 1, 448, 128], "dtype": "float32", "quantization": {"dtype": "uint8", "min": -0.34369829963235293, "scale": 0.0030148973651960786, "original_dtype": "float32"}}, {"name": "StatefulPartitionedCall/model/conv4_block7_1_conv/Conv2D_bn_offset", "shape": [128], "dtype": "float32", "quantization": {"dtype": "uint8", "min": -1.8079615116119385, "scale": 0.015321707725524903, "original_dtype": "float32"}}, {"name": "StatefulPartitionedCall/model/conv4_block8_1_conv/Conv2D_weights", "shape": [1, 1, 480, 128], "dtype": "float32", "quantization": {"dtype": "uint8", "min": -0.5712115119485294, "scale": 0.0033404181985294116, "original_dtype": "float32"}}, {"name": "StatefulPartitionedCall/model/conv4_block8_1_conv/Conv2D_bn_offset", "shape": [128], "dtype": "float32", "quantization": {"dtype": "uint8", "min": -2.162887752757353, "scale": 0.01689756056841682, "original_dtype": "float32"}}, {"name": "StatefulPartitionedCall/model/conv4_block9_1_conv/Conv2D_weights", "shape": [1, 1, 512, 128], "dtype": "float32", "quantization": {"dtype": "uint8", "min": -0.3441923253676471, "scale": 0.0024069393382352942, "original_dtype": "float32"}}, {"name": "StatefulPartitionedCall/model/conv4_block9_1_conv/Conv2D_bn_offset", "shape": [128], "dtype": "float32", "quantization": {"dtype": "uint8", "min": -2.154987187946544, "scale": 0.014861980606527889, "original_dtype": "float32"}}, {"name": "StatefulPartitionedCall/model/conv4_block10_1_conv/Conv2D_weights", "shape": [1, 1, 544, 128], "dtype": "float32", "quantization": {"dtype": "uint8", "min": -0.3630667892156863, "scale": 0.002650122549019608, "original_dtype": "float32"}}, {"name": "StatefulPartitionedCall/model/conv4_block10_1_conv/Conv2D_bn_offset", "shape": [128], "dtype": "float32", "quantization": {"dtype": "uint8", "min": -1.7769189792520859, "scale": 0.01316236280927471, "original_dtype": "float32"}}, {"name": "StatefulPartitionedCall/model/conv4_block11_1_conv/Conv2D_weights", "shape": [1, 1, 576, 128], "dtype": "float32", "quantization": {"dtype": "uint8", "min": -0.29285386029411764, "scale": 0.0024404488357843137, "original_dtype": "float32"}}, {"name": "StatefulPartitionedCall/model/conv4_block11_1_conv/Conv2D_bn_offset", "shape": [128], "dtype": "float32", "quantization": {"dtype": "uint8", "min": -2.459325974595313, "scale": 0.015275316612393248, "original_dtype": "float32"}}, {"name": "StatefulPartitionedCall/model/conv4_block12_1_conv/Conv2D_weights", "shape": [1, 1, 608, 128], "dtype": "float32", "quantization": {"dtype": "uint8", "min": -0.20882065716911763, "scale": 0.0019157858455882352, "original_dtype": "float32"}}, {"name": "StatefulPartitionedCall/model/conv4_block12_1_conv/Conv2D_bn_offset", "shape": [128], "dtype": "float32", "quantization": {"dtype": "uint8", "min": -2.1435858268363805, "scale": 0.011975339814728382, "original_dtype": "float32"}}, {"name": "StatefulPartitionedCall/model/conv4_block13_1_conv/Conv2D_weights", "shape": [1, 1, 640, 128], "dtype": "float32", "quantization": {"dtype": "uint8", "min": -0.21204810049019607, "scale": 0.0018932866115196078, "original_dtype": "float32"}}, {"name": "StatefulPartitionedCall/model/conv4_block13_1_conv/Conv2D_bn_offset", "shape": [128], "dtype": "float32", "quantization": {"dtype": "uint8", "min": -2.600614536509794, "scale": 0.015479848431605919, "original_dtype": "float32"}}, {"name": "StatefulPartitionedCall/model/conv4_block14_1_conv/Conv2D_weights", "shape": [1, 1, 672, 128], "dtype": "float32", "quantization": {"dtype": "uint8", "min": -0.20349264705882353, "scale": 0.0015897863051470588, "original_dtype": "float32"}}, {"name": "StatefulPartitionedCall/model/conv4_block14_1_conv/Conv2D_bn_offset", "shape": [128], "dtype": "float32", "quantization": {"dtype": "uint8", "min": -2.873378192677217, "scale": 0.01773690242393344, "original_dtype": "float32"}}, {"name": "StatefulPartitionedCall/model/conv4_block15_1_conv/Conv2D_weights", "shape": [1, 1, 704, 128], "dtype": "float32", "quantization": {"dtype": "uint8", "min": -0.2330920649509804, "scale": 0.0016649433210784313, "original_dtype": "float32"}}, {"name": "StatefulPartitionedCall/model/conv4_block15_1_conv/Conv2D_bn_offset", "shape": [128], "dtype": "float32", "quantization": {"dtype": "uint8", "min": -2.2431561152140302, "scale": 0.014197190602620443, "original_dtype": "float32"}}, {"name": "StatefulPartitionedCall/model/conv4_block16_1_conv/Conv2D_weights", "shape": [1, 1, 736, 128], "dtype": "float32", "quantization": {"dtype": "uint8", "min": -0.17882151884191178, "scale": 0.0014538334865196079, "original_dtype": "float32"}}, {"name": "StatefulPartitionedCall/model/conv4_block16_1_conv/Conv2D_bn_offset", "shape": [128], "dtype": "float32", "quantization": {"dtype": "uint8", "min": -2.429457706563613, "scale": 0.01567392068750718, "original_dtype": "float32"}}, {"name": "StatefulPartitionedCall/model/conv4_block17_1_conv/Conv2D_weights", "shape": [1, 1, 768, 128], "dtype": "float32", "quantization": {"dtype": "uint8", "min": -0.1764705882352941, "scale": 0.0014705882352941176, "original_dtype": "float32"}}, {"name": "StatefulPartitionedCall/model/conv4_block17_1_conv/Conv2D_bn_offset", "shape": [128], "dtype": "float32", "quantization": {"dtype": "uint8", "min": -2.371464931263643, "scale": 0.013868215972302006, "original_dtype": "float32"}}, {"name": "StatefulPartitionedCall/model/conv4_block18_1_conv/Conv2D_weights", "shape": [1, 1, 800, 128], "dtype": "float32", "quantization": {"dtype": "uint8", "min": -0.1995059742647059, "scale": 0.0014456954656862746, "original_dtype": "float32"}}, {"name": "StatefulPartitionedCall/model/conv4_block18_1_conv/Conv2D_bn_offset", "shape": [128], "dtype": "float32", "quantization": {"dtype": "uint8", "min": -2.8923459990351805, "scale": 0.014681959385965384, "original_dtype": "float32"}}, {"name": "StatefulPartitionedCall/model/conv4_block19_1_conv/Conv2D_weights", "shape": [1, 1, 832, 128], "dtype": "float32", "quantization": {"dtype": "uint8", "min": -0.17836100260416668, "scale": 0.0014988319546568628, "original_dtype": "float32"}}, {"name": "StatefulPartitionedCall/model/conv4_block19_1_conv/Conv2D_bn_offset", "shape": [128], "dtype": "float32", "quantization": {"dtype": "uint8", "min": -2.1027067983851713, "scale": 0.013060290673199823, "original_dtype": "float32"}}, {"name": "StatefulPartitionedCall/model/conv4_block20_1_conv/Conv2D_weights", "shape": [1, 1, 864, 128], "dtype": "float32", "quantization": {"dtype": "uint8", "min": -0.18141659007352942, "scale": 0.0016797832414215687, "original_dtype": "float32"}}, {"name": "StatefulPartitionedCall/model/conv4_block20_1_conv/Conv2D_bn_offset", "shape": [128], "dtype": "float32", "quantization": {"dtype": "uint8", "min": -2.339851010313221, "scale": 0.01225052884980744, "original_dtype": "float32"}}, {"name": "StatefulPartitionedCall/model/conv4_block21_1_conv/Conv2D_weights", "shape": [1, 1, 896, 128], "dtype": "float32", "quantization": {"dtype": "uint8", "min": -0.26721047794117647, "scale": 0.0023035386029411765, "original_dtype": "float32"}}, {"name": "StatefulPartitionedCall/model/conv4_block21_1_conv/Conv2D_bn_offset", "shape": [128], "dtype": "float32", "quantization": {"dtype": "uint8", "min": -2.469186081605799, "scale": 0.013717700453365551, "original_dtype": "float32"}}, {"name": "StatefulPartitionedCall/model/conv4_block22_1_conv/Conv2D_weights", "shape": [1, 1, 928, 128], "dtype": "float32", "quantization": {"dtype": "uint8", "min": -0.19033490349264706, "scale": 0.0017147288602941176, "original_dtype": "float32"}}, {"name": "StatefulPartitionedCall/model/conv4_block22_1_conv/Conv2D_bn_offset", "shape": [128], "dtype": "float32", "quantization": {"dtype": "uint8", "min": -2.739300771788055, "scale": 0.014120107071072448, "original_dtype": "float32"}}, {"name": "StatefulPartitionedCall/model/conv4_block23_1_conv/Conv2D_weights", "shape": [1, 1, 960, 128], "dtype": "float32", "quantization": {"dtype": "uint8", "min": -0.17621065027573532, "scale": 0.002025409773284314, "original_dtype": "float32"}}, {"name": "StatefulPartitionedCall/model/conv4_block23_1_conv/Conv2D_bn_offset", "shape": [128], "dtype": "float32", "quantization": {"dtype": "uint8", "min": -2.2079603924470788, "scale": 0.013886543348723766, "original_dtype": "float32"}}, {"name": "StatefulPartitionedCall/model/conv4_block24_1_conv/Conv2D_weights", "shape": [1, 1, 992, 128], "dtype": "float32", "quantization": {"dtype": "uint8", "min": -0.15759803921568627, "scale": 0.001231234681372549, "original_dtype": "float32"}}, {"name": "StatefulPartitionedCall/model/conv4_block24_1_conv/Conv2D_bn_offset", "shape": [128], "dtype": "float32", "quantization": {"dtype": "uint8", "min": -2.391230146557677, "scale": 0.01220015380896774, "original_dtype": "float32"}}, {"name": "StatefulPartitionedCall/model/conv5_block1_1_conv/Conv2D_weights", "shape": [1, 1, 512, 128], "dtype": "float32", "quantization": {"dtype": "uint8", "min": -0.3011029411764706, "scale": 0.0023523667279411764, "original_dtype": "float32"}}, {"name": "StatefulPartitionedCall/model/conv5_block1_1_conv/Conv2D_bn_offset", "shape": [128], "dtype": "float32", "quantization": {"dtype": "uint8", "min": -1.3587538060019997, "scale": 0.015266896696651683, "original_dtype": "float32"}}, {"name": "StatefulPartitionedCall/model/conv5_block2_1_conv/Conv2D_weights", "shape": [1, 1, 544, 128], "dtype": "float32", "quantization": {"dtype": "uint8", "min": -0.35453048406862747, "scale": 0.002532360600490196, "original_dtype": "float32"}}, {"name": "StatefulPartitionedCall/model/conv5_block2_1_conv/Conv2D_bn_offset", "shape": [128], "dtype": "float32", "quantization": {"dtype": "uint8", "min": -2.6556838923809574, "scale": 0.020272396125045476, "original_dtype": "float32"}}, {"name": "StatefulPartitionedCall/model/conv5_block3_1_conv/Conv2D_weights", "shape": [1, 1, 576, 128], "dtype": "float32", "quantization": {"dtype": "uint8", "min": -0.34008501838235294, "scale": 0.0024643841911764705, "original_dtype": "float32"}}, {"name": "StatefulPartitionedCall/model/conv5_block3_1_conv/Conv2D_bn_offset", "shape": [128], "dtype": "float32", "quantization": {"dtype": "uint8", "min": -2.262773083705528, "scale": 0.01824817002988329, "original_dtype": "float32"}}, {"name": "StatefulPartitionedCall/model/conv5_block4_1_conv/Conv2D_weights", "shape": [1, 1, 608, 128], "dtype": "float32", "quantization": {"dtype": "uint8", "min": -0.3497529871323529, "scale": 0.0025907628676470587, "original_dtype": "float32"}}, {"name": "StatefulPartitionedCall/model/conv5_block4_1_conv/Conv2D_bn_offset", "shape": [128], "dtype": "float32", "quantization": {"dtype": "uint8", "min": -2.057653013865153, "scale": 0.01729120179718616, "original_dtype": "float32"}}, {"name": "StatefulPartitionedCall/model/conv5_block5_1_conv/Conv2D_weights", "shape": [1, 1, 640, 128], "dtype": "float32", "quantization": {"dtype": "uint8", "min": -0.3203249463848039, "scale": 0.002304496017156863, "original_dtype": "float32"}}, {"name": "StatefulPartitionedCall/model/conv5_block5_1_conv/Conv2D_bn_offset", "shape": [128], "dtype": "float32", "quantization": {"dtype": "uint8", "min": -1.6044473332517286, "scale": 0.009382732942992566, "original_dtype": "float32"}}, {"name": "StatefulPartitionedCall/model/conv5_block6_1_conv/Conv2D_weights", "shape": [1, 1, 672, 128], "dtype": "float32", "quantization": {"dtype": "uint8", "min": -0.32030484068627446, "scale": 0.0022556678921568625, "original_dtype": "float32"}}, {"name": "StatefulPartitionedCall/model/conv5_block6_1_conv/Conv2D_bn_offset", "shape": [128], "dtype": "float32", "quantization": {"dtype": "uint8", "min": -1.705852493351581, "scale": 0.009220824288386924, "original_dtype": "float32"}}, {"name": "StatefulPartitionedCall/model/conv5_block7_1_conv/Conv2D_weights", "shape": [1, 1, 704, 128], "dtype": "float32", "quantization": {"dtype": "uint8", "min": -0.2861184512867647, "scale": 0.0019732306985294117, "original_dtype": "float32"}}, {"name": "StatefulPartitionedCall/model/conv5_block7_1_conv/Conv2D_bn_offset", "shape": [128], "dtype": "float32", "quantization": {"dtype": "uint8", "min": -1.2011486301235124, "scale": 0.006599717747931387, "original_dtype": "float32"}}, {"name": "StatefulPartitionedCall/model/conv5_block8_1_conv/Conv2D_weights", "shape": [1, 1, 736, 128], "dtype": "float32", "quantization": {"dtype": "uint8", "min": -0.2600241268382353, "scale": 0.0019698797487745097, "original_dtype": "float32"}}, {"name": "StatefulPartitionedCall/model/conv5_block8_1_conv/Conv2D_bn_offset", "shape": [128], "dtype": "float32", "quantization": {"dtype": "uint8", "min": -1.2322908829240238, "scale": 0.008382931176353903, "original_dtype": "float32"}}, {"name": "StatefulPartitionedCall/model/conv5_block9_1_conv/Conv2D_weights", "shape": [1, 1, 768, 128], "dtype": "float32", "quantization": {"dtype": "uint8", "min": -0.23009248621323528, "scale": 0.001667336856617647, "original_dtype": "float32"}}, {"name": "StatefulPartitionedCall/model/conv5_block9_1_conv/Conv2D_bn_offset", "shape": [128], "dtype": "float32", "quantization": {"dtype": "uint8", "min": -1.4500209509157669, "scale": 0.009931650348738129, "original_dtype": "float32"}}, {"name": "StatefulPartitionedCall/model/conv5_block10_1_conv/Conv2D_weights", "shape": [1, 1, 800, 128], "dtype": "float32", "quantization": {"dtype": "uint8", "min": -0.2599226409313726, "scale": 0.0019397212009803922, "original_dtype": "float32"}}, {"name": "StatefulPartitionedCall/model/conv5_block10_1_conv/Conv2D_bn_offset", "shape": [128], "dtype": "float32", "quantization": {"dtype": "uint8", "min": -1.7493402995315253, "scale": 0.012319297884024825, "original_dtype": "float32"}}, {"name": "StatefulPartitionedCall/model/conv5_block11_1_conv/Conv2D_weights", "shape": [1, 1, 832, 128], "dtype": "float32", "quantization": {"dtype": "uint8", "min": -0.26409983915441176, "scale": 0.0018468520220588235, "original_dtype": "float32"}}, {"name": "StatefulPartitionedCall/model/conv5_block11_1_conv/Conv2D_bn_offset", "shape": [128], "dtype": "float32", "quantization": {"dtype": "uint8", "min": -1.290918502737494, "scale": 0.006977937852635103, "original_dtype": "float32"}}, {"name": "StatefulPartitionedCall/model/conv5_block12_1_conv/Conv2D_weights", "shape": [1, 1, 864, 128], "dtype": "float32", "quantization": {"dtype": "uint8", "min": -0.21704149433210784, "scale": 0.001656805300245098, "original_dtype": "float32"}}, {"name": "StatefulPartitionedCall/model/conv5_block12_1_conv/Conv2D_bn_offset", "shape": [128], "dtype": "float32", "quantization": {"dtype": "uint8", "min": -1.3466164673075958, "scale": 0.00955047139934465, "original_dtype": "float32"}}, {"name": "StatefulPartitionedCall/model/conv5_block13_1_conv/Conv2D_weights", "shape": [1, 1, 896, 128], "dtype": "float32", "quantization": {"dtype": "uint8", "min": -0.23708304610906863, "scale": 0.001705633425245098, "original_dtype": "float32"}}, {"name": "StatefulPartitionedCall/model/conv5_block13_1_conv/Conv2D_bn_offset", "shape": [128], "dtype": "float32", "quantization": {"dtype": "uint8", "min": -1.3455894446840475, "scale": 0.009030801642174815, "original_dtype": "float32"}}, {"name": "StatefulPartitionedCall/model/conv5_block14_1_conv/Conv2D_weights", "shape": [1, 1, 928, 128], "dtype": "float32", "quantization": {"dtype": "uint8", "min": -0.2477093864889706, "scale": 0.001834884344362745, "original_dtype": "float32"}}, {"name": "StatefulPartitionedCall/model/conv5_block14_1_conv/Conv2D_bn_offset", "shape": [128], "dtype": "float32", "quantization": {"dtype": "uint8", "min": -1.5171479730045094, "scale": 0.010320734510234759, "original_dtype": "float32"}}, {"name": "StatefulPartitionedCall/model/conv5_block15_1_conv/Conv2D_weights", "shape": [1, 1, 960, 128], "dtype": "float32", "quantization": {"dtype": "uint8", "min": -0.25869715073529415, "scale": 0.0018746170343137256, "original_dtype": "float32"}}, {"name": "StatefulPartitionedCall/model/conv5_block15_1_conv/Conv2D_bn_offset", "shape": [128], "dtype": "float32", "quantization": {"dtype": "uint8", "min": -1.697038409289192, "scale": 0.010101419102911856, "original_dtype": "float32"}}, {"name": "StatefulPartitionedCall/model/conv5_block16_1_conv/Conv2D_weights", "shape": [1, 1, 992, 128], "dtype": "float32", "quantization": {"dtype": "uint8", "min": -0.25084156709558825, "scale": 0.0019445082720588236, "original_dtype": "float32"}}, {"name": "StatefulPartitionedCall/model/conv5_block16_1_conv/Conv2D_bn_offset", "shape": [128], "dtype": "float32", "quantization": {"dtype": "uint8", "min": -1.1868961930274964, "scale": 0.007757491457696055, "original_dtype": "float32"}}]}]}