{"format": "graph-model", "generatedBy": "2.7.0", "convertedBy": "TensorFlow.js Converter v3.13.0", "signature": {"inputs": {"input": {"name": "input:0", "dtype": "DT_FLOAT", "tensorShape": {"dim": [{"size": "-1"}, {"size": "256"}, {"size": "384"}, {"size": "1"}]}}}, "outputs": {"dense": {"name": "Identity:0", "dtype": "DT_FLOAT", "tensorShape": {"dim": [{"size": "-1"}, {"size": "309"}]}}}}, "modelTopology": {"node": [{"name": "StatefulPartitionedCall/model/zero_padding2d/Pad/paddings", "op": "Const", "attr": {"dtype": {"type": "DT_INT32"}, "value": {"tensor": {"dtype": "DT_INT32", "tensorShape": {"dim": [{"size": "4"}, {"size": "2"}]}}}}}, {"name": "StatefulPartitionedCall/model/zero_padding2d_1/Pad/paddings", "op": "Const", "attr": {"dtype": {"type": "DT_INT32"}, "value": {"tensor": {"dtype": "DT_INT32", "tensorShape": {"dim": [{"size": "4"}, {"size": "2"}]}}}}}, {"name": "StatefulPartitionedCall/model/conv2_block1_0_bn/ReadVariableOp", "op": "Const", "attr": {"dtype": {"type": "DT_FLOAT"}, "value": {"tensor": {"dtype": "DT_FLOAT", "tensorShape": {"dim": [{"size": "64"}]}}}}}, {"name": "StatefulPartitionedCall/model/conv2_block1_0_bn/ReadVariableOp_1", "op": "Const", "attr": {"value": {"tensor": {"dtype": "DT_FLOAT", "tensorShape": {"dim": [{"size": "64"}]}}}, "dtype": {"type": "DT_FLOAT"}}}, {"name": "StatefulPartitionedCall/model/conv2_block1_0_bn/FusedBatchNormV3/ReadVariableOp", "op": "Const", "attr": {"dtype": {"type": "DT_FLOAT"}, "value": {"tensor": {"dtype": "DT_FLOAT", "tensorShape": {"dim": [{"size": "64"}]}}}}}, {"name": "StatefulPartitionedCall/model/conv2_block1_0_bn/FusedBatchNormV3/ReadVariableOp_1", "op": "Const", "attr": {"dtype": {"type": "DT_FLOAT"}, "value": {"tensor": {"dtype": "DT_FLOAT", "tensorShape": {"dim": [{"size": "64"}]}}}}}, {"name": "StatefulPartitionedCall/model/conv2_block1_2_conv/Conv2D/Cast", "op": "Const", "attr": {"value": {"tensor": {"dtype": "DT_HALF", "tensorShape": {"dim": [{"size": "3"}, {"size": "3"}, {"size": "128"}, {"size": "32"}]}}}, "dtype": {"type": "DT_HALF"}}}, {"name": "StatefulPartitionedCall/model/conv2_block1_concat/concat/axis", "op": "Const", "attr": {"dtype": {"type": "DT_INT32"}, "value": {"tensor": {"dtype": "DT_INT32", "tensorShape": {}}}}}, {"name": "StatefulPartitionedCall/model/conv2_block2_0_bn/ReadVariableOp", "op": "Const", "attr": {"dtype": {"type": "DT_FLOAT"}, "value": {"tensor": {"dtype": "DT_FLOAT", "tensorShape": {"dim": [{"size": "96"}]}}}}}, {"name": "StatefulPartitionedCall/model/conv2_block2_0_bn/ReadVariableOp_1", "op": "Const", "attr": {"dtype": {"type": "DT_FLOAT"}, "value": {"tensor": {"dtype": "DT_FLOAT", "tensorShape": {"dim": [{"size": "96"}]}}}}}, {"name": "StatefulPartitionedCall/model/conv2_block2_0_bn/FusedBatchNormV3/ReadVariableOp", "op": "Const", "attr": {"dtype": {"type": "DT_FLOAT"}, "value": {"tensor": {"dtype": "DT_FLOAT", "tensorShape": {"dim": [{"size": "96"}]}}}}}, {"name": "StatefulPartitionedCall/model/conv2_block2_0_bn/FusedBatchNormV3/ReadVariableOp_1", "op": "Const", "attr": {"dtype": {"type": "DT_FLOAT"}, "value": {"tensor": {"dtype": "DT_FLOAT", "tensorShape": {"dim": [{"size": "96"}]}}}}}, {"name": "StatefulPartitionedCall/model/conv2_block2_2_conv/Conv2D/Cast", "op": "Const", "attr": {"dtype": {"type": "DT_HALF"}, "value": {"tensor": {"dtype": "DT_HALF", "tensorShape": {"dim": [{"size": "3"}, {"size": "3"}, {"size": "128"}, {"size": "32"}]}}}}}, {"name": "StatefulPartitionedCall/model/conv2_block2_concat/concat/axis", "op": "Const", "attr": {"dtype": {"type": "DT_INT32"}, "value": {"tensor": {"dtype": "DT_INT32", "tensorShape": {}}}}}, {"name": "StatefulPartitionedCall/model/conv2_block3_0_bn/ReadVariableOp", "op": "Const", "attr": {"dtype": {"type": "DT_FLOAT"}, "value": {"tensor": {"dtype": "DT_FLOAT", "tensorShape": {"dim": [{"size": "128"}]}}}}}, {"name": "StatefulPartitionedCall/model/conv2_block3_0_bn/ReadVariableOp_1", "op": "Const", "attr": {"value": {"tensor": {"dtype": "DT_FLOAT", "tensorShape": {"dim": [{"size": "128"}]}}}, "dtype": {"type": "DT_FLOAT"}}}, {"name": "StatefulPartitionedCall/model/conv2_block3_0_bn/FusedBatchNormV3/ReadVariableOp", "op": "Const", "attr": {"dtype": {"type": "DT_FLOAT"}, "value": {"tensor": {"dtype": "DT_FLOAT", "tensorShape": {"dim": [{"size": "128"}]}}}}}, {"name": "StatefulPartitionedCall/model/conv2_block3_0_bn/FusedBatchNormV3/ReadVariableOp_1", "op": "Const", "attr": {"value": {"tensor": {"dtype": "DT_FLOAT", "tensorShape": {"dim": [{"size": "128"}]}}}, "dtype": {"type": "DT_FLOAT"}}}, {"name": "StatefulPartitionedCall/model/conv2_block3_2_conv/Conv2D/Cast", "op": "Const", "attr": {"value": {"tensor": {"dtype": "DT_HALF", "tensorShape": {"dim": [{"size": "3"}, {"size": "3"}, {"size": "128"}, {"size": "32"}]}}}, "dtype": {"type": "DT_HALF"}}}, {"name": "StatefulPartitionedCall/model/conv2_block3_concat/concat/axis", "op": "Const", "attr": {"value": {"tensor": {"dtype": "DT_INT32", "tensorShape": {}}}, "dtype": {"type": "DT_INT32"}}}, {"name": "StatefulPartitionedCall/model/conv2_block4_0_bn/ReadVariableOp", "op": "Const", "attr": {"dtype": {"type": "DT_FLOAT"}, "value": {"tensor": {"dtype": "DT_FLOAT", "tensorShape": {"dim": [{"size": "160"}]}}}}}, {"name": "StatefulPartitionedCall/model/conv2_block4_0_bn/ReadVariableOp_1", "op": "Const", "attr": {"dtype": {"type": "DT_FLOAT"}, "value": {"tensor": {"dtype": "DT_FLOAT", "tensorShape": {"dim": [{"size": "160"}]}}}}}, {"name": "StatefulPartitionedCall/model/conv2_block4_0_bn/FusedBatchNormV3/ReadVariableOp", "op": "Const", "attr": {"dtype": {"type": "DT_FLOAT"}, "value": {"tensor": {"dtype": "DT_FLOAT", "tensorShape": {"dim": [{"size": "160"}]}}}}}, {"name": "StatefulPartitionedCall/model/conv2_block4_0_bn/FusedBatchNormV3/ReadVariableOp_1", "op": "Const", "attr": {"value": {"tensor": {"dtype": "DT_FLOAT", "tensorShape": {"dim": [{"size": "160"}]}}}, "dtype": {"type": "DT_FLOAT"}}}, {"name": "StatefulPartitionedCall/model/conv2_block4_2_conv/Conv2D/Cast", "op": "Const", "attr": {"value": {"tensor": {"dtype": "DT_HALF", "tensorShape": {"dim": [{"size": "3"}, {"size": "3"}, {"size": "128"}, {"size": "32"}]}}}, "dtype": {"type": "DT_HALF"}}}, {"name": "StatefulPartitionedCall/model/conv2_block4_concat/concat/axis", "op": "Const", "attr": {"value": {"tensor": {"dtype": "DT_INT32", "tensorShape": {}}}, "dtype": {"type": "DT_INT32"}}}, {"name": "StatefulPartitionedCall/model/conv2_block5_0_bn/ReadVariableOp", "op": "Const", "attr": {"dtype": {"type": "DT_FLOAT"}, "value": {"tensor": {"dtype": "DT_FLOAT", "tensorShape": {"dim": [{"size": "192"}]}}}}}, {"name": "StatefulPartitionedCall/model/conv2_block5_0_bn/ReadVariableOp_1", "op": "Const", "attr": {"value": {"tensor": {"dtype": "DT_FLOAT", "tensorShape": {"dim": [{"size": "192"}]}}}, "dtype": {"type": "DT_FLOAT"}}}, {"name": "StatefulPartitionedCall/model/conv2_block5_0_bn/FusedBatchNormV3/ReadVariableOp", "op": "Const", "attr": {"value": {"tensor": {"dtype": "DT_FLOAT", "tensorShape": {"dim": [{"size": "192"}]}}}, "dtype": {"type": "DT_FLOAT"}}}, {"name": "StatefulPartitionedCall/model/conv2_block5_0_bn/FusedBatchNormV3/ReadVariableOp_1", "op": "Const", "attr": {"value": {"tensor": {"dtype": "DT_FLOAT", "tensorShape": {"dim": [{"size": "192"}]}}}, "dtype": {"type": "DT_FLOAT"}}}, {"name": "StatefulPartitionedCall/model/conv2_block5_2_conv/Conv2D/Cast", "op": "Const", "attr": {"value": {"tensor": {"dtype": "DT_HALF", "tensorShape": {"dim": [{"size": "3"}, {"size": "3"}, {"size": "128"}, {"size": "32"}]}}}, "dtype": {"type": "DT_HALF"}}}, {"name": "StatefulPartitionedCall/model/conv2_block5_concat/concat/axis", "op": "Const", "attr": {"dtype": {"type": "DT_INT32"}, "value": {"tensor": {"dtype": "DT_INT32", "tensorShape": {}}}}}, {"name": "StatefulPartitionedCall/model/conv2_block6_0_bn/ReadVariableOp", "op": "Const", "attr": {"dtype": {"type": "DT_FLOAT"}, "value": {"tensor": {"dtype": "DT_FLOAT", "tensorShape": {"dim": [{"size": "224"}]}}}}}, {"name": "StatefulPartitionedCall/model/conv2_block6_0_bn/ReadVariableOp_1", "op": "Const", "attr": {"dtype": {"type": "DT_FLOAT"}, "value": {"tensor": {"dtype": "DT_FLOAT", "tensorShape": {"dim": [{"size": "224"}]}}}}}, {"name": "StatefulPartitionedCall/model/conv2_block6_0_bn/FusedBatchNormV3/ReadVariableOp", "op": "Const", "attr": {"dtype": {"type": "DT_FLOAT"}, "value": {"tensor": {"dtype": "DT_FLOAT", "tensorShape": {"dim": [{"size": "224"}]}}}}}, {"name": "StatefulPartitionedCall/model/conv2_block6_0_bn/FusedBatchNormV3/ReadVariableOp_1", "op": "Const", "attr": {"dtype": {"type": "DT_FLOAT"}, "value": {"tensor": {"dtype": "DT_FLOAT", "tensorShape": {"dim": [{"size": "224"}]}}}}}, {"name": "StatefulPartitionedCall/model/conv2_block6_2_conv/Conv2D/Cast", "op": "Const", "attr": {"value": {"tensor": {"dtype": "DT_HALF", "tensorShape": {"dim": [{"size": "3"}, {"size": "3"}, {"size": "128"}, {"size": "32"}]}}}, "dtype": {"type": "DT_HALF"}}}, {"name": "StatefulPartitionedCall/model/conv2_block6_concat/concat/axis", "op": "Const", "attr": {"dtype": {"type": "DT_INT32"}, "value": {"tensor": {"dtype": "DT_INT32", "tensorShape": {}}}}}, {"name": "StatefulPartitionedCall/model/pool2_bn/ReadVariableOp", "op": "Const", "attr": {"dtype": {"type": "DT_FLOAT"}, "value": {"tensor": {"dtype": "DT_FLOAT", "tensorShape": {"dim": [{"size": "256"}]}}}}}, {"name": "StatefulPartitionedCall/model/pool2_bn/ReadVariableOp_1", "op": "Const", "attr": {"value": {"tensor": {"dtype": "DT_FLOAT", "tensorShape": {"dim": [{"size": "256"}]}}}, "dtype": {"type": "DT_FLOAT"}}}, {"name": "StatefulPartitionedCall/model/pool2_bn/FusedBatchNormV3/ReadVariableOp", "op": "Const", "attr": {"value": {"tensor": {"dtype": "DT_FLOAT", "tensorShape": {"dim": [{"size": "256"}]}}}, "dtype": {"type": "DT_FLOAT"}}}, {"name": "StatefulPartitionedCall/model/pool2_bn/FusedBatchNormV3/ReadVariableOp_1", "op": "Const", "attr": {"dtype": {"type": "DT_FLOAT"}, "value": {"tensor": {"dtype": "DT_FLOAT", "tensorShape": {"dim": [{"size": "256"}]}}}}}, {"name": "StatefulPartitionedCall/model/pool2_conv/Conv2D/Cast", "op": "Const", "attr": {"value": {"tensor": {"dtype": "DT_HALF", "tensorShape": {"dim": [{"size": "1"}, {"size": "1"}, {"size": "256"}, {"size": "128"}]}}}, "dtype": {"type": "DT_HALF"}}}, {"name": "StatefulPartitionedCall/model/conv3_block1_0_bn/ReadVariableOp", "op": "Const", "attr": {"dtype": {"type": "DT_FLOAT"}, "value": {"tensor": {"dtype": "DT_FLOAT", "tensorShape": {"dim": [{"size": "128"}]}}}}}, {"name": "StatefulPartitionedCall/model/conv3_block1_0_bn/ReadVariableOp_1", "op": "Const", "attr": {"value": {"tensor": {"dtype": "DT_FLOAT", "tensorShape": {"dim": [{"size": "128"}]}}}, "dtype": {"type": "DT_FLOAT"}}}, {"name": "StatefulPartitionedCall/model/conv3_block1_0_bn/FusedBatchNormV3/ReadVariableOp", "op": "Const", "attr": {"dtype": {"type": "DT_FLOAT"}, "value": {"tensor": {"dtype": "DT_FLOAT", "tensorShape": {"dim": [{"size": "128"}]}}}}}, {"name": "StatefulPartitionedCall/model/conv3_block1_0_bn/FusedBatchNormV3/ReadVariableOp_1", "op": "Const", "attr": {"value": {"tensor": {"dtype": "DT_FLOAT", "tensorShape": {"dim": [{"size": "128"}]}}}, "dtype": {"type": "DT_FLOAT"}}}, {"name": "StatefulPartitionedCall/model/conv3_block1_2_conv/Conv2D/Cast", "op": "Const", "attr": {"value": {"tensor": {"dtype": "DT_HALF", "tensorShape": {"dim": [{"size": "3"}, {"size": "3"}, {"size": "128"}, {"size": "32"}]}}}, "dtype": {"type": "DT_HALF"}}}, {"name": "StatefulPartitionedCall/model/conv3_block1_concat/concat/axis", "op": "Const", "attr": {"dtype": {"type": "DT_INT32"}, "value": {"tensor": {"dtype": "DT_INT32", "tensorShape": {}}}}}, {"name": "StatefulPartitionedCall/model/conv3_block2_0_bn/ReadVariableOp", "op": "Const", "attr": {"value": {"tensor": {"dtype": "DT_FLOAT", "tensorShape": {"dim": [{"size": "160"}]}}}, "dtype": {"type": "DT_FLOAT"}}}, {"name": "StatefulPartitionedCall/model/conv3_block2_0_bn/ReadVariableOp_1", "op": "Const", "attr": {"value": {"tensor": {"dtype": "DT_FLOAT", "tensorShape": {"dim": [{"size": "160"}]}}}, "dtype": {"type": "DT_FLOAT"}}}, {"name": "StatefulPartitionedCall/model/conv3_block2_0_bn/FusedBatchNormV3/ReadVariableOp", "op": "Const", "attr": {"dtype": {"type": "DT_FLOAT"}, "value": {"tensor": {"dtype": "DT_FLOAT", "tensorShape": {"dim": [{"size": "160"}]}}}}}, {"name": "StatefulPartitionedCall/model/conv3_block2_0_bn/FusedBatchNormV3/ReadVariableOp_1", "op": "Const", "attr": {"dtype": {"type": "DT_FLOAT"}, "value": {"tensor": {"dtype": "DT_FLOAT", "tensorShape": {"dim": [{"size": "160"}]}}}}}, {"name": "StatefulPartitionedCall/model/conv3_block2_2_conv/Conv2D/Cast", "op": "Const", "attr": {"dtype": {"type": "DT_HALF"}, "value": {"tensor": {"dtype": "DT_HALF", "tensorShape": {"dim": [{"size": "3"}, {"size": "3"}, {"size": "128"}, {"size": "32"}]}}}}}, {"name": "StatefulPartitionedCall/model/conv3_block2_concat/concat/axis", "op": "Const", "attr": {"dtype": {"type": "DT_INT32"}, "value": {"tensor": {"dtype": "DT_INT32", "tensorShape": {}}}}}, {"name": "StatefulPartitionedCall/model/conv3_block3_0_bn/ReadVariableOp", "op": "Const", "attr": {"value": {"tensor": {"dtype": "DT_FLOAT", "tensorShape": {"dim": [{"size": "192"}]}}}, "dtype": {"type": "DT_FLOAT"}}}, {"name": "StatefulPartitionedCall/model/conv3_block3_0_bn/ReadVariableOp_1", "op": "Const", "attr": {"value": {"tensor": {"dtype": "DT_FLOAT", "tensorShape": {"dim": [{"size": "192"}]}}}, "dtype": {"type": "DT_FLOAT"}}}, {"name": "StatefulPartitionedCall/model/conv3_block3_0_bn/FusedBatchNormV3/ReadVariableOp", "op": "Const", "attr": {"dtype": {"type": "DT_FLOAT"}, "value": {"tensor": {"dtype": "DT_FLOAT", "tensorShape": {"dim": [{"size": "192"}]}}}}}, {"name": "StatefulPartitionedCall/model/conv3_block3_0_bn/FusedBatchNormV3/ReadVariableOp_1", "op": "Const", "attr": {"dtype": {"type": "DT_FLOAT"}, "value": {"tensor": {"dtype": "DT_FLOAT", "tensorShape": {"dim": [{"size": "192"}]}}}}}, {"name": "StatefulPartitionedCall/model/conv3_block3_2_conv/Conv2D/Cast", "op": "Const", "attr": {"dtype": {"type": "DT_HALF"}, "value": {"tensor": {"dtype": "DT_HALF", "tensorShape": {"dim": [{"size": "3"}, {"size": "3"}, {"size": "128"}, {"size": "32"}]}}}}}, {"name": "StatefulPartitionedCall/model/conv3_block3_concat/concat/axis", "op": "Const", "attr": {"dtype": {"type": "DT_INT32"}, "value": {"tensor": {"dtype": "DT_INT32", "tensorShape": {}}}}}, {"name": "StatefulPartitionedCall/model/conv3_block4_0_bn/ReadVariableOp", "op": "Const", "attr": {"value": {"tensor": {"dtype": "DT_FLOAT", "tensorShape": {"dim": [{"size": "224"}]}}}, "dtype": {"type": "DT_FLOAT"}}}, {"name": "StatefulPartitionedCall/model/conv3_block4_0_bn/ReadVariableOp_1", "op": "Const", "attr": {"value": {"tensor": {"dtype": "DT_FLOAT", "tensorShape": {"dim": [{"size": "224"}]}}}, "dtype": {"type": "DT_FLOAT"}}}, {"name": "StatefulPartitionedCall/model/conv3_block4_0_bn/FusedBatchNormV3/ReadVariableOp", "op": "Const", "attr": {"value": {"tensor": {"dtype": "DT_FLOAT", "tensorShape": {"dim": [{"size": "224"}]}}}, "dtype": {"type": "DT_FLOAT"}}}, {"name": "StatefulPartitionedCall/model/conv3_block4_0_bn/FusedBatchNormV3/ReadVariableOp_1", "op": "Const", "attr": {"value": {"tensor": {"dtype": "DT_FLOAT", "tensorShape": {"dim": [{"size": "224"}]}}}, "dtype": {"type": "DT_FLOAT"}}}, {"name": "StatefulPartitionedCall/model/conv3_block4_2_conv/Conv2D/Cast", "op": "Const", "attr": {"value": {"tensor": {"dtype": "DT_HALF", "tensorShape": {"dim": [{"size": "3"}, {"size": "3"}, {"size": "128"}, {"size": "32"}]}}}, "dtype": {"type": "DT_HALF"}}}, {"name": "StatefulPartitionedCall/model/conv3_block4_concat/concat/axis", "op": "Const", "attr": {"value": {"tensor": {"dtype": "DT_INT32", "tensorShape": {}}}, "dtype": {"type": "DT_INT32"}}}, {"name": "StatefulPartitionedCall/model/conv3_block5_0_bn/ReadVariableOp", "op": "Const", "attr": {"value": {"tensor": {"dtype": "DT_FLOAT", "tensorShape": {"dim": [{"size": "256"}]}}}, "dtype": {"type": "DT_FLOAT"}}}, {"name": "StatefulPartitionedCall/model/conv3_block5_0_bn/ReadVariableOp_1", "op": "Const", "attr": {"dtype": {"type": "DT_FLOAT"}, "value": {"tensor": {"dtype": "DT_FLOAT", "tensorShape": {"dim": [{"size": "256"}]}}}}}, {"name": "StatefulPartitionedCall/model/conv3_block5_0_bn/FusedBatchNormV3/ReadVariableOp", "op": "Const", "attr": {"value": {"tensor": {"dtype": "DT_FLOAT", "tensorShape": {"dim": [{"size": "256"}]}}}, "dtype": {"type": "DT_FLOAT"}}}, {"name": "StatefulPartitionedCall/model/conv3_block5_0_bn/FusedBatchNormV3/ReadVariableOp_1", "op": "Const", "attr": {"value": {"tensor": {"dtype": "DT_FLOAT", "tensorShape": {"dim": [{"size": "256"}]}}}, "dtype": {"type": "DT_FLOAT"}}}, {"name": "StatefulPartitionedCall/model/conv3_block5_2_conv/Conv2D/Cast", "op": "Const", "attr": {"dtype": {"type": "DT_HALF"}, "value": {"tensor": {"dtype": "DT_HALF", "tensorShape": {"dim": [{"size": "3"}, {"size": "3"}, {"size": "128"}, {"size": "32"}]}}}}}, {"name": "StatefulPartitionedCall/model/conv3_block5_concat/concat/axis", "op": "Const", "attr": {"value": {"tensor": {"dtype": "DT_INT32", "tensorShape": {}}}, "dtype": {"type": "DT_INT32"}}}, {"name": "StatefulPartitionedCall/model/conv3_block6_0_bn/ReadVariableOp", "op": "Const", "attr": {"value": {"tensor": {"dtype": "DT_FLOAT", "tensorShape": {"dim": [{"size": "288"}]}}}, "dtype": {"type": "DT_FLOAT"}}}, {"name": "StatefulPartitionedCall/model/conv3_block6_0_bn/ReadVariableOp_1", "op": "Const", "attr": {"value": {"tensor": {"dtype": "DT_FLOAT", "tensorShape": {"dim": [{"size": "288"}]}}}, "dtype": {"type": "DT_FLOAT"}}}, {"name": "StatefulPartitionedCall/model/conv3_block6_0_bn/FusedBatchNormV3/ReadVariableOp", "op": "Const", "attr": {"dtype": {"type": "DT_FLOAT"}, "value": {"tensor": {"dtype": "DT_FLOAT", "tensorShape": {"dim": [{"size": "288"}]}}}}}, {"name": "StatefulPartitionedCall/model/conv3_block6_0_bn/FusedBatchNormV3/ReadVariableOp_1", "op": "Const", "attr": {"value": {"tensor": {"dtype": "DT_FLOAT", "tensorShape": {"dim": [{"size": "288"}]}}}, "dtype": {"type": "DT_FLOAT"}}}, {"name": "StatefulPartitionedCall/model/conv3_block6_2_conv/Conv2D/Cast", "op": "Const", "attr": {"value": {"tensor": {"dtype": "DT_HALF", "tensorShape": {"dim": [{"size": "3"}, {"size": "3"}, {"size": "128"}, {"size": "32"}]}}}, "dtype": {"type": "DT_HALF"}}}, {"name": "StatefulPartitionedCall/model/conv3_block6_concat/concat/axis", "op": "Const", "attr": {"value": {"tensor": {"dtype": "DT_INT32", "tensorShape": {}}}, "dtype": {"type": "DT_INT32"}}}, {"name": "StatefulPartitionedCall/model/conv3_block7_0_bn/ReadVariableOp", "op": "Const", "attr": {"dtype": {"type": "DT_FLOAT"}, "value": {"tensor": {"dtype": "DT_FLOAT", "tensorShape": {"dim": [{"size": "320"}]}}}}}, {"name": "StatefulPartitionedCall/model/conv3_block7_0_bn/ReadVariableOp_1", "op": "Const", "attr": {"value": {"tensor": {"dtype": "DT_FLOAT", "tensorShape": {"dim": [{"size": "320"}]}}}, "dtype": {"type": "DT_FLOAT"}}}, {"name": "StatefulPartitionedCall/model/conv3_block7_0_bn/FusedBatchNormV3/ReadVariableOp", "op": "Const", "attr": {"value": {"tensor": {"dtype": "DT_FLOAT", "tensorShape": {"dim": [{"size": "320"}]}}}, "dtype": {"type": "DT_FLOAT"}}}, {"name": "StatefulPartitionedCall/model/conv3_block7_0_bn/FusedBatchNormV3/ReadVariableOp_1", "op": "Const", "attr": {"dtype": {"type": "DT_FLOAT"}, "value": {"tensor": {"dtype": "DT_FLOAT", "tensorShape": {"dim": [{"size": "320"}]}}}}}, {"name": "StatefulPartitionedCall/model/conv3_block7_2_conv/Conv2D/Cast", "op": "Const", "attr": {"value": {"tensor": {"dtype": "DT_HALF", "tensorShape": {"dim": [{"size": "3"}, {"size": "3"}, {"size": "128"}, {"size": "32"}]}}}, "dtype": {"type": "DT_HALF"}}}, {"name": "StatefulPartitionedCall/model/conv3_block7_concat/concat/axis", "op": "Const", "attr": {"value": {"tensor": {"dtype": "DT_INT32", "tensorShape": {}}}, "dtype": {"type": "DT_INT32"}}}, {"name": "StatefulPartitionedCall/model/conv3_block8_0_bn/ReadVariableOp", "op": "Const", "attr": {"value": {"tensor": {"dtype": "DT_FLOAT", "tensorShape": {"dim": [{"size": "352"}]}}}, "dtype": {"type": "DT_FLOAT"}}}, {"name": "StatefulPartitionedCall/model/conv3_block8_0_bn/ReadVariableOp_1", "op": "Const", "attr": {"dtype": {"type": "DT_FLOAT"}, "value": {"tensor": {"dtype": "DT_FLOAT", "tensorShape": {"dim": [{"size": "352"}]}}}}}, {"name": "StatefulPartitionedCall/model/conv3_block8_0_bn/FusedBatchNormV3/ReadVariableOp", "op": "Const", "attr": {"dtype": {"type": "DT_FLOAT"}, "value": {"tensor": {"dtype": "DT_FLOAT", "tensorShape": {"dim": [{"size": "352"}]}}}}}, {"name": "StatefulPartitionedCall/model/conv3_block8_0_bn/FusedBatchNormV3/ReadVariableOp_1", "op": "Const", "attr": {"value": {"tensor": {"dtype": "DT_FLOAT", "tensorShape": {"dim": [{"size": "352"}]}}}, "dtype": {"type": "DT_FLOAT"}}}, {"name": "StatefulPartitionedCall/model/conv3_block8_2_conv/Conv2D/Cast", "op": "Const", "attr": {"dtype": {"type": "DT_HALF"}, "value": {"tensor": {"dtype": "DT_HALF", "tensorShape": {"dim": [{"size": "3"}, {"size": "3"}, {"size": "128"}, {"size": "32"}]}}}}}, {"name": "StatefulPartitionedCall/model/conv3_block8_concat/concat/axis", "op": "Const", "attr": {"dtype": {"type": "DT_INT32"}, "value": {"tensor": {"dtype": "DT_INT32", "tensorShape": {}}}}}, {"name": "StatefulPartitionedCall/model/conv3_block9_0_bn/ReadVariableOp", "op": "Const", "attr": {"value": {"tensor": {"dtype": "DT_FLOAT", "tensorShape": {"dim": [{"size": "384"}]}}}, "dtype": {"type": "DT_FLOAT"}}}, {"name": "StatefulPartitionedCall/model/conv3_block9_0_bn/ReadVariableOp_1", "op": "Const", "attr": {"value": {"tensor": {"dtype": "DT_FLOAT", "tensorShape": {"dim": [{"size": "384"}]}}}, "dtype": {"type": "DT_FLOAT"}}}, {"name": "StatefulPartitionedCall/model/conv3_block9_0_bn/FusedBatchNormV3/ReadVariableOp", "op": "Const", "attr": {"dtype": {"type": "DT_FLOAT"}, "value": {"tensor": {"dtype": "DT_FLOAT", "tensorShape": {"dim": [{"size": "384"}]}}}}}, {"name": "StatefulPartitionedCall/model/conv3_block9_0_bn/FusedBatchNormV3/ReadVariableOp_1", "op": "Const", "attr": {"dtype": {"type": "DT_FLOAT"}, "value": {"tensor": {"dtype": "DT_FLOAT", "tensorShape": {"dim": [{"size": "384"}]}}}}}, {"name": "StatefulPartitionedCall/model/conv3_block9_2_conv/Conv2D/Cast", "op": "Const", "attr": {"value": {"tensor": {"dtype": "DT_HALF", "tensorShape": {"dim": [{"size": "3"}, {"size": "3"}, {"size": "128"}, {"size": "32"}]}}}, "dtype": {"type": "DT_HALF"}}}, {"name": "StatefulPartitionedCall/model/conv3_block9_concat/concat/axis", "op": "Const", "attr": {"value": {"tensor": {"dtype": "DT_INT32", "tensorShape": {}}}, "dtype": {"type": "DT_INT32"}}}, {"name": "StatefulPartitionedCall/model/conv3_block10_0_bn/ReadVariableOp", "op": "Const", "attr": {"dtype": {"type": "DT_FLOAT"}, "value": {"tensor": {"dtype": "DT_FLOAT", "tensorShape": {"dim": [{"size": "416"}]}}}}}, {"name": "StatefulPartitionedCall/model/conv3_block10_0_bn/ReadVariableOp_1", "op": "Const", "attr": {"value": {"tensor": {"dtype": "DT_FLOAT", "tensorShape": {"dim": [{"size": "416"}]}}}, "dtype": {"type": "DT_FLOAT"}}}, {"name": "StatefulPartitionedCall/model/conv3_block10_0_bn/FusedBatchNormV3/ReadVariableOp", "op": "Const", "attr": {"value": {"tensor": {"dtype": "DT_FLOAT", "tensorShape": {"dim": [{"size": "416"}]}}}, "dtype": {"type": "DT_FLOAT"}}}, {"name": "StatefulPartitionedCall/model/conv3_block10_0_bn/FusedBatchNormV3/ReadVariableOp_1", "op": "Const", "attr": {"value": {"tensor": {"dtype": "DT_FLOAT", "tensorShape": {"dim": [{"size": "416"}]}}}, "dtype": {"type": "DT_FLOAT"}}}, {"name": "StatefulPartitionedCall/model/conv3_block10_2_conv/Conv2D/Cast", "op": "Const", "attr": {"dtype": {"type": "DT_HALF"}, "value": {"tensor": {"dtype": "DT_HALF", "tensorShape": {"dim": [{"size": "3"}, {"size": "3"}, {"size": "128"}, {"size": "32"}]}}}}}, {"name": "StatefulPartitionedCall/model/conv3_block10_concat/concat/axis", "op": "Const", "attr": {"dtype": {"type": "DT_INT32"}, "value": {"tensor": {"dtype": "DT_INT32", "tensorShape": {}}}}}, {"name": "StatefulPartitionedCall/model/conv3_block11_0_bn/ReadVariableOp", "op": "Const", "attr": {"value": {"tensor": {"dtype": "DT_FLOAT", "tensorShape": {"dim": [{"size": "448"}]}}}, "dtype": {"type": "DT_FLOAT"}}}, {"name": "StatefulPartitionedCall/model/conv3_block11_0_bn/ReadVariableOp_1", "op": "Const", "attr": {"value": {"tensor": {"dtype": "DT_FLOAT", "tensorShape": {"dim": [{"size": "448"}]}}}, "dtype": {"type": "DT_FLOAT"}}}, {"name": "StatefulPartitionedCall/model/conv3_block11_0_bn/FusedBatchNormV3/ReadVariableOp", "op": "Const", "attr": {"dtype": {"type": "DT_FLOAT"}, "value": {"tensor": {"dtype": "DT_FLOAT", "tensorShape": {"dim": [{"size": "448"}]}}}}}, {"name": "StatefulPartitionedCall/model/conv3_block11_0_bn/FusedBatchNormV3/ReadVariableOp_1", "op": "Const", "attr": {"value": {"tensor": {"dtype": "DT_FLOAT", "tensorShape": {"dim": [{"size": "448"}]}}}, "dtype": {"type": "DT_FLOAT"}}}, {"name": "StatefulPartitionedCall/model/conv3_block11_2_conv/Conv2D/Cast", "op": "Const", "attr": {"value": {"tensor": {"dtype": "DT_HALF", "tensorShape": {"dim": [{"size": "3"}, {"size": "3"}, {"size": "128"}, {"size": "32"}]}}}, "dtype": {"type": "DT_HALF"}}}, {"name": "StatefulPartitionedCall/model/conv3_block11_concat/concat/axis", "op": "Const", "attr": {"value": {"tensor": {"dtype": "DT_INT32", "tensorShape": {}}}, "dtype": {"type": "DT_INT32"}}}, {"name": "StatefulPartitionedCall/model/conv3_block12_0_bn/ReadVariableOp", "op": "Const", "attr": {"dtype": {"type": "DT_FLOAT"}, "value": {"tensor": {"dtype": "DT_FLOAT", "tensorShape": {"dim": [{"size": "480"}]}}}}}, {"name": "StatefulPartitionedCall/model/conv3_block12_0_bn/ReadVariableOp_1", "op": "Const", "attr": {"value": {"tensor": {"dtype": "DT_FLOAT", "tensorShape": {"dim": [{"size": "480"}]}}}, "dtype": {"type": "DT_FLOAT"}}}, {"name": "StatefulPartitionedCall/model/conv3_block12_0_bn/FusedBatchNormV3/ReadVariableOp", "op": "Const", "attr": {"dtype": {"type": "DT_FLOAT"}, "value": {"tensor": {"dtype": "DT_FLOAT", "tensorShape": {"dim": [{"size": "480"}]}}}}}, {"name": "StatefulPartitionedCall/model/conv3_block12_0_bn/FusedBatchNormV3/ReadVariableOp_1", "op": "Const", "attr": {"value": {"tensor": {"dtype": "DT_FLOAT", "tensorShape": {"dim": [{"size": "480"}]}}}, "dtype": {"type": "DT_FLOAT"}}}, {"name": "StatefulPartitionedCall/model/conv3_block12_2_conv/Conv2D/Cast", "op": "Const", "attr": {"value": {"tensor": {"dtype": "DT_HALF", "tensorShape": {"dim": [{"size": "3"}, {"size": "3"}, {"size": "128"}, {"size": "32"}]}}}, "dtype": {"type": "DT_HALF"}}}, {"name": "StatefulPartitionedCall/model/conv3_block12_concat/concat/axis", "op": "Const", "attr": {"dtype": {"type": "DT_INT32"}, "value": {"tensor": {"dtype": "DT_INT32", "tensorShape": {}}}}}, {"name": "StatefulPartitionedCall/model/pool3_bn/ReadVariableOp", "op": "Const", "attr": {"dtype": {"type": "DT_FLOAT"}, "value": {"tensor": {"dtype": "DT_FLOAT", "tensorShape": {"dim": [{"size": "512"}]}}}}}, {"name": "StatefulPartitionedCall/model/pool3_bn/ReadVariableOp_1", "op": "Const", "attr": {"dtype": {"type": "DT_FLOAT"}, "value": {"tensor": {"dtype": "DT_FLOAT", "tensorShape": {"dim": [{"size": "512"}]}}}}}, {"name": "StatefulPartitionedCall/model/pool3_bn/FusedBatchNormV3/ReadVariableOp", "op": "Const", "attr": {"dtype": {"type": "DT_FLOAT"}, "value": {"tensor": {"dtype": "DT_FLOAT", "tensorShape": {"dim": [{"size": "512"}]}}}}}, {"name": "StatefulPartitionedCall/model/pool3_bn/FusedBatchNormV3/ReadVariableOp_1", "op": "Const", "attr": {"dtype": {"type": "DT_FLOAT"}, "value": {"tensor": {"dtype": "DT_FLOAT", "tensorShape": {"dim": [{"size": "512"}]}}}}}, {"name": "StatefulPartitionedCall/model/pool3_conv/Conv2D/Cast", "op": "Const", "attr": {"value": {"tensor": {"dtype": "DT_HALF", "tensorShape": {"dim": [{"size": "1"}, {"size": "1"}, {"size": "512"}, {"size": "256"}]}}}, "dtype": {"type": "DT_HALF"}}}, {"name": "StatefulPartitionedCall/model/conv4_block1_0_bn/ReadVariableOp", "op": "Const", "attr": {"dtype": {"type": "DT_FLOAT"}, "value": {"tensor": {"dtype": "DT_FLOAT", "tensorShape": {"dim": [{"size": "256"}]}}}}}, {"name": "StatefulPartitionedCall/model/conv4_block1_0_bn/ReadVariableOp_1", "op": "Const", "attr": {"dtype": {"type": "DT_FLOAT"}, "value": {"tensor": {"dtype": "DT_FLOAT", "tensorShape": {"dim": [{"size": "256"}]}}}}}, {"name": "StatefulPartitionedCall/model/conv4_block1_0_bn/FusedBatchNormV3/ReadVariableOp", "op": "Const", "attr": {"value": {"tensor": {"dtype": "DT_FLOAT", "tensorShape": {"dim": [{"size": "256"}]}}}, "dtype": {"type": "DT_FLOAT"}}}, {"name": "StatefulPartitionedCall/model/conv4_block1_0_bn/FusedBatchNormV3/ReadVariableOp_1", "op": "Const", "attr": {"value": {"tensor": {"dtype": "DT_FLOAT", "tensorShape": {"dim": [{"size": "256"}]}}}, "dtype": {"type": "DT_FLOAT"}}}, {"name": "StatefulPartitionedCall/model/conv4_block1_2_conv/Conv2D/Cast", "op": "Const", "attr": {"dtype": {"type": "DT_HALF"}, "value": {"tensor": {"dtype": "DT_HALF", "tensorShape": {"dim": [{"size": "3"}, {"size": "3"}, {"size": "128"}, {"size": "32"}]}}}}}, {"name": "StatefulPartitionedCall/model/conv4_block1_concat/concat/axis", "op": "Const", "attr": {"dtype": {"type": "DT_INT32"}, "value": {"tensor": {"dtype": "DT_INT32", "tensorShape": {}}}}}, {"name": "StatefulPartitionedCall/model/conv4_block2_0_bn/ReadVariableOp", "op": "Const", "attr": {"dtype": {"type": "DT_FLOAT"}, "value": {"tensor": {"dtype": "DT_FLOAT", "tensorShape": {"dim": [{"size": "288"}]}}}}}, {"name": "StatefulPartitionedCall/model/conv4_block2_0_bn/ReadVariableOp_1", "op": "Const", "attr": {"value": {"tensor": {"dtype": "DT_FLOAT", "tensorShape": {"dim": [{"size": "288"}]}}}, "dtype": {"type": "DT_FLOAT"}}}, {"name": "StatefulPartitionedCall/model/conv4_block2_0_bn/FusedBatchNormV3/ReadVariableOp", "op": "Const", "attr": {"value": {"tensor": {"dtype": "DT_FLOAT", "tensorShape": {"dim": [{"size": "288"}]}}}, "dtype": {"type": "DT_FLOAT"}}}, {"name": "StatefulPartitionedCall/model/conv4_block2_0_bn/FusedBatchNormV3/ReadVariableOp_1", "op": "Const", "attr": {"dtype": {"type": "DT_FLOAT"}, "value": {"tensor": {"dtype": "DT_FLOAT", "tensorShape": {"dim": [{"size": "288"}]}}}}}, {"name": "StatefulPartitionedCall/model/conv4_block2_2_conv/Conv2D/Cast", "op": "Const", "attr": {"value": {"tensor": {"dtype": "DT_HALF", "tensorShape": {"dim": [{"size": "3"}, {"size": "3"}, {"size": "128"}, {"size": "32"}]}}}, "dtype": {"type": "DT_HALF"}}}, {"name": "StatefulPartitionedCall/model/conv4_block2_concat/concat/axis", "op": "Const", "attr": {"dtype": {"type": "DT_INT32"}, "value": {"tensor": {"dtype": "DT_INT32", "tensorShape": {}}}}}, {"name": "StatefulPartitionedCall/model/conv4_block3_0_bn/ReadVariableOp", "op": "Const", "attr": {"dtype": {"type": "DT_FLOAT"}, "value": {"tensor": {"dtype": "DT_FLOAT", "tensorShape": {"dim": [{"size": "320"}]}}}}}, {"name": "StatefulPartitionedCall/model/conv4_block3_0_bn/ReadVariableOp_1", "op": "Const", "attr": {"value": {"tensor": {"dtype": "DT_FLOAT", "tensorShape": {"dim": [{"size": "320"}]}}}, "dtype": {"type": "DT_FLOAT"}}}, {"name": "StatefulPartitionedCall/model/conv4_block3_0_bn/FusedBatchNormV3/ReadVariableOp", "op": "Const", "attr": {"dtype": {"type": "DT_FLOAT"}, "value": {"tensor": {"dtype": "DT_FLOAT", "tensorShape": {"dim": [{"size": "320"}]}}}}}, {"name": "StatefulPartitionedCall/model/conv4_block3_0_bn/FusedBatchNormV3/ReadVariableOp_1", "op": "Const", "attr": {"dtype": {"type": "DT_FLOAT"}, "value": {"tensor": {"dtype": "DT_FLOAT", "tensorShape": {"dim": [{"size": "320"}]}}}}}, {"name": "StatefulPartitionedCall/model/conv4_block3_2_conv/Conv2D/Cast", "op": "Const", "attr": {"value": {"tensor": {"dtype": "DT_HALF", "tensorShape": {"dim": [{"size": "3"}, {"size": "3"}, {"size": "128"}, {"size": "32"}]}}}, "dtype": {"type": "DT_HALF"}}}, {"name": "StatefulPartitionedCall/model/conv4_block3_concat/concat/axis", "op": "Const", "attr": {"value": {"tensor": {"dtype": "DT_INT32", "tensorShape": {}}}, "dtype": {"type": "DT_INT32"}}}, {"name": "StatefulPartitionedCall/model/conv4_block4_0_bn/ReadVariableOp", "op": "Const", "attr": {"dtype": {"type": "DT_FLOAT"}, "value": {"tensor": {"dtype": "DT_FLOAT", "tensorShape": {"dim": [{"size": "352"}]}}}}}, {"name": "StatefulPartitionedCall/model/conv4_block4_0_bn/ReadVariableOp_1", "op": "Const", "attr": {"dtype": {"type": "DT_FLOAT"}, "value": {"tensor": {"dtype": "DT_FLOAT", "tensorShape": {"dim": [{"size": "352"}]}}}}}, {"name": "StatefulPartitionedCall/model/conv4_block4_0_bn/FusedBatchNormV3/ReadVariableOp", "op": "Const", "attr": {"dtype": {"type": "DT_FLOAT"}, "value": {"tensor": {"dtype": "DT_FLOAT", "tensorShape": {"dim": [{"size": "352"}]}}}}}, {"name": "StatefulPartitionedCall/model/conv4_block4_0_bn/FusedBatchNormV3/ReadVariableOp_1", "op": "Const", "attr": {"dtype": {"type": "DT_FLOAT"}, "value": {"tensor": {"dtype": "DT_FLOAT", "tensorShape": {"dim": [{"size": "352"}]}}}}}, {"name": "StatefulPartitionedCall/model/conv4_block4_2_conv/Conv2D/Cast", "op": "Const", "attr": {"value": {"tensor": {"dtype": "DT_HALF", "tensorShape": {"dim": [{"size": "3"}, {"size": "3"}, {"size": "128"}, {"size": "32"}]}}}, "dtype": {"type": "DT_HALF"}}}, {"name": "StatefulPartitionedCall/model/conv4_block4_concat/concat/axis", "op": "Const", "attr": {"dtype": {"type": "DT_INT32"}, "value": {"tensor": {"dtype": "DT_INT32", "tensorShape": {}}}}}, {"name": "StatefulPartitionedCall/model/conv4_block5_0_bn/ReadVariableOp", "op": "Const", "attr": {"value": {"tensor": {"dtype": "DT_FLOAT", "tensorShape": {"dim": [{"size": "384"}]}}}, "dtype": {"type": "DT_FLOAT"}}}, {"name": "StatefulPartitionedCall/model/conv4_block5_0_bn/ReadVariableOp_1", "op": "Const", "attr": {"value": {"tensor": {"dtype": "DT_FLOAT", "tensorShape": {"dim": [{"size": "384"}]}}}, "dtype": {"type": "DT_FLOAT"}}}, {"name": "StatefulPartitionedCall/model/conv4_block5_0_bn/FusedBatchNormV3/ReadVariableOp", "op": "Const", "attr": {"value": {"tensor": {"dtype": "DT_FLOAT", "tensorShape": {"dim": [{"size": "384"}]}}}, "dtype": {"type": "DT_FLOAT"}}}, {"name": "StatefulPartitionedCall/model/conv4_block5_0_bn/FusedBatchNormV3/ReadVariableOp_1", "op": "Const", "attr": {"dtype": {"type": "DT_FLOAT"}, "value": {"tensor": {"dtype": "DT_FLOAT", "tensorShape": {"dim": [{"size": "384"}]}}}}}, {"name": "StatefulPartitionedCall/model/conv4_block5_2_conv/Conv2D/Cast", "op": "Const", "attr": {"value": {"tensor": {"dtype": "DT_HALF", "tensorShape": {"dim": [{"size": "3"}, {"size": "3"}, {"size": "128"}, {"size": "32"}]}}}, "dtype": {"type": "DT_HALF"}}}, {"name": "StatefulPartitionedCall/model/conv4_block5_concat/concat/axis", "op": "Const", "attr": {"value": {"tensor": {"dtype": "DT_INT32", "tensorShape": {}}}, "dtype": {"type": "DT_INT32"}}}, {"name": "StatefulPartitionedCall/model/conv4_block6_0_bn/ReadVariableOp", "op": "Const", "attr": {"value": {"tensor": {"dtype": "DT_FLOAT", "tensorShape": {"dim": [{"size": "416"}]}}}, "dtype": {"type": "DT_FLOAT"}}}, {"name": "StatefulPartitionedCall/model/conv4_block6_0_bn/ReadVariableOp_1", "op": "Const", "attr": {"value": {"tensor": {"dtype": "DT_FLOAT", "tensorShape": {"dim": [{"size": "416"}]}}}, "dtype": {"type": "DT_FLOAT"}}}, {"name": "StatefulPartitionedCall/model/conv4_block6_0_bn/FusedBatchNormV3/ReadVariableOp", "op": "Const", "attr": {"value": {"tensor": {"dtype": "DT_FLOAT", "tensorShape": {"dim": [{"size": "416"}]}}}, "dtype": {"type": "DT_FLOAT"}}}, {"name": "StatefulPartitionedCall/model/conv4_block6_0_bn/FusedBatchNormV3/ReadVariableOp_1", "op": "Const", "attr": {"dtype": {"type": "DT_FLOAT"}, "value": {"tensor": {"dtype": "DT_FLOAT", "tensorShape": {"dim": [{"size": "416"}]}}}}}, {"name": "StatefulPartitionedCall/model/conv4_block6_2_conv/Conv2D/Cast", "op": "Const", "attr": {"value": {"tensor": {"dtype": "DT_HALF", "tensorShape": {"dim": [{"size": "3"}, {"size": "3"}, {"size": "128"}, {"size": "32"}]}}}, "dtype": {"type": "DT_HALF"}}}, {"name": "StatefulPartitionedCall/model/conv4_block6_concat/concat/axis", "op": "Const", "attr": {"value": {"tensor": {"dtype": "DT_INT32", "tensorShape": {}}}, "dtype": {"type": "DT_INT32"}}}, {"name": "StatefulPartitionedCall/model/conv4_block7_0_bn/ReadVariableOp", "op": "Const", "attr": {"dtype": {"type": "DT_FLOAT"}, "value": {"tensor": {"dtype": "DT_FLOAT", "tensorShape": {"dim": [{"size": "448"}]}}}}}, {"name": "StatefulPartitionedCall/model/conv4_block7_0_bn/ReadVariableOp_1", "op": "Const", "attr": {"value": {"tensor": {"dtype": "DT_FLOAT", "tensorShape": {"dim": [{"size": "448"}]}}}, "dtype": {"type": "DT_FLOAT"}}}, {"name": "StatefulPartitionedCall/model/conv4_block7_0_bn/FusedBatchNormV3/ReadVariableOp", "op": "Const", "attr": {"value": {"tensor": {"dtype": "DT_FLOAT", "tensorShape": {"dim": [{"size": "448"}]}}}, "dtype": {"type": "DT_FLOAT"}}}, {"name": "StatefulPartitionedCall/model/conv4_block7_0_bn/FusedBatchNormV3/ReadVariableOp_1", "op": "Const", "attr": {"dtype": {"type": "DT_FLOAT"}, "value": {"tensor": {"dtype": "DT_FLOAT", "tensorShape": {"dim": [{"size": "448"}]}}}}}, {"name": "StatefulPartitionedCall/model/conv4_block7_2_conv/Conv2D/Cast", "op": "Const", "attr": {"value": {"tensor": {"dtype": "DT_HALF", "tensorShape": {"dim": [{"size": "3"}, {"size": "3"}, {"size": "128"}, {"size": "32"}]}}}, "dtype": {"type": "DT_HALF"}}}, {"name": "StatefulPartitionedCall/model/conv4_block7_concat/concat/axis", "op": "Const", "attr": {"value": {"tensor": {"dtype": "DT_INT32", "tensorShape": {}}}, "dtype": {"type": "DT_INT32"}}}, {"name": "StatefulPartitionedCall/model/conv4_block8_0_bn/ReadVariableOp", "op": "Const", "attr": {"value": {"tensor": {"dtype": "DT_FLOAT", "tensorShape": {"dim": [{"size": "480"}]}}}, "dtype": {"type": "DT_FLOAT"}}}, {"name": "StatefulPartitionedCall/model/conv4_block8_0_bn/ReadVariableOp_1", "op": "Const", "attr": {"value": {"tensor": {"dtype": "DT_FLOAT", "tensorShape": {"dim": [{"size": "480"}]}}}, "dtype": {"type": "DT_FLOAT"}}}, {"name": "StatefulPartitionedCall/model/conv4_block8_0_bn/FusedBatchNormV3/ReadVariableOp", "op": "Const", "attr": {"dtype": {"type": "DT_FLOAT"}, "value": {"tensor": {"dtype": "DT_FLOAT", "tensorShape": {"dim": [{"size": "480"}]}}}}}, {"name": "StatefulPartitionedCall/model/conv4_block8_0_bn/FusedBatchNormV3/ReadVariableOp_1", "op": "Const", "attr": {"value": {"tensor": {"dtype": "DT_FLOAT", "tensorShape": {"dim": [{"size": "480"}]}}}, "dtype": {"type": "DT_FLOAT"}}}, {"name": "StatefulPartitionedCall/model/conv4_block8_2_conv/Conv2D/Cast", "op": "Const", "attr": {"dtype": {"type": "DT_HALF"}, "value": {"tensor": {"dtype": "DT_HALF", "tensorShape": {"dim": [{"size": "3"}, {"size": "3"}, {"size": "128"}, {"size": "32"}]}}}}}, {"name": "StatefulPartitionedCall/model/conv4_block8_concat/concat/axis", "op": "Const", "attr": {"value": {"tensor": {"dtype": "DT_INT32", "tensorShape": {}}}, "dtype": {"type": "DT_INT32"}}}, {"name": "StatefulPartitionedCall/model/conv4_block9_0_bn/ReadVariableOp", "op": "Const", "attr": {"value": {"tensor": {"dtype": "DT_FLOAT", "tensorShape": {"dim": [{"size": "512"}]}}}, "dtype": {"type": "DT_FLOAT"}}}, {"name": "StatefulPartitionedCall/model/conv4_block9_0_bn/ReadVariableOp_1", "op": "Const", "attr": {"dtype": {"type": "DT_FLOAT"}, "value": {"tensor": {"dtype": "DT_FLOAT", "tensorShape": {"dim": [{"size": "512"}]}}}}}, {"name": "StatefulPartitionedCall/model/conv4_block9_0_bn/FusedBatchNormV3/ReadVariableOp", "op": "Const", "attr": {"dtype": {"type": "DT_FLOAT"}, "value": {"tensor": {"dtype": "DT_FLOAT", "tensorShape": {"dim": [{"size": "512"}]}}}}}, {"name": "StatefulPartitionedCall/model/conv4_block9_0_bn/FusedBatchNormV3/ReadVariableOp_1", "op": "Const", "attr": {"dtype": {"type": "DT_FLOAT"}, "value": {"tensor": {"dtype": "DT_FLOAT", "tensorShape": {"dim": [{"size": "512"}]}}}}}, {"name": "StatefulPartitionedCall/model/conv4_block9_2_conv/Conv2D/Cast", "op": "Const", "attr": {"value": {"tensor": {"dtype": "DT_HALF", "tensorShape": {"dim": [{"size": "3"}, {"size": "3"}, {"size": "128"}, {"size": "32"}]}}}, "dtype": {"type": "DT_HALF"}}}, {"name": "StatefulPartitionedCall/model/conv4_block9_concat/concat/axis", "op": "Const", "attr": {"value": {"tensor": {"dtype": "DT_INT32", "tensorShape": {}}}, "dtype": {"type": "DT_INT32"}}}, {"name": "StatefulPartitionedCall/model/conv4_block10_0_bn/ReadVariableOp", "op": "Const", "attr": {"dtype": {"type": "DT_FLOAT"}, "value": {"tensor": {"dtype": "DT_FLOAT", "tensorShape": {"dim": [{"size": "544"}]}}}}}, {"name": "StatefulPartitionedCall/model/conv4_block10_0_bn/ReadVariableOp_1", "op": "Const", "attr": {"dtype": {"type": "DT_FLOAT"}, "value": {"tensor": {"dtype": "DT_FLOAT", "tensorShape": {"dim": [{"size": "544"}]}}}}}, {"name": "StatefulPartitionedCall/model/conv4_block10_0_bn/FusedBatchNormV3/ReadVariableOp", "op": "Const", "attr": {"dtype": {"type": "DT_FLOAT"}, "value": {"tensor": {"dtype": "DT_FLOAT", "tensorShape": {"dim": [{"size": "544"}]}}}}}, {"name": "StatefulPartitionedCall/model/conv4_block10_0_bn/FusedBatchNormV3/ReadVariableOp_1", "op": "Const", "attr": {"dtype": {"type": "DT_FLOAT"}, "value": {"tensor": {"dtype": "DT_FLOAT", "tensorShape": {"dim": [{"size": "544"}]}}}}}, {"name": "StatefulPartitionedCall/model/conv4_block10_2_conv/Conv2D/Cast", "op": "Const", "attr": {"dtype": {"type": "DT_HALF"}, "value": {"tensor": {"dtype": "DT_HALF", "tensorShape": {"dim": [{"size": "3"}, {"size": "3"}, {"size": "128"}, {"size": "32"}]}}}}}, {"name": "StatefulPartitionedCall/model/conv4_block10_concat/concat/axis", "op": "Const", "attr": {"dtype": {"type": "DT_INT32"}, "value": {"tensor": {"dtype": "DT_INT32", "tensorShape": {}}}}}, {"name": "StatefulPartitionedCall/model/conv4_block11_0_bn/ReadVariableOp", "op": "Const", "attr": {"value": {"tensor": {"dtype": "DT_FLOAT", "tensorShape": {"dim": [{"size": "576"}]}}}, "dtype": {"type": "DT_FLOAT"}}}, {"name": "StatefulPartitionedCall/model/conv4_block11_0_bn/ReadVariableOp_1", "op": "Const", "attr": {"value": {"tensor": {"dtype": "DT_FLOAT", "tensorShape": {"dim": [{"size": "576"}]}}}, "dtype": {"type": "DT_FLOAT"}}}, {"name": "StatefulPartitionedCall/model/conv4_block11_0_bn/FusedBatchNormV3/ReadVariableOp", "op": "Const", "attr": {"value": {"tensor": {"dtype": "DT_FLOAT", "tensorShape": {"dim": [{"size": "576"}]}}}, "dtype": {"type": "DT_FLOAT"}}}, {"name": "StatefulPartitionedCall/model/conv4_block11_0_bn/FusedBatchNormV3/ReadVariableOp_1", "op": "Const", "attr": {"dtype": {"type": "DT_FLOAT"}, "value": {"tensor": {"dtype": "DT_FLOAT", "tensorShape": {"dim": [{"size": "576"}]}}}}}, {"name": "StatefulPartitionedCall/model/conv4_block11_2_conv/Conv2D/Cast", "op": "Const", "attr": {"dtype": {"type": "DT_HALF"}, "value": {"tensor": {"dtype": "DT_HALF", "tensorShape": {"dim": [{"size": "3"}, {"size": "3"}, {"size": "128"}, {"size": "32"}]}}}}}, {"name": "StatefulPartitionedCall/model/conv4_block11_concat/concat/axis", "op": "Const", "attr": {"value": {"tensor": {"dtype": "DT_INT32", "tensorShape": {}}}, "dtype": {"type": "DT_INT32"}}}, {"name": "StatefulPartitionedCall/model/conv4_block12_0_bn/ReadVariableOp", "op": "Const", "attr": {"value": {"tensor": {"dtype": "DT_FLOAT", "tensorShape": {"dim": [{"size": "608"}]}}}, "dtype": {"type": "DT_FLOAT"}}}, {"name": "StatefulPartitionedCall/model/conv4_block12_0_bn/ReadVariableOp_1", "op": "Const", "attr": {"value": {"tensor": {"dtype": "DT_FLOAT", "tensorShape": {"dim": [{"size": "608"}]}}}, "dtype": {"type": "DT_FLOAT"}}}, {"name": "StatefulPartitionedCall/model/conv4_block12_0_bn/FusedBatchNormV3/ReadVariableOp", "op": "Const", "attr": {"value": {"tensor": {"dtype": "DT_FLOAT", "tensorShape": {"dim": [{"size": "608"}]}}}, "dtype": {"type": "DT_FLOAT"}}}, {"name": "StatefulPartitionedCall/model/conv4_block12_0_bn/FusedBatchNormV3/ReadVariableOp_1", "op": "Const", "attr": {"value": {"tensor": {"dtype": "DT_FLOAT", "tensorShape": {"dim": [{"size": "608"}]}}}, "dtype": {"type": "DT_FLOAT"}}}, {"name": "StatefulPartitionedCall/model/conv4_block12_2_conv/Conv2D/Cast", "op": "Const", "attr": {"value": {"tensor": {"dtype": "DT_HALF", "tensorShape": {"dim": [{"size": "3"}, {"size": "3"}, {"size": "128"}, {"size": "32"}]}}}, "dtype": {"type": "DT_HALF"}}}, {"name": "StatefulPartitionedCall/model/conv4_block12_concat/concat/axis", "op": "Const", "attr": {"value": {"tensor": {"dtype": "DT_INT32", "tensorShape": {}}}, "dtype": {"type": "DT_INT32"}}}, {"name": "StatefulPartitionedCall/model/conv4_block13_0_bn/ReadVariableOp", "op": "Const", "attr": {"dtype": {"type": "DT_FLOAT"}, "value": {"tensor": {"dtype": "DT_FLOAT", "tensorShape": {"dim": [{"size": "640"}]}}}}}, {"name": "StatefulPartitionedCall/model/conv4_block13_0_bn/ReadVariableOp_1", "op": "Const", "attr": {"value": {"tensor": {"dtype": "DT_FLOAT", "tensorShape": {"dim": [{"size": "640"}]}}}, "dtype": {"type": "DT_FLOAT"}}}, {"name": "StatefulPartitionedCall/model/conv4_block13_0_bn/FusedBatchNormV3/ReadVariableOp", "op": "Const", "attr": {"value": {"tensor": {"dtype": "DT_FLOAT", "tensorShape": {"dim": [{"size": "640"}]}}}, "dtype": {"type": "DT_FLOAT"}}}, {"name": "StatefulPartitionedCall/model/conv4_block13_0_bn/FusedBatchNormV3/ReadVariableOp_1", "op": "Const", "attr": {"dtype": {"type": "DT_FLOAT"}, "value": {"tensor": {"dtype": "DT_FLOAT", "tensorShape": {"dim": [{"size": "640"}]}}}}}, {"name": "StatefulPartitionedCall/model/conv4_block13_2_conv/Conv2D/Cast", "op": "Const", "attr": {"dtype": {"type": "DT_HALF"}, "value": {"tensor": {"dtype": "DT_HALF", "tensorShape": {"dim": [{"size": "3"}, {"size": "3"}, {"size": "128"}, {"size": "32"}]}}}}}, {"name": "StatefulPartitionedCall/model/conv4_block13_concat/concat/axis", "op": "Const", "attr": {"value": {"tensor": {"dtype": "DT_INT32", "tensorShape": {}}}, "dtype": {"type": "DT_INT32"}}}, {"name": "StatefulPartitionedCall/model/conv4_block14_0_bn/ReadVariableOp", "op": "Const", "attr": {"value": {"tensor": {"dtype": "DT_FLOAT", "tensorShape": {"dim": [{"size": "672"}]}}}, "dtype": {"type": "DT_FLOAT"}}}, {"name": "StatefulPartitionedCall/model/conv4_block14_0_bn/ReadVariableOp_1", "op": "Const", "attr": {"value": {"tensor": {"dtype": "DT_FLOAT", "tensorShape": {"dim": [{"size": "672"}]}}}, "dtype": {"type": "DT_FLOAT"}}}, {"name": "StatefulPartitionedCall/model/conv4_block14_0_bn/FusedBatchNormV3/ReadVariableOp", "op": "Const", "attr": {"value": {"tensor": {"dtype": "DT_FLOAT", "tensorShape": {"dim": [{"size": "672"}]}}}, "dtype": {"type": "DT_FLOAT"}}}, {"name": "StatefulPartitionedCall/model/conv4_block14_0_bn/FusedBatchNormV3/ReadVariableOp_1", "op": "Const", "attr": {"value": {"tensor": {"dtype": "DT_FLOAT", "tensorShape": {"dim": [{"size": "672"}]}}}, "dtype": {"type": "DT_FLOAT"}}}, {"name": "StatefulPartitionedCall/model/conv4_block14_2_conv/Conv2D/Cast", "op": "Const", "attr": {"dtype": {"type": "DT_HALF"}, "value": {"tensor": {"dtype": "DT_HALF", "tensorShape": {"dim": [{"size": "3"}, {"size": "3"}, {"size": "128"}, {"size": "32"}]}}}}}, {"name": "StatefulPartitionedCall/model/conv4_block14_concat/concat/axis", "op": "Const", "attr": {"value": {"tensor": {"dtype": "DT_INT32", "tensorShape": {}}}, "dtype": {"type": "DT_INT32"}}}, {"name": "StatefulPartitionedCall/model/conv4_block15_0_bn/ReadVariableOp", "op": "Const", "attr": {"dtype": {"type": "DT_FLOAT"}, "value": {"tensor": {"dtype": "DT_FLOAT", "tensorShape": {"dim": [{"size": "704"}]}}}}}, {"name": "StatefulPartitionedCall/model/conv4_block15_0_bn/ReadVariableOp_1", "op": "Const", "attr": {"dtype": {"type": "DT_FLOAT"}, "value": {"tensor": {"dtype": "DT_FLOAT", "tensorShape": {"dim": [{"size": "704"}]}}}}}, {"name": "StatefulPartitionedCall/model/conv4_block15_0_bn/FusedBatchNormV3/ReadVariableOp", "op": "Const", "attr": {"dtype": {"type": "DT_FLOAT"}, "value": {"tensor": {"dtype": "DT_FLOAT", "tensorShape": {"dim": [{"size": "704"}]}}}}}, {"name": "StatefulPartitionedCall/model/conv4_block15_0_bn/FusedBatchNormV3/ReadVariableOp_1", "op": "Const", "attr": {"value": {"tensor": {"dtype": "DT_FLOAT", "tensorShape": {"dim": [{"size": "704"}]}}}, "dtype": {"type": "DT_FLOAT"}}}, {"name": "StatefulPartitionedCall/model/conv4_block15_2_conv/Conv2D/Cast", "op": "Const", "attr": {"dtype": {"type": "DT_HALF"}, "value": {"tensor": {"dtype": "DT_HALF", "tensorShape": {"dim": [{"size": "3"}, {"size": "3"}, {"size": "128"}, {"size": "32"}]}}}}}, {"name": "StatefulPartitionedCall/model/conv4_block15_concat/concat/axis", "op": "Const", "attr": {"value": {"tensor": {"dtype": "DT_INT32", "tensorShape": {}}}, "dtype": {"type": "DT_INT32"}}}, {"name": "StatefulPartitionedCall/model/conv4_block16_0_bn/ReadVariableOp", "op": "Const", "attr": {"value": {"tensor": {"dtype": "DT_FLOAT", "tensorShape": {"dim": [{"size": "736"}]}}}, "dtype": {"type": "DT_FLOAT"}}}, {"name": "StatefulPartitionedCall/model/conv4_block16_0_bn/ReadVariableOp_1", "op": "Const", "attr": {"value": {"tensor": {"dtype": "DT_FLOAT", "tensorShape": {"dim": [{"size": "736"}]}}}, "dtype": {"type": "DT_FLOAT"}}}, {"name": "StatefulPartitionedCall/model/conv4_block16_0_bn/FusedBatchNormV3/ReadVariableOp", "op": "Const", "attr": {"dtype": {"type": "DT_FLOAT"}, "value": {"tensor": {"dtype": "DT_FLOAT", "tensorShape": {"dim": [{"size": "736"}]}}}}}, {"name": "StatefulPartitionedCall/model/conv4_block16_0_bn/FusedBatchNormV3/ReadVariableOp_1", "op": "Const", "attr": {"dtype": {"type": "DT_FLOAT"}, "value": {"tensor": {"dtype": "DT_FLOAT", "tensorShape": {"dim": [{"size": "736"}]}}}}}, {"name": "StatefulPartitionedCall/model/conv4_block16_2_conv/Conv2D/Cast", "op": "Const", "attr": {"dtype": {"type": "DT_HALF"}, "value": {"tensor": {"dtype": "DT_HALF", "tensorShape": {"dim": [{"size": "3"}, {"size": "3"}, {"size": "128"}, {"size": "32"}]}}}}}, {"name": "StatefulPartitionedCall/model/conv4_block16_concat/concat/axis", "op": "Const", "attr": {"value": {"tensor": {"dtype": "DT_INT32", "tensorShape": {}}}, "dtype": {"type": "DT_INT32"}}}, {"name": "StatefulPartitionedCall/model/conv4_block17_0_bn/ReadVariableOp", "op": "Const", "attr": {"dtype": {"type": "DT_FLOAT"}, "value": {"tensor": {"dtype": "DT_FLOAT", "tensorShape": {"dim": [{"size": "768"}]}}}}}, {"name": "StatefulPartitionedCall/model/conv4_block17_0_bn/ReadVariableOp_1", "op": "Const", "attr": {"value": {"tensor": {"dtype": "DT_FLOAT", "tensorShape": {"dim": [{"size": "768"}]}}}, "dtype": {"type": "DT_FLOAT"}}}, {"name": "StatefulPartitionedCall/model/conv4_block17_0_bn/FusedBatchNormV3/ReadVariableOp", "op": "Const", "attr": {"dtype": {"type": "DT_FLOAT"}, "value": {"tensor": {"dtype": "DT_FLOAT", "tensorShape": {"dim": [{"size": "768"}]}}}}}, {"name": "StatefulPartitionedCall/model/conv4_block17_0_bn/FusedBatchNormV3/ReadVariableOp_1", "op": "Const", "attr": {"dtype": {"type": "DT_FLOAT"}, "value": {"tensor": {"dtype": "DT_FLOAT", "tensorShape": {"dim": [{"size": "768"}]}}}}}, {"name": "StatefulPartitionedCall/model/conv4_block17_2_conv/Conv2D/Cast", "op": "Const", "attr": {"dtype": {"type": "DT_HALF"}, "value": {"tensor": {"dtype": "DT_HALF", "tensorShape": {"dim": [{"size": "3"}, {"size": "3"}, {"size": "128"}, {"size": "32"}]}}}}}, {"name": "StatefulPartitionedCall/model/conv4_block17_concat/concat/axis", "op": "Const", "attr": {"value": {"tensor": {"dtype": "DT_INT32", "tensorShape": {}}}, "dtype": {"type": "DT_INT32"}}}, {"name": "StatefulPartitionedCall/model/conv4_block18_0_bn/ReadVariableOp", "op": "Const", "attr": {"dtype": {"type": "DT_FLOAT"}, "value": {"tensor": {"dtype": "DT_FLOAT", "tensorShape": {"dim": [{"size": "800"}]}}}}}, {"name": "StatefulPartitionedCall/model/conv4_block18_0_bn/ReadVariableOp_1", "op": "Const", "attr": {"dtype": {"type": "DT_FLOAT"}, "value": {"tensor": {"dtype": "DT_FLOAT", "tensorShape": {"dim": [{"size": "800"}]}}}}}, {"name": "StatefulPartitionedCall/model/conv4_block18_0_bn/FusedBatchNormV3/ReadVariableOp", "op": "Const", "attr": {"dtype": {"type": "DT_FLOAT"}, "value": {"tensor": {"dtype": "DT_FLOAT", "tensorShape": {"dim": [{"size": "800"}]}}}}}, {"name": "StatefulPartitionedCall/model/conv4_block18_0_bn/FusedBatchNormV3/ReadVariableOp_1", "op": "Const", "attr": {"value": {"tensor": {"dtype": "DT_FLOAT", "tensorShape": {"dim": [{"size": "800"}]}}}, "dtype": {"type": "DT_FLOAT"}}}, {"name": "StatefulPartitionedCall/model/conv4_block18_2_conv/Conv2D/Cast", "op": "Const", "attr": {"dtype": {"type": "DT_HALF"}, "value": {"tensor": {"dtype": "DT_HALF", "tensorShape": {"dim": [{"size": "3"}, {"size": "3"}, {"size": "128"}, {"size": "32"}]}}}}}, {"name": "StatefulPartitionedCall/model/conv4_block18_concat/concat/axis", "op": "Const", "attr": {"value": {"tensor": {"dtype": "DT_INT32", "tensorShape": {}}}, "dtype": {"type": "DT_INT32"}}}, {"name": "StatefulPartitionedCall/model/conv4_block19_0_bn/ReadVariableOp", "op": "Const", "attr": {"value": {"tensor": {"dtype": "DT_FLOAT", "tensorShape": {"dim": [{"size": "832"}]}}}, "dtype": {"type": "DT_FLOAT"}}}, {"name": "StatefulPartitionedCall/model/conv4_block19_0_bn/ReadVariableOp_1", "op": "Const", "attr": {"value": {"tensor": {"dtype": "DT_FLOAT", "tensorShape": {"dim": [{"size": "832"}]}}}, "dtype": {"type": "DT_FLOAT"}}}, {"name": "StatefulPartitionedCall/model/conv4_block19_0_bn/FusedBatchNormV3/ReadVariableOp", "op": "Const", "attr": {"value": {"tensor": {"dtype": "DT_FLOAT", "tensorShape": {"dim": [{"size": "832"}]}}}, "dtype": {"type": "DT_FLOAT"}}}, {"name": "StatefulPartitionedCall/model/conv4_block19_0_bn/FusedBatchNormV3/ReadVariableOp_1", "op": "Const", "attr": {"dtype": {"type": "DT_FLOAT"}, "value": {"tensor": {"dtype": "DT_FLOAT", "tensorShape": {"dim": [{"size": "832"}]}}}}}, {"name": "StatefulPartitionedCall/model/conv4_block19_2_conv/Conv2D/Cast", "op": "Const", "attr": {"value": {"tensor": {"dtype": "DT_HALF", "tensorShape": {"dim": [{"size": "3"}, {"size": "3"}, {"size": "128"}, {"size": "32"}]}}}, "dtype": {"type": "DT_HALF"}}}, {"name": "StatefulPartitionedCall/model/conv4_block19_concat/concat/axis", "op": "Const", "attr": {"value": {"tensor": {"dtype": "DT_INT32", "tensorShape": {}}}, "dtype": {"type": "DT_INT32"}}}, {"name": "StatefulPartitionedCall/model/conv4_block20_0_bn/ReadVariableOp", "op": "Const", "attr": {"value": {"tensor": {"dtype": "DT_FLOAT", "tensorShape": {"dim": [{"size": "864"}]}}}, "dtype": {"type": "DT_FLOAT"}}}, {"name": "StatefulPartitionedCall/model/conv4_block20_0_bn/ReadVariableOp_1", "op": "Const", "attr": {"dtype": {"type": "DT_FLOAT"}, "value": {"tensor": {"dtype": "DT_FLOAT", "tensorShape": {"dim": [{"size": "864"}]}}}}}, {"name": "StatefulPartitionedCall/model/conv4_block20_0_bn/FusedBatchNormV3/ReadVariableOp", "op": "Const", "attr": {"value": {"tensor": {"dtype": "DT_FLOAT", "tensorShape": {"dim": [{"size": "864"}]}}}, "dtype": {"type": "DT_FLOAT"}}}, {"name": "StatefulPartitionedCall/model/conv4_block20_0_bn/FusedBatchNormV3/ReadVariableOp_1", "op": "Const", "attr": {"dtype": {"type": "DT_FLOAT"}, "value": {"tensor": {"dtype": "DT_FLOAT", "tensorShape": {"dim": [{"size": "864"}]}}}}}, {"name": "StatefulPartitionedCall/model/conv4_block20_2_conv/Conv2D/Cast", "op": "Const", "attr": {"dtype": {"type": "DT_HALF"}, "value": {"tensor": {"dtype": "DT_HALF", "tensorShape": {"dim": [{"size": "3"}, {"size": "3"}, {"size": "128"}, {"size": "32"}]}}}}}, {"name": "StatefulPartitionedCall/model/conv4_block20_concat/concat/axis", "op": "Const", "attr": {"value": {"tensor": {"dtype": "DT_INT32", "tensorShape": {}}}, "dtype": {"type": "DT_INT32"}}}, {"name": "StatefulPartitionedCall/model/conv4_block21_0_bn/ReadVariableOp", "op": "Const", "attr": {"value": {"tensor": {"dtype": "DT_FLOAT", "tensorShape": {"dim": [{"size": "896"}]}}}, "dtype": {"type": "DT_FLOAT"}}}, {"name": "StatefulPartitionedCall/model/conv4_block21_0_bn/ReadVariableOp_1", "op": "Const", "attr": {"value": {"tensor": {"dtype": "DT_FLOAT", "tensorShape": {"dim": [{"size": "896"}]}}}, "dtype": {"type": "DT_FLOAT"}}}, {"name": "StatefulPartitionedCall/model/conv4_block21_0_bn/FusedBatchNormV3/ReadVariableOp", "op": "Const", "attr": {"dtype": {"type": "DT_FLOAT"}, "value": {"tensor": {"dtype": "DT_FLOAT", "tensorShape": {"dim": [{"size": "896"}]}}}}}, {"name": "StatefulPartitionedCall/model/conv4_block21_0_bn/FusedBatchNormV3/ReadVariableOp_1", "op": "Const", "attr": {"dtype": {"type": "DT_FLOAT"}, "value": {"tensor": {"dtype": "DT_FLOAT", "tensorShape": {"dim": [{"size": "896"}]}}}}}, {"name": "StatefulPartitionedCall/model/conv4_block21_2_conv/Conv2D/Cast", "op": "Const", "attr": {"value": {"tensor": {"dtype": "DT_HALF", "tensorShape": {"dim": [{"size": "3"}, {"size": "3"}, {"size": "128"}, {"size": "32"}]}}}, "dtype": {"type": "DT_HALF"}}}, {"name": "StatefulPartitionedCall/model/conv4_block21_concat/concat/axis", "op": "Const", "attr": {"dtype": {"type": "DT_INT32"}, "value": {"tensor": {"dtype": "DT_INT32", "tensorShape": {}}}}}, {"name": "StatefulPartitionedCall/model/conv4_block22_0_bn/ReadVariableOp", "op": "Const", "attr": {"value": {"tensor": {"dtype": "DT_FLOAT", "tensorShape": {"dim": [{"size": "928"}]}}}, "dtype": {"type": "DT_FLOAT"}}}, {"name": "StatefulPartitionedCall/model/conv4_block22_0_bn/ReadVariableOp_1", "op": "Const", "attr": {"dtype": {"type": "DT_FLOAT"}, "value": {"tensor": {"dtype": "DT_FLOAT", "tensorShape": {"dim": [{"size": "928"}]}}}}}, {"name": "StatefulPartitionedCall/model/conv4_block22_0_bn/FusedBatchNormV3/ReadVariableOp", "op": "Const", "attr": {"dtype": {"type": "DT_FLOAT"}, "value": {"tensor": {"dtype": "DT_FLOAT", "tensorShape": {"dim": [{"size": "928"}]}}}}}, {"name": "StatefulPartitionedCall/model/conv4_block22_0_bn/FusedBatchNormV3/ReadVariableOp_1", "op": "Const", "attr": {"dtype": {"type": "DT_FLOAT"}, "value": {"tensor": {"dtype": "DT_FLOAT", "tensorShape": {"dim": [{"size": "928"}]}}}}}, {"name": "StatefulPartitionedCall/model/conv4_block22_2_conv/Conv2D/Cast", "op": "Const", "attr": {"dtype": {"type": "DT_HALF"}, "value": {"tensor": {"dtype": "DT_HALF", "tensorShape": {"dim": [{"size": "3"}, {"size": "3"}, {"size": "128"}, {"size": "32"}]}}}}}, {"name": "StatefulPartitionedCall/model/conv4_block22_concat/concat/axis", "op": "Const", "attr": {"dtype": {"type": "DT_INT32"}, "value": {"tensor": {"dtype": "DT_INT32", "tensorShape": {}}}}}, {"name": "StatefulPartitionedCall/model/conv4_block23_0_bn/ReadVariableOp", "op": "Const", "attr": {"dtype": {"type": "DT_FLOAT"}, "value": {"tensor": {"dtype": "DT_FLOAT", "tensorShape": {"dim": [{"size": "960"}]}}}}}, {"name": "StatefulPartitionedCall/model/conv4_block23_0_bn/ReadVariableOp_1", "op": "Const", "attr": {"dtype": {"type": "DT_FLOAT"}, "value": {"tensor": {"dtype": "DT_FLOAT", "tensorShape": {"dim": [{"size": "960"}]}}}}}, {"name": "StatefulPartitionedCall/model/conv4_block23_0_bn/FusedBatchNormV3/ReadVariableOp", "op": "Const", "attr": {"dtype": {"type": "DT_FLOAT"}, "value": {"tensor": {"dtype": "DT_FLOAT", "tensorShape": {"dim": [{"size": "960"}]}}}}}, {"name": "StatefulPartitionedCall/model/conv4_block23_0_bn/FusedBatchNormV3/ReadVariableOp_1", "op": "Const", "attr": {"value": {"tensor": {"dtype": "DT_FLOAT", "tensorShape": {"dim": [{"size": "960"}]}}}, "dtype": {"type": "DT_FLOAT"}}}, {"name": "StatefulPartitionedCall/model/conv4_block23_2_conv/Conv2D/Cast", "op": "Const", "attr": {"dtype": {"type": "DT_HALF"}, "value": {"tensor": {"dtype": "DT_HALF", "tensorShape": {"dim": [{"size": "3"}, {"size": "3"}, {"size": "128"}, {"size": "32"}]}}}}}, {"name": "StatefulPartitionedCall/model/conv4_block23_concat/concat/axis", "op": "Const", "attr": {"value": {"tensor": {"dtype": "DT_INT32", "tensorShape": {}}}, "dtype": {"type": "DT_INT32"}}}, {"name": "StatefulPartitionedCall/model/conv4_block24_0_bn/ReadVariableOp", "op": "Const", "attr": {"value": {"tensor": {"dtype": "DT_FLOAT", "tensorShape": {"dim": [{"size": "992"}]}}}, "dtype": {"type": "DT_FLOAT"}}}, {"name": "StatefulPartitionedCall/model/conv4_block24_0_bn/ReadVariableOp_1", "op": "Const", "attr": {"value": {"tensor": {"dtype": "DT_FLOAT", "tensorShape": {"dim": [{"size": "992"}]}}}, "dtype": {"type": "DT_FLOAT"}}}, {"name": "StatefulPartitionedCall/model/conv4_block24_0_bn/FusedBatchNormV3/ReadVariableOp", "op": "Const", "attr": {"dtype": {"type": "DT_FLOAT"}, "value": {"tensor": {"dtype": "DT_FLOAT", "tensorShape": {"dim": [{"size": "992"}]}}}}}, {"name": "StatefulPartitionedCall/model/conv4_block24_0_bn/FusedBatchNormV3/ReadVariableOp_1", "op": "Const", "attr": {"dtype": {"type": "DT_FLOAT"}, "value": {"tensor": {"dtype": "DT_FLOAT", "tensorShape": {"dim": [{"size": "992"}]}}}}}, {"name": "StatefulPartitionedCall/model/conv4_block24_2_conv/Conv2D/Cast", "op": "Const", "attr": {"value": {"tensor": {"dtype": "DT_HALF", "tensorShape": {"dim": [{"size": "3"}, {"size": "3"}, {"size": "128"}, {"size": "32"}]}}}, "dtype": {"type": "DT_HALF"}}}, {"name": "StatefulPartitionedCall/model/conv4_block24_concat/concat/axis", "op": "Const", "attr": {"dtype": {"type": "DT_INT32"}, "value": {"tensor": {"dtype": "DT_INT32", "tensorShape": {}}}}}, {"name": "StatefulPartitionedCall/model/pool4_bn/ReadVariableOp", "op": "Const", "attr": {"dtype": {"type": "DT_FLOAT"}, "value": {"tensor": {"dtype": "DT_FLOAT", "tensorShape": {"dim": [{"size": "1024"}]}}}}}, {"name": "StatefulPartitionedCall/model/pool4_bn/ReadVariableOp_1", "op": "Const", "attr": {"value": {"tensor": {"dtype": "DT_FLOAT", "tensorShape": {"dim": [{"size": "1024"}]}}}, "dtype": {"type": "DT_FLOAT"}}}, {"name": "StatefulPartitionedCall/model/pool4_bn/FusedBatchNormV3/ReadVariableOp", "op": "Const", "attr": {"dtype": {"type": "DT_FLOAT"}, "value": {"tensor": {"dtype": "DT_FLOAT", "tensorShape": {"dim": [{"size": "1024"}]}}}}}, {"name": "StatefulPartitionedCall/model/pool4_bn/FusedBatchNormV3/ReadVariableOp_1", "op": "Const", "attr": {"value": {"tensor": {"dtype": "DT_FLOAT", "tensorShape": {"dim": [{"size": "1024"}]}}}, "dtype": {"type": "DT_FLOAT"}}}, {"name": "StatefulPartitionedCall/model/pool4_conv/Conv2D/Cast", "op": "Const", "attr": {"value": {"tensor": {"dtype": "DT_HALF", "tensorShape": {"dim": [{"size": "1"}, {"size": "1"}, {"size": "1024"}, {"size": "512"}]}}}, "dtype": {"type": "DT_HALF"}}}, {"name": "StatefulPartitionedCall/model/conv5_block1_0_bn/ReadVariableOp", "op": "Const", "attr": {"dtype": {"type": "DT_FLOAT"}, "value": {"tensor": {"dtype": "DT_FLOAT", "tensorShape": {"dim": [{"size": "512"}]}}}}}, {"name": "StatefulPartitionedCall/model/conv5_block1_0_bn/ReadVariableOp_1", "op": "Const", "attr": {"dtype": {"type": "DT_FLOAT"}, "value": {"tensor": {"dtype": "DT_FLOAT", "tensorShape": {"dim": [{"size": "512"}]}}}}}, {"name": "StatefulPartitionedCall/model/conv5_block1_0_bn/FusedBatchNormV3/ReadVariableOp", "op": "Const", "attr": {"dtype": {"type": "DT_FLOAT"}, "value": {"tensor": {"dtype": "DT_FLOAT", "tensorShape": {"dim": [{"size": "512"}]}}}}}, {"name": "StatefulPartitionedCall/model/conv5_block1_0_bn/FusedBatchNormV3/ReadVariableOp_1", "op": "Const", "attr": {"value": {"tensor": {"dtype": "DT_FLOAT", "tensorShape": {"dim": [{"size": "512"}]}}}, "dtype": {"type": "DT_FLOAT"}}}, {"name": "StatefulPartitionedCall/model/conv5_block1_2_conv/Conv2D/Cast", "op": "Const", "attr": {"dtype": {"type": "DT_HALF"}, "value": {"tensor": {"dtype": "DT_HALF", "tensorShape": {"dim": [{"size": "3"}, {"size": "3"}, {"size": "128"}, {"size": "32"}]}}}}}, {"name": "StatefulPartitionedCall/model/conv5_block1_concat/concat/axis", "op": "Const", "attr": {"value": {"tensor": {"dtype": "DT_INT32", "tensorShape": {}}}, "dtype": {"type": "DT_INT32"}}}, {"name": "StatefulPartitionedCall/model/conv5_block2_0_bn/ReadVariableOp", "op": "Const", "attr": {"dtype": {"type": "DT_FLOAT"}, "value": {"tensor": {"dtype": "DT_FLOAT", "tensorShape": {"dim": [{"size": "544"}]}}}}}, {"name": "StatefulPartitionedCall/model/conv5_block2_0_bn/ReadVariableOp_1", "op": "Const", "attr": {"value": {"tensor": {"dtype": "DT_FLOAT", "tensorShape": {"dim": [{"size": "544"}]}}}, "dtype": {"type": "DT_FLOAT"}}}, {"name": "StatefulPartitionedCall/model/conv5_block2_0_bn/FusedBatchNormV3/ReadVariableOp", "op": "Const", "attr": {"dtype": {"type": "DT_FLOAT"}, "value": {"tensor": {"dtype": "DT_FLOAT", "tensorShape": {"dim": [{"size": "544"}]}}}}}, {"name": "StatefulPartitionedCall/model/conv5_block2_0_bn/FusedBatchNormV3/ReadVariableOp_1", "op": "Const", "attr": {"dtype": {"type": "DT_FLOAT"}, "value": {"tensor": {"dtype": "DT_FLOAT", "tensorShape": {"dim": [{"size": "544"}]}}}}}, {"name": "StatefulPartitionedCall/model/conv5_block2_2_conv/Conv2D/Cast", "op": "Const", "attr": {"dtype": {"type": "DT_HALF"}, "value": {"tensor": {"dtype": "DT_HALF", "tensorShape": {"dim": [{"size": "3"}, {"size": "3"}, {"size": "128"}, {"size": "32"}]}}}}}, {"name": "StatefulPartitionedCall/model/conv5_block2_concat/concat/axis", "op": "Const", "attr": {"dtype": {"type": "DT_INT32"}, "value": {"tensor": {"dtype": "DT_INT32", "tensorShape": {}}}}}, {"name": "StatefulPartitionedCall/model/conv5_block3_0_bn/ReadVariableOp", "op": "Const", "attr": {"dtype": {"type": "DT_FLOAT"}, "value": {"tensor": {"dtype": "DT_FLOAT", "tensorShape": {"dim": [{"size": "576"}]}}}}}, {"name": "StatefulPartitionedCall/model/conv5_block3_0_bn/ReadVariableOp_1", "op": "Const", "attr": {"value": {"tensor": {"dtype": "DT_FLOAT", "tensorShape": {"dim": [{"size": "576"}]}}}, "dtype": {"type": "DT_FLOAT"}}}, {"name": "StatefulPartitionedCall/model/conv5_block3_0_bn/FusedBatchNormV3/ReadVariableOp", "op": "Const", "attr": {"value": {"tensor": {"dtype": "DT_FLOAT", "tensorShape": {"dim": [{"size": "576"}]}}}, "dtype": {"type": "DT_FLOAT"}}}, {"name": "StatefulPartitionedCall/model/conv5_block3_0_bn/FusedBatchNormV3/ReadVariableOp_1", "op": "Const", "attr": {"dtype": {"type": "DT_FLOAT"}, "value": {"tensor": {"dtype": "DT_FLOAT", "tensorShape": {"dim": [{"size": "576"}]}}}}}, {"name": "StatefulPartitionedCall/model/conv5_block3_2_conv/Conv2D/Cast", "op": "Const", "attr": {"value": {"tensor": {"dtype": "DT_HALF", "tensorShape": {"dim": [{"size": "3"}, {"size": "3"}, {"size": "128"}, {"size": "32"}]}}}, "dtype": {"type": "DT_HALF"}}}, {"name": "StatefulPartitionedCall/model/conv5_block3_concat/concat/axis", "op": "Const", "attr": {"value": {"tensor": {"dtype": "DT_INT32", "tensorShape": {}}}, "dtype": {"type": "DT_INT32"}}}, {"name": "StatefulPartitionedCall/model/conv5_block4_0_bn/ReadVariableOp", "op": "Const", "attr": {"dtype": {"type": "DT_FLOAT"}, "value": {"tensor": {"dtype": "DT_FLOAT", "tensorShape": {"dim": [{"size": "608"}]}}}}}, {"name": "StatefulPartitionedCall/model/conv5_block4_0_bn/ReadVariableOp_1", "op": "Const", "attr": {"dtype": {"type": "DT_FLOAT"}, "value": {"tensor": {"dtype": "DT_FLOAT", "tensorShape": {"dim": [{"size": "608"}]}}}}}, {"name": "StatefulPartitionedCall/model/conv5_block4_0_bn/FusedBatchNormV3/ReadVariableOp", "op": "Const", "attr": {"dtype": {"type": "DT_FLOAT"}, "value": {"tensor": {"dtype": "DT_FLOAT", "tensorShape": {"dim": [{"size": "608"}]}}}}}, {"name": "StatefulPartitionedCall/model/conv5_block4_0_bn/FusedBatchNormV3/ReadVariableOp_1", "op": "Const", "attr": {"dtype": {"type": "DT_FLOAT"}, "value": {"tensor": {"dtype": "DT_FLOAT", "tensorShape": {"dim": [{"size": "608"}]}}}}}, {"name": "StatefulPartitionedCall/model/conv5_block4_2_conv/Conv2D/Cast", "op": "Const", "attr": {"dtype": {"type": "DT_HALF"}, "value": {"tensor": {"dtype": "DT_HALF", "tensorShape": {"dim": [{"size": "3"}, {"size": "3"}, {"size": "128"}, {"size": "32"}]}}}}}, {"name": "StatefulPartitionedCall/model/conv5_block4_concat/concat/axis", "op": "Const", "attr": {"dtype": {"type": "DT_INT32"}, "value": {"tensor": {"dtype": "DT_INT32", "tensorShape": {}}}}}, {"name": "StatefulPartitionedCall/model/conv5_block5_0_bn/ReadVariableOp", "op": "Const", "attr": {"value": {"tensor": {"dtype": "DT_FLOAT", "tensorShape": {"dim": [{"size": "640"}]}}}, "dtype": {"type": "DT_FLOAT"}}}, {"name": "StatefulPartitionedCall/model/conv5_block5_0_bn/ReadVariableOp_1", "op": "Const", "attr": {"dtype": {"type": "DT_FLOAT"}, "value": {"tensor": {"dtype": "DT_FLOAT", "tensorShape": {"dim": [{"size": "640"}]}}}}}, {"name": "StatefulPartitionedCall/model/conv5_block5_0_bn/FusedBatchNormV3/ReadVariableOp", "op": "Const", "attr": {"value": {"tensor": {"dtype": "DT_FLOAT", "tensorShape": {"dim": [{"size": "640"}]}}}, "dtype": {"type": "DT_FLOAT"}}}, {"name": "StatefulPartitionedCall/model/conv5_block5_0_bn/FusedBatchNormV3/ReadVariableOp_1", "op": "Const", "attr": {"dtype": {"type": "DT_FLOAT"}, "value": {"tensor": {"dtype": "DT_FLOAT", "tensorShape": {"dim": [{"size": "640"}]}}}}}, {"name": "StatefulPartitionedCall/model/conv5_block5_2_conv/Conv2D/Cast", "op": "Const", "attr": {"value": {"tensor": {"dtype": "DT_HALF", "tensorShape": {"dim": [{"size": "3"}, {"size": "3"}, {"size": "128"}, {"size": "32"}]}}}, "dtype": {"type": "DT_HALF"}}}, {"name": "StatefulPartitionedCall/model/conv5_block5_concat/concat/axis", "op": "Const", "attr": {"dtype": {"type": "DT_INT32"}, "value": {"tensor": {"dtype": "DT_INT32", "tensorShape": {}}}}}, {"name": "StatefulPartitionedCall/model/conv5_block6_0_bn/ReadVariableOp", "op": "Const", "attr": {"value": {"tensor": {"dtype": "DT_FLOAT", "tensorShape": {"dim": [{"size": "672"}]}}}, "dtype": {"type": "DT_FLOAT"}}}, {"name": "StatefulPartitionedCall/model/conv5_block6_0_bn/ReadVariableOp_1", "op": "Const", "attr": {"dtype": {"type": "DT_FLOAT"}, "value": {"tensor": {"dtype": "DT_FLOAT", "tensorShape": {"dim": [{"size": "672"}]}}}}}, {"name": "StatefulPartitionedCall/model/conv5_block6_0_bn/FusedBatchNormV3/ReadVariableOp", "op": "Const", "attr": {"value": {"tensor": {"dtype": "DT_FLOAT", "tensorShape": {"dim": [{"size": "672"}]}}}, "dtype": {"type": "DT_FLOAT"}}}, {"name": "StatefulPartitionedCall/model/conv5_block6_0_bn/FusedBatchNormV3/ReadVariableOp_1", "op": "Const", "attr": {"dtype": {"type": "DT_FLOAT"}, "value": {"tensor": {"dtype": "DT_FLOAT", "tensorShape": {"dim": [{"size": "672"}]}}}}}, {"name": "StatefulPartitionedCall/model/conv5_block6_2_conv/Conv2D/Cast", "op": "Const", "attr": {"value": {"tensor": {"dtype": "DT_HALF", "tensorShape": {"dim": [{"size": "3"}, {"size": "3"}, {"size": "128"}, {"size": "32"}]}}}, "dtype": {"type": "DT_HALF"}}}, {"name": "StatefulPartitionedCall/model/conv5_block6_concat/concat/axis", "op": "Const", "attr": {"dtype": {"type": "DT_INT32"}, "value": {"tensor": {"dtype": "DT_INT32", "tensorShape": {}}}}}, {"name": "StatefulPartitionedCall/model/conv5_block7_0_bn/ReadVariableOp", "op": "Const", "attr": {"dtype": {"type": "DT_FLOAT"}, "value": {"tensor": {"dtype": "DT_FLOAT", "tensorShape": {"dim": [{"size": "704"}]}}}}}, {"name": "StatefulPartitionedCall/model/conv5_block7_0_bn/ReadVariableOp_1", "op": "Const", "attr": {"value": {"tensor": {"dtype": "DT_FLOAT", "tensorShape": {"dim": [{"size": "704"}]}}}, "dtype": {"type": "DT_FLOAT"}}}, {"name": "StatefulPartitionedCall/model/conv5_block7_0_bn/FusedBatchNormV3/ReadVariableOp", "op": "Const", "attr": {"dtype": {"type": "DT_FLOAT"}, "value": {"tensor": {"dtype": "DT_FLOAT", "tensorShape": {"dim": [{"size": "704"}]}}}}}, {"name": "StatefulPartitionedCall/model/conv5_block7_0_bn/FusedBatchNormV3/ReadVariableOp_1", "op": "Const", "attr": {"dtype": {"type": "DT_FLOAT"}, "value": {"tensor": {"dtype": "DT_FLOAT", "tensorShape": {"dim": [{"size": "704"}]}}}}}, {"name": "StatefulPartitionedCall/model/conv5_block7_2_conv/Conv2D/Cast", "op": "Const", "attr": {"value": {"tensor": {"dtype": "DT_HALF", "tensorShape": {"dim": [{"size": "3"}, {"size": "3"}, {"size": "128"}, {"size": "32"}]}}}, "dtype": {"type": "DT_HALF"}}}, {"name": "StatefulPartitionedCall/model/conv5_block7_concat/concat/axis", "op": "Const", "attr": {"value": {"tensor": {"dtype": "DT_INT32", "tensorShape": {}}}, "dtype": {"type": "DT_INT32"}}}, {"name": "StatefulPartitionedCall/model/conv5_block8_0_bn/ReadVariableOp", "op": "Const", "attr": {"value": {"tensor": {"dtype": "DT_FLOAT", "tensorShape": {"dim": [{"size": "736"}]}}}, "dtype": {"type": "DT_FLOAT"}}}, {"name": "StatefulPartitionedCall/model/conv5_block8_0_bn/ReadVariableOp_1", "op": "Const", "attr": {"value": {"tensor": {"dtype": "DT_FLOAT", "tensorShape": {"dim": [{"size": "736"}]}}}, "dtype": {"type": "DT_FLOAT"}}}, {"name": "StatefulPartitionedCall/model/conv5_block8_0_bn/FusedBatchNormV3/ReadVariableOp", "op": "Const", "attr": {"dtype": {"type": "DT_FLOAT"}, "value": {"tensor": {"dtype": "DT_FLOAT", "tensorShape": {"dim": [{"size": "736"}]}}}}}, {"name": "StatefulPartitionedCall/model/conv5_block8_0_bn/FusedBatchNormV3/ReadVariableOp_1", "op": "Const", "attr": {"dtype": {"type": "DT_FLOAT"}, "value": {"tensor": {"dtype": "DT_FLOAT", "tensorShape": {"dim": [{"size": "736"}]}}}}}, {"name": "StatefulPartitionedCall/model/conv5_block8_2_conv/Conv2D/Cast", "op": "Const", "attr": {"dtype": {"type": "DT_HALF"}, "value": {"tensor": {"dtype": "DT_HALF", "tensorShape": {"dim": [{"size": "3"}, {"size": "3"}, {"size": "128"}, {"size": "32"}]}}}}}, {"name": "StatefulPartitionedCall/model/conv5_block8_concat/concat/axis", "op": "Const", "attr": {"value": {"tensor": {"dtype": "DT_INT32", "tensorShape": {}}}, "dtype": {"type": "DT_INT32"}}}, {"name": "StatefulPartitionedCall/model/conv5_block9_0_bn/ReadVariableOp", "op": "Const", "attr": {"value": {"tensor": {"dtype": "DT_FLOAT", "tensorShape": {"dim": [{"size": "768"}]}}}, "dtype": {"type": "DT_FLOAT"}}}, {"name": "StatefulPartitionedCall/model/conv5_block9_0_bn/ReadVariableOp_1", "op": "Const", "attr": {"dtype": {"type": "DT_FLOAT"}, "value": {"tensor": {"dtype": "DT_FLOAT", "tensorShape": {"dim": [{"size": "768"}]}}}}}, {"name": "StatefulPartitionedCall/model/conv5_block9_0_bn/FusedBatchNormV3/ReadVariableOp", "op": "Const", "attr": {"dtype": {"type": "DT_FLOAT"}, "value": {"tensor": {"dtype": "DT_FLOAT", "tensorShape": {"dim": [{"size": "768"}]}}}}}, {"name": "StatefulPartitionedCall/model/conv5_block9_0_bn/FusedBatchNormV3/ReadVariableOp_1", "op": "Const", "attr": {"dtype": {"type": "DT_FLOAT"}, "value": {"tensor": {"dtype": "DT_FLOAT", "tensorShape": {"dim": [{"size": "768"}]}}}}}, {"name": "StatefulPartitionedCall/model/conv5_block9_2_conv/Conv2D/Cast", "op": "Const", "attr": {"dtype": {"type": "DT_HALF"}, "value": {"tensor": {"dtype": "DT_HALF", "tensorShape": {"dim": [{"size": "3"}, {"size": "3"}, {"size": "128"}, {"size": "32"}]}}}}}, {"name": "StatefulPartitionedCall/model/conv5_block9_concat/concat/axis", "op": "Const", "attr": {"value": {"tensor": {"dtype": "DT_INT32", "tensorShape": {}}}, "dtype": {"type": "DT_INT32"}}}, {"name": "StatefulPartitionedCall/model/conv5_block10_0_bn/ReadVariableOp", "op": "Const", "attr": {"value": {"tensor": {"dtype": "DT_FLOAT", "tensorShape": {"dim": [{"size": "800"}]}}}, "dtype": {"type": "DT_FLOAT"}}}, {"name": "StatefulPartitionedCall/model/conv5_block10_0_bn/ReadVariableOp_1", "op": "Const", "attr": {"value": {"tensor": {"dtype": "DT_FLOAT", "tensorShape": {"dim": [{"size": "800"}]}}}, "dtype": {"type": "DT_FLOAT"}}}, {"name": "StatefulPartitionedCall/model/conv5_block10_0_bn/FusedBatchNormV3/ReadVariableOp", "op": "Const", "attr": {"value": {"tensor": {"dtype": "DT_FLOAT", "tensorShape": {"dim": [{"size": "800"}]}}}, "dtype": {"type": "DT_FLOAT"}}}, {"name": "StatefulPartitionedCall/model/conv5_block10_0_bn/FusedBatchNormV3/ReadVariableOp_1", "op": "Const", "attr": {"dtype": {"type": "DT_FLOAT"}, "value": {"tensor": {"dtype": "DT_FLOAT", "tensorShape": {"dim": [{"size": "800"}]}}}}}, {"name": "StatefulPartitionedCall/model/conv5_block10_2_conv/Conv2D/Cast", "op": "Const", "attr": {"value": {"tensor": {"dtype": "DT_HALF", "tensorShape": {"dim": [{"size": "3"}, {"size": "3"}, {"size": "128"}, {"size": "32"}]}}}, "dtype": {"type": "DT_HALF"}}}, {"name": "StatefulPartitionedCall/model/conv5_block10_concat/concat/axis", "op": "Const", "attr": {"value": {"tensor": {"dtype": "DT_INT32", "tensorShape": {}}}, "dtype": {"type": "DT_INT32"}}}, {"name": "StatefulPartitionedCall/model/conv5_block11_0_bn/ReadVariableOp", "op": "Const", "attr": {"value": {"tensor": {"dtype": "DT_FLOAT", "tensorShape": {"dim": [{"size": "832"}]}}}, "dtype": {"type": "DT_FLOAT"}}}, {"name": "StatefulPartitionedCall/model/conv5_block11_0_bn/ReadVariableOp_1", "op": "Const", "attr": {"value": {"tensor": {"dtype": "DT_FLOAT", "tensorShape": {"dim": [{"size": "832"}]}}}, "dtype": {"type": "DT_FLOAT"}}}, {"name": "StatefulPartitionedCall/model/conv5_block11_0_bn/FusedBatchNormV3/ReadVariableOp", "op": "Const", "attr": {"value": {"tensor": {"dtype": "DT_FLOAT", "tensorShape": {"dim": [{"size": "832"}]}}}, "dtype": {"type": "DT_FLOAT"}}}, {"name": "StatefulPartitionedCall/model/conv5_block11_0_bn/FusedBatchNormV3/ReadVariableOp_1", "op": "Const", "attr": {"value": {"tensor": {"dtype": "DT_FLOAT", "tensorShape": {"dim": [{"size": "832"}]}}}, "dtype": {"type": "DT_FLOAT"}}}, {"name": "StatefulPartitionedCall/model/conv5_block11_2_conv/Conv2D/Cast", "op": "Const", "attr": {"dtype": {"type": "DT_HALF"}, "value": {"tensor": {"dtype": "DT_HALF", "tensorShape": {"dim": [{"size": "3"}, {"size": "3"}, {"size": "128"}, {"size": "32"}]}}}}}, {"name": "StatefulPartitionedCall/model/conv5_block11_concat/concat/axis", "op": "Const", "attr": {"dtype": {"type": "DT_INT32"}, "value": {"tensor": {"dtype": "DT_INT32", "tensorShape": {}}}}}, {"name": "StatefulPartitionedCall/model/conv5_block12_0_bn/ReadVariableOp", "op": "Const", "attr": {"dtype": {"type": "DT_FLOAT"}, "value": {"tensor": {"dtype": "DT_FLOAT", "tensorShape": {"dim": [{"size": "864"}]}}}}}, {"name": "StatefulPartitionedCall/model/conv5_block12_0_bn/ReadVariableOp_1", "op": "Const", "attr": {"value": {"tensor": {"dtype": "DT_FLOAT", "tensorShape": {"dim": [{"size": "864"}]}}}, "dtype": {"type": "DT_FLOAT"}}}, {"name": "StatefulPartitionedCall/model/conv5_block12_0_bn/FusedBatchNormV3/ReadVariableOp", "op": "Const", "attr": {"dtype": {"type": "DT_FLOAT"}, "value": {"tensor": {"dtype": "DT_FLOAT", "tensorShape": {"dim": [{"size": "864"}]}}}}}, {"name": "StatefulPartitionedCall/model/conv5_block12_0_bn/FusedBatchNormV3/ReadVariableOp_1", "op": "Const", "attr": {"value": {"tensor": {"dtype": "DT_FLOAT", "tensorShape": {"dim": [{"size": "864"}]}}}, "dtype": {"type": "DT_FLOAT"}}}, {"name": "StatefulPartitionedCall/model/conv5_block12_2_conv/Conv2D/Cast", "op": "Const", "attr": {"dtype": {"type": "DT_HALF"}, "value": {"tensor": {"dtype": "DT_HALF", "tensorShape": {"dim": [{"size": "3"}, {"size": "3"}, {"size": "128"}, {"size": "32"}]}}}}}, {"name": "StatefulPartitionedCall/model/conv5_block12_concat/concat/axis", "op": "Const", "attr": {"value": {"tensor": {"dtype": "DT_INT32", "tensorShape": {}}}, "dtype": {"type": "DT_INT32"}}}, {"name": "StatefulPartitionedCall/model/conv5_block13_0_bn/ReadVariableOp", "op": "Const", "attr": {"value": {"tensor": {"dtype": "DT_FLOAT", "tensorShape": {"dim": [{"size": "896"}]}}}, "dtype": {"type": "DT_FLOAT"}}}, {"name": "StatefulPartitionedCall/model/conv5_block13_0_bn/ReadVariableOp_1", "op": "Const", "attr": {"value": {"tensor": {"dtype": "DT_FLOAT", "tensorShape": {"dim": [{"size": "896"}]}}}, "dtype": {"type": "DT_FLOAT"}}}, {"name": "StatefulPartitionedCall/model/conv5_block13_0_bn/FusedBatchNormV3/ReadVariableOp", "op": "Const", "attr": {"value": {"tensor": {"dtype": "DT_FLOAT", "tensorShape": {"dim": [{"size": "896"}]}}}, "dtype": {"type": "DT_FLOAT"}}}, {"name": "StatefulPartitionedCall/model/conv5_block13_0_bn/FusedBatchNormV3/ReadVariableOp_1", "op": "Const", "attr": {"dtype": {"type": "DT_FLOAT"}, "value": {"tensor": {"dtype": "DT_FLOAT", "tensorShape": {"dim": [{"size": "896"}]}}}}}, {"name": "StatefulPartitionedCall/model/conv5_block13_2_conv/Conv2D/Cast", "op": "Const", "attr": {"dtype": {"type": "DT_HALF"}, "value": {"tensor": {"dtype": "DT_HALF", "tensorShape": {"dim": [{"size": "3"}, {"size": "3"}, {"size": "128"}, {"size": "32"}]}}}}}, {"name": "StatefulPartitionedCall/model/conv5_block13_concat/concat/axis", "op": "Const", "attr": {"value": {"tensor": {"dtype": "DT_INT32", "tensorShape": {}}}, "dtype": {"type": "DT_INT32"}}}, {"name": "StatefulPartitionedCall/model/conv5_block14_0_bn/ReadVariableOp", "op": "Const", "attr": {"dtype": {"type": "DT_FLOAT"}, "value": {"tensor": {"dtype": "DT_FLOAT", "tensorShape": {"dim": [{"size": "928"}]}}}}}, {"name": "StatefulPartitionedCall/model/conv5_block14_0_bn/ReadVariableOp_1", "op": "Const", "attr": {"value": {"tensor": {"dtype": "DT_FLOAT", "tensorShape": {"dim": [{"size": "928"}]}}}, "dtype": {"type": "DT_FLOAT"}}}, {"name": "StatefulPartitionedCall/model/conv5_block14_0_bn/FusedBatchNormV3/ReadVariableOp", "op": "Const", "attr": {"dtype": {"type": "DT_FLOAT"}, "value": {"tensor": {"dtype": "DT_FLOAT", "tensorShape": {"dim": [{"size": "928"}]}}}}}, {"name": "StatefulPartitionedCall/model/conv5_block14_0_bn/FusedBatchNormV3/ReadVariableOp_1", "op": "Const", "attr": {"value": {"tensor": {"dtype": "DT_FLOAT", "tensorShape": {"dim": [{"size": "928"}]}}}, "dtype": {"type": "DT_FLOAT"}}}, {"name": "StatefulPartitionedCall/model/conv5_block14_2_conv/Conv2D/Cast", "op": "Const", "attr": {"value": {"tensor": {"dtype": "DT_HALF", "tensorShape": {"dim": [{"size": "3"}, {"size": "3"}, {"size": "128"}, {"size": "32"}]}}}, "dtype": {"type": "DT_HALF"}}}, {"name": "StatefulPartitionedCall/model/conv5_block14_concat/concat/axis", "op": "Const", "attr": {"dtype": {"type": "DT_INT32"}, "value": {"tensor": {"dtype": "DT_INT32", "tensorShape": {}}}}}, {"name": "StatefulPartitionedCall/model/conv5_block15_0_bn/ReadVariableOp", "op": "Const", "attr": {"value": {"tensor": {"dtype": "DT_FLOAT", "tensorShape": {"dim": [{"size": "960"}]}}}, "dtype": {"type": "DT_FLOAT"}}}, {"name": "StatefulPartitionedCall/model/conv5_block15_0_bn/ReadVariableOp_1", "op": "Const", "attr": {"value": {"tensor": {"dtype": "DT_FLOAT", "tensorShape": {"dim": [{"size": "960"}]}}}, "dtype": {"type": "DT_FLOAT"}}}, {"name": "StatefulPartitionedCall/model/conv5_block15_0_bn/FusedBatchNormV3/ReadVariableOp", "op": "Const", "attr": {"value": {"tensor": {"dtype": "DT_FLOAT", "tensorShape": {"dim": [{"size": "960"}]}}}, "dtype": {"type": "DT_FLOAT"}}}, {"name": "StatefulPartitionedCall/model/conv5_block15_0_bn/FusedBatchNormV3/ReadVariableOp_1", "op": "Const", "attr": {"value": {"tensor": {"dtype": "DT_FLOAT", "tensorShape": {"dim": [{"size": "960"}]}}}, "dtype": {"type": "DT_FLOAT"}}}, {"name": "StatefulPartitionedCall/model/conv5_block15_2_conv/Conv2D/Cast", "op": "Const", "attr": {"dtype": {"type": "DT_HALF"}, "value": {"tensor": {"dtype": "DT_HALF", "tensorShape": {"dim": [{"size": "3"}, {"size": "3"}, {"size": "128"}, {"size": "32"}]}}}}}, {"name": "StatefulPartitionedCall/model/conv5_block15_concat/concat/axis", "op": "Const", "attr": {"dtype": {"type": "DT_INT32"}, "value": {"tensor": {"dtype": "DT_INT32", "tensorShape": {}}}}}, {"name": "StatefulPartitionedCall/model/conv5_block16_0_bn/ReadVariableOp", "op": "Const", "attr": {"value": {"tensor": {"dtype": "DT_FLOAT", "tensorShape": {"dim": [{"size": "992"}]}}}, "dtype": {"type": "DT_FLOAT"}}}, {"name": "StatefulPartitionedCall/model/conv5_block16_0_bn/ReadVariableOp_1", "op": "Const", "attr": {"value": {"tensor": {"dtype": "DT_FLOAT", "tensorShape": {"dim": [{"size": "992"}]}}}, "dtype": {"type": "DT_FLOAT"}}}, {"name": "StatefulPartitionedCall/model/conv5_block16_0_bn/FusedBatchNormV3/ReadVariableOp", "op": "Const", "attr": {"value": {"tensor": {"dtype": "DT_FLOAT", "tensorShape": {"dim": [{"size": "992"}]}}}, "dtype": {"type": "DT_FLOAT"}}}, {"name": "StatefulPartitionedCall/model/conv5_block16_0_bn/FusedBatchNormV3/ReadVariableOp_1", "op": "Const", "attr": {"dtype": {"type": "DT_FLOAT"}, "value": {"tensor": {"dtype": "DT_FLOAT", "tensorShape": {"dim": [{"size": "992"}]}}}}}, {"name": "StatefulPartitionedCall/model/conv5_block16_2_conv/Conv2D/Cast", "op": "Const", "attr": {"dtype": {"type": "DT_HALF"}, "value": {"tensor": {"dtype": "DT_HALF", "tensorShape": {"dim": [{"size": "3"}, {"size": "3"}, {"size": "128"}, {"size": "32"}]}}}}}, {"name": "StatefulPartitionedCall/model/conv5_block16_concat/concat/axis", "op": "Const", "attr": {"value": {"tensor": {"dtype": "DT_INT32", "tensorShape": {}}}, "dtype": {"type": "DT_INT32"}}}, {"name": "StatefulPartitionedCall/model/bn/ReadVariableOp", "op": "Const", "attr": {"dtype": {"type": "DT_FLOAT"}, "value": {"tensor": {"dtype": "DT_FLOAT", "tensorShape": {"dim": [{"size": "1024"}]}}}}}, {"name": "StatefulPartitionedCall/model/bn/ReadVariableOp_1", "op": "Const", "attr": {"value": {"tensor": {"dtype": "DT_FLOAT", "tensorShape": {"dim": [{"size": "1024"}]}}}, "dtype": {"type": "DT_FLOAT"}}}, {"name": "StatefulPartitionedCall/model/bn/FusedBatchNormV3/ReadVariableOp", "op": "Const", "attr": {"value": {"tensor": {"dtype": "DT_FLOAT", "tensorShape": {"dim": [{"size": "1024"}]}}}, "dtype": {"type": "DT_FLOAT"}}}, {"name": "StatefulPartitionedCall/model/bn/FusedBatchNormV3/ReadVariableOp_1", "op": "Const", "attr": {"value": {"tensor": {"dtype": "DT_FLOAT", "tensorShape": {"dim": [{"size": "1024"}]}}}, "dtype": {"type": "DT_FLOAT"}}}, {"name": "StatefulPartitionedCall/model/global_average_pooling2d/Mean/reduction_indices", "op": "Const", "attr": {"dtype": {"type": "DT_INT32"}, "value": {"tensor": {"dtype": "DT_INT32", "tensorShape": {"dim": [{"size": "2"}]}}}}}, {"name": "StatefulPartitionedCall/model/dense/MatMul/ReadVariableOp", "op": "Const", "attr": {"dtype": {"type": "DT_FLOAT"}, "value": {"tensor": {"dtype": "DT_FLOAT", "tensorShape": {"dim": [{"size": "1024"}, {"size": "309"}]}}}}}, {"name": "StatefulPartitionedCall/model/dense/BiasAdd/ReadVariableOp", "op": "Const", "attr": {"dtype": {"type": "DT_FLOAT"}, "value": {"tensor": {"dtype": "DT_FLOAT", "tensorShape": {"dim": [{"size": "309"}]}}}}}, {"name": "input", "op": "Placeholder", "attr": {"dtype": {"type": "DT_FLOAT"}, "shape": {"shape": {"dim": [{"size": "-1"}, {"size": "256"}, {"size": "384"}, {"size": "1"}]}}}}, {"name": "StatefulPartitionedCall/model/conv1/conv/Conv2D_weights", "op": "Const", "attr": {"value": {"tensor": {"dtype": "DT_HALF", "tensorShape": {"dim": [{"size": "7"}, {"size": "7"}, {"size": "1"}, {"size": "64"}]}}}, "dtype": {"type": "DT_HALF"}}}, {"name": "StatefulPartitionedCall/model/conv1/conv/Conv2D_bn_offset", "op": "Const", "attr": {"value": {"tensor": {"dtype": "DT_FLOAT", "tensorShape": {"dim": [{"size": "64"}]}}}, "dtype": {"type": "DT_FLOAT"}}}, {"name": "StatefulPartitionedCall/model/conv2_block1_1_conv/Conv2D_weights", "op": "Const", "attr": {"value": {"tensor": {"dtype": "DT_HALF", "tensorShape": {"dim": [{"size": "1"}, {"size": "1"}, {"size": "64"}, {"size": "128"}]}}}, "dtype": {"type": "DT_HALF"}}}, {"name": "StatefulPartitionedCall/model/conv2_block1_1_conv/Conv2D_bn_offset", "op": "Const", "attr": {"dtype": {"type": "DT_FLOAT"}, "value": {"tensor": {"dtype": "DT_FLOAT", "tensorShape": {"dim": [{"size": "128"}]}}}}}, {"name": "StatefulPartitionedCall/model/conv2_block2_1_conv/Conv2D_weights", "op": "Const", "attr": {"dtype": {"type": "DT_HALF"}, "value": {"tensor": {"dtype": "DT_HALF", "tensorShape": {"dim": [{"size": "1"}, {"size": "1"}, {"size": "96"}, {"size": "128"}]}}}}}, {"name": "StatefulPartitionedCall/model/conv2_block2_1_conv/Conv2D_bn_offset", "op": "Const", "attr": {"dtype": {"type": "DT_FLOAT"}, "value": {"tensor": {"dtype": "DT_FLOAT", "tensorShape": {"dim": [{"size": "128"}]}}}}}, {"name": "StatefulPartitionedCall/model/conv2_block3_1_conv/Conv2D_weights", "op": "Const", "attr": {"dtype": {"type": "DT_HALF"}, "value": {"tensor": {"dtype": "DT_HALF", "tensorShape": {"dim": [{"size": "1"}, {"size": "1"}, {"size": "128"}, {"size": "128"}]}}}}}, {"name": "StatefulPartitionedCall/model/conv2_block3_1_conv/Conv2D_bn_offset", "op": "Const", "attr": {"value": {"tensor": {"dtype": "DT_FLOAT", "tensorShape": {"dim": [{"size": "128"}]}}}, "dtype": {"type": "DT_FLOAT"}}}, {"name": "StatefulPartitionedCall/model/conv2_block4_1_conv/Conv2D_weights", "op": "Const", "attr": {"value": {"tensor": {"dtype": "DT_HALF", "tensorShape": {"dim": [{"size": "1"}, {"size": "1"}, {"size": "160"}, {"size": "128"}]}}}, "dtype": {"type": "DT_HALF"}}}, {"name": "StatefulPartitionedCall/model/conv2_block4_1_conv/Conv2D_bn_offset", "op": "Const", "attr": {"dtype": {"type": "DT_FLOAT"}, "value": {"tensor": {"dtype": "DT_FLOAT", "tensorShape": {"dim": [{"size": "128"}]}}}}}, {"name": "StatefulPartitionedCall/model/conv2_block5_1_conv/Conv2D_weights", "op": "Const", "attr": {"dtype": {"type": "DT_HALF"}, "value": {"tensor": {"dtype": "DT_HALF", "tensorShape": {"dim": [{"size": "1"}, {"size": "1"}, {"size": "192"}, {"size": "128"}]}}}}}, {"name": "StatefulPartitionedCall/model/conv2_block5_1_conv/Conv2D_bn_offset", "op": "Const", "attr": {"dtype": {"type": "DT_FLOAT"}, "value": {"tensor": {"dtype": "DT_FLOAT", "tensorShape": {"dim": [{"size": "128"}]}}}}}, {"name": "StatefulPartitionedCall/model/conv2_block6_1_conv/Conv2D_weights", "op": "Const", "attr": {"value": {"tensor": {"dtype": "DT_HALF", "tensorShape": {"dim": [{"size": "1"}, {"size": "1"}, {"size": "224"}, {"size": "128"}]}}}, "dtype": {"type": "DT_HALF"}}}, {"name": "StatefulPartitionedCall/model/conv2_block6_1_conv/Conv2D_bn_offset", "op": "Const", "attr": {"dtype": {"type": "DT_FLOAT"}, "value": {"tensor": {"dtype": "DT_FLOAT", "tensorShape": {"dim": [{"size": "128"}]}}}}}, {"name": "StatefulPartitionedCall/model/conv3_block1_1_conv/Conv2D_weights", "op": "Const", "attr": {"value": {"tensor": {"dtype": "DT_HALF", "tensorShape": {"dim": [{"size": "1"}, {"size": "1"}, {"size": "128"}, {"size": "128"}]}}}, "dtype": {"type": "DT_HALF"}}}, {"name": "StatefulPartitionedCall/model/conv3_block1_1_conv/Conv2D_bn_offset", "op": "Const", "attr": {"value": {"tensor": {"dtype": "DT_FLOAT", "tensorShape": {"dim": [{"size": "128"}]}}}, "dtype": {"type": "DT_FLOAT"}}}, {"name": "StatefulPartitionedCall/model/conv3_block2_1_conv/Conv2D_weights", "op": "Const", "attr": {"value": {"tensor": {"dtype": "DT_HALF", "tensorShape": {"dim": [{"size": "1"}, {"size": "1"}, {"size": "160"}, {"size": "128"}]}}}, "dtype": {"type": "DT_HALF"}}}, {"name": "StatefulPartitionedCall/model/conv3_block2_1_conv/Conv2D_bn_offset", "op": "Const", "attr": {"dtype": {"type": "DT_FLOAT"}, "value": {"tensor": {"dtype": "DT_FLOAT", "tensorShape": {"dim": [{"size": "128"}]}}}}}, {"name": "StatefulPartitionedCall/model/conv3_block3_1_conv/Conv2D_weights", "op": "Const", "attr": {"dtype": {"type": "DT_HALF"}, "value": {"tensor": {"dtype": "DT_HALF", "tensorShape": {"dim": [{"size": "1"}, {"size": "1"}, {"size": "192"}, {"size": "128"}]}}}}}, {"name": "StatefulPartitionedCall/model/conv3_block3_1_conv/Conv2D_bn_offset", "op": "Const", "attr": {"value": {"tensor": {"dtype": "DT_FLOAT", "tensorShape": {"dim": [{"size": "128"}]}}}, "dtype": {"type": "DT_FLOAT"}}}, {"name": "StatefulPartitionedCall/model/conv3_block4_1_conv/Conv2D_weights", "op": "Const", "attr": {"value": {"tensor": {"dtype": "DT_HALF", "tensorShape": {"dim": [{"size": "1"}, {"size": "1"}, {"size": "224"}, {"size": "128"}]}}}, "dtype": {"type": "DT_HALF"}}}, {"name": "StatefulPartitionedCall/model/conv3_block4_1_conv/Conv2D_bn_offset", "op": "Const", "attr": {"value": {"tensor": {"dtype": "DT_FLOAT", "tensorShape": {"dim": [{"size": "128"}]}}}, "dtype": {"type": "DT_FLOAT"}}}, {"name": "StatefulPartitionedCall/model/conv3_block5_1_conv/Conv2D_weights", "op": "Const", "attr": {"value": {"tensor": {"dtype": "DT_HALF", "tensorShape": {"dim": [{"size": "1"}, {"size": "1"}, {"size": "256"}, {"size": "128"}]}}}, "dtype": {"type": "DT_HALF"}}}, {"name": "StatefulPartitionedCall/model/conv3_block5_1_conv/Conv2D_bn_offset", "op": "Const", "attr": {"dtype": {"type": "DT_FLOAT"}, "value": {"tensor": {"dtype": "DT_FLOAT", "tensorShape": {"dim": [{"size": "128"}]}}}}}, {"name": "StatefulPartitionedCall/model/conv3_block6_1_conv/Conv2D_weights", "op": "Const", "attr": {"dtype": {"type": "DT_HALF"}, "value": {"tensor": {"dtype": "DT_HALF", "tensorShape": {"dim": [{"size": "1"}, {"size": "1"}, {"size": "288"}, {"size": "128"}]}}}}}, {"name": "StatefulPartitionedCall/model/conv3_block6_1_conv/Conv2D_bn_offset", "op": "Const", "attr": {"dtype": {"type": "DT_FLOAT"}, "value": {"tensor": {"dtype": "DT_FLOAT", "tensorShape": {"dim": [{"size": "128"}]}}}}}, {"name": "StatefulPartitionedCall/model/conv3_block7_1_conv/Conv2D_weights", "op": "Const", "attr": {"dtype": {"type": "DT_HALF"}, "value": {"tensor": {"dtype": "DT_HALF", "tensorShape": {"dim": [{"size": "1"}, {"size": "1"}, {"size": "320"}, {"size": "128"}]}}}}}, {"name": "StatefulPartitionedCall/model/conv3_block7_1_conv/Conv2D_bn_offset", "op": "Const", "attr": {"value": {"tensor": {"dtype": "DT_FLOAT", "tensorShape": {"dim": [{"size": "128"}]}}}, "dtype": {"type": "DT_FLOAT"}}}, {"name": "StatefulPartitionedCall/model/conv3_block8_1_conv/Conv2D_weights", "op": "Const", "attr": {"value": {"tensor": {"dtype": "DT_HALF", "tensorShape": {"dim": [{"size": "1"}, {"size": "1"}, {"size": "352"}, {"size": "128"}]}}}, "dtype": {"type": "DT_HALF"}}}, {"name": "StatefulPartitionedCall/model/conv3_block8_1_conv/Conv2D_bn_offset", "op": "Const", "attr": {"value": {"tensor": {"dtype": "DT_FLOAT", "tensorShape": {"dim": [{"size": "128"}]}}}, "dtype": {"type": "DT_FLOAT"}}}, {"name": "StatefulPartitionedCall/model/conv3_block9_1_conv/Conv2D_weights", "op": "Const", "attr": {"value": {"tensor": {"dtype": "DT_HALF", "tensorShape": {"dim": [{"size": "1"}, {"size": "1"}, {"size": "384"}, {"size": "128"}]}}}, "dtype": {"type": "DT_HALF"}}}, {"name": "StatefulPartitionedCall/model/conv3_block9_1_conv/Conv2D_bn_offset", "op": "Const", "attr": {"value": {"tensor": {"dtype": "DT_FLOAT", "tensorShape": {"dim": [{"size": "128"}]}}}, "dtype": {"type": "DT_FLOAT"}}}, {"name": "StatefulPartitionedCall/model/conv3_block10_1_conv/Conv2D_weights", "op": "Const", "attr": {"value": {"tensor": {"dtype": "DT_HALF", "tensorShape": {"dim": [{"size": "1"}, {"size": "1"}, {"size": "416"}, {"size": "128"}]}}}, "dtype": {"type": "DT_HALF"}}}, {"name": "StatefulPartitionedCall/model/conv3_block10_1_conv/Conv2D_bn_offset", "op": "Const", "attr": {"dtype": {"type": "DT_FLOAT"}, "value": {"tensor": {"dtype": "DT_FLOAT", "tensorShape": {"dim": [{"size": "128"}]}}}}}, {"name": "StatefulPartitionedCall/model/conv3_block11_1_conv/Conv2D_weights", "op": "Const", "attr": {"value": {"tensor": {"dtype": "DT_HALF", "tensorShape": {"dim": [{"size": "1"}, {"size": "1"}, {"size": "448"}, {"size": "128"}]}}}, "dtype": {"type": "DT_HALF"}}}, {"name": "StatefulPartitionedCall/model/conv3_block11_1_conv/Conv2D_bn_offset", "op": "Const", "attr": {"value": {"tensor": {"dtype": "DT_FLOAT", "tensorShape": {"dim": [{"size": "128"}]}}}, "dtype": {"type": "DT_FLOAT"}}}, {"name": "StatefulPartitionedCall/model/conv3_block12_1_conv/Conv2D_weights", "op": "Const", "attr": {"value": {"tensor": {"dtype": "DT_HALF", "tensorShape": {"dim": [{"size": "1"}, {"size": "1"}, {"size": "480"}, {"size": "128"}]}}}, "dtype": {"type": "DT_HALF"}}}, {"name": "StatefulPartitionedCall/model/conv3_block12_1_conv/Conv2D_bn_offset", "op": "Const", "attr": {"dtype": {"type": "DT_FLOAT"}, "value": {"tensor": {"dtype": "DT_FLOAT", "tensorShape": {"dim": [{"size": "128"}]}}}}}, {"name": "StatefulPartitionedCall/model/conv4_block1_1_conv/Conv2D_weights", "op": "Const", "attr": {"dtype": {"type": "DT_HALF"}, "value": {"tensor": {"dtype": "DT_HALF", "tensorShape": {"dim": [{"size": "1"}, {"size": "1"}, {"size": "256"}, {"size": "128"}]}}}}}, {"name": "StatefulPartitionedCall/model/conv4_block1_1_conv/Conv2D_bn_offset", "op": "Const", "attr": {"dtype": {"type": "DT_FLOAT"}, "value": {"tensor": {"dtype": "DT_FLOAT", "tensorShape": {"dim": [{"size": "128"}]}}}}}, {"name": "StatefulPartitionedCall/model/conv4_block2_1_conv/Conv2D_weights", "op": "Const", "attr": {"dtype": {"type": "DT_HALF"}, "value": {"tensor": {"dtype": "DT_HALF", "tensorShape": {"dim": [{"size": "1"}, {"size": "1"}, {"size": "288"}, {"size": "128"}]}}}}}, {"name": "StatefulPartitionedCall/model/conv4_block2_1_conv/Conv2D_bn_offset", "op": "Const", "attr": {"value": {"tensor": {"dtype": "DT_FLOAT", "tensorShape": {"dim": [{"size": "128"}]}}}, "dtype": {"type": "DT_FLOAT"}}}, {"name": "StatefulPartitionedCall/model/conv4_block3_1_conv/Conv2D_weights", "op": "Const", "attr": {"value": {"tensor": {"dtype": "DT_HALF", "tensorShape": {"dim": [{"size": "1"}, {"size": "1"}, {"size": "320"}, {"size": "128"}]}}}, "dtype": {"type": "DT_HALF"}}}, {"name": "StatefulPartitionedCall/model/conv4_block3_1_conv/Conv2D_bn_offset", "op": "Const", "attr": {"dtype": {"type": "DT_FLOAT"}, "value": {"tensor": {"dtype": "DT_FLOAT", "tensorShape": {"dim": [{"size": "128"}]}}}}}, {"name": "StatefulPartitionedCall/model/conv4_block4_1_conv/Conv2D_weights", "op": "Const", "attr": {"value": {"tensor": {"dtype": "DT_HALF", "tensorShape": {"dim": [{"size": "1"}, {"size": "1"}, {"size": "352"}, {"size": "128"}]}}}, "dtype": {"type": "DT_HALF"}}}, {"name": "StatefulPartitionedCall/model/conv4_block4_1_conv/Conv2D_bn_offset", "op": "Const", "attr": {"dtype": {"type": "DT_FLOAT"}, "value": {"tensor": {"dtype": "DT_FLOAT", "tensorShape": {"dim": [{"size": "128"}]}}}}}, {"name": "StatefulPartitionedCall/model/conv4_block5_1_conv/Conv2D_weights", "op": "Const", "attr": {"value": {"tensor": {"dtype": "DT_HALF", "tensorShape": {"dim": [{"size": "1"}, {"size": "1"}, {"size": "384"}, {"size": "128"}]}}}, "dtype": {"type": "DT_HALF"}}}, {"name": "StatefulPartitionedCall/model/conv4_block5_1_conv/Conv2D_bn_offset", "op": "Const", "attr": {"value": {"tensor": {"dtype": "DT_FLOAT", "tensorShape": {"dim": [{"size": "128"}]}}}, "dtype": {"type": "DT_FLOAT"}}}, {"name": "StatefulPartitionedCall/model/conv4_block6_1_conv/Conv2D_weights", "op": "Const", "attr": {"value": {"tensor": {"dtype": "DT_HALF", "tensorShape": {"dim": [{"size": "1"}, {"size": "1"}, {"size": "416"}, {"size": "128"}]}}}, "dtype": {"type": "DT_HALF"}}}, {"name": "StatefulPartitionedCall/model/conv4_block6_1_conv/Conv2D_bn_offset", "op": "Const", "attr": {"dtype": {"type": "DT_FLOAT"}, "value": {"tensor": {"dtype": "DT_FLOAT", "tensorShape": {"dim": [{"size": "128"}]}}}}}, {"name": "StatefulPartitionedCall/model/conv4_block7_1_conv/Conv2D_weights", "op": "Const", "attr": {"value": {"tensor": {"dtype": "DT_HALF", "tensorShape": {"dim": [{"size": "1"}, {"size": "1"}, {"size": "448"}, {"size": "128"}]}}}, "dtype": {"type": "DT_HALF"}}}, {"name": "StatefulPartitionedCall/model/conv4_block7_1_conv/Conv2D_bn_offset", "op": "Const", "attr": {"value": {"tensor": {"dtype": "DT_FLOAT", "tensorShape": {"dim": [{"size": "128"}]}}}, "dtype": {"type": "DT_FLOAT"}}}, {"name": "StatefulPartitionedCall/model/conv4_block8_1_conv/Conv2D_weights", "op": "Const", "attr": {"dtype": {"type": "DT_HALF"}, "value": {"tensor": {"dtype": "DT_HALF", "tensorShape": {"dim": [{"size": "1"}, {"size": "1"}, {"size": "480"}, {"size": "128"}]}}}}}, {"name": "StatefulPartitionedCall/model/conv4_block8_1_conv/Conv2D_bn_offset", "op": "Const", "attr": {"value": {"tensor": {"dtype": "DT_FLOAT", "tensorShape": {"dim": [{"size": "128"}]}}}, "dtype": {"type": "DT_FLOAT"}}}, {"name": "StatefulPartitionedCall/model/conv4_block9_1_conv/Conv2D_weights", "op": "Const", "attr": {"value": {"tensor": {"dtype": "DT_HALF", "tensorShape": {"dim": [{"size": "1"}, {"size": "1"}, {"size": "512"}, {"size": "128"}]}}}, "dtype": {"type": "DT_HALF"}}}, {"name": "StatefulPartitionedCall/model/conv4_block9_1_conv/Conv2D_bn_offset", "op": "Const", "attr": {"value": {"tensor": {"dtype": "DT_FLOAT", "tensorShape": {"dim": [{"size": "128"}]}}}, "dtype": {"type": "DT_FLOAT"}}}, {"name": "StatefulPartitionedCall/model/conv4_block10_1_conv/Conv2D_weights", "op": "Const", "attr": {"dtype": {"type": "DT_HALF"}, "value": {"tensor": {"dtype": "DT_HALF", "tensorShape": {"dim": [{"size": "1"}, {"size": "1"}, {"size": "544"}, {"size": "128"}]}}}}}, {"name": "StatefulPartitionedCall/model/conv4_block10_1_conv/Conv2D_bn_offset", "op": "Const", "attr": {"value": {"tensor": {"dtype": "DT_FLOAT", "tensorShape": {"dim": [{"size": "128"}]}}}, "dtype": {"type": "DT_FLOAT"}}}, {"name": "StatefulPartitionedCall/model/conv4_block11_1_conv/Conv2D_weights", "op": "Const", "attr": {"value": {"tensor": {"dtype": "DT_HALF", "tensorShape": {"dim": [{"size": "1"}, {"size": "1"}, {"size": "576"}, {"size": "128"}]}}}, "dtype": {"type": "DT_HALF"}}}, {"name": "StatefulPartitionedCall/model/conv4_block11_1_conv/Conv2D_bn_offset", "op": "Const", "attr": {"dtype": {"type": "DT_FLOAT"}, "value": {"tensor": {"dtype": "DT_FLOAT", "tensorShape": {"dim": [{"size": "128"}]}}}}}, {"name": "StatefulPartitionedCall/model/conv4_block12_1_conv/Conv2D_weights", "op": "Const", "attr": {"dtype": {"type": "DT_HALF"}, "value": {"tensor": {"dtype": "DT_HALF", "tensorShape": {"dim": [{"size": "1"}, {"size": "1"}, {"size": "608"}, {"size": "128"}]}}}}}, {"name": "StatefulPartitionedCall/model/conv4_block12_1_conv/Conv2D_bn_offset", "op": "Const", "attr": {"dtype": {"type": "DT_FLOAT"}, "value": {"tensor": {"dtype": "DT_FLOAT", "tensorShape": {"dim": [{"size": "128"}]}}}}}, {"name": "StatefulPartitionedCall/model/conv4_block13_1_conv/Conv2D_weights", "op": "Const", "attr": {"value": {"tensor": {"dtype": "DT_HALF", "tensorShape": {"dim": [{"size": "1"}, {"size": "1"}, {"size": "640"}, {"size": "128"}]}}}, "dtype": {"type": "DT_HALF"}}}, {"name": "StatefulPartitionedCall/model/conv4_block13_1_conv/Conv2D_bn_offset", "op": "Const", "attr": {"value": {"tensor": {"dtype": "DT_FLOAT", "tensorShape": {"dim": [{"size": "128"}]}}}, "dtype": {"type": "DT_FLOAT"}}}, {"name": "StatefulPartitionedCall/model/conv4_block14_1_conv/Conv2D_weights", "op": "Const", "attr": {"value": {"tensor": {"dtype": "DT_HALF", "tensorShape": {"dim": [{"size": "1"}, {"size": "1"}, {"size": "672"}, {"size": "128"}]}}}, "dtype": {"type": "DT_HALF"}}}, {"name": "StatefulPartitionedCall/model/conv4_block14_1_conv/Conv2D_bn_offset", "op": "Const", "attr": {"dtype": {"type": "DT_FLOAT"}, "value": {"tensor": {"dtype": "DT_FLOAT", "tensorShape": {"dim": [{"size": "128"}]}}}}}, {"name": "StatefulPartitionedCall/model/conv4_block15_1_conv/Conv2D_weights", "op": "Const", "attr": {"value": {"tensor": {"dtype": "DT_HALF", "tensorShape": {"dim": [{"size": "1"}, {"size": "1"}, {"size": "704"}, {"size": "128"}]}}}, "dtype": {"type": "DT_HALF"}}}, {"name": "StatefulPartitionedCall/model/conv4_block15_1_conv/Conv2D_bn_offset", "op": "Const", "attr": {"dtype": {"type": "DT_FLOAT"}, "value": {"tensor": {"dtype": "DT_FLOAT", "tensorShape": {"dim": [{"size": "128"}]}}}}}, {"name": "StatefulPartitionedCall/model/conv4_block16_1_conv/Conv2D_weights", "op": "Const", "attr": {"dtype": {"type": "DT_HALF"}, "value": {"tensor": {"dtype": "DT_HALF", "tensorShape": {"dim": [{"size": "1"}, {"size": "1"}, {"size": "736"}, {"size": "128"}]}}}}}, {"name": "StatefulPartitionedCall/model/conv4_block16_1_conv/Conv2D_bn_offset", "op": "Const", "attr": {"dtype": {"type": "DT_FLOAT"}, "value": {"tensor": {"dtype": "DT_FLOAT", "tensorShape": {"dim": [{"size": "128"}]}}}}}, {"name": "StatefulPartitionedCall/model/conv4_block17_1_conv/Conv2D_weights", "op": "Const", "attr": {"dtype": {"type": "DT_HALF"}, "value": {"tensor": {"dtype": "DT_HALF", "tensorShape": {"dim": [{"size": "1"}, {"size": "1"}, {"size": "768"}, {"size": "128"}]}}}}}, {"name": "StatefulPartitionedCall/model/conv4_block17_1_conv/Conv2D_bn_offset", "op": "Const", "attr": {"value": {"tensor": {"dtype": "DT_FLOAT", "tensorShape": {"dim": [{"size": "128"}]}}}, "dtype": {"type": "DT_FLOAT"}}}, {"name": "StatefulPartitionedCall/model/conv4_block18_1_conv/Conv2D_weights", "op": "Const", "attr": {"dtype": {"type": "DT_HALF"}, "value": {"tensor": {"dtype": "DT_HALF", "tensorShape": {"dim": [{"size": "1"}, {"size": "1"}, {"size": "800"}, {"size": "128"}]}}}}}, {"name": "StatefulPartitionedCall/model/conv4_block18_1_conv/Conv2D_bn_offset", "op": "Const", "attr": {"dtype": {"type": "DT_FLOAT"}, "value": {"tensor": {"dtype": "DT_FLOAT", "tensorShape": {"dim": [{"size": "128"}]}}}}}, {"name": "StatefulPartitionedCall/model/conv4_block19_1_conv/Conv2D_weights", "op": "Const", "attr": {"value": {"tensor": {"dtype": "DT_HALF", "tensorShape": {"dim": [{"size": "1"}, {"size": "1"}, {"size": "832"}, {"size": "128"}]}}}, "dtype": {"type": "DT_HALF"}}}, {"name": "StatefulPartitionedCall/model/conv4_block19_1_conv/Conv2D_bn_offset", "op": "Const", "attr": {"value": {"tensor": {"dtype": "DT_FLOAT", "tensorShape": {"dim": [{"size": "128"}]}}}, "dtype": {"type": "DT_FLOAT"}}}, {"name": "StatefulPartitionedCall/model/conv4_block20_1_conv/Conv2D_weights", "op": "Const", "attr": {"value": {"tensor": {"dtype": "DT_HALF", "tensorShape": {"dim": [{"size": "1"}, {"size": "1"}, {"size": "864"}, {"size": "128"}]}}}, "dtype": {"type": "DT_HALF"}}}, {"name": "StatefulPartitionedCall/model/conv4_block20_1_conv/Conv2D_bn_offset", "op": "Const", "attr": {"dtype": {"type": "DT_FLOAT"}, "value": {"tensor": {"dtype": "DT_FLOAT", "tensorShape": {"dim": [{"size": "128"}]}}}}}, {"name": "StatefulPartitionedCall/model/conv4_block21_1_conv/Conv2D_weights", "op": "Const", "attr": {"value": {"tensor": {"dtype": "DT_HALF", "tensorShape": {"dim": [{"size": "1"}, {"size": "1"}, {"size": "896"}, {"size": "128"}]}}}, "dtype": {"type": "DT_HALF"}}}, {"name": "StatefulPartitionedCall/model/conv4_block21_1_conv/Conv2D_bn_offset", "op": "Const", "attr": {"value": {"tensor": {"dtype": "DT_FLOAT", "tensorShape": {"dim": [{"size": "128"}]}}}, "dtype": {"type": "DT_FLOAT"}}}, {"name": "StatefulPartitionedCall/model/conv4_block22_1_conv/Conv2D_weights", "op": "Const", "attr": {"value": {"tensor": {"dtype": "DT_HALF", "tensorShape": {"dim": [{"size": "1"}, {"size": "1"}, {"size": "928"}, {"size": "128"}]}}}, "dtype": {"type": "DT_HALF"}}}, {"name": "StatefulPartitionedCall/model/conv4_block22_1_conv/Conv2D_bn_offset", "op": "Const", "attr": {"dtype": {"type": "DT_FLOAT"}, "value": {"tensor": {"dtype": "DT_FLOAT", "tensorShape": {"dim": [{"size": "128"}]}}}}}, {"name": "StatefulPartitionedCall/model/conv4_block23_1_conv/Conv2D_weights", "op": "Const", "attr": {"value": {"tensor": {"dtype": "DT_HALF", "tensorShape": {"dim": [{"size": "1"}, {"size": "1"}, {"size": "960"}, {"size": "128"}]}}}, "dtype": {"type": "DT_HALF"}}}, {"name": "StatefulPartitionedCall/model/conv4_block23_1_conv/Conv2D_bn_offset", "op": "Const", "attr": {"value": {"tensor": {"dtype": "DT_FLOAT", "tensorShape": {"dim": [{"size": "128"}]}}}, "dtype": {"type": "DT_FLOAT"}}}, {"name": "StatefulPartitionedCall/model/conv4_block24_1_conv/Conv2D_weights", "op": "Const", "attr": {"value": {"tensor": {"dtype": "DT_HALF", "tensorShape": {"dim": [{"size": "1"}, {"size": "1"}, {"size": "992"}, {"size": "128"}]}}}, "dtype": {"type": "DT_HALF"}}}, {"name": "StatefulPartitionedCall/model/conv4_block24_1_conv/Conv2D_bn_offset", "op": "Const", "attr": {"value": {"tensor": {"dtype": "DT_FLOAT", "tensorShape": {"dim": [{"size": "128"}]}}}, "dtype": {"type": "DT_FLOAT"}}}, {"name": "StatefulPartitionedCall/model/conv5_block1_1_conv/Conv2D_weights", "op": "Const", "attr": {"dtype": {"type": "DT_HALF"}, "value": {"tensor": {"dtype": "DT_HALF", "tensorShape": {"dim": [{"size": "1"}, {"size": "1"}, {"size": "512"}, {"size": "128"}]}}}}}, {"name": "StatefulPartitionedCall/model/conv5_block1_1_conv/Conv2D_bn_offset", "op": "Const", "attr": {"value": {"tensor": {"dtype": "DT_FLOAT", "tensorShape": {"dim": [{"size": "128"}]}}}, "dtype": {"type": "DT_FLOAT"}}}, {"name": "StatefulPartitionedCall/model/conv5_block2_1_conv/Conv2D_weights", "op": "Const", "attr": {"value": {"tensor": {"dtype": "DT_HALF", "tensorShape": {"dim": [{"size": "1"}, {"size": "1"}, {"size": "544"}, {"size": "128"}]}}}, "dtype": {"type": "DT_HALF"}}}, {"name": "StatefulPartitionedCall/model/conv5_block2_1_conv/Conv2D_bn_offset", "op": "Const", "attr": {"value": {"tensor": {"dtype": "DT_FLOAT", "tensorShape": {"dim": [{"size": "128"}]}}}, "dtype": {"type": "DT_FLOAT"}}}, {"name": "StatefulPartitionedCall/model/conv5_block3_1_conv/Conv2D_weights", "op": "Const", "attr": {"value": {"tensor": {"dtype": "DT_HALF", "tensorShape": {"dim": [{"size": "1"}, {"size": "1"}, {"size": "576"}, {"size": "128"}]}}}, "dtype": {"type": "DT_HALF"}}}, {"name": "StatefulPartitionedCall/model/conv5_block3_1_conv/Conv2D_bn_offset", "op": "Const", "attr": {"value": {"tensor": {"dtype": "DT_FLOAT", "tensorShape": {"dim": [{"size": "128"}]}}}, "dtype": {"type": "DT_FLOAT"}}}, {"name": "StatefulPartitionedCall/model/conv5_block4_1_conv/Conv2D_weights", "op": "Const", "attr": {"dtype": {"type": "DT_HALF"}, "value": {"tensor": {"dtype": "DT_HALF", "tensorShape": {"dim": [{"size": "1"}, {"size": "1"}, {"size": "608"}, {"size": "128"}]}}}}}, {"name": "StatefulPartitionedCall/model/conv5_block4_1_conv/Conv2D_bn_offset", "op": "Const", "attr": {"value": {"tensor": {"dtype": "DT_FLOAT", "tensorShape": {"dim": [{"size": "128"}]}}}, "dtype": {"type": "DT_FLOAT"}}}, {"name": "StatefulPartitionedCall/model/conv5_block5_1_conv/Conv2D_weights", "op": "Const", "attr": {"dtype": {"type": "DT_HALF"}, "value": {"tensor": {"dtype": "DT_HALF", "tensorShape": {"dim": [{"size": "1"}, {"size": "1"}, {"size": "640"}, {"size": "128"}]}}}}}, {"name": "StatefulPartitionedCall/model/conv5_block5_1_conv/Conv2D_bn_offset", "op": "Const", "attr": {"dtype": {"type": "DT_FLOAT"}, "value": {"tensor": {"dtype": "DT_FLOAT", "tensorShape": {"dim": [{"size": "128"}]}}}}}, {"name": "StatefulPartitionedCall/model/conv5_block6_1_conv/Conv2D_weights", "op": "Const", "attr": {"dtype": {"type": "DT_HALF"}, "value": {"tensor": {"dtype": "DT_HALF", "tensorShape": {"dim": [{"size": "1"}, {"size": "1"}, {"size": "672"}, {"size": "128"}]}}}}}, {"name": "StatefulPartitionedCall/model/conv5_block6_1_conv/Conv2D_bn_offset", "op": "Const", "attr": {"value": {"tensor": {"dtype": "DT_FLOAT", "tensorShape": {"dim": [{"size": "128"}]}}}, "dtype": {"type": "DT_FLOAT"}}}, {"name": "StatefulPartitionedCall/model/conv5_block7_1_conv/Conv2D_weights", "op": "Const", "attr": {"value": {"tensor": {"dtype": "DT_HALF", "tensorShape": {"dim": [{"size": "1"}, {"size": "1"}, {"size": "704"}, {"size": "128"}]}}}, "dtype": {"type": "DT_HALF"}}}, {"name": "StatefulPartitionedCall/model/conv5_block7_1_conv/Conv2D_bn_offset", "op": "Const", "attr": {"dtype": {"type": "DT_FLOAT"}, "value": {"tensor": {"dtype": "DT_FLOAT", "tensorShape": {"dim": [{"size": "128"}]}}}}}, {"name": "StatefulPartitionedCall/model/conv5_block8_1_conv/Conv2D_weights", "op": "Const", "attr": {"value": {"tensor": {"dtype": "DT_HALF", "tensorShape": {"dim": [{"size": "1"}, {"size": "1"}, {"size": "736"}, {"size": "128"}]}}}, "dtype": {"type": "DT_HALF"}}}, {"name": "StatefulPartitionedCall/model/conv5_block8_1_conv/Conv2D_bn_offset", "op": "Const", "attr": {"dtype": {"type": "DT_FLOAT"}, "value": {"tensor": {"dtype": "DT_FLOAT", "tensorShape": {"dim": [{"size": "128"}]}}}}}, {"name": "StatefulPartitionedCall/model/conv5_block9_1_conv/Conv2D_weights", "op": "Const", "attr": {"dtype": {"type": "DT_HALF"}, "value": {"tensor": {"dtype": "DT_HALF", "tensorShape": {"dim": [{"size": "1"}, {"size": "1"}, {"size": "768"}, {"size": "128"}]}}}}}, {"name": "StatefulPartitionedCall/model/conv5_block9_1_conv/Conv2D_bn_offset", "op": "Const", "attr": {"dtype": {"type": "DT_FLOAT"}, "value": {"tensor": {"dtype": "DT_FLOAT", "tensorShape": {"dim": [{"size": "128"}]}}}}}, {"name": "StatefulPartitionedCall/model/conv5_block10_1_conv/Conv2D_weights", "op": "Const", "attr": {"value": {"tensor": {"dtype": "DT_HALF", "tensorShape": {"dim": [{"size": "1"}, {"size": "1"}, {"size": "800"}, {"size": "128"}]}}}, "dtype": {"type": "DT_HALF"}}}, {"name": "StatefulPartitionedCall/model/conv5_block10_1_conv/Conv2D_bn_offset", "op": "Const", "attr": {"value": {"tensor": {"dtype": "DT_FLOAT", "tensorShape": {"dim": [{"size": "128"}]}}}, "dtype": {"type": "DT_FLOAT"}}}, {"name": "StatefulPartitionedCall/model/conv5_block11_1_conv/Conv2D_weights", "op": "Const", "attr": {"dtype": {"type": "DT_HALF"}, "value": {"tensor": {"dtype": "DT_HALF", "tensorShape": {"dim": [{"size": "1"}, {"size": "1"}, {"size": "832"}, {"size": "128"}]}}}}}, {"name": "StatefulPartitionedCall/model/conv5_block11_1_conv/Conv2D_bn_offset", "op": "Const", "attr": {"value": {"tensor": {"dtype": "DT_FLOAT", "tensorShape": {"dim": [{"size": "128"}]}}}, "dtype": {"type": "DT_FLOAT"}}}, {"name": "StatefulPartitionedCall/model/conv5_block12_1_conv/Conv2D_weights", "op": "Const", "attr": {"dtype": {"type": "DT_HALF"}, "value": {"tensor": {"dtype": "DT_HALF", "tensorShape": {"dim": [{"size": "1"}, {"size": "1"}, {"size": "864"}, {"size": "128"}]}}}}}, {"name": "StatefulPartitionedCall/model/conv5_block12_1_conv/Conv2D_bn_offset", "op": "Const", "attr": {"value": {"tensor": {"dtype": "DT_FLOAT", "tensorShape": {"dim": [{"size": "128"}]}}}, "dtype": {"type": "DT_FLOAT"}}}, {"name": "StatefulPartitionedCall/model/conv5_block13_1_conv/Conv2D_weights", "op": "Const", "attr": {"dtype": {"type": "DT_HALF"}, "value": {"tensor": {"dtype": "DT_HALF", "tensorShape": {"dim": [{"size": "1"}, {"size": "1"}, {"size": "896"}, {"size": "128"}]}}}}}, {"name": "StatefulPartitionedCall/model/conv5_block13_1_conv/Conv2D_bn_offset", "op": "Const", "attr": {"dtype": {"type": "DT_FLOAT"}, "value": {"tensor": {"dtype": "DT_FLOAT", "tensorShape": {"dim": [{"size": "128"}]}}}}}, {"name": "StatefulPartitionedCall/model/conv5_block14_1_conv/Conv2D_weights", "op": "Const", "attr": {"dtype": {"type": "DT_HALF"}, "value": {"tensor": {"dtype": "DT_HALF", "tensorShape": {"dim": [{"size": "1"}, {"size": "1"}, {"size": "928"}, {"size": "128"}]}}}}}, {"name": "StatefulPartitionedCall/model/conv5_block14_1_conv/Conv2D_bn_offset", "op": "Const", "attr": {"dtype": {"type": "DT_FLOAT"}, "value": {"tensor": {"dtype": "DT_FLOAT", "tensorShape": {"dim": [{"size": "128"}]}}}}}, {"name": "StatefulPartitionedCall/model/conv5_block15_1_conv/Conv2D_weights", "op": "Const", "attr": {"dtype": {"type": "DT_HALF"}, "value": {"tensor": {"dtype": "DT_HALF", "tensorShape": {"dim": [{"size": "1"}, {"size": "1"}, {"size": "960"}, {"size": "128"}]}}}}}, {"name": "StatefulPartitionedCall/model/conv5_block15_1_conv/Conv2D_bn_offset", "op": "Const", "attr": {"value": {"tensor": {"dtype": "DT_FLOAT", "tensorShape": {"dim": [{"size": "128"}]}}}, "dtype": {"type": "DT_FLOAT"}}}, {"name": "StatefulPartitionedCall/model/conv5_block16_1_conv/Conv2D_weights", "op": "Const", "attr": {"value": {"tensor": {"dtype": "DT_HALF", "tensorShape": {"dim": [{"size": "1"}, {"size": "1"}, {"size": "992"}, {"size": "128"}]}}}, "dtype": {"type": "DT_HALF"}}}, {"name": "StatefulPartitionedCall/model/conv5_block16_1_conv/Conv2D_bn_offset", "op": "Const", "attr": {"value": {"tensor": {"dtype": "DT_FLOAT", "tensorShape": {"dim": [{"size": "128"}]}}}, "dtype": {"type": "DT_FLOAT"}}}, {"name": "StatefulPartitionedCall/model/zero_padding2d/Cast", "op": "Cast", "input": ["input"], "attr": {"Truncate": {"b": false}, "DstT": {"type": "DT_HALF"}, "SrcT": {"type": "DT_FLOAT"}}}, {"name": "StatefulPartitionedCall/model/zero_padding2d/Pad", "op": "Pad", "input": ["StatefulPartitionedCall/model/zero_padding2d/Cast", "StatefulPartitionedCall/model/zero_padding2d/Pad/paddings"], "attr": {"T": {"type": "DT_HALF"}, "Tpaddings": {"type": "DT_INT32"}}}, {"name": "StatefulPartitionedCall/model/conv1/conv/Conv2D", "op": "Conv2D", "input": ["StatefulPartitionedCall/model/zero_padding2d/Pad", "StatefulPartitionedCall/model/conv1/conv/Conv2D_weights"], "device": "/device:CPU:0", "attr": {"T": {"type": "DT_HALF"}, "dilations": {"list": {"i": ["1", "1", "1", "1"]}}, "data_format": {"s": "TkhXQw=="}, "padding": {"s": "VkFMSUQ="}, "strides": {"list": {"i": ["1", "2", "2", "1"]}}, "use_cudnn_on_gpu": {"b": true}, "explicit_paddings": {"list": {}}}}, {"name": "StatefulPartitionedCall/model/conv1/bn/FusedBatchNormV3", "op": "BiasAdd", "input": ["StatefulPartitionedCall/model/conv1/conv/Conv2D", "StatefulPartitionedCall/model/conv1/conv/Conv2D_bn_offset"], "attr": {"T": {"type": "DT_HALF"}, "data_format": {"s": "TkhXQw=="}}}, {"name": "StatefulPartitionedCall/model/conv1/relu/Relu", "op": "Relu", "input": ["StatefulPartitionedCall/model/conv1/bn/FusedBatchNormV3"], "attr": {"T": {"type": "DT_HALF"}}}, {"name": "StatefulPartitionedCall/model/zero_padding2d_1/Pad", "op": "Pad", "input": ["StatefulPartitionedCall/model/conv1/relu/Relu", "StatefulPartitionedCall/model/zero_padding2d_1/Pad/paddings"], "attr": {"T": {"type": "DT_HALF"}, "Tpaddings": {"type": "DT_INT32"}}}, {"name": "StatefulPartitionedCall/model/pool1/MaxPool", "op": "MaxPool", "input": ["StatefulPartitionedCall/model/zero_padding2d_1/Pad"], "attr": {"padding": {"s": "VkFMSUQ="}, "explicit_paddings": {"list": {}}, "data_format": {"s": "TkhXQw=="}, "strides": {"list": {"i": ["1", "2", "2", "1"]}}, "ksize": {"list": {"i": ["1", "3", "3", "1"]}}, "T": {"type": "DT_HALF"}}}, {"name": "StatefulPartitionedCall/model/conv2_block1_0_bn/FusedBatchNormV3", "op": "FusedBatchNormV3", "input": ["StatefulPartitionedCall/model/pool1/MaxPool", "StatefulPartitionedCall/model/conv2_block1_0_bn/ReadVariableOp", "StatefulPartitionedCall/model/conv2_block1_0_bn/ReadVariableOp_1", "StatefulPartitionedCall/model/conv2_block1_0_bn/FusedBatchNormV3/ReadVariableOp", "StatefulPartitionedCall/model/conv2_block1_0_bn/FusedBatchNormV3/ReadVariableOp_1"], "attr": {"T": {"type": "DT_HALF"}, "U": {"type": "DT_FLOAT"}, "epsilon": {"f": 1.001e-05}, "data_format": {"s": "TkhXQw=="}, "exponential_avg_factor": {"f": 1.0}, "is_training": {"b": false}}}, {"name": "StatefulPartitionedCall/model/conv2_block1_0_relu/Relu", "op": "Relu", "input": ["StatefulPartitionedCall/model/conv2_block1_0_bn/FusedBatchNormV3"], "attr": {"T": {"type": "DT_HALF"}}}, {"name": "StatefulPartitionedCall/model/conv2_block1_1_conv/Conv2D", "op": "Conv2D", "input": ["StatefulPartitionedCall/model/conv2_block1_0_relu/Relu", "StatefulPartitionedCall/model/conv2_block1_1_conv/Conv2D_weights"], "device": "/device:CPU:0", "attr": {"dilations": {"list": {"i": ["1", "1", "1", "1"]}}, "T": {"type": "DT_HALF"}, "explicit_paddings": {"list": {}}, "padding": {"s": "VkFMSUQ="}, "use_cudnn_on_gpu": {"b": true}, "strides": {"list": {"i": ["1", "1", "1", "1"]}}, "data_format": {"s": "TkhXQw=="}}}, {"name": "StatefulPartitionedCall/model/conv2_block1_1_bn/FusedBatchNormV3", "op": "BiasAdd", "input": ["StatefulPartitionedCall/model/conv2_block1_1_conv/Conv2D", "StatefulPartitionedCall/model/conv2_block1_1_conv/Conv2D_bn_offset"], "attr": {"data_format": {"s": "TkhXQw=="}, "T": {"type": "DT_HALF"}}}, {"name": "StatefulPartitionedCall/model/conv2_block1_1_relu/Relu", "op": "Relu", "input": ["StatefulPartitionedCall/model/conv2_block1_1_bn/FusedBatchNormV3"], "attr": {"T": {"type": "DT_HALF"}}}, {"name": "StatefulPartitionedCall/model/conv2_block1_2_conv/Conv2D", "op": "Conv2D", "input": ["StatefulPartitionedCall/model/conv2_block1_1_relu/Relu", "StatefulPartitionedCall/model/conv2_block1_2_conv/Conv2D/Cast"], "device": "/device:CPU:0", "attr": {"padding": {"s": "U0FNRQ=="}, "use_cudnn_on_gpu": {"b": true}, "dilations": {"list": {"i": ["1", "1", "1", "1"]}}, "strides": {"list": {"i": ["1", "1", "1", "1"]}}, "T": {"type": "DT_HALF"}, "data_format": {"s": "TkhXQw=="}, "explicit_paddings": {"list": {}}}}, {"name": "StatefulPartitionedCall/model/conv2_block1_concat/concat", "op": "ConcatV2", "input": ["StatefulPartitionedCall/model/pool1/MaxPool", "StatefulPartitionedCall/model/conv2_block1_2_conv/Conv2D", "StatefulPartitionedCall/model/conv2_block1_concat/concat/axis"], "attr": {"T": {"type": "DT_HALF"}, "N": {"i": "2"}, "Tidx": {"type": "DT_INT32"}}}, {"name": "StatefulPartitionedCall/model/conv2_block2_0_bn/FusedBatchNormV3", "op": "FusedBatchNormV3", "input": ["StatefulPartitionedCall/model/conv2_block1_concat/concat", "StatefulPartitionedCall/model/conv2_block2_0_bn/ReadVariableOp", "StatefulPartitionedCall/model/conv2_block2_0_bn/ReadVariableOp_1", "StatefulPartitionedCall/model/conv2_block2_0_bn/FusedBatchNormV3/ReadVariableOp", "StatefulPartitionedCall/model/conv2_block2_0_bn/FusedBatchNormV3/ReadVariableOp_1"], "attr": {"data_format": {"s": "TkhXQw=="}, "is_training": {"b": false}, "exponential_avg_factor": {"f": 1.0}, "epsilon": {"f": 1.001e-05}, "T": {"type": "DT_HALF"}, "U": {"type": "DT_FLOAT"}}}, {"name": "StatefulPartitionedCall/model/conv2_block2_0_relu/Relu", "op": "Relu", "input": ["StatefulPartitionedCall/model/conv2_block2_0_bn/FusedBatchNormV3"], "attr": {"T": {"type": "DT_HALF"}}}, {"name": "StatefulPartitionedCall/model/conv2_block2_1_conv/Conv2D", "op": "Conv2D", "input": ["StatefulPartitionedCall/model/conv2_block2_0_relu/Relu", "StatefulPartitionedCall/model/conv2_block2_1_conv/Conv2D_weights"], "device": "/device:CPU:0", "attr": {"T": {"type": "DT_HALF"}, "dilations": {"list": {"i": ["1", "1", "1", "1"]}}, "strides": {"list": {"i": ["1", "1", "1", "1"]}}, "explicit_paddings": {"list": {}}, "data_format": {"s": "TkhXQw=="}, "use_cudnn_on_gpu": {"b": true}, "padding": {"s": "VkFMSUQ="}}}, {"name": "StatefulPartitionedCall/model/conv2_block2_1_bn/FusedBatchNormV3", "op": "BiasAdd", "input": ["StatefulPartitionedCall/model/conv2_block2_1_conv/Conv2D", "StatefulPartitionedCall/model/conv2_block2_1_conv/Conv2D_bn_offset"], "attr": {"data_format": {"s": "TkhXQw=="}, "T": {"type": "DT_HALF"}}}, {"name": "StatefulPartitionedCall/model/conv2_block2_1_relu/Relu", "op": "Relu", "input": ["StatefulPartitionedCall/model/conv2_block2_1_bn/FusedBatchNormV3"], "attr": {"T": {"type": "DT_HALF"}}}, {"name": "StatefulPartitionedCall/model/conv2_block2_2_conv/Conv2D", "op": "Conv2D", "input": ["StatefulPartitionedCall/model/conv2_block2_1_relu/Relu", "StatefulPartitionedCall/model/conv2_block2_2_conv/Conv2D/Cast"], "device": "/device:CPU:0", "attr": {"explicit_paddings": {"list": {}}, "T": {"type": "DT_HALF"}, "dilations": {"list": {"i": ["1", "1", "1", "1"]}}, "padding": {"s": "U0FNRQ=="}, "strides": {"list": {"i": ["1", "1", "1", "1"]}}, "use_cudnn_on_gpu": {"b": true}, "data_format": {"s": "TkhXQw=="}}}, {"name": "StatefulPartitionedCall/model/conv2_block2_concat/concat", "op": "ConcatV2", "input": ["StatefulPartitionedCall/model/conv2_block1_concat/concat", "StatefulPartitionedCall/model/conv2_block2_2_conv/Conv2D", "StatefulPartitionedCall/model/conv2_block2_concat/concat/axis"], "attr": {"Tidx": {"type": "DT_INT32"}, "N": {"i": "2"}, "T": {"type": "DT_HALF"}}}, {"name": "StatefulPartitionedCall/model/conv2_block3_0_bn/FusedBatchNormV3", "op": "FusedBatchNormV3", "input": ["StatefulPartitionedCall/model/conv2_block2_concat/concat", "StatefulPartitionedCall/model/conv2_block3_0_bn/ReadVariableOp", "StatefulPartitionedCall/model/conv2_block3_0_bn/ReadVariableOp_1", "StatefulPartitionedCall/model/conv2_block3_0_bn/FusedBatchNormV3/ReadVariableOp", "StatefulPartitionedCall/model/conv2_block3_0_bn/FusedBatchNormV3/ReadVariableOp_1"], "attr": {"epsilon": {"f": 1.001e-05}, "exponential_avg_factor": {"f": 1.0}, "T": {"type": "DT_HALF"}, "data_format": {"s": "TkhXQw=="}, "U": {"type": "DT_FLOAT"}, "is_training": {"b": false}}}, {"name": "StatefulPartitionedCall/model/conv2_block3_0_relu/Relu", "op": "Relu", "input": ["StatefulPartitionedCall/model/conv2_block3_0_bn/FusedBatchNormV3"], "attr": {"T": {"type": "DT_HALF"}}}, {"name": "StatefulPartitionedCall/model/conv2_block3_1_conv/Conv2D", "op": "Conv2D", "input": ["StatefulPartitionedCall/model/conv2_block3_0_relu/Relu", "StatefulPartitionedCall/model/conv2_block3_1_conv/Conv2D_weights"], "device": "/device:CPU:0", "attr": {"explicit_paddings": {"list": {}}, "dilations": {"list": {"i": ["1", "1", "1", "1"]}}, "use_cudnn_on_gpu": {"b": true}, "T": {"type": "DT_HALF"}, "strides": {"list": {"i": ["1", "1", "1", "1"]}}, "padding": {"s": "VkFMSUQ="}, "data_format": {"s": "TkhXQw=="}}}, {"name": "StatefulPartitionedCall/model/conv2_block3_1_bn/FusedBatchNormV3", "op": "BiasAdd", "input": ["StatefulPartitionedCall/model/conv2_block3_1_conv/Conv2D", "StatefulPartitionedCall/model/conv2_block3_1_conv/Conv2D_bn_offset"], "attr": {"data_format": {"s": "TkhXQw=="}, "T": {"type": "DT_HALF"}}}, {"name": "StatefulPartitionedCall/model/conv2_block3_1_relu/Relu", "op": "Relu", "input": ["StatefulPartitionedCall/model/conv2_block3_1_bn/FusedBatchNormV3"], "attr": {"T": {"type": "DT_HALF"}}}, {"name": "StatefulPartitionedCall/model/conv2_block3_2_conv/Conv2D", "op": "Conv2D", "input": ["StatefulPartitionedCall/model/conv2_block3_1_relu/Relu", "StatefulPartitionedCall/model/conv2_block3_2_conv/Conv2D/Cast"], "device": "/device:CPU:0", "attr": {"data_format": {"s": "TkhXQw=="}, "strides": {"list": {"i": ["1", "1", "1", "1"]}}, "dilations": {"list": {"i": ["1", "1", "1", "1"]}}, "T": {"type": "DT_HALF"}, "explicit_paddings": {"list": {}}, "padding": {"s": "U0FNRQ=="}, "use_cudnn_on_gpu": {"b": true}}}, {"name": "StatefulPartitionedCall/model/conv2_block3_concat/concat", "op": "ConcatV2", "input": ["StatefulPartitionedCall/model/conv2_block2_concat/concat", "StatefulPartitionedCall/model/conv2_block3_2_conv/Conv2D", "StatefulPartitionedCall/model/conv2_block3_concat/concat/axis"], "attr": {"N": {"i": "2"}, "Tidx": {"type": "DT_INT32"}, "T": {"type": "DT_HALF"}}}, {"name": "StatefulPartitionedCall/model/conv2_block4_0_bn/FusedBatchNormV3", "op": "FusedBatchNormV3", "input": ["StatefulPartitionedCall/model/conv2_block3_concat/concat", "StatefulPartitionedCall/model/conv2_block4_0_bn/ReadVariableOp", "StatefulPartitionedCall/model/conv2_block4_0_bn/ReadVariableOp_1", "StatefulPartitionedCall/model/conv2_block4_0_bn/FusedBatchNormV3/ReadVariableOp", "StatefulPartitionedCall/model/conv2_block4_0_bn/FusedBatchNormV3/ReadVariableOp_1"], "attr": {"T": {"type": "DT_HALF"}, "epsilon": {"f": 1.001e-05}, "U": {"type": "DT_FLOAT"}, "exponential_avg_factor": {"f": 1.0}, "is_training": {"b": false}, "data_format": {"s": "TkhXQw=="}}}, {"name": "StatefulPartitionedCall/model/conv2_block4_0_relu/Relu", "op": "Relu", "input": ["StatefulPartitionedCall/model/conv2_block4_0_bn/FusedBatchNormV3"], "attr": {"T": {"type": "DT_HALF"}}}, {"name": "StatefulPartitionedCall/model/conv2_block4_1_conv/Conv2D", "op": "Conv2D", "input": ["StatefulPartitionedCall/model/conv2_block4_0_relu/Relu", "StatefulPartitionedCall/model/conv2_block4_1_conv/Conv2D_weights"], "device": "/device:CPU:0", "attr": {"strides": {"list": {"i": ["1", "1", "1", "1"]}}, "padding": {"s": "VkFMSUQ="}, "use_cudnn_on_gpu": {"b": true}, "data_format": {"s": "TkhXQw=="}, "dilations": {"list": {"i": ["1", "1", "1", "1"]}}, "T": {"type": "DT_HALF"}, "explicit_paddings": {"list": {}}}}, {"name": "StatefulPartitionedCall/model/conv2_block4_1_bn/FusedBatchNormV3", "op": "BiasAdd", "input": ["StatefulPartitionedCall/model/conv2_block4_1_conv/Conv2D", "StatefulPartitionedCall/model/conv2_block4_1_conv/Conv2D_bn_offset"], "attr": {"data_format": {"s": "TkhXQw=="}, "T": {"type": "DT_HALF"}}}, {"name": "StatefulPartitionedCall/model/conv2_block4_1_relu/Relu", "op": "Relu", "input": ["StatefulPartitionedCall/model/conv2_block4_1_bn/FusedBatchNormV3"], "attr": {"T": {"type": "DT_HALF"}}}, {"name": "StatefulPartitionedCall/model/conv2_block4_2_conv/Conv2D", "op": "Conv2D", "input": ["StatefulPartitionedCall/model/conv2_block4_1_relu/Relu", "StatefulPartitionedCall/model/conv2_block4_2_conv/Conv2D/Cast"], "device": "/device:CPU:0", "attr": {"T": {"type": "DT_HALF"}, "explicit_paddings": {"list": {}}, "data_format": {"s": "TkhXQw=="}, "padding": {"s": "U0FNRQ=="}, "dilations": {"list": {"i": ["1", "1", "1", "1"]}}, "use_cudnn_on_gpu": {"b": true}, "strides": {"list": {"i": ["1", "1", "1", "1"]}}}}, {"name": "StatefulPartitionedCall/model/conv2_block4_concat/concat", "op": "ConcatV2", "input": ["StatefulPartitionedCall/model/conv2_block3_concat/concat", "StatefulPartitionedCall/model/conv2_block4_2_conv/Conv2D", "StatefulPartitionedCall/model/conv2_block4_concat/concat/axis"], "attr": {"T": {"type": "DT_HALF"}, "N": {"i": "2"}, "Tidx": {"type": "DT_INT32"}}}, {"name": "StatefulPartitionedCall/model/conv2_block5_0_bn/FusedBatchNormV3", "op": "FusedBatchNormV3", "input": ["StatefulPartitionedCall/model/conv2_block4_concat/concat", "StatefulPartitionedCall/model/conv2_block5_0_bn/ReadVariableOp", "StatefulPartitionedCall/model/conv2_block5_0_bn/ReadVariableOp_1", "StatefulPartitionedCall/model/conv2_block5_0_bn/FusedBatchNormV3/ReadVariableOp", "StatefulPartitionedCall/model/conv2_block5_0_bn/FusedBatchNormV3/ReadVariableOp_1"], "attr": {"exponential_avg_factor": {"f": 1.0}, "U": {"type": "DT_FLOAT"}, "data_format": {"s": "TkhXQw=="}, "T": {"type": "DT_HALF"}, "is_training": {"b": false}, "epsilon": {"f": 1.001e-05}}}, {"name": "StatefulPartitionedCall/model/conv2_block5_0_relu/Relu", "op": "Relu", "input": ["StatefulPartitionedCall/model/conv2_block5_0_bn/FusedBatchNormV3"], "attr": {"T": {"type": "DT_HALF"}}}, {"name": "StatefulPartitionedCall/model/conv2_block5_1_conv/Conv2D", "op": "Conv2D", "input": ["StatefulPartitionedCall/model/conv2_block5_0_relu/Relu", "StatefulPartitionedCall/model/conv2_block5_1_conv/Conv2D_weights"], "device": "/device:CPU:0", "attr": {"strides": {"list": {"i": ["1", "1", "1", "1"]}}, "data_format": {"s": "TkhXQw=="}, "explicit_paddings": {"list": {}}, "padding": {"s": "VkFMSUQ="}, "use_cudnn_on_gpu": {"b": true}, "dilations": {"list": {"i": ["1", "1", "1", "1"]}}, "T": {"type": "DT_HALF"}}}, {"name": "StatefulPartitionedCall/model/conv2_block5_1_bn/FusedBatchNormV3", "op": "BiasAdd", "input": ["StatefulPartitionedCall/model/conv2_block5_1_conv/Conv2D", "StatefulPartitionedCall/model/conv2_block5_1_conv/Conv2D_bn_offset"], "attr": {"T": {"type": "DT_HALF"}, "data_format": {"s": "TkhXQw=="}}}, {"name": "StatefulPartitionedCall/model/conv2_block5_1_relu/Relu", "op": "Relu", "input": ["StatefulPartitionedCall/model/conv2_block5_1_bn/FusedBatchNormV3"], "attr": {"T": {"type": "DT_HALF"}}}, {"name": "StatefulPartitionedCall/model/conv2_block5_2_conv/Conv2D", "op": "Conv2D", "input": ["StatefulPartitionedCall/model/conv2_block5_1_relu/Relu", "StatefulPartitionedCall/model/conv2_block5_2_conv/Conv2D/Cast"], "device": "/device:CPU:0", "attr": {"data_format": {"s": "TkhXQw=="}, "explicit_paddings": {"list": {}}, "use_cudnn_on_gpu": {"b": true}, "dilations": {"list": {"i": ["1", "1", "1", "1"]}}, "T": {"type": "DT_HALF"}, "padding": {"s": "U0FNRQ=="}, "strides": {"list": {"i": ["1", "1", "1", "1"]}}}}, {"name": "StatefulPartitionedCall/model/conv2_block5_concat/concat", "op": "ConcatV2", "input": ["StatefulPartitionedCall/model/conv2_block4_concat/concat", "StatefulPartitionedCall/model/conv2_block5_2_conv/Conv2D", "StatefulPartitionedCall/model/conv2_block5_concat/concat/axis"], "attr": {"Tidx": {"type": "DT_INT32"}, "N": {"i": "2"}, "T": {"type": "DT_HALF"}}}, {"name": "StatefulPartitionedCall/model/conv2_block6_0_bn/FusedBatchNormV3", "op": "FusedBatchNormV3", "input": ["StatefulPartitionedCall/model/conv2_block5_concat/concat", "StatefulPartitionedCall/model/conv2_block6_0_bn/ReadVariableOp", "StatefulPartitionedCall/model/conv2_block6_0_bn/ReadVariableOp_1", "StatefulPartitionedCall/model/conv2_block6_0_bn/FusedBatchNormV3/ReadVariableOp", "StatefulPartitionedCall/model/conv2_block6_0_bn/FusedBatchNormV3/ReadVariableOp_1"], "attr": {"epsilon": {"f": 1.001e-05}, "is_training": {"b": false}, "U": {"type": "DT_FLOAT"}, "T": {"type": "DT_HALF"}, "exponential_avg_factor": {"f": 1.0}, "data_format": {"s": "TkhXQw=="}}}, {"name": "StatefulPartitionedCall/model/conv2_block6_0_relu/Relu", "op": "Relu", "input": ["StatefulPartitionedCall/model/conv2_block6_0_bn/FusedBatchNormV3"], "attr": {"T": {"type": "DT_HALF"}}}, {"name": "StatefulPartitionedCall/model/conv2_block6_1_conv/Conv2D", "op": "Conv2D", "input": ["StatefulPartitionedCall/model/conv2_block6_0_relu/Relu", "StatefulPartitionedCall/model/conv2_block6_1_conv/Conv2D_weights"], "device": "/device:CPU:0", "attr": {"data_format": {"s": "TkhXQw=="}, "T": {"type": "DT_HALF"}, "strides": {"list": {"i": ["1", "1", "1", "1"]}}, "use_cudnn_on_gpu": {"b": true}, "padding": {"s": "VkFMSUQ="}, "dilations": {"list": {"i": ["1", "1", "1", "1"]}}, "explicit_paddings": {"list": {}}}}, {"name": "StatefulPartitionedCall/model/conv2_block6_1_bn/FusedBatchNormV3", "op": "BiasAdd", "input": ["StatefulPartitionedCall/model/conv2_block6_1_conv/Conv2D", "StatefulPartitionedCall/model/conv2_block6_1_conv/Conv2D_bn_offset"], "attr": {"data_format": {"s": "TkhXQw=="}, "T": {"type": "DT_HALF"}}}, {"name": "StatefulPartitionedCall/model/conv2_block6_1_relu/Relu", "op": "Relu", "input": ["StatefulPartitionedCall/model/conv2_block6_1_bn/FusedBatchNormV3"], "attr": {"T": {"type": "DT_HALF"}}}, {"name": "StatefulPartitionedCall/model/conv2_block6_2_conv/Conv2D", "op": "Conv2D", "input": ["StatefulPartitionedCall/model/conv2_block6_1_relu/Relu", "StatefulPartitionedCall/model/conv2_block6_2_conv/Conv2D/Cast"], "device": "/device:CPU:0", "attr": {"dilations": {"list": {"i": ["1", "1", "1", "1"]}}, "T": {"type": "DT_HALF"}, "use_cudnn_on_gpu": {"b": true}, "data_format": {"s": "TkhXQw=="}, "padding": {"s": "U0FNRQ=="}, "explicit_paddings": {"list": {}}, "strides": {"list": {"i": ["1", "1", "1", "1"]}}}}, {"name": "StatefulPartitionedCall/model/conv2_block6_concat/concat", "op": "ConcatV2", "input": ["StatefulPartitionedCall/model/conv2_block5_concat/concat", "StatefulPartitionedCall/model/conv2_block6_2_conv/Conv2D", "StatefulPartitionedCall/model/conv2_block6_concat/concat/axis"], "attr": {"T": {"type": "DT_HALF"}, "Tidx": {"type": "DT_INT32"}, "N": {"i": "2"}}}, {"name": "StatefulPartitionedCall/model/pool2_bn/FusedBatchNormV3", "op": "FusedBatchNormV3", "input": ["StatefulPartitionedCall/model/conv2_block6_concat/concat", "StatefulPartitionedCall/model/pool2_bn/ReadVariableOp", "StatefulPartitionedCall/model/pool2_bn/ReadVariableOp_1", "StatefulPartitionedCall/model/pool2_bn/FusedBatchNormV3/ReadVariableOp", "StatefulPartitionedCall/model/pool2_bn/FusedBatchNormV3/ReadVariableOp_1"], "attr": {"epsilon": {"f": 1.001e-05}, "data_format": {"s": "TkhXQw=="}, "is_training": {"b": false}, "T": {"type": "DT_HALF"}, "exponential_avg_factor": {"f": 1.0}, "U": {"type": "DT_FLOAT"}}}, {"name": "StatefulPartitionedCall/model/pool2_relu/Relu", "op": "Relu", "input": ["StatefulPartitionedCall/model/pool2_bn/FusedBatchNormV3"], "attr": {"T": {"type": "DT_HALF"}}}, {"name": "StatefulPartitionedCall/model/pool2_conv/Conv2D", "op": "Conv2D", "input": ["StatefulPartitionedCall/model/pool2_relu/Relu", "StatefulPartitionedCall/model/pool2_conv/Conv2D/Cast"], "device": "/device:CPU:0", "attr": {"dilations": {"list": {"i": ["1", "1", "1", "1"]}}, "padding": {"s": "VkFMSUQ="}, "use_cudnn_on_gpu": {"b": true}, "strides": {"list": {"i": ["1", "1", "1", "1"]}}, "data_format": {"s": "TkhXQw=="}, "T": {"type": "DT_HALF"}, "explicit_paddings": {"list": {}}}}, {"name": "StatefulPartitionedCall/model/pool2_pool/AvgPool", "op": "AvgPool", "input": ["StatefulPartitionedCall/model/pool2_conv/Conv2D"], "attr": {"T": {"type": "DT_HALF"}, "data_format": {"s": "TkhXQw=="}, "padding": {"s": "VkFMSUQ="}, "ksize": {"list": {"i": ["1", "2", "2", "1"]}}, "strides": {"list": {"i": ["1", "2", "2", "1"]}}}}, {"name": "StatefulPartitionedCall/model/conv3_block1_0_bn/FusedBatchNormV3", "op": "FusedBatchNormV3", "input": ["StatefulPartitionedCall/model/pool2_pool/AvgPool", "StatefulPartitionedCall/model/conv3_block1_0_bn/ReadVariableOp", "StatefulPartitionedCall/model/conv3_block1_0_bn/ReadVariableOp_1", "StatefulPartitionedCall/model/conv3_block1_0_bn/FusedBatchNormV3/ReadVariableOp", "StatefulPartitionedCall/model/conv3_block1_0_bn/FusedBatchNormV3/ReadVariableOp_1"], "attr": {"T": {"type": "DT_HALF"}, "exponential_avg_factor": {"f": 1.0}, "is_training": {"b": false}, "U": {"type": "DT_FLOAT"}, "epsilon": {"f": 1.001e-05}, "data_format": {"s": "TkhXQw=="}}}, {"name": "StatefulPartitionedCall/model/conv3_block1_0_relu/Relu", "op": "Relu", "input": ["StatefulPartitionedCall/model/conv3_block1_0_bn/FusedBatchNormV3"], "attr": {"T": {"type": "DT_HALF"}}}, {"name": "StatefulPartitionedCall/model/conv3_block1_1_conv/Conv2D", "op": "Conv2D", "input": ["StatefulPartitionedCall/model/conv3_block1_0_relu/Relu", "StatefulPartitionedCall/model/conv3_block1_1_conv/Conv2D_weights"], "device": "/device:CPU:0", "attr": {"padding": {"s": "VkFMSUQ="}, "T": {"type": "DT_HALF"}, "strides": {"list": {"i": ["1", "1", "1", "1"]}}, "data_format": {"s": "TkhXQw=="}, "use_cudnn_on_gpu": {"b": true}, "dilations": {"list": {"i": ["1", "1", "1", "1"]}}, "explicit_paddings": {"list": {}}}}, {"name": "StatefulPartitionedCall/model/conv3_block1_1_bn/FusedBatchNormV3", "op": "BiasAdd", "input": ["StatefulPartitionedCall/model/conv3_block1_1_conv/Conv2D", "StatefulPartitionedCall/model/conv3_block1_1_conv/Conv2D_bn_offset"], "attr": {"T": {"type": "DT_HALF"}, "data_format": {"s": "TkhXQw=="}}}, {"name": "StatefulPartitionedCall/model/conv3_block1_1_relu/Relu", "op": "Relu", "input": ["StatefulPartitionedCall/model/conv3_block1_1_bn/FusedBatchNormV3"], "attr": {"T": {"type": "DT_HALF"}}}, {"name": "StatefulPartitionedCall/model/conv3_block1_2_conv/Conv2D", "op": "Conv2D", "input": ["StatefulPartitionedCall/model/conv3_block1_1_relu/Relu", "StatefulPartitionedCall/model/conv3_block1_2_conv/Conv2D/Cast"], "device": "/device:CPU:0", "attr": {"T": {"type": "DT_HALF"}, "use_cudnn_on_gpu": {"b": true}, "dilations": {"list": {"i": ["1", "1", "1", "1"]}}, "data_format": {"s": "TkhXQw=="}, "explicit_paddings": {"list": {}}, "strides": {"list": {"i": ["1", "1", "1", "1"]}}, "padding": {"s": "U0FNRQ=="}}}, {"name": "StatefulPartitionedCall/model/conv3_block1_concat/concat", "op": "ConcatV2", "input": ["StatefulPartitionedCall/model/pool2_pool/AvgPool", "StatefulPartitionedCall/model/conv3_block1_2_conv/Conv2D", "StatefulPartitionedCall/model/conv3_block1_concat/concat/axis"], "attr": {"N": {"i": "2"}, "Tidx": {"type": "DT_INT32"}, "T": {"type": "DT_HALF"}}}, {"name": "StatefulPartitionedCall/model/conv3_block2_0_bn/FusedBatchNormV3", "op": "FusedBatchNormV3", "input": ["StatefulPartitionedCall/model/conv3_block1_concat/concat", "StatefulPartitionedCall/model/conv3_block2_0_bn/ReadVariableOp", "StatefulPartitionedCall/model/conv3_block2_0_bn/ReadVariableOp_1", "StatefulPartitionedCall/model/conv3_block2_0_bn/FusedBatchNormV3/ReadVariableOp", "StatefulPartitionedCall/model/conv3_block2_0_bn/FusedBatchNormV3/ReadVariableOp_1"], "attr": {"U": {"type": "DT_FLOAT"}, "exponential_avg_factor": {"f": 1.0}, "is_training": {"b": false}, "data_format": {"s": "TkhXQw=="}, "epsilon": {"f": 1.001e-05}, "T": {"type": "DT_HALF"}}}, {"name": "StatefulPartitionedCall/model/conv3_block2_0_relu/Relu", "op": "Relu", "input": ["StatefulPartitionedCall/model/conv3_block2_0_bn/FusedBatchNormV3"], "attr": {"T": {"type": "DT_HALF"}}}, {"name": "StatefulPartitionedCall/model/conv3_block2_1_conv/Conv2D", "op": "Conv2D", "input": ["StatefulPartitionedCall/model/conv3_block2_0_relu/Relu", "StatefulPartitionedCall/model/conv3_block2_1_conv/Conv2D_weights"], "device": "/device:CPU:0", "attr": {"explicit_paddings": {"list": {}}, "dilations": {"list": {"i": ["1", "1", "1", "1"]}}, "padding": {"s": "VkFMSUQ="}, "use_cudnn_on_gpu": {"b": true}, "data_format": {"s": "TkhXQw=="}, "T": {"type": "DT_HALF"}, "strides": {"list": {"i": ["1", "1", "1", "1"]}}}}, {"name": "StatefulPartitionedCall/model/conv3_block2_1_bn/FusedBatchNormV3", "op": "BiasAdd", "input": ["StatefulPartitionedCall/model/conv3_block2_1_conv/Conv2D", "StatefulPartitionedCall/model/conv3_block2_1_conv/Conv2D_bn_offset"], "attr": {"data_format": {"s": "TkhXQw=="}, "T": {"type": "DT_HALF"}}}, {"name": "StatefulPartitionedCall/model/conv3_block2_1_relu/Relu", "op": "Relu", "input": ["StatefulPartitionedCall/model/conv3_block2_1_bn/FusedBatchNormV3"], "attr": {"T": {"type": "DT_HALF"}}}, {"name": "StatefulPartitionedCall/model/conv3_block2_2_conv/Conv2D", "op": "Conv2D", "input": ["StatefulPartitionedCall/model/conv3_block2_1_relu/Relu", "StatefulPartitionedCall/model/conv3_block2_2_conv/Conv2D/Cast"], "device": "/device:CPU:0", "attr": {"T": {"type": "DT_HALF"}, "padding": {"s": "U0FNRQ=="}, "explicit_paddings": {"list": {}}, "dilations": {"list": {"i": ["1", "1", "1", "1"]}}, "use_cudnn_on_gpu": {"b": true}, "data_format": {"s": "TkhXQw=="}, "strides": {"list": {"i": ["1", "1", "1", "1"]}}}}, {"name": "StatefulPartitionedCall/model/conv3_block2_concat/concat", "op": "ConcatV2", "input": ["StatefulPartitionedCall/model/conv3_block1_concat/concat", "StatefulPartitionedCall/model/conv3_block2_2_conv/Conv2D", "StatefulPartitionedCall/model/conv3_block2_concat/concat/axis"], "attr": {"T": {"type": "DT_HALF"}, "Tidx": {"type": "DT_INT32"}, "N": {"i": "2"}}}, {"name": "StatefulPartitionedCall/model/conv3_block3_0_bn/FusedBatchNormV3", "op": "FusedBatchNormV3", "input": ["StatefulPartitionedCall/model/conv3_block2_concat/concat", "StatefulPartitionedCall/model/conv3_block3_0_bn/ReadVariableOp", "StatefulPartitionedCall/model/conv3_block3_0_bn/ReadVariableOp_1", "StatefulPartitionedCall/model/conv3_block3_0_bn/FusedBatchNormV3/ReadVariableOp", "StatefulPartitionedCall/model/conv3_block3_0_bn/FusedBatchNormV3/ReadVariableOp_1"], "attr": {"T": {"type": "DT_HALF"}, "data_format": {"s": "TkhXQw=="}, "is_training": {"b": false}, "exponential_avg_factor": {"f": 1.0}, "U": {"type": "DT_FLOAT"}, "epsilon": {"f": 1.001e-05}}}, {"name": "StatefulPartitionedCall/model/conv3_block3_0_relu/Relu", "op": "Relu", "input": ["StatefulPartitionedCall/model/conv3_block3_0_bn/FusedBatchNormV3"], "attr": {"T": {"type": "DT_HALF"}}}, {"name": "StatefulPartitionedCall/model/conv3_block3_1_conv/Conv2D", "op": "Conv2D", "input": ["StatefulPartitionedCall/model/conv3_block3_0_relu/Relu", "StatefulPartitionedCall/model/conv3_block3_1_conv/Conv2D_weights"], "device": "/device:CPU:0", "attr": {"explicit_paddings": {"list": {}}, "T": {"type": "DT_HALF"}, "padding": {"s": "VkFMSUQ="}, "dilations": {"list": {"i": ["1", "1", "1", "1"]}}, "strides": {"list": {"i": ["1", "1", "1", "1"]}}, "data_format": {"s": "TkhXQw=="}, "use_cudnn_on_gpu": {"b": true}}}, {"name": "StatefulPartitionedCall/model/conv3_block3_1_bn/FusedBatchNormV3", "op": "BiasAdd", "input": ["StatefulPartitionedCall/model/conv3_block3_1_conv/Conv2D", "StatefulPartitionedCall/model/conv3_block3_1_conv/Conv2D_bn_offset"], "attr": {"T": {"type": "DT_HALF"}, "data_format": {"s": "TkhXQw=="}}}, {"name": "StatefulPartitionedCall/model/conv3_block3_1_relu/Relu", "op": "Relu", "input": ["StatefulPartitionedCall/model/conv3_block3_1_bn/FusedBatchNormV3"], "attr": {"T": {"type": "DT_HALF"}}}, {"name": "StatefulPartitionedCall/model/conv3_block3_2_conv/Conv2D", "op": "Conv2D", "input": ["StatefulPartitionedCall/model/conv3_block3_1_relu/Relu", "StatefulPartitionedCall/model/conv3_block3_2_conv/Conv2D/Cast"], "device": "/device:CPU:0", "attr": {"dilations": {"list": {"i": ["1", "1", "1", "1"]}}, "data_format": {"s": "TkhXQw=="}, "padding": {"s": "U0FNRQ=="}, "explicit_paddings": {"list": {}}, "use_cudnn_on_gpu": {"b": true}, "strides": {"list": {"i": ["1", "1", "1", "1"]}}, "T": {"type": "DT_HALF"}}}, {"name": "StatefulPartitionedCall/model/conv3_block3_concat/concat", "op": "ConcatV2", "input": ["StatefulPartitionedCall/model/conv3_block2_concat/concat", "StatefulPartitionedCall/model/conv3_block3_2_conv/Conv2D", "StatefulPartitionedCall/model/conv3_block3_concat/concat/axis"], "attr": {"N": {"i": "2"}, "T": {"type": "DT_HALF"}, "Tidx": {"type": "DT_INT32"}}}, {"name": "StatefulPartitionedCall/model/conv3_block4_0_bn/FusedBatchNormV3", "op": "FusedBatchNormV3", "input": ["StatefulPartitionedCall/model/conv3_block3_concat/concat", "StatefulPartitionedCall/model/conv3_block4_0_bn/ReadVariableOp", "StatefulPartitionedCall/model/conv3_block4_0_bn/ReadVariableOp_1", "StatefulPartitionedCall/model/conv3_block4_0_bn/FusedBatchNormV3/ReadVariableOp", "StatefulPartitionedCall/model/conv3_block4_0_bn/FusedBatchNormV3/ReadVariableOp_1"], "attr": {"epsilon": {"f": 1.001e-05}, "data_format": {"s": "TkhXQw=="}, "T": {"type": "DT_HALF"}, "U": {"type": "DT_FLOAT"}, "is_training": {"b": false}, "exponential_avg_factor": {"f": 1.0}}}, {"name": "StatefulPartitionedCall/model/conv3_block4_0_relu/Relu", "op": "Relu", "input": ["StatefulPartitionedCall/model/conv3_block4_0_bn/FusedBatchNormV3"], "attr": {"T": {"type": "DT_HALF"}}}, {"name": "StatefulPartitionedCall/model/conv3_block4_1_conv/Conv2D", "op": "Conv2D", "input": ["StatefulPartitionedCall/model/conv3_block4_0_relu/Relu", "StatefulPartitionedCall/model/conv3_block4_1_conv/Conv2D_weights"], "device": "/device:CPU:0", "attr": {"use_cudnn_on_gpu": {"b": true}, "strides": {"list": {"i": ["1", "1", "1", "1"]}}, "T": {"type": "DT_HALF"}, "explicit_paddings": {"list": {}}, "dilations": {"list": {"i": ["1", "1", "1", "1"]}}, "data_format": {"s": "TkhXQw=="}, "padding": {"s": "VkFMSUQ="}}}, {"name": "StatefulPartitionedCall/model/conv3_block4_1_bn/FusedBatchNormV3", "op": "BiasAdd", "input": ["StatefulPartitionedCall/model/conv3_block4_1_conv/Conv2D", "StatefulPartitionedCall/model/conv3_block4_1_conv/Conv2D_bn_offset"], "attr": {"T": {"type": "DT_HALF"}, "data_format": {"s": "TkhXQw=="}}}, {"name": "StatefulPartitionedCall/model/conv3_block4_1_relu/Relu", "op": "Relu", "input": ["StatefulPartitionedCall/model/conv3_block4_1_bn/FusedBatchNormV3"], "attr": {"T": {"type": "DT_HALF"}}}, {"name": "StatefulPartitionedCall/model/conv3_block4_2_conv/Conv2D", "op": "Conv2D", "input": ["StatefulPartitionedCall/model/conv3_block4_1_relu/Relu", "StatefulPartitionedCall/model/conv3_block4_2_conv/Conv2D/Cast"], "device": "/device:CPU:0", "attr": {"use_cudnn_on_gpu": {"b": true}, "dilations": {"list": {"i": ["1", "1", "1", "1"]}}, "strides": {"list": {"i": ["1", "1", "1", "1"]}}, "padding": {"s": "U0FNRQ=="}, "T": {"type": "DT_HALF"}, "explicit_paddings": {"list": {}}, "data_format": {"s": "TkhXQw=="}}}, {"name": "StatefulPartitionedCall/model/conv3_block4_concat/concat", "op": "ConcatV2", "input": ["StatefulPartitionedCall/model/conv3_block3_concat/concat", "StatefulPartitionedCall/model/conv3_block4_2_conv/Conv2D", "StatefulPartitionedCall/model/conv3_block4_concat/concat/axis"], "attr": {"N": {"i": "2"}, "Tidx": {"type": "DT_INT32"}, "T": {"type": "DT_HALF"}}}, {"name": "StatefulPartitionedCall/model/conv3_block5_0_bn/FusedBatchNormV3", "op": "FusedBatchNormV3", "input": ["StatefulPartitionedCall/model/conv3_block4_concat/concat", "StatefulPartitionedCall/model/conv3_block5_0_bn/ReadVariableOp", "StatefulPartitionedCall/model/conv3_block5_0_bn/ReadVariableOp_1", "StatefulPartitionedCall/model/conv3_block5_0_bn/FusedBatchNormV3/ReadVariableOp", "StatefulPartitionedCall/model/conv3_block5_0_bn/FusedBatchNormV3/ReadVariableOp_1"], "attr": {"data_format": {"s": "TkhXQw=="}, "exponential_avg_factor": {"f": 1.0}, "epsilon": {"f": 1.001e-05}, "is_training": {"b": false}, "T": {"type": "DT_HALF"}, "U": {"type": "DT_FLOAT"}}}, {"name": "StatefulPartitionedCall/model/conv3_block5_0_relu/Relu", "op": "Relu", "input": ["StatefulPartitionedCall/model/conv3_block5_0_bn/FusedBatchNormV3"], "attr": {"T": {"type": "DT_HALF"}}}, {"name": "StatefulPartitionedCall/model/conv3_block5_1_conv/Conv2D", "op": "Conv2D", "input": ["StatefulPartitionedCall/model/conv3_block5_0_relu/Relu", "StatefulPartitionedCall/model/conv3_block5_1_conv/Conv2D_weights"], "device": "/device:CPU:0", "attr": {"padding": {"s": "VkFMSUQ="}, "T": {"type": "DT_HALF"}, "explicit_paddings": {"list": {}}, "use_cudnn_on_gpu": {"b": true}, "data_format": {"s": "TkhXQw=="}, "strides": {"list": {"i": ["1", "1", "1", "1"]}}, "dilations": {"list": {"i": ["1", "1", "1", "1"]}}}}, {"name": "StatefulPartitionedCall/model/conv3_block5_1_bn/FusedBatchNormV3", "op": "BiasAdd", "input": ["StatefulPartitionedCall/model/conv3_block5_1_conv/Conv2D", "StatefulPartitionedCall/model/conv3_block5_1_conv/Conv2D_bn_offset"], "attr": {"T": {"type": "DT_HALF"}, "data_format": {"s": "TkhXQw=="}}}, {"name": "StatefulPartitionedCall/model/conv3_block5_1_relu/Relu", "op": "Relu", "input": ["StatefulPartitionedCall/model/conv3_block5_1_bn/FusedBatchNormV3"], "attr": {"T": {"type": "DT_HALF"}}}, {"name": "StatefulPartitionedCall/model/conv3_block5_2_conv/Conv2D", "op": "Conv2D", "input": ["StatefulPartitionedCall/model/conv3_block5_1_relu/Relu", "StatefulPartitionedCall/model/conv3_block5_2_conv/Conv2D/Cast"], "device": "/device:CPU:0", "attr": {"dilations": {"list": {"i": ["1", "1", "1", "1"]}}, "explicit_paddings": {"list": {}}, "T": {"type": "DT_HALF"}, "strides": {"list": {"i": ["1", "1", "1", "1"]}}, "padding": {"s": "U0FNRQ=="}, "data_format": {"s": "TkhXQw=="}, "use_cudnn_on_gpu": {"b": true}}}, {"name": "StatefulPartitionedCall/model/conv3_block5_concat/concat", "op": "ConcatV2", "input": ["StatefulPartitionedCall/model/conv3_block4_concat/concat", "StatefulPartitionedCall/model/conv3_block5_2_conv/Conv2D", "StatefulPartitionedCall/model/conv3_block5_concat/concat/axis"], "attr": {"Tidx": {"type": "DT_INT32"}, "N": {"i": "2"}, "T": {"type": "DT_HALF"}}}, {"name": "StatefulPartitionedCall/model/conv3_block6_0_bn/FusedBatchNormV3", "op": "FusedBatchNormV3", "input": ["StatefulPartitionedCall/model/conv3_block5_concat/concat", "StatefulPartitionedCall/model/conv3_block6_0_bn/ReadVariableOp", "StatefulPartitionedCall/model/conv3_block6_0_bn/ReadVariableOp_1", "StatefulPartitionedCall/model/conv3_block6_0_bn/FusedBatchNormV3/ReadVariableOp", "StatefulPartitionedCall/model/conv3_block6_0_bn/FusedBatchNormV3/ReadVariableOp_1"], "attr": {"is_training": {"b": false}, "data_format": {"s": "TkhXQw=="}, "epsilon": {"f": 1.001e-05}, "T": {"type": "DT_HALF"}, "exponential_avg_factor": {"f": 1.0}, "U": {"type": "DT_FLOAT"}}}, {"name": "StatefulPartitionedCall/model/conv3_block6_0_relu/Relu", "op": "Relu", "input": ["StatefulPartitionedCall/model/conv3_block6_0_bn/FusedBatchNormV3"], "attr": {"T": {"type": "DT_HALF"}}}, {"name": "StatefulPartitionedCall/model/conv3_block6_1_conv/Conv2D", "op": "Conv2D", "input": ["StatefulPartitionedCall/model/conv3_block6_0_relu/Relu", "StatefulPartitionedCall/model/conv3_block6_1_conv/Conv2D_weights"], "device": "/device:CPU:0", "attr": {"padding": {"s": "VkFMSUQ="}, "T": {"type": "DT_HALF"}, "strides": {"list": {"i": ["1", "1", "1", "1"]}}, "use_cudnn_on_gpu": {"b": true}, "explicit_paddings": {"list": {}}, "data_format": {"s": "TkhXQw=="}, "dilations": {"list": {"i": ["…
conv3_block5_2_conv/Conv2D/Cast", "shape": [3, 3, 128, 32], "dtype": "float32"}, {"name": "StatefulPartitionedCall/model/conv3_block5_concat/concat/axis", "shape": [], "dtype": "int32"}, {"name": "StatefulPartitionedCall/model/conv3_block6_0_bn/ReadVariableOp", "shape": [288], "dtype": "float32"}, {"name": "StatefulPartitionedCall/model/conv3_block6_0_bn/ReadVariableOp_1", "shape": [288], "dtype": "float32"}, {"name": "StatefulPartitionedCall/model/conv3_block6_0_bn/FusedBatchNormV3/ReadVariableOp", "shape": [288], "dtype": "float32"}, {"name": "StatefulPartitionedCall/model/conv3_block6_0_bn/FusedBatchNormV3/ReadVariableOp_1", "shape": [288], "dtype": "float32"}, {"name": "StatefulPartitionedCall/model/conv3_block6_2_conv/Conv2D/Cast", "shape": [3, 3, 128, 32], "dtype": "float32"}, {"name": "StatefulPartitionedCall/model/conv3_block6_concat/concat/axis", "shape": [], "dtype": "int32"}, {"name": "StatefulPartitionedCall/model/conv3_block7_0_bn/ReadVariableOp", "shape": [320], "dtype": "float32"}, {"name": "StatefulPartitionedCall/model/conv3_block7_0_bn/ReadVariableOp_1", "shape": [320], "dtype": "float32"}, {"name": "StatefulPartitionedCall/model/conv3_block7_0_bn/FusedBatchNormV3/ReadVariableOp", "shape": [320], "dtype": "float32"}, {"name": "StatefulPartitionedCall/model/conv3_block7_0_bn/FusedBatchNormV3/ReadVariableOp_1", "shape": [320], "dtype": "float32"}, {"name": "StatefulPartitionedCall/model/conv3_block7_2_conv/Conv2D/Cast", "shape": [3, 3, 128, 32], "dtype": "float32"}, {"name": "StatefulPartitionedCall/model/conv3_block7_concat/concat/axis", "shape": [], "dtype": "int32"}, {"name": "StatefulPartitionedCall/model/conv3_block8_0_bn/ReadVariableOp", "shape": [352], "dtype": "float32"}, {"name": "StatefulPartitionedCall/model/conv3_block8_0_bn/ReadVariableOp_1", "shape": [352], "dtype": "float32"}, {"name": "StatefulPartitionedCall/model/conv3_block8_0_bn/FusedBatchNormV3/ReadVariableOp", "shape": [352], "dtype": "float32"}, {"name": "StatefulPartitionedCall/model/conv3_block8_0_bn/FusedBatchNormV3/ReadVariableOp_1", "shape": [352], "dtype": "float32"}, {"name": "StatefulPartitionedCall/model/conv3_block8_2_conv/Conv2D/Cast", "shape": [3, 3, 128, 32], "dtype": "float32"}, {"name": "StatefulPartitionedCall/model/conv3_block8_concat/concat/axis", "shape": [], "dtype": "int32"}, {"name": "StatefulPartitionedCall/model/conv3_block9_0_bn/ReadVariableOp", "shape": [384], "dtype": "float32"}, {"name": "StatefulPartitionedCall/model/conv3_block9_0_bn/ReadVariableOp_1", "shape": [384], "dtype": "float32"}, {"name": "StatefulPartitionedCall/model/conv3_block9_0_bn/FusedBatchNormV3/ReadVariableOp", "shape": [384], "dtype": "float32"}, {"name": "StatefulPartitionedCall/model/conv3_block9_0_bn/FusedBatchNormV3/ReadVariableOp_1", "shape": [384], "dtype": "float32"}, {"name": "StatefulPartitionedCall/model/conv3_block9_2_conv/Conv2D/Cast", "shape": [3, 3, 128, 32], "dtype": "float32"}, {"name": "StatefulPartitionedCall/model/conv3_block9_concat/concat/axis", "shape": [], "dtype": "int32"}, {"name": "StatefulPartitionedCall/model/conv3_block10_0_bn/ReadVariableOp", "shape": [416], "dtype": "float32"}, {"name": "StatefulPartitionedCall/model/conv3_block10_0_bn/ReadVariableOp_1", "shape": [416], "dtype": "float32"}, {"name": "StatefulPartitionedCall/model/conv3_block10_0_bn/FusedBatchNormV3/ReadVariableOp", "shape": [416], "dtype": "float32"}, {"name": "StatefulPartitionedCall/model/conv3_block10_0_bn/FusedBatchNormV3/ReadVariableOp_1", "shape": [416], "dtype": "float32"}, {"name": "StatefulPartitionedCall/model/conv3_block10_2_conv/Conv2D/Cast", "shape": [3, 3, 128, 32], "dtype": "float32"}, {"name": "StatefulPartitionedCall/model/conv3_block10_concat/concat/axis", "shape": [], "dtype": "int32"}, {"name": "StatefulPartitionedCall/model/conv3_block11_0_bn/ReadVariableOp", "shape": [448], "dtype": "float32"}, {"name": "StatefulPartitionedCall/model/conv3_block11_0_bn/ReadVariableOp_1", "shape": [448], "dtype": "float32"}, {"name": "StatefulPartitionedCall/model/conv3_block11_0_bn/FusedBatchNormV3/ReadVariableOp", "shape": [448], "dtype": "float32"}, {"name": "StatefulPartitionedCall/model/conv3_block11_0_bn/FusedBatchNormV3/ReadVariableOp_1", "shape": [448], "dtype": "float32"}, {"name": "StatefulPartitionedCall/model/conv3_block11_2_conv/Conv2D/Cast", "shape": [3, 3, 128, 32], "dtype": "float32"}, {"name": "StatefulPartitionedCall/model/conv3_block11_concat/concat/axis", "shape": [], "dtype": "int32"}, {"name": "StatefulPartitionedCall/model/conv3_block12_0_bn/ReadVariableOp", "shape": [480], "dtype": "float32"}, {"name": "StatefulPartitionedCall/model/conv3_block12_0_bn/ReadVariableOp_1", "shape": [480], "dtype": "float32"}, {"name": "StatefulPartitionedCall/model/conv3_block12_0_bn/FusedBatchNormV3/ReadVariableOp", "shape": [480], "dtype": "float32"}, {"name": "StatefulPartitionedCall/model/conv3_block12_0_bn/FusedBatchNormV3/ReadVariableOp_1", "shape": [480], "dtype": "float32"}, {"name": "StatefulPartitionedCall/model/conv3_block12_2_conv/Conv2D/Cast", "shape": [3, 3, 128, 32], "dtype": "float32"}, {"name": "StatefulPartitionedCall/model/conv3_block12_concat/concat/axis", "shape": [], "dtype": "int32"}, {"name": "StatefulPartitionedCall/model/pool3_bn/ReadVariableOp", "shape": [512], "dtype": "float32"}, {"name": "StatefulPartitionedCall/model/pool3_bn/ReadVariableOp_1", "shape": [512], "dtype": "float32"}, {"name": "StatefulPartitionedCall/model/pool3_bn/FusedBatchNormV3/ReadVariableOp", "shape": [512], "dtype": "float32"}, {"name": "StatefulPartitionedCall/model/pool3_bn/FusedBatchNormV3/ReadVariableOp_1", "shape": [512], "dtype": "float32"}, {"name": "StatefulPartitionedCall/model/pool3_conv/Conv2D/Cast", "shape": [1, 1, 512, 256], "dtype": "float32"}, {"name": "StatefulPartitionedCall/model/conv4_block1_0_bn/ReadVariableOp", "shape": [256], "dtype": "float32"}, {"name": "StatefulPartitionedCall/model/conv4_block1_0_bn/ReadVariableOp_1", "shape": [256], "dtype": "float32"}, {"name": "StatefulPartitionedCall/model/conv4_block1_0_bn/FusedBatchNormV3/ReadVariableOp", "shape": [256], "dtype": "float32"}, {"name": "StatefulPartitionedCall/model/conv4_block1_0_bn/FusedBatchNormV3/ReadVariableOp_1", "shape": [256], "dtype": "float32"}, {"name": "StatefulPartitionedCall/model/conv4_block1_2_conv/Conv2D/Cast", "shape": [3, 3, 128, 32], "dtype": "float32"}, {"name": "StatefulPartitionedCall/model/conv4_block1_concat/concat/axis", "shape": [], "dtype": "int32"}, {"name": "StatefulPartitionedCall/model/conv4_block2_0_bn/ReadVariableOp", "shape": [288], "dtype": "float32"}, {"name": "StatefulPartitionedCall/model/conv4_block2_0_bn/ReadVariableOp_1", "shape": [288], "dtype": "float32"}, {"name": "StatefulPartitionedCall/model/conv4_block2_0_bn/FusedBatchNormV3/ReadVariableOp", "shape": [288], "dtype": "float32"}, {"name": "StatefulPartitionedCall/model/conv4_block2_0_bn/FusedBatchNormV3/ReadVariableOp_1", "shape": [288], "dtype": "float32"}, {"name": "StatefulPartitionedCall/model/conv4_block2_2_conv/Conv2D/Cast", "shape": [3, 3, 128, 32], "dtype": "float32"}, {"name": "StatefulPartitionedCall/model/conv4_block2_concat/concat/axis", "shape": [], "dtype": "int32"}, {"name": "StatefulPartitionedCall/model/conv4_block3_0_bn/ReadVariableOp", "shape": [320], "dtype": "float32"}, {"name": "StatefulPartitionedCall/model/conv4_block3_0_bn/ReadVariableOp_1", "shape": [320], "dtype": "float32"}, {"name": "StatefulPartitionedCall/model/conv4_block3_0_bn/FusedBatchNormV3/ReadVariableOp", "shape": [320], "dtype": "float32"}, {"name": "StatefulPartitionedCall/model/conv4_block3_0_bn/FusedBatchNormV3/ReadVariableOp_1", "shape": [320], "dtype": "float32"}, {"name": "StatefulPartitionedCall/model/conv4_block3_2_conv/Conv2D/Cast", "shape": [3, 3, 128, 32], "dtype": "float32"}, {"name": "StatefulPartitionedCall/model/conv4_block3_concat/concat/axis", "shape": [], "dtype": "int32"}, {"name": "StatefulPartitionedCall/model/conv4_block4_0_bn/ReadVariableOp", "shape": [352], "dtype": "float32"}, {"name": "StatefulPartitionedCall/model/conv4_block4_0_bn/ReadVariableOp_1", "shape": [352], "dtype": "float32"}, {"name": "StatefulPartitionedCall/model/conv4_block4_0_bn/FusedBatchNormV3/ReadVariableOp", "shape": [352], "dtype": "float32"}, {"name": "StatefulPartitionedCall/model/conv4_block4_0_bn/FusedBatchNormV3/ReadVariableOp_1", "shape": [352], "dtype": "float32"}, {"name": "StatefulPartitionedCall/model/conv4_block4_2_conv/Conv2D/Cast", "shape": [3, 3, 128, 32], "dtype": "float32"}, {"name": "StatefulPartitionedCall/model/conv4_block4_concat/concat/axis", "shape": [], "dtype": "int32"}, {"name": "StatefulPartitionedCall/model/conv4_block5_0_bn/ReadVariableOp", "shape": [384], "dtype": "float32"}, {"name": "StatefulPartitionedCall/model/conv4_block5_0_bn/ReadVariableOp_1", "shape": [384], "dtype": "float32"}, {"name": "StatefulPartitionedCall/model/conv4_block5_0_bn/FusedBatchNormV3/ReadVariableOp", "shape": [384], "dtype": "float32"}, {"name": "StatefulPartitionedCall/model/conv4_block5_0_bn/FusedBatchNormV3/ReadVariableOp_1", "shape": [384], "dtype": "float32"}, {"name": "StatefulPartitionedCall/model/conv4_block5_2_conv/Conv2D/Cast", "shape": [3, 3, 128, 32], "dtype": "float32"}, {"name": "StatefulPartitionedCall/model/conv4_block5_concat/concat/axis", "shape": [], "dtype": "int32"}, {"name": "StatefulPartitionedCall/model/conv4_block6_0_bn/ReadVariableOp", "shape": [416], "dtype": "float32"}, {"name": "StatefulPartitionedCall/model/conv4_block6_0_bn/ReadVariableOp_1", "shape": [416], "dtype": "float32"}, {"name": "StatefulPartitionedCall/model/conv4_block6_0_bn/FusedBatchNormV3/ReadVariableOp", "shape": [416], "dtype": "float32"}, {"name": "StatefulPartitionedCall/model/conv4_block6_0_bn/FusedBatchNormV3/ReadVariableOp_1", "shape": [416], "dtype": "float32"}, {"name": "StatefulPartitionedCall/model/conv4_block6_2_conv/Conv2D/Cast", "shape": [3, 3, 128, 32], "dtype": "float32"}, {"name": "StatefulPartitionedCall/model/conv4_block6_concat/concat/axis", "shape": [], "dtype": "int32"}, {"name": "StatefulPartitionedCall/model/conv4_block7_0_bn/ReadVariableOp", "shape": [448], "dtype": "float32"}, {"name": "StatefulPartitionedCall/model/conv4_block7_0_bn/ReadVariableOp_1", "shape": [448], "dtype": "float32"}, {"name": "StatefulPartitionedCall/model/conv4_block7_0_bn/FusedBatchNormV3/ReadVariableOp", "shape": [448], "dtype": "float32"}, {"name": "StatefulPartitionedCall/model/conv4_block7_0_bn/FusedBatchNormV3/ReadVariableOp_1", "shape": [448], "dtype": "float32"}, {"name": "StatefulPartitionedCall/model/conv4_block7_2_conv/Conv2D/Cast", "shape": [3, 3, 128, 32], "dtype": "float32"}, {"name": "StatefulPartitionedCall/model/conv4_block7_concat/concat/axis", "shape": [], "dtype": "int32"}, {"name": "StatefulPartitionedCall/model/conv4_block8_0_bn/ReadVariableOp", "shape": [480], "dtype": "float32"}, {"name": "StatefulPartitionedCall/model/conv4_block8_0_bn/ReadVariableOp_1", "shape": [480], "dtype": "float32"}, {"name": "StatefulPartitionedCall/model/conv4_block8_0_bn/FusedBatchNormV3/ReadVariableOp", "shape": [480], "dtype": "float32"}, {"name": "StatefulPartitionedCall/model/conv4_block8_0_bn/FusedBatchNormV3/ReadVariableOp_1", "shape": [480], "dtype": "float32"}, {"name": "StatefulPartitionedCall/model/conv4_block8_2_conv/Conv2D/Cast", "shape": [3, 3, 128, 32], "dtype": "float32"}, {"name": "StatefulPartitionedCall/model/conv4_block8_concat/concat/axis", "shape": [], "dtype": "int32"}, {"name": "StatefulPartitionedCall/model/conv4_block9_0_bn/ReadVariableOp", "shape": [512], "dtype": "float32"}, {"name": "StatefulPartitionedCall/model/conv4_block9_0_bn/ReadVariableOp_1", "shape": [512], "dtype": "float32"}, {"name": "StatefulPartitionedCall/model/conv4_block9_0_bn/FusedBatchNormV3/ReadVariableOp", "shape": [512], "dtype": "float32"}, {"name": "StatefulPartitionedCall/model/conv4_block9_0_bn/FusedBatchNormV3/ReadVariableOp_1", "shape": [512], "dtype": "float32"}, {"name": "StatefulPartitionedCall/model/conv4_block9_2_conv/Conv2D/Cast", "shape": [3, 3, 128, 32], "dtype": "float32"}, {"name": "StatefulPartitionedCall/model/conv4_block9_concat/concat/axis", "shape": [], "dtype": "int32"}, {"name": "StatefulPartitionedCall/model/conv4_block10_0_bn/ReadVariableOp", "shape": [544], "dtype": "float32"}, {"name": "StatefulPartitionedCall/model/conv4_block10_0_bn/ReadVariableOp_1", "shape": [544], "dtype": "float32"}, {"name": "StatefulPartitionedCall/model/conv4_block10_0_bn/FusedBatchNormV3/ReadVariableOp", "shape": [544], "dtype": "float32"}, {"name": "StatefulPartitionedCall/model/conv4_block10_0_bn/FusedBatchNormV3/ReadVariableOp_1", "shape": [544], "dtype": "float32"}, {"name": "StatefulPartitionedCall/model/conv4_block10_2_conv/Conv2D/Cast", "shape": [3, 3, 128, 32], "dtype": "float32"}, {"name": "StatefulPartitionedCall/model/conv4_block10_concat/concat/axis", "shape": [], "dtype": "int32"}, {"name": "StatefulPartitionedCall/model/conv4_block11_0_bn/ReadVariableOp", "shape": [576], "dtype": "float32"}, {"name": "StatefulPartitionedCall/model/conv4_block11_0_bn/ReadVariableOp_1", "shape": [576], "dtype": "float32"}, {"name": "StatefulPartitionedCall/model/conv4_block11_0_bn/FusedBatchNormV3/ReadVariableOp", "shape": [576], "dtype": "float32"}, {"name": "StatefulPartitionedCall/model/conv4_block11_0_bn/FusedBatchNormV3/ReadVariableOp_1", "shape": [576], "dtype": "float32"}, {"name": "StatefulPartitionedCall/model/conv4_block11_2_conv/Conv2D/Cast", "shape": [3, 3, 128, 32], "dtype": "float32"}, {"name": "StatefulPartitionedCall/model/conv4_block11_concat/concat/axis", "shape": [], "dtype": "int32"}, {"name": "StatefulPartitionedCall/model/conv4_block12_0_bn/ReadVariableOp", "shape": [608], "dtype": "float32"}, {"name": "StatefulPartitionedCall/model/conv4_block12_0_bn/ReadVariableOp_1", "shape": [608], "dtype": "float32"}, {"name": "StatefulPartitionedCall/model/conv4_block12_0_bn/FusedBatchNormV3/ReadVariableOp", "shape": [608], "dtype": "float32"}, {"name": "StatefulPartitionedCall/model/conv4_block12_0_bn/FusedBatchNormV3/ReadVariableOp_1", "shape": [608], "dtype": "float32"}, {"name": "StatefulPartitionedCall/model/conv4_block12_2_conv/Conv2D/Cast", "shape": [3, 3, 128, 32], "dtype": "float32"}, {"name": "StatefulPartitionedCall/model/conv4_block12_concat/concat/axis", "shape": [], "dtype": "int32"}, {"name": "StatefulPartitionedCall/model/conv4_block13_0_bn/ReadVariableOp", "shape": [640], "dtype": "float32"}, {"name": "StatefulPartitionedCall/model/conv4_block13_0_bn/ReadVariableOp_1", "shape": [640], "dtype": "float32"}, {"name": "StatefulPartitionedCall/model/conv4_block13_0_bn/FusedBatchNormV3/ReadVariableOp", "shape": [640], "dtype": "float32"}, {"name": "StatefulPartitionedCall/model/conv4_block13_0_bn/FusedBatchNormV3/ReadVariableOp_1", "shape": [640], "dtype": "float32"}, {"name": "StatefulPartitionedCall/model/conv4_block13_2_conv/Conv2D/Cast", "shape": [3, 3, 128, 32], "dtype": "float32"}, {"name": "StatefulPartitionedCall/model/conv4_block13_concat/concat/axis", "shape": [], "dtype": "int32"}, {"name": "StatefulPartitionedCall/model/conv4_block14_0_bn/ReadVariableOp", "shape": [672], "dtype": "float32"}, {"name": "StatefulPartitionedCall/model/conv4_block14_0_bn/ReadVariableOp_1", "shape": [672], "dtype": "float32"}, {"name": "StatefulPartitionedCall/model/conv4_block14_0_bn/FusedBatchNormV3/ReadVariableOp", "shape": [672], "dtype": "float32"}, {"name": "StatefulPartitionedCall/model/conv4_block14_0_bn/FusedBatchNormV3/ReadVariableOp_1", "shape": [672], "dtype": "float32"}, {"name": "StatefulPartitionedCall/model/conv4_block14_2_conv/Conv2D/Cast", "shape": [3, 3, 128, 32], "dtype": "float32"}, {"name": "StatefulPartitionedCall/model/conv4_block14_concat/concat/axis", "shape": [], "dtype": "int32"}, {"name": "StatefulPartitionedCall/model/conv4_block15_0_bn/ReadVariableOp", "shape": [704], "dtype": "float32"}, {"name": "StatefulPartitionedCall/model/conv4_block15_0_bn/ReadVariableOp_1", "shape": [704], "dtype": "float32"}, {"name": "StatefulPartitionedCall/model/conv4_block15_0_bn/FusedBatchNormV3/ReadVariableOp", "shape": [704], "dtype": "float32"}, {"name": "StatefulPartitionedCall/model/conv4_block15_0_bn/FusedBatchNormV3/ReadVariableOp_1", "shape": [704], "dtype": "float32"}, {"name": "StatefulPartitionedCall/model/conv4_block15_2_conv/Conv2D/Cast", "shape": [3, 3, 128, 32], "dtype": "float32"}, {"name": "StatefulPartitionedCall/model/conv4_block15_concat/concat/axis", "shape": [], "dtype": "int32"}, {"name": "StatefulPartitionedCall/model/conv4_block16_0_bn/ReadVariableOp", "shape": [736], "dtype": "float32"}, {"name": "StatefulPartitionedCall/model/conv4_block16_0_bn/ReadVariableOp_1", "shape": [736], "dtype": "float32"}, {"name": "StatefulPartitionedCall/model/conv4_block16_0_bn/FusedBatchNormV3/ReadVariableOp", "shape": [736], "dtype": "float32"}, {"name": "StatefulPartitionedCall/model/conv4_block16_0_bn/FusedBatchNormV3/ReadVariableOp_1", "shape": [736], "dtype": "float32"}, {"name": "StatefulPartitionedCall/model/conv4_block16_2_conv/Conv2D/Cast", "shape": [3, 3, 128, 32], "dtype": "float32"}, {"name": "StatefulPartitionedCall/model/conv4_block16_concat/concat/axis", "shape": [], "dtype": "int32"}, {"name": "StatefulPartitionedCall/model/conv4_block17_0_bn/ReadVariableOp", "shape": [768], "dtype": "float32"}, {"name": "StatefulPartitionedCall/model/conv4_block17_0_bn/ReadVariableOp_1", "shape": [768], "dtype": "float32"}, {"name": "StatefulPartitionedCall/model/conv4_block17_0_bn/FusedBatchNormV3/ReadVariableOp", "shape": [768], "dtype": "float32"}, {"name": "StatefulPartitionedCall/model/conv4_block17_0_bn/FusedBatchNormV3/ReadVariableOp_1", "shape": [768], "dtype": "float32"}, {"name": "StatefulPartitionedCall/model/conv4_block17_2_conv/Conv2D/Cast", "shape": [3, 3, 128, 32], "dtype": "float32"}, {"name": "StatefulPartitionedCall/model/conv4_block17_concat/concat/axis", "shape": [], "dtype": "int32"}, {"name": "StatefulPartitionedCall/model/conv4_block18_0_bn/ReadVariableOp", "shape": [800], "dtype": "float32"}, {"name": "StatefulPartitionedCall/model/conv4_block18_0_bn/ReadVariableOp_1", "shape": [800], "dtype": "float32"}, {"name": "StatefulPartitionedCall/model/conv4_block18_0_bn/FusedBatchNormV3/ReadVariableOp", "shape": [800], "dtype": "float32"}, {"name": "StatefulPartitionedCall/model/conv4_block18_0_bn/FusedBatchNormV3/ReadVariableOp_1", "shape": [800], "dtype": "float32"}, {"name": "StatefulPartitionedCall/model/conv4_block18_2_conv/Conv2D/Cast", "shape": [3, 3, 128, 32], "dtype": "float32"}, {"name": "StatefulPartitionedCall/model/conv4_block18_concat/concat/axis", "shape": [], "dtype": "int32"}, {"name": "StatefulPartitionedCall/model/conv4_block19_0_bn/ReadVariableOp", "shape": [832], "dtype": "float32"}, {"name": "StatefulPartitionedCall/model/conv4_block19_0_bn/ReadVariableOp_1", "shape": [832], "dtype": "float32"}, {"name": "StatefulPartitionedCall/model/conv4_block19_0_bn/FusedBatchNormV3/ReadVariableOp", "shape": [832], "dtype": "float32"}, {"name": "StatefulPartitionedCall/model/conv4_block19_0_bn/FusedBatchNormV3/ReadVariableOp_1", "shape": [832], "dtype": "float32"}, {"name": "StatefulPartitionedCall/model/conv4_block19_2_conv/Conv2D/Cast", "shape": [3, 3, 128, 32], "dtype": "float32"}, {"name": "StatefulPartitionedCall/model/conv4_block19_concat/concat/axis", "shape": [], "dtype": "int32"}, {"name": "StatefulPartitionedCall/model/conv4_block20_0_bn/ReadVariableOp", "shape": [864], "dtype": "float32"}, {"name": "StatefulPartitionedCall/model/conv4_block20_0_bn/ReadVariableOp_1", "shape": [864], "dtype": "float32"}, {"name": "StatefulPartitionedCall/model/conv4_block20_0_bn/FusedBatchNormV3/ReadVariableOp", "shape": [864], "dtype": "float32"}, {"name": "StatefulPartitionedCall/model/conv4_block20_0_bn/FusedBatchNormV3/ReadVariableOp_1", "shape": [864], "dtype": "float32"}, {"name": "StatefulPartitionedCall/model/conv4_block20_2_conv/Conv2D/Cast", "shape": [3, 3, 128, 32], "dtype": "float32"}, {"name": "StatefulPartitionedCall/model/conv4_block20_concat/concat/axis", "shape": [], "dtype": "int32"}, {"name": "StatefulPartitionedCall/model/conv4_block21_0_bn/ReadVariableOp", "shape": [896], "dtype": "float32"}, {"name": "StatefulPartitionedCall/model/conv4_block21_0_bn/ReadVariableOp_1", "shape": [896], "dtype": "float32"}, {"name": "StatefulPartitionedCall/model/conv4_block21_0_bn/FusedBatchNormV3/ReadVariableOp", "shape": [896], "dtype": "float32"}, {"name": "StatefulPartitionedCall/model/conv4_block21_0_bn/FusedBatchNormV3/ReadVariableOp_1", "shape": [896], "dtype": "float32"}, {"name": "StatefulPartitionedCall/model/conv4_block21_2_conv/Conv2D/Cast", "shape": [3, 3, 128, 32], "dtype": "float32"}, {"name": "StatefulPartitionedCall/model/conv4_block21_concat/concat/axis", "shape": [], "dtype": "int32"}, {"name": "StatefulPartitionedCall/model/conv4_block22_0_bn/ReadVariableOp", "shape": [928], "dtype": "float32"}, {"name": "StatefulPartitionedCall/model/conv4_block22_0_bn/ReadVariableOp_1", "shape": [928], "dtype": "float32"}, {"name": "StatefulPartitionedCall/model/conv4_block22_0_bn/FusedBatchNormV3/ReadVariableOp", "shape": [928], "dtype": "float32"}, {"name": "StatefulPartitionedCall/model/conv4_block22_0_bn/FusedBatchNormV3/ReadVariableOp_1", "shape": [928], "dtype": "float32"}, {"name": "StatefulPartitionedCall/model/conv4_block22_2_conv/Conv2D/Cast", "shape": [3, 3, 128, 32], "dtype": "float32"}, {"name": "StatefulPartitionedCall/model/conv4_block22_concat/concat/axis", "shape": [], "dtype": "int32"}, {"name": "StatefulPartitionedCall/model/conv4_block23_0_bn/ReadVariableOp", "shape": [960], "dtype": "float32"}, {"name": "StatefulPartitionedCall/model/conv4_block23_0_bn/ReadVariableOp_1", "shape": [960], "dtype": "float32"}, {"name": "StatefulPartitionedCall/model/conv4_block23_0_bn/FusedBatchNormV3/ReadVariableOp", "shape": [960], "dtype": "float32"}, {"name": "StatefulPartitionedCall/model/conv4_block23_0_bn/FusedBatchNormV3/ReadVariableOp_1", "shape": [960], "dtype": "float32"}, {"name": "StatefulPartitionedCall/model/conv4_block23_2_conv/Conv2D/Cast", "shape": [3, 3, 128, 32], "dtype": "float32"}, {"name": "StatefulPartitionedCall/model/conv4_block23_concat/concat/axis", "shape": [], "dtype": "int32"}, {"name": "StatefulPartitionedCall/model/conv4_block24_0_bn/ReadVariableOp", "shape": [992], "dtype": "float32"}, {"name": "StatefulPartitionedCall/model/conv4_block24_0_bn/ReadVariableOp_1", "shape": [992], "dtype": "float32"}, {"name": "StatefulPartitionedCall/model/conv4_block24_0_bn/FusedBatchNormV3/ReadVariableOp", "shape": [992], "dtype": "float32"}, {"name": "StatefulPartitionedCall/model/conv4_block24_0_bn/FusedBatchNormV3/ReadVariableOp_1", "shape": [992], "dtype": "float32"}, {"name": "StatefulPartitionedCall/model/conv4_block24_2_conv/Conv2D/Cast", "shape": [3, 3, 128, 32], "dtype": "float32"}, {"name": "StatefulPartitionedCall/model/conv4_block24_concat/concat/axis", "shape": [], "dtype": "int32"}, {"name": "StatefulPartitionedCall/model/pool4_bn/ReadVariableOp", "shape": [1024], "dtype": "float32"}, {"name": "StatefulPartitionedCall/model/pool4_bn/ReadVariableOp_1", "shape": [1024], "dtype": "float32"}, {"name": "StatefulPartitionedCall/model/pool4_bn/FusedBatchNormV3/ReadVariableOp", "shape": [1024], "dtype": "float32"}, {"name": "StatefulPartitionedCall/model/pool4_bn/FusedBatchNormV3/ReadVariableOp_1", "shape": [1024], "dtype": "float32"}, {"name": "StatefulPartitionedCall/model/pool4_conv/Conv2D/Cast", "shape": [1, 1, 1024, 512], "dtype": "float32"}, {"name": "StatefulPartitionedCall/model/conv5_block1_0_bn/ReadVariableOp", "shape": [512], "dtype": "float32"}, {"name": "StatefulPartitionedCall/model/conv5_block1_0_bn/ReadVariableOp_1", "shape": [512], "dtype": "float32"}, {"name": "StatefulPartitionedCall/model/conv5_block1_0_bn/FusedBatchNormV3/ReadVariableOp", "shape": [512], "dtype": "float32"}, {"name": "StatefulPartitionedCall/model/conv5_block1_0_bn/FusedBatchNormV3/ReadVariableOp_1", "shape": [512], "dtype": "float32"}, {"name": "StatefulPartitionedCall/model/conv5_block1_2_conv/Conv2D/Cast", "shape": [3, 3, 128, 32], "dtype": "float32"}, {"name": "StatefulPartitionedCall/model/conv5_block1_concat/concat/axis", "shape": [], "dtype": "int32"}, {"name": "StatefulPartitionedCall/model/conv5_block2_0_bn/ReadVariableOp", "shape": [544], "dtype": "float32"}, {"name": "StatefulPartitionedCall/model/conv5_block2_0_bn/ReadVariableOp_1", "shape": [544], "dtype": "float32"}, {"name": "StatefulPartitionedCall/model/conv5_block2_0_bn/FusedBatchNormV3/ReadVariableOp", "shape": [544], "dtype": "float32"}, {"name": "StatefulPartitionedCall/model/conv5_block2_0_bn/FusedBatchNormV3/ReadVariableOp_1", "shape": [544], "dtype": "float32"}, {"name": "StatefulPartitionedCall/model/conv5_block2_2_conv/Conv2D/Cast", "shape": [3, 3, 128, 32], "dtype": "float32"}, {"name": "StatefulPartitionedCall/model/conv5_block2_concat/concat/axis", "shape": [], "dtype": "int32"}, {"name": "StatefulPartitionedCall/model/conv5_block3_0_bn/ReadVariableOp", "shape": [576], "dtype": "float32"}, {"name": "StatefulPartitionedCall/model/conv5_block3_0_bn/ReadVariableOp_1", "shape": [576], "dtype": "float32"}, {"name": "StatefulPartitionedCall/model/conv5_block3_0_bn/FusedBatchNormV3/ReadVariableOp", "shape": [576], "dtype": "float32"}, {"name": "StatefulPartitionedCall/model/conv5_block3_0_bn/FusedBatchNormV3/ReadVariableOp_1", "shape": [576], "dtype": "float32"}, {"name": "StatefulPartitionedCall/model/conv5_block3_2_conv/Conv2D/Cast", "shape": [3, 3, 128, 32], "dtype": "float32"}, {"name": "StatefulPartitionedCall/model/conv5_block3_concat/concat/axis", "shape": [], "dtype": "int32"}, {"name": "StatefulPartitionedCall/model/conv5_block4_0_bn/ReadVariableOp", "shape": [608], "dtype": "float32"}, {"name": "StatefulPartitionedCall/model/conv5_block4_0_bn/ReadVariableOp_1", "shape": [608], "dtype": "float32"}, {"name": "StatefulPartitionedCall/model/conv5_block4_0_bn/FusedBatchNormV3/ReadVariableOp", "shape": [608], "dtype": "float32"}, {"name": "StatefulPartitionedCall/model/conv5_block4_0_bn/FusedBatchNormV3/ReadVariableOp_1", "shape": [608], "dtype": "float32"}, {"name": "StatefulPartitionedCall/model/conv5_block4_2_conv/Conv2D/Cast", "shape": [3, 3, 128, 32], "dtype": "float32"}, {"name": "StatefulPartitionedCall/model/conv5_block4_concat/concat/axis", "shape": [], "dtype": "int32"}, {"name": "StatefulPartitionedCall/model/conv5_block5_0_bn/ReadVariableOp", "shape": [640], "dtype": "float32"}, {"name": "StatefulPartitionedCall/model/conv5_block5_0_bn/ReadVariableOp_1", "shape": [640], "dtype": "float32"}, {"name": "StatefulPartitionedCall/model/conv5_block5_0_bn/FusedBatchNormV3/ReadVariableOp", "shape": [640], "dtype": "float32"}, {"name": "StatefulPartitionedCall/model/conv5_block5_0_bn/FusedBatchNormV3/ReadVariableOp_1", "shape": [640], "dtype": "float32"}, {"name": "StatefulPartitionedCall/model/conv5_block5_2_conv/Conv2D/Cast", "shape": [3, 3, 128, 32], "dtype": "float32"}, {"name": "StatefulPartitionedCall/model/conv5_block5_concat/concat/axis", "shape": [], "dtype": "int32"}, {"name": "StatefulPartitionedCall/model/conv5_block6_0_bn/ReadVariableOp", "shape": [672], "dtype": "float32"}, {"name": "StatefulPartitionedCall/model/conv5_block6_0_bn/ReadVariableOp_1", "shape": [672], "dtype": "float32"}, {"name": "StatefulPartitionedCall/model/conv5_block6_0_bn/FusedBatchNormV3/ReadVariableOp", "shape": [672], "dtype": "float32"}, {"name": "StatefulPartitionedCall/model/conv5_block6_0_bn/FusedBatchNormV3/ReadVariableOp_1", "shape": [672], "dtype": "float32"}, {"name": "StatefulPartitionedCall/model/conv5_block6_2_conv/Conv2D/Cast", "shape": [3, 3, 128, 32], "dtype": "float32"}, {"name": "StatefulPartitionedCall/model/conv5_block6_concat/concat/axis", "shape": [], "dtype": "int32"}, {"name": "StatefulPartitionedCall/model/conv5_block7_0_bn/ReadVariableOp", "shape": [704], "dtype": "float32"}, {"name": "StatefulPartitionedCall/model/conv5_block7_0_bn/ReadVariableOp_1", "shape": [704], "dtype": "float32"}, {"name": "StatefulPartitionedCall/model/conv5_block7_0_bn/FusedBatchNormV3/ReadVariableOp", "shape": [704], "dtype": "float32"}, {"name": "StatefulPartitionedCall/model/conv5_block7_0_bn/FusedBatchNormV3/ReadVariableOp_1", "shape": [704], "dtype": "float32"}, {"name": "StatefulPartitionedCall/model/conv5_block7_2_conv/Conv2D/Cast", "shape": [3, 3, 128, 32], "dtype": "float32"}, {"name": "StatefulPartitionedCall/model/conv5_block7_concat/concat/axis", "shape": [], "dtype": "int32"}, {"name": "StatefulPartitionedCall/model/conv5_block8_0_bn/ReadVariableOp", "shape": [736], "dtype": "float32"}, {"name": "StatefulPartitionedCall/model/conv5_block8_0_bn/ReadVariableOp_1", "shape": [736], "dtype": "float32"}, {"name": "StatefulPartitionedCall/model/conv5_block8_0_bn/FusedBatchNormV3/ReadVariableOp", "shape": [736], "dtype": "float32"}, {"name": "StatefulPartitionedCall/model/conv5_block8_0_bn/FusedBatchNormV3/ReadVariableOp_1", "shape": [736], "dtype": "float32"}, {"name": "StatefulPartitionedCall/model/conv5_block8_2_conv/Conv2D/Cast", "shape": [3, 3, 128, 32], "dtype": "float32"}, {"name": "StatefulPartitionedCall/model/conv5_block8_concat/concat/axis", "shape": [], "dtype": "int32"}, {"name": "StatefulPartitionedCall/model/conv5_block9_0_bn/ReadVariableOp", "shape": [768], "dtype": "float32"}, {"name": "StatefulPartitionedCall/model/conv5_block9_0_bn/ReadVariableOp_1", "shape": [768], "dtype": "float32"}, {"name": "StatefulPartitionedCall/model/conv5_block9_0_bn/FusedBatchNormV3/ReadVariableOp", "shape": [768], "dtype": "float32"}, {"name": "StatefulPartitionedCall/model/conv5_block9_0_bn/FusedBatchNormV3/ReadVariableOp_1", "shape": [768], "dtype": "float32"}, {"name": "StatefulPartitionedCall/model/conv5_block9_2_conv/Conv2D/Cast", "shape": [3, 3, 128, 32], "dtype": "float32"}, {"name": "StatefulPartitionedCall/model/conv5_block9_concat/concat/axis", "shape": [], "dtype": "int32"}, {"name": "StatefulPartitionedCall/model/conv5_block10_0_bn/ReadVariableOp", "shape": [800], "dtype": "float32"}, {"name": "StatefulPartitionedCall/model/conv5_block10_0_bn/ReadVariableOp_1", "shape": [800], "dtype": "float32"}, {"name": "StatefulPartitionedCall/model/conv5_block10_0_bn/FusedBatchNormV3/ReadVariableOp", "shape": [800], "dtype": "float32"}, {"name": "StatefulPartitionedCall/model/conv5_block10_0_bn/FusedBatchNormV3/ReadVariableOp_1", "shape": [800], "dtype": "float32"}, {"name": "StatefulPartitionedCall/model/conv5_block10_2_conv/Conv2D/Cast", "shape": [3, 3, 128, 32], "dtype": "float32"}, {"name": "StatefulPartitionedCall/model/conv5_block10_concat/concat/axis", "shape": [], "dtype": "int32"}, {"name": "StatefulPartitionedCall/model/conv5_block11_0_bn/ReadVariableOp", "shape": [832], "dtype": "float32"}, {"name": "StatefulPartitionedCall/model/conv5_block11_0_bn/ReadVariableOp_1", "shape": [832], "dtype": "float32"}, {"name": "StatefulPartitionedCall/model/conv5_block11_0_bn/FusedBatchNormV3/ReadVariableOp", "shape": [832], "dtype": "float32"}, {"name": "StatefulPartitionedCall/model/conv5_block11_0_bn/FusedBatchNormV3/ReadVariableOp_1", "shape": [832], "dtype": "float32"}, {"name": "StatefulPartitionedCall/model/conv5_block11_2_conv/Conv2D/Cast", "shape": [3, 3, 128, 32], "dtype": "float32"}, {"name": "StatefulPartitionedCall/model/conv5_block11_concat/concat/axis", "shape": [], "dtype": "int32"}, {"name": "StatefulPartitionedCall/model/conv5_block12_0_bn/ReadVariableOp", "shape": [864], "dtype": "float32"}, {"name": "StatefulPartitionedCall/model/conv5_block12_0_bn/ReadVariableOp_1", "shape": [864], "dtype": "float32"}, {"name": "StatefulPartitionedCall/model/conv5_block12_0_bn/FusedBatchNormV3/ReadVariableOp", "shape": [864], "dtype": "float32"}, {"name": "StatefulPartitionedCall/model/conv5_block12_0_bn/FusedBatchNormV3/ReadVariableOp_1", "shape": [864], "dtype": "float32"}, {"name": "StatefulPartitionedCall/model/conv5_block12_2_conv/Conv2D/Cast", "shape": [3, 3, 128, 32], "dtype": "float32"}, {"name": "StatefulPartitionedCall/model/conv5_block12_concat/concat/axis", "shape": [], "dtype": "int32"}, {"name": "StatefulPartitionedCall/model/conv5_block13_0_bn/ReadVariableOp", "shape": [896], "dtype": "float32"}, {"name": "StatefulPartitionedCall/model/conv5_block13_0_bn/ReadVariableOp_1", "shape": [896], "dtype": "float32"}, {"name": "StatefulPartitionedCall/model/conv5_block13_0_bn/FusedBatchNormV3/ReadVariableOp", "shape": [896], "dtype": "float32"}, {"name": "StatefulPartitionedCall/model/conv5_block13_0_bn/FusedBatchNormV3/ReadVariableOp_1", "shape": [896], "dtype": "float32"}, {"name": "StatefulPartitionedCall/model/conv5_block13_2_conv/Conv2D/Cast", "shape": [3, 3, 128, 32], "dtype": "float32"}, {"name": "StatefulPartitionedCall/model/conv5_block13_concat/concat/axis", "shape": [], "dtype": "int32"}, {"name": "StatefulPartitionedCall/model/conv5_block14_0_bn/ReadVariableOp", "shape": [928], "dtype": "float32"}, {"name": "StatefulPartitionedCall/model/conv5_block14_0_bn/ReadVariableOp_1", "shape": [928], "dtype": "float32"}, {"name": "StatefulPartitionedCall/model/conv5_block14_0_bn/FusedBatchNormV3/ReadVariableOp", "shape": [928], "dtype": "float32"}, {"name": "StatefulPartitionedCall/model/conv5_block14_0_bn/FusedBatchNormV3/ReadVariableOp_1", "shape": [928], "dtype": "float32"}, {"name": "StatefulPartitionedCall/model/conv5_block14_2_conv/Conv2D/Cast", "shape": [3, 3, 128, 32], "dtype": "float32"}, {"name": "StatefulPartitionedCall/model/conv5_block14_concat/concat/axis", "shape": [], "dtype": "int32"}, {"name": "StatefulPartitionedCall/model/conv5_block15_0_bn/ReadVariableOp", "shape": [960], "dtype": "float32"}, {"name": "StatefulPartitionedCall/model/conv5_block15_0_bn/ReadVariableOp_1", "shape": [960], "dtype": "float32"}, {"name": "StatefulPartitionedCall/model/conv5_block15_0_bn/FusedBatchNormV3/ReadVariableOp", "shape": [960], "dtype": "float32"}, {"name": "StatefulPartitionedCall/model/conv5_block15_0_bn/FusedBatchNormV3/ReadVariableOp_1", "shape": [960], "dtype": "float32"}, {"name": "StatefulPartitionedCall/model/conv5_block15_2_conv/Conv2D/Cast", "shape": [3, 3, 128, 32], "dtype": "float32"}, {"name": "StatefulPartitionedCall/model/conv5_block15_concat/concat/axis", "shape": [], "dtype": "int32"}, {"name": "StatefulPartitionedCall/model/conv5_block16_0_bn/ReadVariableOp", "shape": [992], "dtype": "float32"}, {"name": "StatefulPartitionedCall/model/conv5_block16_0_bn/ReadVariableOp_1", "shape": [992], "dtype": "float32"}, {"name": "StatefulPartitionedCall/model/conv5_block16_0_bn/FusedBatchNormV3/ReadVariableOp", "shape": [992], "dtype": "float32"}, {"name": "StatefulPartitionedCall/model/conv5_block16_0_bn/FusedBatchNormV3/ReadVariableOp_1", "shape": [992], "dtype": "float32"}, {"name": "StatefulPartitionedCall/model/conv5_block16_2_conv/Conv2D/Cast", "shape": [3, 3, 128, 32], "dtype": "float32"}, {"name": "StatefulPartitionedCall/model/conv5_block16_concat/concat/axis", "shape": [], "dtype": "int32"}, {"name": "StatefulPartitionedCall/model/bn/ReadVariableOp", "shape": [1024], "dtype": "float32"}, {"name": "StatefulPartitionedCall/model/bn/ReadVariableOp_1", "shape": [1024], "dtype": "float32"}, {"name": "StatefulPartitionedCall/model/bn/FusedBatchNormV3/ReadVariableOp", "shape": [1024], "dtype": "float32"}, {"name": "StatefulPartitionedCall/model/bn/FusedBatchNormV3/ReadVariableOp_1", "shape": [1024], "dtype": "float32"}, {"name": "StatefulPartitionedCall/model/global_average_pooling2d/Mean/reduction_indices", "shape": [2], "dtype": "int32"}, {"name": "StatefulPartitionedCall/model/dense/MatMul/ReadVariableOp", "shape": [1024, 309], "dtype": "float32"}, {"name": "StatefulPartitionedCall/model/dense/BiasAdd/ReadVariableOp", "shape": [309], "dtype": "float32"}, {"name": "StatefulPartitionedCall/model/conv1/conv/Conv2D_weights", "shape": [7, 7, 1, 64], "dtype": "float32"}, {"name": "StatefulPartitionedCall/model/conv1/conv/Conv2D_bn_offset", "shape": [64], "dtype": "float32"}, {"name": "StatefulPartitionedCall/model/conv2_block1_1_conv/Conv2D_weights", "shape": [1, 1, 64, 128], "dtype": "float32"}, {"name": "StatefulPartitionedCall/model/conv2_block1_1_conv/Conv2D_bn_offset", "shape": [128], "dtype": "float32"}, {"name": "StatefulPartitionedCall/model/conv2_block2_1_conv/Conv2D_weights", "shape": [1, 1, 96, 128], "dtype": "float32"}, {"name": "StatefulPartitionedCall/model/conv2_block2_1_conv/Conv2D_bn_offset", "shape": [128], "dtype": "float32"}, {"name": "StatefulPartitionedCall/model/conv2_block3_1_conv/Conv2D_weights", "shape": [1, 1, 128, 128], "dtype": "float32"}, {"name": "StatefulPartitionedCall/model/conv2_block3_1_conv/Conv2D_bn_offset", "shape": [128], "dtype": "float32"}, {"name": "StatefulPartitionedCall/model/conv2_block4_1_conv/Conv2D_weights", "shape": [1, 1, 160, 128], "dtype": "float32"}, {"name": "StatefulPartitionedCall/model/conv2_block4_1_conv/Conv2D_bn_offset", "shape": [128], "dtype": "float32"}, {"name": "StatefulPartitionedCall/model/conv2_block5_1_conv/Conv2D_weights", "shape": [1, 1, 192, 128], "dtype": "float32"}, {"name": "StatefulPartitionedCall/model/conv2_block5_1_conv/Conv2D_bn_offset", "shape": [128], "dtype": "float32"}, {"name": "StatefulPartitionedCall/model/conv2_block6_1_conv/Conv2D_weights", "shape": [1, 1, 224, 128], "dtype": "float32"}, {"name": "StatefulPartitionedCall/model/conv2_block6_1_conv/Conv2D_bn_offset", "shape": [128], "dtype": "float32"}, {"name": "StatefulPartitionedCall/model/conv3_block1_1_conv/Conv2D_weights", "shape": [1, 1, 128, 128], "dtype": "float32"}, {"name": "StatefulPartitionedCall/model/conv3_block1_1_conv/Conv2D_bn_offset", "shape": [128], "dtype": "float32"}, {"name": "StatefulPartitionedCall/model/conv3_block2_1_conv/Conv2D_weights", "shape": [1, 1, 160, 128], "dtype": "float32"}, {"name": "StatefulPartitionedCall/model/conv3_block2_1_conv/Conv2D_bn_offset", "shape": [128], "dtype": "float32"}, {"name": "StatefulPartitionedCall/model/conv3_block3_1_conv/Conv2D_weights", "shape": [1, 1, 192, 128], "dtype": "float32"}, {"name": "StatefulPartitionedCall/model/conv3_block3_1_conv/Conv2D_bn_offset", "shape": [128], "dtype": "float32"}, {"name": "StatefulPartitionedCall/model/conv3_block4_1_conv/Conv2D_weights", "shape": [1, 1, 224, 128], "dtype": "float32"}, {"name": "StatefulPartitionedCall/model/conv3_block4_1_conv/Conv2D_bn_offset", "shape": [128], "dtype": "float32"}, {"name": "StatefulPartitionedCall/model/conv3_block5_1_conv/Conv2D_weights", "shape": [1, 1, 256, 128], "dtype": "float32"}, {"name": "StatefulPartitionedCall/model/conv3_block5_1_conv/Conv2D_bn_offset", "shape": [128], "dtype": "float32"}, {"name": "StatefulPartitionedCall/model/conv3_block6_1_conv/Conv2D_weights", "shape": [1, 1, 288, 128], "dtype": "float32"}, {"name": "StatefulPartitionedCall/model/conv3_block6_1_conv/Conv2D_bn_offset", "shape": [128], "dtype": "float32"}, {"name": "StatefulPartitionedCall/model/conv3_block7_1_conv/Conv2D_weights", "shape": [1, 1, 320, 128], "dtype": "float32"}, {"name": "StatefulPartitionedCall/model/conv3_block7_1_conv/Conv2D_bn_offset", "shape": [128], "dtype": "float32"}, {"name": "StatefulPartitionedCall/model/conv3_block8_1_conv/Conv2D_weights", "shape": [1, 1, 352, 128], "dtype": "float32"}, {"name": "StatefulPartitionedCall/model/conv3_block8_1_conv/Conv2D_bn_offset", "shape": [128], "dtype": "float32"}, {"name": "StatefulPartitionedCall/model/conv3_block9_1_conv/Conv2D_weights", "shape": [1, 1, 384, 128], "dtype": "float32"}, {"name": "StatefulPartitionedCall/model/conv3_block9_1_conv/Conv2D_bn_offset", "shape": [128], "dtype": "float32"}, {"name": "StatefulPartitionedCall/model/conv3_block10_1_conv/Conv2D_weights", "shape": [1, 1, 416, 128], "dtype": "float32"}, {"name": "StatefulPartitionedCall/model/conv3_block10_1_conv/Conv2D_bn_offset", "shape": [128], "dtype": "float32"}, {"name": "StatefulPartitionedCall/model/conv3_block11_1_conv/Conv2D_weights", "shape": [1, 1, 448, 128], "dtype": "float32"}, {"name": "StatefulPartitionedCall/model/conv3_block11_1_conv/Conv2D_bn_offset", "shape": [128], "dtype": "float32"}, {"name": "StatefulPartitionedCall/model/conv3_block12_1_conv/Conv2D_weights", "shape": [1, 1, 480, 128], "dtype": "float32"}, {"name": "StatefulPartitionedCall/model/conv3_block12_1_conv/Conv2D_bn_offset", "shape": [128], "dtype": "float32"}, {"name": "StatefulPartitionedCall/model/conv4_block1_1_conv/Conv2D_weights", "shape": [1, 1, 256, 128], "dtype": "float32"}, {"name": "StatefulPartitionedCall/model/conv4_block1_1_conv/Conv2D_bn_offset", "shape": [128], "dtype": "float32"}, {"name": "StatefulPartitionedCall/model/conv4_block2_1_conv/Conv2D_weights", "shape": [1, 1, 288, 128], "dtype": "float32"}, {"name": "StatefulPartitionedCall/model/conv4_block2_1_conv/Conv2D_bn_offset", "shape": [128], "dtype": "float32"}, {"name": "StatefulPartitionedCall/model/conv4_block3_1_conv/Conv2D_weights", "shape": [1, 1, 320, 128], "dtype": "float32"}, {"name": "StatefulPartitionedCall/model/conv4_block3_1_conv/Conv2D_bn_offset", "shape": [128], "dtype": "float32"}, {"name": "StatefulPartitionedCall/model/conv4_block4_1_conv/Conv2D_weights", "shape": [1, 1, 352, 128], "dtype": "float32"}, {"name": "StatefulPartitionedCall/model/conv4_block4_1_conv/Conv2D_bn_offset", "shape": [128], "dtype": "float32"}, {"name": "StatefulPartitionedCall/model/conv4_block5_1_conv/Conv2D_weights", "shape": [1, 1, 384, 128], "dtype": "float32"}, {"name": "StatefulPartitionedCall/model/conv4_block5_1_conv/Conv2D_bn_offset", "shape": [128], "dtype": "float32"}, {"name": "StatefulPartitionedCall/model/conv4_block6_1_conv/Conv2D_weights", "shape": [1, 1, 416, 128], "dtype": "float32"}, {"name": "StatefulPartitionedCall/model/conv4_block6_1_conv/Conv2D_bn_offset", "shape": [128], "dtype": "float32"}, {"name": "StatefulPartitionedCall/model/conv4_block7_1_conv/Conv2D_weights", "shape": [1, 1, 448, 128], "dtype": "float32"}, {"name": "StatefulPartitionedCall/model/conv4_block7_1_conv/Conv2D_bn_offset", "shape": [128], "dtype": "float32"}, {"name": "StatefulPartitionedCall/model/conv4_block8_1_conv/Conv2D_weights", "shape": [1, 1, 480, 128], "dtype": "float32"}, {"name": "StatefulPartitionedCall/model/conv4_block8_1_conv/Conv2D_bn_offset", "shape": [128], "dtype": "float32"}, {"name": "StatefulPartitionedCall/model/conv4_block9_1_conv/Conv2D_weights", "shape": [1, 1, 512, 128], "dtype": "float32"}, {"name": "StatefulPartitionedCall/model/conv4_block9_1_conv/Conv2D_bn_offset", "shape": [128], "dtype": "float32"}, {"name": "StatefulPartitionedCall/model/conv4_block10_1_conv/Conv2D_weights", "shape": [1, 1, 544, 128], "dtype": "float32"}, {"name": "StatefulPartitionedCall/model/conv4_block10_1_conv/Conv2D_bn_offset", "shape": [128], "dtype": "float32"}, {"name": "StatefulPartitionedCall/model/conv4_block11_1_conv/Conv2D_weights", "shape": [1, 1, 576, 128], "dtype": "float32"}, {"name": "StatefulPartitionedCall/model/conv4_block11_1_conv/Conv2D_bn_offset", "shape": [128], "dtype": "float32"}, {"name": "StatefulPartitionedCall/model/conv4_block12_1_conv/Conv2D_weights", "shape": [1, 1, 608, 128], "dtype": "float32"}, {"name": "StatefulPartitionedCall/model/conv4_block12_1_conv/Conv2D_bn_offset", "shape": [128], "dtype": "float32"}, {"name": "StatefulPartitionedCall/model/conv4_block13_1_conv/Conv2D_weights", "shape": [1, 1, 640, 128], "dtype": "float32"}, {"name": "StatefulPartitionedCall/model/conv4_block13_1_conv/Conv2D_bn_offset", "shape": [128], "dtype": "float32"}, {"name": "StatefulPartitionedCall/model/conv4_block14_1_conv/Conv2D_weights", "shape": [1, 1, 672, 128], "dtype": "float32"}, {"name": "StatefulPartitionedCall/model/conv4_block14_1_conv/Conv2D_bn_offset", "shape": [128], "dtype": "float32"}, {"name": "StatefulPartitionedCall/model/conv4_block15_1_conv/Conv2D_weights", "shape": [1, 1, 704, 128], "dtype": "float32"}, {"name": "StatefulPartitionedCall/model/conv4_block15_1_conv/Conv2D_bn_offset", "shape": [128], "dtype": "float32"}, {"name": "StatefulPartitionedCall/model/conv4_block16_1_conv/Conv2D_weights", "shape": [1, 1, 736, 128], "dtype": "float32"}, {"name": "StatefulPartitionedCall/model/conv4_block16_1_conv/Conv2D_bn_offset", "shape": [128], "dtype": "float32"}, {"name": "StatefulPartitionedCall/model/conv4_block17_1_conv/Conv2D_weights", "shape": [1, 1, 768, 128], "dtype": "float32"}, {"name": "StatefulPartitionedCall/model/conv4_block17_1_conv/Conv2D_bn_offset", "shape": [128], "dtype": "float32"}, {"name": "StatefulPartitionedCall/model/conv4_block18_1_conv/Conv2D_weights", "shape": [1, 1, 800, 128], "dtype": "float32"}, {"name": "StatefulPartitionedCall/model/conv4_block18_1_conv/Conv2D_bn_offset", "shape": [128], "dtype": "float32"}, {"name": "StatefulPartitionedCall/model/conv4_block19_1_conv/Conv2D_weights", "shape": [1, 1, 832, 128], "dtype": "float32"}, {"name": "StatefulPartitionedCall/model/conv4_block19_1_conv/Conv2D_bn_offset", "shape": [128], "dtype": "float32"}, {"name": "StatefulPartitionedCall/model/conv4_block20_1_conv/Conv2D_weights", "shape": [1, 1, 864, 128], "dtype": "float32"}, {"name": "StatefulPartitionedCall/model/conv4_block20_1_conv/Conv2D_bn_offset", "shape": [128], "dtype": "float32"}, {"name": "StatefulPartitionedCall/model/conv4_block21_1_conv/Conv2D_weights", "shape": [1, 1, 896, 128], "dtype": "float32"}, {"name": "StatefulPartitionedCall/model/conv4_block21_1_conv/Conv2D_bn_offset", "shape": [128], "dtype": "float32"}, {"name": "StatefulPartitionedCall/model/conv4_block22_1_conv/Conv2D_weights", "shape": [1, 1, 928, 128], "dtype": "float32"}, {"name": "StatefulPartitionedCall/model/conv4_block22_1_conv/Conv2D_bn_offset", "shape": [128], "dtype": "float32"}, {"name": "StatefulPartitionedCall/model/conv4_block23_1_conv/Conv2D_weights", "shape": [1, 1, 960, 128], "dtype": "float32"}, {"name": "StatefulPartitionedCall/model/conv4_block23_1_conv/Conv2D_bn_offset", "shape": [128], "dtype": "float32"}, {"name": "StatefulPartitionedCall/model/conv4_block24_1_conv/Conv2D_weights", "shape": [1, 1, 992, 128], "dtype": "float32"}, {"name": "StatefulPartitionedCall/model/conv4_block24_1_conv/Conv2D_bn_offset", "shape": [128], "dtype": "float32"}, {"name": "StatefulPartitionedCall/model/conv5_block1_1_conv/Conv2D_weights", "shape": [1, 1, 512, 128], "dtype": "float32"}, {"name": "StatefulPartitionedCall/model/conv5_block1_1_conv/Conv2D_bn_offset", "shape": [128], "dtype": "float32"}, {"name": "StatefulPartitionedCall/model/conv5_block2_1_conv/Conv2D_weights", "shape": [1, 1, 544, 128], "dtype": "float32"}, {"name": "StatefulPartitionedCall/model/conv5_block2_1_conv/Conv2D_bn_offset", "shape": [128], "dtype": "float32"}, {"name": "StatefulPartitionedCall/model/conv5_block3_1_conv/Conv2D_weights", "shape": [1, 1, 576, 128], "dtype": "float32"}, {"name": "StatefulPartitionedCall/model/conv5_block3_1_conv/Conv2D_bn_offset", "shape": [128], "dtype": "float32"}, {"name": "StatefulPartitionedCall/model/conv5_block4_1_conv/Conv2D_weights", "shape": [1, 1, 608, 128], "dtype": "float32"}, {"name": "StatefulPartitionedCall/model/conv5_block4_1_conv/Conv2D_bn_offset", "shape": [128], "dtype": "float32"}, {"name": "StatefulPartitionedCall/model/conv5_block5_1_conv/Conv2D_weights", "shape": [1, 1, 640, 128], "dtype": "float32"}, {"name": "StatefulPartitionedCall/model/conv5_block5_1_conv/Conv2D_bn_offset", "shape": [128], "dtype": "float32"}, {"name": "StatefulPartitionedCall/model/conv5_block6_1_conv/Conv2D_weights", "shape": [1, 1, 672, 128], "dtype": "float32"}, {"name": "StatefulPartitionedCall/model/conv5_block6_1_conv/Conv2D_bn_offset", "shape": [128], "dtype": "float32"}, {"name": "StatefulPartitionedCall/model/conv5_block7_1_conv/Conv2D_weights", "shape": [1, 1, 704, 128], "dtype": "float32"}, {"name": "StatefulPartitionedCall/model/conv5_block7_1_conv/Conv2D_bn_offset", "shape": [128], "dtype": "float32"}, {"name": "StatefulPartitionedCall/model/conv5_block8_1_conv/Conv2D_weights", "shape": [1, 1, 736, 128], "dtype": "float32"}, {"name": "StatefulPartitionedCall/model/conv5_block8_1_conv/Conv2D_bn_offset", "shape": [128], "dtype": "float32"}, {"name": "StatefulPartitionedCall/model/conv5_block9_1_conv/Conv2D_weights", "shape": [1, 1, 768, 128], "dtype": "float32"}, {"name": "StatefulPartitionedCall/model/conv5_block9_1_conv/Conv2D_bn_offset", "shape": [128], "dtype": "float32"}, {"name": "StatefulPartitionedCall/model/conv5_block10_1_conv/Conv2D_weights", "shape": [1, 1, 800, 128], "dtype": "float32"}, {"name": "StatefulPartitionedCall/model/conv5_block10_1_conv/Conv2D_bn_offset", "shape": [128], "dtype": "float32"}, {"name": "StatefulPartitionedCall/model/conv5_block11_1_conv/Conv2D_weights", "shape": [1, 1, 832, 128], "dtype": "float32"}, {"name": "StatefulPartitionedCall/model/conv5_block11_1_conv/Conv2D_bn_offset", "shape": [128], "dtype": "float32"}, {"name": "StatefulPartitionedCall/model/conv5_block12_1_conv/Conv2D_weights", "shape": [1, 1, 864, 128], "dtype": "float32"}, {"name": "StatefulPartitionedCall/model/conv5_block12_1_conv/Conv2D_bn_offset", "shape": [128], "dtype": "float32"}, {"name": "StatefulPartitionedCall/model/conv5_block13_1_conv/Conv2D_weights", "shape": [1, 1, 896, 128], "dtype": "float32"}, {"name": "StatefulPartitionedCall/model/conv5_block13_1_conv/Conv2D_bn_offset", "shape": [128], "dtype": "float32"}, {"name": "StatefulPartitionedCall/model/conv5_block14_1_conv/Conv2D_weights", "shape": [1, 1, 928, 128], "dtype": "float32"}, {"name": "StatefulPartitionedCall/model/conv5_block14_1_conv/Conv2D_bn_offset", "shape": [128], "dtype": "float32"}, {"name": "StatefulPartitionedCall/model/conv5_block15_1_conv/Conv2D_weights", "shape": [1, 1, 960, 128], "dtype": "float32"}, {"name": "StatefulPartitionedCall/model/conv5_block15_1_conv/Conv2D_bn_offset", "shape": [128], "dtype": "float32"}, {"name": "StatefulPartitionedCall/model/conv5_block16_1_conv/Conv2D_weights", "shape": [1, 1, 992, 128], "dtype": "float32"}, {"name": "StatefulPartitionedCall/model/conv5_block16_1_conv/Conv2D_bn_offset", "shape": [128], "dtype": "float32"}]}]}